ppo_model.pth (torch, 150510 bytes, 30 tensors)

0.weight f4 [64, 22]
-0.1700068 -0.010358505 0.11964372 0.1255989 0.06421227 -0.15902802 0.11368238 0.05787579
0.14887829 -0.18141533 0.11035698 -0.18131444 0.0580692 -0.16228344 0.16208158 0.14057155
0.0907391 0.096587844 -0.060681246 0.13232659 0.114826456 0.061202813 0.1639329 -0.11042948
-0.1722912 0.21761739 -0.075646885 -0.024786346 0.084578685 -0.022085745 0.06582559 -0.059722826
-0.21949233 -0.16832553 0.02996447 -0.13600917 -0.16535853 0.007928823 0.20670258 0.08068606
-0.19107242 -0.016697718 -0.035933472 0.15390363 0.06804594 -0.17776176 0.088349186 -0.14100488
0.02040865 -0.0524869 0.09109502 0.16883984 -0.024511319 -0.15373299 0.12953511 -0.17889245
0.20401792 0.03256663 -0.0046309098 -0.18379736 -0.11596435 -0.026155911 0.03564202 0.015243897
-0.20814843 -0.19295466 -0.0017312675 0.17744388 0.03206089 0.0428834 0.1026621 -0.035420302
0.21224663 0.16087316 -0.17134625 0.15671708 0.07229618 -0.044225805 0.1703052 0.037857316
-0.17906272 0.077240504 -0.048050124 0.15621203 0.19740684 -0.16577269 0.052296348 0.1098224
0.030625027 0.13004805 0.10611052 -0.025558546 -0.027805751 -0.04088913 -0.05815978 0.21922201
-0.104014196 0.1499288 -0.1665048 0.1329209 0.11932613 -0.1669629 0.19386864 0.07849073
-0.15041804 0.17616752 -0.115360126 0.09789741 -0.051631957 -0.1595086 0.20232174 0.018469162
-0.048766196 0.13460669 -0.0998944 0.20414767 -0.0415222 -0.18414535 0.13260333 0.1990106
-0.061641492 -0.067724206 0.0048958063 0.16153248 -0.1832838 0.21254373 -0.007413735 0.1927523
-0.1773252 0.18273388 -0.0047751167 0.04304405 -0.21163835 0.06120138 0.009054683 0.21861179
-0.123366944 -0.118845105 0.11319082 -0.12132352 -0.17193851 0.17878607 -0.06680119 0.17207044
0.09665135 0.09288648 -0.19256572 0.111790605 -0.18513212 0.061788645 -0.16076957 0.081949085
0.17287308 -0.01632807 0.04202666 -0.11483891 -0.028448712 0.029984765 -0.081702136 0.04957561
0.023559185 0.064983666 -0.21506585 0.09022545 -0.109999366 0.08153408 0.21906844 0.071128264
-0.1517206 0.1450262 -0.18016551 0.19075936 0.13834123 -0.19704674 0.082892515 -0.14025605
-0.20507765 -0.20694625 -0.048818167 0.17355062 0.15732646 -0.040882826 -0.10439376 0.014241035
-0.12700519 -0.037788663 0.025253778 0.07010937 -0.14953274 0.20382422 -0.026450183 0.11058491
-0.002313596 0.096367255 0.06051255 -0.14677265 -0.1509358 -0.14803433 0.012485097 0.0035998751
0.15739103 -0.13260165 0.09760761 0.033033654 -0.05458638 -0.17923066 0.09918646 -0.012063713
0.060318068 0.13474806 -0.13599443 -0.1781639 0.1297218 0.18116234 0.064826936 -0.0040002246
0.13253155 -0.1481833 0.14071327 -0.14659917 0.19432019 0.21153387 -0.053371556 0.057073303
0.0124231735 -0.15220733 0.15573923 0.026179148 -0.014831086 -0.074407965 0.040687215 -0.04400704
-0.14541411 -0.09525721 -0.16700919 -0.0832997 -0.026396045 0.052362174 -0.22783367 -0.18810514
0.011870108 0.2039058 0.015088698 0.13546035 0.21866022 -0.016168226 0.13412483 0.06275802
-0.0850849 0.09349394 -0.034413792 0.058947977 0.025724048 -0.03519741 0.12539336 -0.09593034
00000000: 4316 2ebe b8b6 29bc c407 f53d ff9c 003e
00000010: b981 833d 3ed8 22be 4fd2 e83d 2a0f 6d3d
00000020: 8d73 183e f1c4 39be d702 e23d 7eaa 39be
00000030: f8d9 6d3d a12d 26be b7f8 253e fdf1 0f3e
00000040: 6cd5 b93d d9cf c53d e68c 78bd 9f80 073e
00000050: 222a eb3d cdaf 7a3d 07de 273e da28 e2bd
00000060: 1b6d 30be 18d7 5e3e c1ec 9abd bc0c cbbc
00000070: 9737 ad3d 2aed b4bc 91cf 863d ec9f 74bd
00000080: 99c2 60be 875d 2cbe 0c78 f53c fd45 0bbe
00000090: bf53 29be e5e7 013c d7a9 533e bc3e a53d
000000a0: 7da8 43be a7c9 88bc fa2e 13bd ea98 1d3e
000000b0: ab5b 8b3d 2e07 36be 6bf0 b43d 9563 10be
000000c0: 0b30 a73c 81fc 56bd 0790 ba3d 5ae4 2c3e
000000d0: f6cb c8bc 2e6c 1dbe daa4 043e 952f 37be
000000e0: 13ea 503e 9664 053d e3be 97bb 6035 3cbe
000000f0: b87e edbd ec44 d6bc 5efd 113d 8ac1 793c
00000100: dd24 55be e895 45be b3eb e2ba d9b3 353e
00000110: 4852 033d 81a6 2f3d 8240 d23d e114 11bd
00000120: 2e57 593e efbb 243e 6475 2fbe 717a 203e
00000130: 0510 943d 1e26 35bd 7d64 2e3e 4610 1b3d
00000140: 385c 37be 4530 9e3d 35d0 44bd 0cf6 1f3e
00000150: 0525 4a3e 51c0 29be b234 563d 91ea e03d
00000160: 56e1 fa3c 512b 053e 7950 d93d 2860 d1bc
00000170: e3c8 e3bc 5c7b 27bd f338 6ebd bc7b 603e
00000180: 6505 d5bd ef86 193e 3c80 2abe 6b1c 083e
00000190: 4261 f43d 53f8 2abe 8085 463e bfbf a03d
000001a0: 3007 1abe 4265 343e ee41 ecbd 707e c83d
000001b0: 087c 53bd 3956 23be 6e2d 4f3e a44c 973c
000001c0: 10bf 47bd 56d6 093e 6f95 ccbd 160c 513e
000001d0: 2f13 2abd 9990 3cbe 2bc9 073e 6fc9 4b3e
000001e0: ca7b 7cbd fdb2 8abd 006d a03b c568 253e
000001f0: c0ae 3bbe 10a5 593e ebee f2bb dc60 453e
00000200: bd94 35be 971e 3b3e 9578 9cbb f54e 303d
00000210: b9b7 58be 4cae 7a3d 185a 143c c5db 5f3e
00000220: cfa7 fcbd 1065 f3bd 97d0 e73d 7778 f8bd
00000230: a610 30be b213 373e 10cf 88bd 3c33 303e
00000240: 25f1 c53d 443b be3d f32f 45be 79f2 e43d
00000250: 4693 3dbe 1716 7d3d c7a0 24be ecd4 a73d
00000260: a405 313e 72c2 85bc 2624 2c3d aa30 ebbd
00000270: 460d e9bc 9ca2 f53c 7353 a7bd cb0f 4b3d
00000280: 31ff c03c 2816 853d 393a 5cbe 1fc8 b83d
00000290: 5947 e1bd 57fb a63d 7a53 603e b2ab 913d
000002a0: a55c 1bbe c081 143e 4f7d 38be 6c56 433e
000002b0: 53a9 0d3e 9fc6 49be 8dc3 a93d 489f 0fbe
000002c0: e0ff 51be b8e9 53be 8ff5 47bd 41b7 313e
000002d0: 301a 213e c074 27bd 65cc d5bd 3b53 693c
000002e0: a60d 02be 49c8 1abd 03e1 ce3c 8095 8f3d
000002f0: 1c1f 19be 4cb7 503e 0eae d8bc 577a e23d
00000300: b39f 17bb 325c c53d 02dc 773d 924b 16be
00000310: ea8e 1abe 5096 17be 4b8e 4c3c e2eb 6b3b
00000320: 1d2b 213e bac8 07be 80e6 c73d 4c4e 073d
00000330: f895 5fbd 3e88 37be 4522 cb3d e1a6 45bc
00000340: 1410 773d 65fb 093e 2042 0bbe 9970 36be
00000350: cbd5 043e 9f82 393e fcc3 843d 5114 83bb
00000360: 5ab6 073e 5dbd 17be 2417 103e 181e 16be
00000370: dffb 463e 569c 583e 229c 5abd b2c5 693d
00000380: 918a 4b3c 3ddc 1bbe 1b7a 1f3e a775 d63c
00000390: 15fe 72bc 3463 98bd a3a7 263d ba40 34bd
000003a0: 70e7 14be 3616 c3bd 7504 2bbe 0899 aabd
000003b0: 853c d8bc b879 563d 3b4d 69be a29e 40be
000003c0: d77a 423c afcc 503e 9636 773c 1eb6 0a3e
000003d0: 77e8 5f3e 3a73 84bc 0558 093e 4787 803d
000003e0: fe40 aebd c079 bf3d 7af5 0cbd 6f73 713d
000003f0: 3dbb d23c 292b 10bd 1e67 003e 2077 c4bd

0.bias f4 [64]
-0.068459384 0.018989224 0.08311868 -0.20219797 -0.16002 -0.1376337 0.20380248 0.07546854
-0.10367446 -0.13211831 -0.10797464 0.17674726 -0.21568426 -0.14215913 0.063587286 0.18164772
0.02587999 0.13976575 0.012503246 0.19973253 0.025393665 0.012805287 -0.19377556 -0.19137402
-0.061616283 0.059923187 0.09004391 -0.0145002315 -0.10735668 0.10211421 -0.09723521 0.07926593
-0.1054271 0.16077141 0.07348757 -0.06827716 0.056106895 0.10892139 0.13006458 0.03893251
-0.11544741 0.20155725 -0.14436214 -0.17721045 -0.0592973 -0.13091488 -0.15226707 0.17059797
-0.13723174 0.15391627 -0.13284503 -0.0466545 0.067853965 -0.06960432 0.08389033 -0.146646
-0.15018298 -0.09274129 -0.1589218 -0.07353 0.10511278 0.1345792 0.018780168 -0.021197828
00000000: 6f34 8cbd 4a8f 9b3c 203a aa3d fc0c 4fbe
00000010: 48dc 23be d9ef 0cbe 99b1 503e 408f 9a3d
00000020: 4653 d4bd 064a 07be cf21 ddbd 3cfd 343e
00000030: 56dc 5cbe 2a92 11be 0d3a 823d dc01 3a3e
00000040: 4602 d43c c11e 0f3e 6ada 4c3c af86 4c3e
00000050: 6006 d03c 44cd 513c 1a6d 46be 8df7 43be
00000060: 5b61 7cbd 0472 753d f168 b83d 6192 6dbc
00000070: d2dd dbbd 4121 d13d 4123 c7bd 2d56 a23d
00000080: 2aea d7bd 43a1 243e a780 963d e5d4 8bbd
00000090: 58d0 653d 2d12 df3d a62f 053e b277 1f3d
000000a0: b16f ecbd 0665 4e3e abd3 13be a876 35be
000000b0: bae1 72bd 8d0e 06be e6eb 1bbe 3cb1 2e3e
000000c0: 7a86 0cbe 3a9c 1d3e 8708 08be ca18 3fbd
000000d0: 05f7 8a3d b68c 8ebd b1ce ab3d 5e2a 16be
000000e0: 91c9 19be 25ef bdbd 65bc 22be e696 96bd
000000f0: 5f45 d73d 21cf 093e ded8 993c 11a7 adbc

2.weight f4 [64, 64]
-0.08174511 -0.037664074 0.0011266215 -0.0755631 -0.06639159 0.004877623 -0.0007170422 -0.06048603
0.0067982064 0.039140105 0.03779099 -0.044283032 0.11891695 -0.041989315 0.019588843 0.040935427
-0.100005455 0.0065990975 -0.03547166 0.09394225 -0.069351174 0.015729154 -0.013455076 0.08946104
0.09370847 -0.1311088 -0.10660605 0.08343491 0.027777078 0.052586287 -0.10252768 -0.07313351
-0.017082226 0.081593946 -0.013426084 0.11984723 -0.09630239 -0.046329305 0.04569265 -0.07193151
0.10303129 0.044171058 -0.10233249 -0.11077683 0.07579863 -0.14489701 0.10056268 0.074915536
-0.046824373 0.10251532 -0.06317039 -0.06793001 0.0457005 -0.035547167 0.12247222 0.024698164
0.08602046 -0.08660703 0.0798224 -0.03916414 -0.07747794 0.10402409 -0.11292892 -0.066336244
-0.045363493 0.10580489 -0.11254632 -0.09761806 0.018425638 0.017205153 0.10311818 -0.10658416
0.05196578 0.04597374 0.06609948 0.1086765 -0.07828121 0.0015080898 0.0690164 -0.068614535
0.07337379 0.04395895 -0.08747594 0.04175602 0.083144955 0.0039011638 0.02998209 0.019180326
0.005253163 -0.051115047 0.04162574 0.13689387 0.078672186 -0.0059176413 0.08025722 -0.012116323
0.010578024 -0.007627725 0.014271802 0.10461626 0.01843218 -0.0064658914 0.061638594 0.10435589
0.040944852 -0.008939498 -0.047270816 0.062418498 -0.11497045 -0.09527365 -0.07972087 -0.05983104
0.007262676 -0.14061351 -0.017526085 0.0023921616 0.10404186 -0.010924224 0.03906592 0.09676792
0.10853444 0.08640904 -0.11699219 -0.106608994 -0.13453612 -0.039324038 0.10975847 -0.015564668
0.014254288 0.057548992 -0.07563312 -0.10855706 -0.11127286 0.08632085 -0.045842722 0.026345044
0.046044968 -0.081096284 -0.046592217 0.06596495 -0.10734627 0.000670227 0.0394471 -0.07113369
-0.074586205 -0.09641212 -0.105434515 0.10130466 0.035725433 0.02654459 0.025377855 -0.07119809
-3.3496624e-05 0.03460104 -0.06300495 -0.017426375 0.03264003 -0.10812089 0.054263745 -0.029656548
0.07376737 0.05671303 0.1331054 0.02937733 0.018912042 0.02915853 -0.024606125 -0.045564897
0.048179775 0.058231864 -0.05341639 -0.1246175 -0.07278358 -0.08250647 0.098717384 0.054887336
-0.08001642 -0.00023975672 0.058292937 -0.092490464 0.132729 -0.12647471 -0.038816597 -0.107801005
-0.077864 0.12852558 0.052696835 -0.1066606 -0.11712104 -0.03399005 0.094471544 -0.10241059
-0.04108148 -0.06797223 -0.0040779747 0.0066450625 -0.017107913 -0.024354072 0.08368435 0.015625304
-0.08628434 -0.0044173854 0.06247637 0.07212483 -0.000283336 0.0029615765 -0.03156259 -0.13047752
-0.04813805 -0.01563174 -0.026354402 0.043143008 -0.015427664 -0.0649296 -0.099532045 -0.033362772
-0.027081223 0.039817307 -0.11174947 0.08194983 0.08265456 -0.018897055 0.077961065 0.03034797
-0.061720047 0.06729938 -0.008467709 -0.07201148 -0.034618206 -0.030385917 0.014137403 0.10971909
-0.075705945 -0.10515854 -0.102244124 0.10063599 0.06755413 0.085144155 -0.05609798 -0.023930429
0.020675618 -0.048214503 0.08215691 -0.008093308 -0.035152707 -0.049806364 -0.03900705 0.12783155
-0.02082985 0.047485933 -0.035230372 -0.015532253 -0.087172434 -0.07889653 -0.060057413 0.07741016
00000000: fb69 a7bd a545 1abd 25ab 933a d4c0 9abd
00000010: 50f8 87bd 78d4 9f3b e3f7 3bba 33c0 77bd
00000020: 7dc3 de3b 6051 203d baca 1a3d 2062 35bd
00000030: bb8a f33d fdfc 2bbd c878 a03c e8ab 273d
00000040: a9cf ccbd 3e3d d83b bb4a 11bd cb64 c03d
00000050: fd07 8ebd 6dda 803c ae72 5cbc 5a37 b73d
00000060: 3aea bf3d 6341 06be 4654 dabd ecdf aa3d
00000070: c18c e33c b864 573d 08fa d1bd 06c7 95bd
00000080: 06f0 8bbc ba1a a73d 14f9 5bbc 7772 f53d
00000090: 303a c5bd ccc3 3dbd 3728 3b3d d450 93bd
000000a0: 1202 d33d b6ec 343d b293 d1bd f6de e2bd
000000b0: 503c 9b3d e25f 14be cef3 cd3d 516d 993d
000000c0: eaca 3fbd 8df3 d13d 7a5f 81bd e41e 8bbd
000000d0: 7330 3b3d e899 11bd b7d2 fa3d ce53 ca3c
000000e0: 7f2b b03d 075f b1bd ed79 a33d 946a 20bd
000000f0: c1ac 9ebd 950a d53d 4747 e7bd 4cdb 87bd
00000100: 12cf 39bd 3cb0 d83d af7e e6bd faeb c7bd
00000110: 5df1 963c d2f1 8c3c a02f d33d cc48 dabd
00000120: 12da 543d f64e 3c3d 2a5f 873d c991 de3d
00000130: e651 a0bd 19ab c53a 7858 8d3d c785 8cbd
00000140: ff44 963d 4d0e 343d 9626 b3bd 5c08 2b3d
00000150: e747 aa3d abaa 7f3b 009d f53c 0f20 9d3c
00000160: ba22 ac3b 035e 51bd c07f 2a3d e82d 0c3e
00000170: e21e a13d c6e8 c1bb e65d a43d 8b83 46bc
00000180: 734f 2d3c fff1 f9bb 47d4 693c 0d41 d63d
00000190: 15ff 963c d4df d3bb c078 7c3d 8ab8 d53d
000001a0: cab5 273d f976 12bc 0b9f 41bd 8aaa 7f3d
000001b0: a175 ebbd d51e c3bd b244 a3bd 6511 75bd
000001c0: befb ed3b fdfc 0fbe dd92 8fbc d0c5 1c3b
000001d0: e613 d53d 84fb 32bc 9603 203d 422e c63d
000001e0: 4e47 de3d 39f7 b03d 9a99 efbd d155 dabd
000001f0: d6c3 09be 3e12 21bd 0cc9 e03d f302 7fbc
00000200: d18a 693c 7eb8 6b3d 8ae5 9abd 2a53 debd
00000210: 06e3 e3bd fcc8 b03d 94c5 3bbd 90d1 d73c
00000220: a699 3c3d cf15 a6bd 7bd7 3ebd a218 873d
00000230: 5cd8 dbbd 2cb2 2f3a 4893 213d 8aae 91bd
00000240: a7c0 98bd b873 c5bd 0dee d7bd d178 cf3d
00000250: d554 123d 0a74 d93c 38e5 cf3c 4ed0 91bd
00000260: ba7e 0cb8 d2b9 0d3d bd08 81bd c2c1 8ebc
00000270: 8db1 053d 7c6e ddbd a943 5e3d 4af2 f2bc
00000280: 5913 973d ec4b 683d c84c 083e baa8 f03c
00000290: 6ded 9a3c dfdd ee3c c992 c9bc 42a2 3abd
000002a0: 2858 453d 8984 6e3d 25cb 5abd 7637 ffbd
000002b0: 8f0f 95bd 27f9 a8bd 572c ca3d 8bd1 603d
000002c0: a6df a3bd 3467 7bb9 93c4 6e3d a46b bdbd
000002d0: 1cea 073e 9682 01be 27fe 1ebd c6c6 dcbd
000002e0: 2977 9fbd 369c 033e a3d8 573d df70 dabd
000002f0: 28dd efbd 2739 0bbd 4c7a c13d a5bc d1bd
00000300: 0e45 28bd 0635 8bbd 88a0 85bb d3be d93b
00000310: e525 8cbc 3182 c7bc b362 ab3d a300 803c
00000320: d8b5 b0bd b7bf 90bb 39e7 7f3d 2fb6 933d
00000330: b78c 94b9 0217 423b c647 01bd e69b 05be
00000340: 672c 45bd 230e 80bc 30e5 d7bc b9b6 303d
00000350: 50c4 7cbc cff9 84bd 75d7 cbbd 67a7 08bd
00000360: 71d9 ddbc 7917 233d e8dc e4bd 50d5 a73d
00000370: cb46 a93d ffcd 9abc 0daa 9f3d 4e9c f83c
00000380: 29ce 7cbd 42d4 893d 25bc 0abc c17a 93bd
00000390: d2cb 0dbd e3eb f8bc 91a0 673c 67b4 e03d
000003a0: b80b 9bbd 5c5d d7bd 5e65 d1bd 3e1a ce3d
000003b0: d259 8a3d 0f60 ae3d ffc6 65bd bf09 c4bc
000003c0: ea5f a93c 927c 45bd e241 a83d cb99 04bc
000003d0: 49fc 0fbd c201 4cbd dbc5 1fbd 46e6 023e
000003e0: 5da3 aabc 9c80 423d b94d 10bd fe7a 7ebc
000003f0: 7687 b2bd 8194 a1bd c3fe 75bd 3889 9e3d

2.bias f4 [64]
0.069515765 0.01685319 0.10160131 -0.06775742 -0.07860421 -0.05195743 0.012370315 -0.10867899
-0.035974093 -0.07138025 -0.099209055 -0.12636606 0.03289521 -0.06929323 0.10448074 0.046959493
-0.10781461 0.0068940963 -0.10709016 0.056018557 0.07355626 0.09619217 0.04674481 0.002900126
-0.11861106 0.08798606 -0.10351467 0.10855218 -0.025919225 -0.0014368101 0.06502385 -0.012983424
0.062430497 0.083176695 -0.07586521 -0.009174933 0.042181663 0.083336554 -0.03288419 0.077888355
-0.093253694 0.081781395 -0.028441384 -0.06713928 -0.043420248 0.10106751 -0.008293186 -0.008968726
0.10156138 -0.07978317 -0.106976785 -0.022213599 -0.10007662 -0.010799695 0.0053336327 -0.07901928
-0.06578627 0.08103659 0.08864052 -5.2296575e-05 -0.028116357 0.12255923 -0.08874635 -0.09661312
00000000: 485e 8e3d b30f 8a3c 5914 d03d 67c4 8abd
00000010: 3efb a0bd 50d1 54bd ddac 4a3c 1793 debd
00000020: 9259 13bd cf2f 92bd 1e2e cbbd 1b66 01be
00000030: 21bd 063d 9ce9 8dbd 00fa d53d 9958 403d
00000040: e8cd dcbd dfe7 e13b 1652 dbbd b773 653d
00000050: aaa4 963d 6700 c53d 7c77 3f3d 0a10 3e3b
00000060: 5bea f2bd 0932 b43d 80ff d3bd 9b50 de3d
00000070: 8e54 d4bc 5953 bcba 392b 853d 6db8 54bc
00000080: 1fb7 7f3d 8b58 aa3d 385f 9bbd 7552 16bc
00000090: aec6 2c3d 5bac aa3d 93b1 06bd ee83 9f3d
000000a0: cbfb bebd 017d a73d e8fd e8bc 5280 89bd
000000b0: 6ed9 31bd 7cfc ce3d 25e0 07bc 90f1 12bc
000000c0: 6aff cf3d 5c65 a3bd a516 dbbd 4bf9 b5bc
000000d0: f9f4 ccbd 34f1 30bc c1c5 ae3b dcd4 a1bd
000000e0: f4ba 86bd 83f6 a53d 2989 b53d 0559 5bb8
000000f0: 4654 e6bc 5500 fb3d a5c0 b5bd 19dd c5bd

4.weight f4 [1, 64]
-0.02465182 0.0059720883 -0.11314344 -0.016340187 0.038036045 -0.116943955 -0.10042699 -0.03518444
0.0855884 0.116901845 -0.11656734 -0.069479 0.0002073141 -0.025666071 -0.032954365 -0.0128523195
-0.001484497 0.038934886 0.05963887 0.0861226 -0.05549811 -0.054245207 -0.006334928 0.113105565
0.04446231 0.11676898 -0.077776566 0.07360435 0.08768735 0.040978473 0.069150105 -0.0538173
0.08594681 -0.09761777 -0.077990614 0.09502574 0.050189182 0.094203606 0.10962848 -0.054722812
-0.09376813 0.054797404 0.108919024 -0.06262079 -0.01637834 0.05020243 0.02346926 0.08451759
0.092322506 0.10046858 0.028779441 -0.10892049 0.09049114 0.110849686 0.014652986 0.032983746
-0.024346096 0.11103756 -0.06220013 -0.10009001 0.04645548 -0.089749895 -0.021653237 -0.031808916
00000000: 9df2 c9bc 82b1 c33b bfb7 e7bd dbdb 85bc
00000010: afcb 1b3d 5080 efbd aaac cdbd 8f1d 10bd
00000020: f948 af3d 3c6a ef3d dcba eebd 024b 8ebd
00000030: 7462 5939 a741 d2bc 28fb 06bd 8992 52bc
00000040: 7493 c2ba 307a 1f3d e347 743d 0c61 b03d
00000050: fc51 63bd 3930 5ebd 3a95 cfbb e4a3 e73d
00000060: 1c1e 363d 9324 ef3d 5249 9fbd e1bd 963d
00000070: 6d95 b33d 0bd9 273d 929e 8d3d 876f 5cbd
00000080: e204 b03d d3eb c7bd 8bb9 9fbd db9c c23d
00000090: 2c93 4d3d d2ed c03d e684 e03d 0725 60bd
000000a0: 8109 c0bd 3e73 603d f010 df3d 543f 80bd
000000b0: de2b 86bc 10a1 4d3d 9b42 c03c 8f17 ad3d
000000c0: 9513 bd3d 79c2 cd3d ddc2 eb3c b511 dfbd
000000d0: 6b53 b93d 2905 e33d 1413 703c f719 073d
000000e0: 7771 c7bc a967 e33d 90c5 7ebd fefb ccbd
000000f0: 1a48 3e3d cbce b7bd 2162 b1bc 114a 02bd

0.weight f4 [64, 22]
0.19035162 -0.17011221 0.25476843 -0.11135472 0.044192117 -0.23939626 -0.07682082 0.16606346
-0.24045269 -0.23964325 0.0054197637 0.11181086 0.14179592 -0.010119738 0.022831958 -0.10973426
0.18205637 0.11512984 0.066392004 0.12747528 0.09565785 -0.1417693 0.00876902 0.23789065
0.056271434 0.22858784 -0.2538669 0.08040774 -0.022672733 -0.2127368 0.18978629 -0.021618834
-0.04147488 -0.27291453 -0.049345132 0.20505804 -0.101729505 0.053002812 -0.14706276 -0.1249162
-0.15893485 0.020348903 0.1921372 -0.15204765 -0.063206464 -0.071791716 -0.010075486 0.13534278
0.07793787 0.12654291 -0.1014802 -0.016638566 -0.067243345 0.11724348 0.008825084 -0.082691506
-0.04380674 0.047780868 -0.14304982 -0.24117675 -0.029797431 0.19723862 0.17093204 -0.053112578
-0.040734176 -0.063205145 0.17586665 -0.19614942 0.027088227 -0.11281976 -0.16919416 0.078257
-0.031189632 0.1895531 0.17481437 0.13477242 -0.03440393 -0.050492637 0.23494922 -0.044326805
-0.017482681 0.0016605281 -0.20218404 -0.20569809 0.0052455217 -0.21216272 0.19342318 0.027492812
-0.23109883 -0.27777112 -0.06926685 -0.17997172 0.006353121 -0.24156953 0.13379472 0.24086952
0.13143049 0.04193557 -0.15609874 -0.010169995 0.05297045 -0.011910379 0.11064065 0.021114841
0.021163015 -0.069994465 -0.19096307 -0.191748 -0.060274657 -0.17220159 -0.28210422 0.15265171
-0.055279188 -0.13836512 -0.19261615 0.29777846 0.04582056 -0.033646222 -0.07848629 0.23670569
-0.3626586 -0.41386595 0.0060421 -0.12784062 -0.010766717 -0.17263374 -0.19085477 -0.037834875
-0.03710659 0.10955203 0.01755015 -0.17574781 -0.22194661 0.22857083 -0.30903175 -0.08178045
-0.30523476 0.30621102 -0.1261737 0.042230874 0.0031900296 0.16088305 -0.3583629 -0.34175295
-0.28190863 0.20913237 0.01337195 -0.050943434 0.15576704 0.055365212 -0.09722825 0.13799416
0.090375975 0.20702681 -0.3309121 0.1369461 -0.08300806 -0.1477124 -0.12759538 0.22384568
0.14338385 0.12751715 0.15762554 0.0987071 -0.25276953 -0.2699897 0.16008994 0.00837446
-0.003753414 -0.15402101 -0.16595203 -0.20622125 -0.019911394 0.17194891 0.0428768 0.30441496
0.03293015 0.038780414 -0.0016603976 -0.02916663 0.02539884 -0.08219232 0.046172537 0.12230049
0.038191788 -0.03652159 0.1554654 -0.15661825 -0.0059377514 -0.15048449 -0.05975449 -0.09481278
0.17877609 -0.22997007 0.013168553 0.008947735 -0.09650345 -0.22854623 0.009168926 0.118063636
-0.008384247 0.050595246 -0.16186419 -0.12695636 0.0007768577 0.16937144 0.25675604 -0.17875415
0.020542005 -0.07402393 0.043015078 -0.15665671 0.2936211 0.0837869 -0.17250805 -0.034900602
0.04733896 0.111155316 -0.0519494 0.1935609 -0.05511282 0.103893764 -0.07656792 -0.02252425
-0.15120982 0.064936325 -0.19752498 -0.07298713 0.11272026 0.22988096 -0.04553951 -0.21361949
-0.17256247 0.17863704 -0.007509654 -0.06717729 0.11466503 -0.015739152 -0.0829277 -0.02502558
-0.07444053 -0.05568661 -0.053833332 -0.025034621 -0.002439418 -0.20821652 0.1986078 0.307032
0.079310946 0.015100985 -0.06970285 0.12415422 -0.1662042 0.010339707 0.23884718 -0.13488847
00000000: 89eb 423e e531 2ebe 0271 823e f20d e4bd
00000010: cb02 353d 4b24 75be 3c54 9dbd 8a0c 2a3e
00000020: 3b39 76be 0a65 75be 4698 b13b 18fd e43d
00000030: f332 113e 42cd 25bc 160a bb3c 5bbc e0bd
00000040: fc6c 3a3e 32c9 eb3d 88f8 873d e188 023e
00000050: 43e8 c33d f92b 11be f0ab 0f3c 9b99 733e
00000060: e07c 663d ee12 6a3e d8fa 81be d0ac a43d
00000070: 2bbc b9bc add7 59be 5657 423e fb19 b1bc
00000080: 90e1 29bd 74bb 8bbe 1f1e 4abd bcfa 513e
00000090: 8f57 d0bd 7a19 593d 9f97 16be 11d4 ffbd
000000a0: d1bf 22be beb2 a63c 9dbf 443e 61b2 1bbe
000000b0: 6472 81bd 8907 93bd a713 25bc 4c97 0a3e
000000c0: e49d 9f3d 7794 013e dad4 cfbd 9a4d 88bc
000000d0: e1b6 89bd 5a1d f03d 1697 103c 2a5a a9bd
000000e0: b26e 33bd dfb5 433d a77b 12be 0af7 76be
000000f0: be19 f4bc ecf8 493e cf08 2f3e 938c 59bd
00000100: e1d8 26bd b371 81bd 6316 343e 65db 48be
00000110: 21e8 dd3c 0c0e e7bd 3c41 2dbe 3545 a03d
00000120: 6681 ffbc 351a 423e 8a02 333e c801 0a3e
00000130: 23eb 0cbd 5ed1 4ebd 8796 703e 0690 35bd
00000140: d737 8fbc 14a6 d93a 5509 4fbe 85a2 52be
00000150: a0e2 ab3b 2f41 59be ba10 463e 9b38 e13c
00000160: 2ca5 6cbe 0438 8ebe c7db 8dbd 824a 38be
00000170: d72d d03b 015e 77be 7c01 093e 80a6 763e
00000180: b795 063e a2c4 2b3d 59d8 1fbe 0da0 26bc
00000190: 8bf7 583d c023 43bc 9197 e23d 08f9 ac3c
000001a0: 0f5e ad3c 4259 8fbd d38b 43be 9659 44be
000001b0: 8fe2 76bd 9d55 30be f76f 90be bb50 1c3e
000001c0: 6e6c 62bd 96af 0dbe 2b3d 45be 6b76 983e
000001d0: 57ae 3b3d 9fd0 09bd 6cbd a0bd fa62 723e
000001e0: 63ae b9be 3de6 d3be cffc c53b a7e8 02be
000001f0: e266 30bc e6c6 30be 6f6f 43be bef8 1abd
00000200: 14fd 17bd d15c e03d 55c5 8f3c 3cf7 33be
00000210: f945 63be 790e 6a3e 6939 9ebe 827c a7bd
00000220: bb47 9cbe b1c7 9c3e ae33 01be 48fa 2c3d
00000230: d10f 513b 87be 243e 587b b7be 3efa aebe
00000240: 5456 90be cc26 563e 0616 5b3c 10aa 50bd
00000250: 6581 1f3e a2c6 623d 9b1f c7bd 574e 0d3e
00000260: 0a17 b93d d6fe 533e 506d a9be 993b 0c3e
00000270: 2100 aabd eb41 17be 5da8 02be cd37 653e
00000280: 37d3 123e db93 023e 9768 213e f326 ca3d
00000290: 026b 81be 173c 8abe 9eee 233e 0835 093c
000002a0: d6fb 75bb afb7 1dbe 54ef 29be aa2b 53be
000002b0: 381d a3bc 6013 303e 959f 2f3d 47dc 9b3e
000002c0: c4e1 063d 36d8 1e3d b3a1 d9ba dbee eebc
000002d0: 3a11 d03c 7254 a8bd 6a1f 3d3d ae78 fa3d
000002e0: fe6e 1c3d aa97 15bd 5232 1f3e 8960 20be
000002f0: 7891 c2bb 9b18 1abe 20c1 74bd 342d c2bd
00000300: 1411 373e 467d 6bbe eac0 573c 8599 123c
00000310: 9aa3 c5bd 0608 6abe 4339 163c 59cb f13d
00000320: 155e 09bc f63c 4f3d babf 25be d900 02be
00000330: 0aa6 4b3a b56f 2d3e 8775 833e 540b 37be
00000340: b547 a83c dc99 97bd 9430 303d 9e6a 20be
00000350: 8155 963e 7798 ab3d f3a5 30be eff3 0ebd
00000360: 7fe6 413d 66a5 e33d e5c8 54bd d434 463e
00000370: fbbd 61bd 41c6 d43d a4cf 9cbd c784 b8bc
00000380: bfd6 1abe 56fd 843d fd43 4abe 477a 95bd
00000390: e1d9 e63d ea65 6b3e a387 3abd 11bf 5abe
000003a0: 37b4 30be a1ec 363e 8b13 f6bb 3f94 89bd
000003b0: 80d5 ea3d 65ef 80bc ffd5 a9bd 7202 cdbc
000003c0: 4774 98bd a517 64bd 5780 5cbd 6815 cdbc
000003d0: a5de 1fbb b636 55be d85f 4b3e 4c33 9d3e
000003e0: c76d a23d 1f6a 773c 5ec0 8ebd 9144 fe3d
000003f0: 6f31 2abe e067 293c 5b94 743e 3420 0abe

0.bias f4 [64]
0.0965494 0.2645641 -0.052719083 -0.1976131 0.014560544 -0.051906373 0.06839798 -0.04823579
0.013118353 -0.12052324 0.2556966 -0.08943212 -0.19087984 -0.13279197 0.23528169 -0.01756846
0.21942453 0.17810087 0.22918077 -0.049191456 -0.06741636 -0.23166144 -0.22439003 -0.0976001
-0.12025894 0.13482074 -0.06469896 -0.29210648 -0.082434066 -0.15799378 0.1311219 -0.078214996
0.09759787 -0.01932315 -0.057964884 0.05654451 -0.060870882 -0.1123882 0.0753661 -0.26527688
0.17421041 0.17119472 -0.1914565 -0.3057987 0.15695377 -0.166443 -0.2588424 -0.23035781
-0.12945299 0.008953643 0.045945194 -0.06838342 0.19899194 -0.18645465 -0.038187087 -0.03571708
-0.10553007 0.12698533 0.09902672 -0.16820203 0.089636914 0.2748464 -0.068263344 -0.053981442
00000000: b1bb c53d f274 873e f7ef 57bd 175b 4abe
00000010: 598f 6e3c c79b 54bd 3d14 8c3d e492 45bd
00000020: 5cee 563c e3d4 f6bd aaea 823e 3028 b7bd
00000030: 0176 43be 9efa 07be afed 703e bbeb 8fbc
00000040: d3b0 603e 1360 363e 5dae 6a3e fb7c 49bd
00000050: 9711 8abd a838 6dbe 80c6 65be 90e2 c7bd
00000060: 524a f6bd 730e 0a3e e380 84bd fb8e 95be
00000070: 31d3 a8bd 1fc9 21be d244 063e 2f2f a0bd
00000080: 64e1 c73d 954b 9ebc 966c 6dbd 379b 673d
00000090: bf53 79bd c92b e6bd 8b59 9a3d 5fd2 87be
000000a0: 3764 323e ab4d 2f3e 2c0d 44be a691 9cbe
000000b0: 7db8 203e 0970 2abe fe86 84be ebe2 6bbe
000000c0: 538f 04be 4db2 123c 0731 3c3d 9b0c 8cbd
000000d0: 8bc4 4b3e f8ed 3ebe 106a 1cbd 134c 12bd
000000e0: 2620 d8bd 7108 023e 85ce ca3d 273d 2cbe
000000f0: 8f93 b73d abb8 8c3e a7cd 8bbd a51b 5dbd

2.weight f4 [64, 64]
-0.108889766 0.01136611 -0.07284348 -0.08323019 -0.13403478 -0.048111506 0.038236186 -0.10224695
-0.17833684 0.037293054 0.13575533 0.04882316 0.08551284 -0.06367411 -0.13718139 0.036677077
-0.0993014 -0.058460444 -0.030817915 -0.095541954 0.06396324 0.14343537 -0.015373667 -0.04096745
-0.07471371 0.03774599 0.011938011 -0.13212389 -0.054850485 -0.13418049 -0.12076614 -0.16478519
0.1062264 0.17142561 0.04004339 -0.026016861 -0.07706639 -0.047619518 -0.0022176022 -0.08169988
0.07576306 -0.040669896 0.048939947 0.121746235 0.010265109 -0.0492965 0.119531594 -0.021390637
-0.019947998 -0.08862274 0.04205159 -0.061845217 -0.08178951 -0.011719202 -0.088043176 0.017362729
-0.15393186 -0.025243616 0.05834719 -0.0797563 -0.04120228 0.012114899 0.09206172 -0.14819269
0.0802778 0.06792052 0.07408283 0.11130329 -0.08016466 0.10523275 -0.022134637 0.120012395
0.036980435 0.18765055 0.059438404 0.11226499 -0.06983502 0.04449786 0.15029408 -0.058111385
0.027520474 0.062342785 0.072015576 0.11378338 0.03810639 0.049952857 -0.02403184 0.05077843
-0.082607515 0.05726381 -0.055132195 0.09284067 0.13762607 0.04604361 0.072570026 -0.122653164
0.041116484 -0.07679197 0.026317019 0.041839175 -0.024523795 -0.03168521 -0.058372904 -0.12430405
0.104884274 0.08812631 0.118289486 0.13672893 0.04681562 -0.01952966 0.058727853 -0.052348852
0.03286783 -0.02518576 0.15713596 0.0043031075 0.110723585 0.114393465 0.11868581 0.016654804
-0.07960729 -0.079280764 0.078176886 0.049812343 0.16582337 -0.0015483891 0.030481564 0.03869619
0.055134725 -0.076190636 -0.017167747 -0.08046315 0.005286416 -0.14988992 0.025924757 -0.019446332
-0.011156264 -0.12448709 -0.091185905 -0.02960599 0.060054272 0.031425707 -0.08779113 -0.0949839
-0.043673053 -0.04179154 -0.0063952506 0.09029898 0.08108975 -0.0065476736 -0.09368956 -0.121386886
-0.057742268 -0.07496416 0.075402975 -0.13337398 0.004636087 -0.093488775 0.043829307 -0.054066062
-0.05276818 0.03935582 0.071661726 0.10168179 -0.12333224 -0.1087716 -0.08940806 -0.093136095
0.023603223 -0.07962168 -0.11998165 0.06606966 -0.0047413264 0.05441602 -0.055111106 0.090125285
-0.095241524 -0.05859608 0.052761022 -0.09002198 -0.14686246 -0.14842889 -0.13428965 0.0028013876
-0.06895102 -0.031336036 -0.10737862 -0.0897768 -0.020657614 -0.06896733 0.041576378 -0.11295353
0.17277104 -0.013498605 -0.058416996 0.03838802 0.06286847 0.093688846 0.10250716 0.048569266
0.18217051 0.12061305 0.043622516 0.05237123 -0.026278805 0.009223867 0.19794255 0.17560261
-0.05634415 0.024250096 -0.027765492 0.028142545 -0.096647404 0.05975027 0.12564352 -0.11116312
-0.015769286 0.16846128 0.035450295 0.101892546 0.007979396 0.09736454 -0.05522735 -0.11616235
-0.00822988 0.07560997 0.052414853 0.13626614 -0.08009592 -0.0061682914 0.13549227 0.055349115
-0.05576636 -0.10842639 0.12441684 -0.07503763 0.047500424 -0.16562447 0.05721486 0.023806976
-0.04111296 -0.02070586 0.17843261 -0.11167732 0.22071745 0.04191101 0.12707151 -0.023421124
0.072833925 0.07755059 -0.010320788 0.10349724 0.068389095 -0.049238887 -0.047140043 0.041136287
00000000: 9901 dfbd ec38 3a3c f62e 95bd 9774 aabd
00000010: 6a40 09be 9210 45bd 8c9d 1c3d d966 d1bd
00000020: ef9d 36be 9ac0 183d 7203 0b3e cbfa 473d
00000030: 5b21 af3d 9267 82bd 4779 0cbe b43a 163d
00000040: 885e cbbd 3874 6fbd da75 fcbc 80ab c3bd
00000050: 29ff 823d b9e0 123e d5e1 7bbc 7ccd 27bd
00000060: 8003 99bd 8a9b 1a3d a697 433c 7c4b 07be
00000070: e7aa 60bd 9c66 09be 3d54 f7bd 73bd 28be
00000080: 3a8d d93d 328a 2f3e 8a04 243d 5021 d5bc
00000090: fcd4 9dbd af0c 43bd 3155 11bb 4452 a7bd
000000a0: aa29 9b3d 7a95 26bd 4175 483d 1756 f93d
000000b0: fd2e 283c 20eb 49bd fbcc f43d 6b3b afbc
000000c0: fc69 a3bc d77f b5bd 4a3e 2c3d 6951 7dbd
000000d0: 4281 a7bd e501 40bc fb4f b4bd 483c 8e3c
000000e0: 50a0 1dbe b3cb cebc 77fd 6e3d 4557 a3bd
000000f0: b9c3 28bd 927d 463c db8a bc3d d3bf 17be
00000100: b068 a43d ea19 8b3d bdb8 973d fbf2 e33d
00000110: 5f2d a4bd 4584 d73d b353 b5bc 0fc9 f53d
00000120: cc78 173d 7727 403e af75 733d 30eb e53d
00000130: aa05 8fbd 6343 363d b1e6 193e 3406 6ebd
00000140: 9e72 e13c 265b 7f3d e77c 933d 4307 e93d
00000150: 7215 1c3d 5e9b 4c3d 6cde c4bc 0bfd 4f3d
00000160: 212e a9bd 758d 6a3d 4cd2 61bd 4023 be3d
00000170: d9ed 0c3e 3998 3c3d 989f 943d 9531 fbbd
00000180: c269 283d 1c45 9dbd ca96 d73c 8e5f 2b3d
00000190: 20e6 c8bc 5ac8 01bd 6d18 6fbd 1f93 febd
000001a0: 91cd d63d 917b b43d c241 f23d ab02 0c3e
000001b0: bcc1 3f3d aafc 9fbc 9e8c 703d c06b 56bd
000001c0: 6ba0 063d 5e52 cebc 40e8 203e 1501 8d3b
000001d0: 0cc3 e23d 1f47 ea3d 8c11 f33d a86f 883c
000001e0: 2609 a3bd f45d a2bd 341b a03d 0708 4c3d
000001f0: 9acd 293e 51f3 caba 79b4 f93c e57f 1e3d
00000200: f3d4 613d d609 9cbd 60a3 8cbc ddc9 a4bd
00000210: ac39 ad3b be7c 19be 2860 d43c ea4d 9fbc
00000220: c3c8 36bc 16f3 febd adbf babd 4388 f2bc
00000230: 78fb 753d 3eb8 003d d6cb b3bd eb86 c2bd
00000240: 84e2 32bd 9b2d 2bbd 408f d1bb acee b83d
00000250: 6212 a63d de8d d6bb 50e0 bfbd b099 f8bd
00000260: 2883 6cbd cf86 99bd e06c 9a3d 3093 08be
00000270: 51ea 973b 0b77 bfbd 5c86 333d 6074 5dbd
00000280: 7223 58bd 9133 213d 62c3 923d 8b3e d03d
00000290: 9d95 fcbd a5c3 debd 931b b7bd 23be bebd
000002a0: 8c5b c13c b110 a3bd f0b8 f5bd 884f 873d
000002b0: 215d 9bbb 55e3 5e3d 2fbc 61bd 9b93 b83d
000002c0: fd0d c3bd 7102 70bd f11b 583d 725d b8bd
000002d0: 1d63 16be befd 17be 3a83 09be 7c97 373b
000002e0: 3136 8dbd 375a 00bd 52e9 dbbd e6dc b7bd
000002f0: 283a a9bc be3e 8dbd fe4b 2a3d 2e54 e7bd
00000300: e4ea 303e 4129 5dbc a946 6fbd c23c 1d3d
00000310: 2fc1 803d f0df bf3d 46ef d13d 91f0 463d
00000320: e88a 3a3e fa03 f73d 86ad 323d 3783 563d
00000330: a646 d7bc b41f 173c 74b1 4a3e 2cd1 333e
00000340: 20c9 66bd 23a8 c63c 7574 e3bc 328b e63c
00000350: 13ef c5bd b3bc 743d b2a8 003e 7da9 e3bd
00000360: 972e 81bc 1d81 2c3e 5434 113d 0aad d03d
00000370: 03bc 023c 0f67 c73d 1336 62bd 87e6 edbd
00000380: 9ed6 06bc 66d9 9a3d f5b0 563d 5a89 0b3e
00000390: 5409 a4bd 611f cabb 7cbe 0a3e c1b5 623d
000003a0: 446b 64bd a80e debd 42ce fe3d 54ad 99bd
000003b0: ce8f 423d 7699 29be 215a 6a3d d906 c33c
000003c0: 1066 28bd 569f a9bc 0ab7 363e 14b7 e4bd
000003d0: c103 623e e1aa 2b3d 091f 023e a8dd bfbc
000003e0: f429 953d d8d2 9e3d 8618 29bc 5cf6 d33d
000003f0: 950f 8c3d b7ae 49bd eb15 41bd 867e 283d

2.bias f4 [64]
-0.06334114 0.021545626 0.0005465415 0.057058554 0.2559375 0.21149285 -0.120076336 -0.023264887
0.062759124 0.22873609 -0.09187444 0.045665864 0.059976473 -0.006976411 -0.19937003 -0.003989313
-0.08069262 0.0070025283 0.0679466 -0.10949725 0.06715283 -0.11254386 -0.0057445434 -0.0070365346
0.06162996 -0.02890809 0.22889416 -0.17525508 -0.11125069 -0.08737348 0.24313378 0.24650092
-0.099098526 -0.06140621 -0.0038141473 0.0001929877 -0.002592879 0.13724752 0.09505707 -0.0833848
0.050451033 -0.11441656 -0.07477747 0.087849684 0.020303132 0.054706827 0.051250715 0.06309959
0.2316196 0.0508188 0.08366041 0.0016857854 0.23605643 0.028704954 0.012531439 -0.15543991
-0.07752914 -0.016951716 0.016290737 0.14612707 -0.037774537 -0.11056273 0.026251549 0.20471844
00000000: 00b9 81bd 7480 b03c c745 0f3a 3bb6 693d
00000010: 3d0a 833e 9591 583e 95ea f5bd 0196 bebc
00000020: db87 803d cb39 6a3e ab28 bcbd 210c 3b3d
00000030: e4a9 753d 619a e4bb a827 4cbe c8b8 82bb
00000040: 2c42 a5bd 7775 e53b 9627 8b3d 1840 e0bd
00000050: 6c87 893d 657d e6bd b93c bcbb bb92 e6bb
00000060: b26f 7c3d a9d0 ecbc 3b63 6a3e 1176 33be
00000070: 67d7 e3bd def0 b2bd 10f8 783e bd6a 7c3e
00000080: 2bf4 cabd 1485 7bbd c6f6 79bb be5c 4a39
00000090: 4bed 29bb 9d8a 0c3e 48ad c23d a6c5 aabd
000000a0: bea5 4e3d 3b53 eabd ee24 99bd 89ea b33d
000000b0: c152 a63c 4414 603d 45ec 513d 5c3a 813d
000000c0: b02d 6d3e 6027 503d 2656 ab3d 92f5 dc3a
000000d0: c7b8 713e a726 eb3c aa50 4d3c a42b 1fbe
000000e0: 99c7 9ebd 53de 8abc 2774 853c 56a2 153e
000000f0: 79b9 1abd b66e e2bd 7d0d d73c b6a1 513e

4.weight f4 [1, 64]
-0.07344994 -0.026578564 0.07789587 0.023153925 -0.044061728 -0.106086366 -0.0005412388 0.007975606
-0.03469374 -0.031596854 0.016301611 -0.029041525 0.10683052 0.036422145 0.025890885 0.12251026
0.061465543 -0.09005248 0.0049686157 0.09560219 0.11232971 0.08245025 -0.08102562 0.06370686
-0.12136385 0.028565748 -0.011418106 0.08889251 -0.122935206 -0.0073937518 -0.04426969 -0.11488125
-0.0787298 0.16097532 -0.031936046 -0.0009014278 0.030794388 -0.12991515 -0.07309823 -0.046559438
0.058865037 -0.07526798 -0.00136189 -0.21474798 0.16230792 -0.10409069 0.14719976 0.029560447
-0.07972888 0.1006515 -0.065730646 0.09415664 -0.0070618098 0.100089915 -0.02105126 0.04195841
0.00070978585 0.034474716 -0.0020907724 -0.1180007 0.03657321 0.012713679 0.029692413 -0.043351598
00000000: ec6c 96bd 4abb d9bc df87 9f3d 4dad bd3c
00000010: 127a 34bd cf43 d9bd ece1 0dba 1eac 023c
00000020: 061b 0ebd b46b 01bd f58a 853c 7ee8 edbc
00000030: f6c9 da3d 632f 153d 1f19 d43c a9e6 fa3d
00000040: 4bc3 7b3d 6f6d b8bd c5cf a23b 15cb c33d
00000050: 1e0d e63d addb a83d c3f0 a5bd be78 823d
00000060: 9c8d f8bd b702 ea3c 0213 3bbc 470d b63d
00000070: 74c5 fbbd 4947 f2bb 2254 35bd dc46 ebbd
00000080: 173d a1bd b7d6 243e 5fcf 02bd cc4d 6cba
00000090: 8344 fc3c 7a08 05be 86b4 95bd 1cb5 3ebd
000000a0: 771c 713d 1926 9abd 7281 b2ba e5e6 5bbe
000000b0: 0c34 263e 802d d5bd 89bb 163e c028 f23c
000000c0: e548 a3bd 6022 ce3d ca9d 86bd 32d5 c03d
000000d0: c166 e7bb f1fb cc3d b173 acbc 95dc 2b3d
000000e0: ec10 3a3a 5c35 0d3d 5705 09bb 5aaa f1bd
000000f0: cacd 153d 094d 503c 813d f33c 7291 31bd

exp_avg f4 [64, 22]
6e-45 -6e-45 -6e-45 -6e-45 6e-45 -6e-45 6e-45 6e-45
-6e-45 -6e-45 6e-45 6e-45 6e-45 6e-45 -6e-45 -6e-45
-6e-45 -6e-45 6e-45 -6e-45 -6e-45 6e-45 6e-45 -6e-45
-6e-45 -6e-45 6e-45 -6e-45 6e-45 6e-45 -6e-45 -6e-45
6e-45 6e-45 6e-45 6e-45 -6e-45 -6e-45 -6e-45 -6e-45
6e-45 -6e-45 -6e-45 6e-45 6e-45 6e-45 6e-45 6e-45
-6e-45 -6e-45 -6e-45 -6e-45 6e-45 6e-45 6e-45 -6e-45
6e-45 -6e-45 -6e-45 -6e-45 6e-45 -6e-45 6e-45 6e-45
-6e-45 -6e-45 6e-45 6e-45 6e-45 6e-45 -6e-45 6e-45
-6e-45 -6e-45 6e-45 6e-45 6e-45 -6e-45 -6e-45 -6e-45
-6e-45 -6e-45 6e-45 -6e-45 6e-45 -6e-45 6e-45 -6e-45
-6e-45 6e-45 6e-45 6e-45 -6e-45 6e-45 -6e-45 -6e-45
6e-45 6e-45 -6e-45 -6e-45 -6e-45 -6e-45 6e-45 6e-45
6e-45 6e-45 -6e-45 6e-45 6e-45 -6e-45 6e-45 -6e-45
-6e-45 -6e-45 6e-45 -6e-45 6e-45 6e-45 -6e-45 -6e-45
6e-45 6e-45 6e-45 6e-45 -6e-45 -6e-45 -6e-45 -6e-45
6e-45 -6e-45 -6e-45 6e-45 6e-45 -6e-45 -6e-45 -6e-45
6e-45 -6e-45 6e-45 6e-45 -6e-45 -6e-45 6e-45 6e-45
6e-45 6e-45 -6e-45 -6e-45 -6e-45 -6e-45 6e-45 -6e-45
-6e-45 6e-45 6e-45 6e-45 6e-45 6e-45 -6e-45 6e-45
-6e-45 -6e-45 6e-45 6e-45 6e-45 -6e-45 -6e-45 -6e-45
-6e-45 -6e-45 6e-45 -6e-45 6e-45 -6e-45 6e-45 -6e-45
-6e-45 -6e-45 -6e-45 -6e-45 6e-45 -6e-45 6e-45 6e-45
-6e-45 -6e-45 -6e-45 6e-45 6e-45 6e-45 6e-45 6e-45
-6e-45 6e-45 -6e-45 6e-45 -6e-45 6e-45 -6e-45 -6e-45
-6e-45 -6e-45 6e-45 -6e-45 6e-45 6e-45 -6e-45 -6e-45
-6e-45 6e-45 6e-45 6e-45 6e-45 6e-45 -6e-45 6e-45
-6e-45 6e-45 -6e-45 6e-45 6e-45 6e-45 6e-45 6e-45
-6e-45 -6e-45 -6e-45 -6e-45 6e-45 6e-45 6e-45 -6e-45
-6e-45 -6e-45 6e-45 -6e-45 6e-45 -6e-45 6e-45 -6e-45
6e-45 -6e-45 -6e-45 6e-45 -6e-45 6e-45 -6e-45 6e-45
-6e-45 6e-45 6e-45 6e-45 -6e-45 -6e-45 -6e-45 -6e-45
00000000: 0400 0000 0400 0080 0400 0080 0400 0080
00000010: 0400 0000 0400 0080 0400 0000 0400 0000
00000020: 0400 0080 0400 0080 0400 0000 0400 0000
00000030: 0400 0000 0400 0000 0400 0080 0400 0080
00000040: 0400 0080 0400 0080 0400 0000 0400 0080
00000050: 0400 0080 0400 0000 0400 0000 0400 0080
00000060: 0400 0080 0400 0080 0400 0000 0400 0080
00000070: 0400 0000 0400 0000 0400 0080 0400 0080
00000080: 0400 0000 0400 0000 0400 0000 0400 0000
00000090: 0400 0080 0400 0080 0400 0080 0400 0080
000000a0: 0400 0000 0400 0080 0400 0080 0400 0000
000000b0: 0400 0000 0400 0000 0400 0000 0400 0000
000000c0: 0400 0080 0400 0080 0400 0080 0400 0080
000000d0: 0400 0000 0400 0000 0400 0000 0400 0080
000000e0: 0400 0000 0400 0080 0400 0080 0400 0080
000000f0: 0400 0000 0400 0080 0400 0000 0400 0000
00000100: 0400 0080 0400 0080 0400 0000 0400 0000
00000110: 0400 0000 0400 0000 0400 0080 0400 0000
00000120: 0400 0080 0400 0080 0400 0000 0400 0000
00000130: 0400 0000 0400 0080 0400 0080 0400 0080
00000140: 0400 0080 0400 0080 0400 0000 0400 0080
00000150: 0400 0000 0400 0080 0400 0000 0400 0080
00000160: 0400 0080 0400 0000 0400 0000 0400 0000
00000170: 0400 0080 0400 0000 0400 0080 0400 0080
00000180: 0400 0000 0400 0000 0400 0080 0400 0080
00000190: 0400 0080 0400 0080 0400 0000 0400 0000
000001a0: 0400 0000 0400 0000 0400 0080 0400 0000
000001b0: 0400 0000 0400 0080 0400 0000 0400 0080
000001c0: 0400 0080 0400 0080 0400 0000 0400 0080
000001d0: 0400 0000 0400 0000 0400 0080 0400 0080
000001e0: 0400 0000 0400 0000 0400 0000 0400 0000
000001f0: 0400 0080 0400 0080 0400 0080 0400 0080
00000200: 0400 0000 0400 0080 0400 0080 0400 0000
00000210: 0400 0000 0400 0080 0400 0080 0400 0080
00000220: 0400 0000 0400 0080 0400 0000 0400 0000
00000230: 0400 0080 0400 0080 0400 0000 0400 0000
00000240: 0400 0000 0400 0000 0400 0080 0400 0080
00000250: 0400 0080 0400 0080 0400 0000 0400 0080
00000260: 0400 0080 0400 0000 0400 0000 0400 0000
00000270: 0400 0000 0400 0000 0400 0080 0400 0000
00000280: 0400 0080 0400 0080 0400 0000 0400 0000
00000290: 0400 0000 0400 0080 0400 0080 0400 0080
000002a0: 0400 0080 0400 0080 0400 0000 0400 0080
000002b0: 0400 0000 0400 0080 0400 0000 0400 0080
000002c0: 0400 0080 0400 0080 0400 0080 0400 0080
000002d0: 0400 0000 0400 0080 0400 0000 0400 0000
000002e0: 0400 0080 0400 0080 0400 0080 0400 0000
000002f0: 0400 0000 0400 0000 0400 0000 0400 0000
00000300: 0400 0080 0400 0000 0400 0080 0400 0000
00000310: 0400 0080 0400 0000 0400 0080 0400 0080
00000320: 0400 0080 0400 0080 0400 0000 0400 0080
00000330: 0400 0000 0400 0000 0400 0080 0400 0080
00000340: 0400 0080 0400 0000 0400 0000 0400 0000
00000350: 0400 0000 0400 0000 0400 0080 0400 0000
00000360: 0400 0080 0400 0000 0400 0080 0400 0000
00000370: 0400 0000 0400 0000 0400 0000 0400 0000
00000380: 0400 0080 0400 0080 0400 0080 0400 0080
00000390: 0400 0000 0400 0000 0400 0000 0400 0080
000003a0: 0400 0080 0400 0080 0400 0000 0400 0080
000003b0: 0400 0000 0400 0080 0400 0000 0400 0080
000003c0: 0400 0000 0400 0080 0400 0080 0400 0000
000003d0: 0400 0080 0400 0000 0400 0080 0400 0000
000003e0: 0400 0080 0400 0000 0400 0000 0400 0000
000003f0: 0400 0080 0400 0080 0400 0080 0400 0080

exp_avg_sq f4 [64, 22]
6.210703e-20 4.557888e-18 2.7266904e-20 3.275558e-18 2.0955638e-17 1.5851033e-18 5.910129e-18 2.1097471e-18
1.9026729e-17 2.4812272e-17 1.0841653e-19 2.5497593e-17 4.8740873e-17 2.8211195e-16 1.269798e-17 1.5941906e-17
3.2815944e-16 9.3839645e-18 1.4481351e-15 7.802891e-15 1.2712124e-15 4.761716e-16 1.675293e-20 1.2263973e-18
7.326914e-21 8.812479e-19 5.642696e-18 4.2672348e-19 1.5902347e-18 5.6775025e-19 5.124755e-18 6.6793747e-18
2.926956e-20 6.866346e-18 1.3108653e-17 7.588106e-17 3.6211345e-18 4.292157e-18 8.8312866e-17 2.6252928e-18
3.8997333e-16 2.0992617e-15 3.419588e-16 1.2808548e-16 6.052067e-22 2.65357e-19 6.9185425e-20 1.5715196e-19
2.3385794e-19 3.0340338e-23 1.960779e-19 3.9791348e-19 5.487988e-19 1.1759043e-18 2.7491383e-20 7.869189e-20
9.177973e-18 1.7364177e-18 4.188857e-18 1.00339285e-16 6.8007967e-19 4.848055e-17 1.1177119e-17 1.6858903e-16
1.4378834e-17 5.4410146e-18 4.6481284e-23 1.2201929e-19 2.9084992e-20 6.694063e-20 1.859235e-19 1.6067027e-23
1.3897936e-19 1.2683854e-19 2.3893324e-19 5.699535e-19 8.521127e-21 8.258223e-19 7.076018e-18 5.453568e-19
7.985994e-20 1.1851181e-18 2.7666526e-20 1.9027196e-17 7.824049e-18 9.526806e-17 2.3902276e-17 2.0480448e-18
1.0436131e-20 7.6344014e-19 4.583908e-21 5.480871e-19 3.511277e-18 2.6533165e-19 9.894028e-19 3.5473452e-19
3.1937135e-18 4.159113e-18 1.8184042e-20 4.2687574e-18 8.1568876e-18 4.710633e-17 2.6170053e-18 2.6755366e-18
5.4883616e-17 2.6071089e-18 2.430872e-16 1.3049201e-15 2.1216541e-16 7.947133e-17 2.851733e-20 2.0870993e-18
1.247129e-20 1.4995363e-18 9.602971e-18 7.261303e-19 2.7061133e-18 9.666547e-19 8.723326e-18 1.1367887e-17
4.9804315e-20 1.1684037e-17 2.2305766e-17 1.2908688e-16 6.3157957e-18 7.306137e-18 1.5026359e-16 4.8083914e-18
6.638279e-16 3.5718897e-15 5.8166806e-16 2.1787916e-16 1.2306506e-21 8.9500483e-20 5.371323e-22 6.419076e-20
4.1218575e-19 3.1112677e-20 1.1594012e-19 4.171689e-20 3.7558394e-19 4.88215e-19 2.1427694e-21 5.0082214e-19
9.548249e-19 5.5059106e-18 3.733616e-19 3.1443314e-19 6.428149e-18 4.1007926e-19 2.858127e-17 1.52765e-16
2.4788757e-17 9.285847e-18 3.3808334e-22 8.87515e-19 2.1154968e-19 4.868965e-19 1.3523274e-18 1.168648e-22
1.010871e-18 9.225656e-19 1.7378984e-18 4.1456125e-18 6.1978944e-20 6.006647e-18 5.146758e-17 3.966693e-18
5.8086753e-19 8.619977e-18 2.0123473e-19 1.3839572e-16 5.690868e-17 6.929352e-16 1.7385406e-16 1.4896545e-17
1.2674363e-24 3.3271842e-21 7.9307663e-22 1.8253253e-21 5.069704e-21 4.3811175e-25 3.7896294e-21 3.4585904e-21
6.515154e-21 1.5541336e-20 2.3235144e-22 2.251822e-20 1.929458e-19 1.4870664e-20 2.1776069e-21 3.2315316e-20
7.544035e-22 5.188263e-19 2.1334341e-19 2.5977345e-18 6.5175954e-19 5.584544e-20 2.4279203e-23 6.3736147e-20
1.5192358e-20 3.4966156e-20 9.711564e-20 8.392515e-24 7.259477e-20 6.625333e-20 1.2480536e-19 2.9771256e-19
4.450972e-21 4.3136298e-19 3.6961176e-18 2.8486492e-19 4.1714495e-20 6.1903803e-19 1.4451479e-20 9.9386925e-18
4.086847e-18 4.976265e-17 1.2485162e-17 1.0697798e-18 4.543757e-23 1.6357839e-20 3.618249e-21 8.926916e-21
3.001538e-20 4.1756483e-22 1.8592274e-20 1.6876278e-20 3.865505e-20 7.9219695e-20 1.1198747e-21 1.0902798e-19
8.858033e-19 7.889344e-20 2.6909664e-19 1.5566923e-19 6.391818e-20 2.8920184e-18 1.714474e-18 1.3250526e-17
2.9674265e-18 2.5450137e-19 5.9614273e-20 5.3685933e-18 2.873694e-19 3.6917604e-18 2.1190099e-17 1.4963558e-18
6.6616044e-18 3.250662e-18 2.0075743e-17 2.831854e-17 1.8793502e-19 2.9149243e-17 1.00142105e-16 2.7187203e-16
00000000: 65a5 921f 0928 a822 aac3 001f 8bb1 7122
00000010: 1a48 c123 82eb e921 970b da22 ffab 1b22
00000020: 987d af23 52da e423 c5fd ff1f 7d2c eb23
00000030: 11c7 6024 60a0 a225 843c 6a23 c309 9323
00000040: c92b bd25 851a 2d23 c1b2 d026 7c90 0c28
00000050: 7633 b726 433f 0926 193a 9e1e fbfb b421
00000060: c866 0a1e 9b0c 8221 c22d d022 a1e4 fb20
00000070: 5ead ea21 ff91 2721 f111 bd22 e96c f622
00000080: ba38 0a1f ce52 fd22 ddcf 7123 46f8 ae24
00000090: a698 8522 475a 9e22 b7a2 cb24 61b6 4122
000000a0: e8cd e025 8b44 1727 3620 c525 29ac 1325
000000b0: 9ae9 361c 9ea3 9c20 065c a31f 4488 3920
000000c0: 9d0b 8a20 85b7 121a e97c 6720 fce2 ea20
000000d0: 11fa 2121 6988 ad21 0bd3 011f 54ce b91f
000000e0: c14d 2923 0120 0022 a38a 9a22 dc5d e724
000000f0: 5eb9 4821 bb93 5f24 742e 4e23 b35e 4225
00000100: 109f 8423 eebc c822 0bc5 601a 110e 1020
00000110: 9959 091f 210f 9e1f ee7f 5b20 0864 9b19
00000120: ef13 2420 99be 1520 920a 8d20 7838 2821
00000130: a4f5 201e 5ebd 7321 8d87 0223 fff5 2021
00000140: 5f90 bc1f 7fe4 ae21 c7a6 021f b27e af23
00000150: 0754 1023 56ac db24 a775 dc23 791e 1722
00000160: 0822 451e e853 6121 d62c ad1d 4ac4 2121
00000170: 138b 8122 c99f 9c20 9502 9221 f765 d120
00000180: 8ba7 6b22 b671 9922 51be ab1e 467d 9d22
00000190: d077 1623 573d 5924 d519 4122 756b 4522
000001a0: 231b 7d24 e55e 4022 5721 8c25 0e0f bc26
000001b0: 2d9c 7425 983f b724 56ab 061f 3100 1a22
000001c0: 7593 6b1e e14a dd21 c024 3123 db50 5621
000001d0: 09ad 4722 2fa7 8e21 beea 2023 54b3 5123
000001e0: b931 6b1f 4e88 5723 00bc cd23 b9d3 1425
000001f0: 0103 e922 42c6 0623 fc3d 2d25 f965 b122
00000200: db55 3f26 deb0 8027 87a7 2726 9432 7b25
00000210: 7df8 b91c b953 d31f 9956 221c ef90 971f
00000220: c04f f320 ebec 121f c0e0 0820 a000 451f
00000230: a4b4 dd20 7c18 1021 30e7 211d 0dd1 1321
00000240: 44e8 8c21 db21 cb22 cf64 dc20 cb9b b920
00000250: 2728 ed22 6d11 f220 cfce 0324 4520 3025
00000260: cca2 e423 2c4b 2b23 dd5b cc1b 5ef9 8221
00000270: f8c0 7920 dcb4 0f21 7c91 c721 e747 0d1b
00000280: a02d 9521 8b25 8821 f93b 0022 34f2 9822
00000290: f957 921f 2d9b dd22 325a 6d24 5b58 9222
000002a0: 1c71 2b21 b102 1f23 7793 6d20 358f 1f25
000002b0: f538 8324 98b9 4726 a970 4825 7965 8923
000002c0: 5320 c417 1a65 7b1d 55b1 6f1c edea 091d
000002d0: 2b87 bf1d ca96 0717 0c2b 8f1d 6fa9 821d
000002e0: b422 f61d a5c8 921e a572 8c1b b7ad d41e
000002f0: 4aca 6320 0f73 8c1e 0b89 241d d29a 181f
00000300: 2501 641c 6821 1921 17df 7b20 d1ad 3f22
00000310: 8f5d 4021 7fdc 831f 65d0 ea19 237e 961f
00000320: de7c 8f1e 7d1f 251f cd4e e51f b955 2219
00000330: d968 ab1f ae6f 9c1f 1b58 1320 0dbd af20
00000340: 2927 a81d bba1 fe20 d85c 8822 9227 a820
00000350: bbfd 441f 31b5 3621 887d 881e 2656 3723
00000360: 2ec7 9622 5e7d 6524 834f 6623 23df 9d21
00000370: fdb8 5b1a d47e 9a1e 8fb1 881d eb9f 281e
00000380: 5ebe 0d1f 0767 fc1b 5c99 af1e 5664 9f1e
00000390: 178b 361f 5e0d bb1f 0e3b a91c afb7 0020
000003a0: b4b8 8221 2948 ba1f bcd8 9e20 23c8 3720
000003b0: 2bec 961f af64 5522 ff02 fd21 d76d 7423
000003c0: 1af5 5a22 293b 9620 9ec2 8c1f ee10 c622
000003d0: 09a2 a920 b133 8822 b571 c323 b9d2 dc21
000003e0: 13c5 f522 45db 6f22 822a b923 a298 0224
000003f0: e0df 5d20 5a6d 0624 77e9 e624 3bb9 9c25

exp_avg f4 [64]
-6e-45 -6e-45 6e-45 6e-45 6e-45 -6e-45 -6e-45 6e-45
-6e-45 -6e-45 6e-45 6e-45 -6e-45 -6e-45 6e-45 6e-45
-6e-45 -6e-45 6e-45 -6e-45 6e-45 -6e-45 6e-45 6e-45
-6e-45 -6e-45 -6e-45 6e-45 6e-45 6e-45 -6e-45 -6e-45
-6e-45 -6e-45 6e-45 6e-45 -6e-45 -6e-45 -6e-45 6e-45
-6e-45 6e-45 6e-45 -6e-45 -6e-45 6e-45 -6e-45 -6e-45
6e-45 -6e-45 6e-45 -6e-45 -6e-45 -6e-45 -6e-45 6e-45
6e-45 -6e-45 6e-45 6e-45 -6e-45 -6e-45 6e-45 -6e-45
00000000: 0400 0080 0400 0080 0400 0000 0400 0000
00000010: 0400 0000 0400 0080 0400 0080 0400 0000
00000020: 0400 0080 0400 0080 0400 0000 0400 0000
00000030: 0400 0080 0400 0080 0400 0000 0400 0000
00000040: 0400 0080 0400 0080 0400 0000 0400 0080
00000050: 0400 0000 0400 0080 0400 0000 0400 0000
00000060: 0400 0080 0400 0080 0400 0080 0400 0000
00000070: 0400 0000 0400 0000 0400 0080 0400 0080
00000080: 0400 0080 0400 0080 0400 0000 0400 0000
00000090: 0400 0080 0400 0080 0400 0080 0400 0000
000000a0: 0400 0080 0400 0000 0400 0000 0400 0080
000000b0: 0400 0080 0400 0000 0400 0080 0400 0080
000000c0: 0400 0000 0400 0080 0400 0000 0400 0080
000000d0: 0400 0080 0400 0080 0400 0080 0400 0000
000000e0: 0400 0000 0400 0080 0400 0000 0400 0000
000000f0: 0400 0080 0400 0080 0400 0000 0400 0080

exp_avg_sq f4 [64]
2.5631341e-16 6.8978274e-17 1.2939703e-17 6.140302e-18 4.294984e-17 1.1739441e-16 5.038075e-18 4.4661873e-17
1.6743237e-19 3.2073575e-18 8.4024815e-19 2.9506223e-16 5.958865e-38 1.9308354e-25 4.324268e-16 3.5171394e-16
1.5402742e-17 6.5243035e-18 1.3883628e-16 2.5843632e-17 1.963001e-17 2.3778e-16 1.695742e-37 7e-43
7.271528e-16 5.0864368e-17 1.311301e-17 3.3476242e-19 4.8751574e-17 7e-43 1.1468715e-17 3.3316013e-16
5.276417e-16 4.7495784e-17 5.488639e-17 1.6883906e-17 1.2367042e-16 1.1559668e-16 9.203795e-17 1.269933e-17
8.913352e-18 3.601152e-17 5.830337e-19 8.639554e-18 3.4805475e-19 1.0627057e-16 7.445134e-17 2.1096787e-18
1.0713085e-16 1.1890899e-18 8.346885e-17 4.775007e-19 6.094871e-17 1.3110938e-19 1.8037158e-16 1.2215864e-16
1.8482194e-17 9.530706e-17 6.1044726e-18 6.41513e-17 2.879532e-16 2.5687126e-16 1.22667154e-17 1.7167099e-18
00000000: 2fc1 9325 960d 9f24 05b2 6e23 8389 e222
00000010: 3912 4624 b758 0725 46df b922 6ff7 4d24
00000020: 54ab 4520 45a9 6c22 5bff 7721 8017 aa25
00000030: 3a37 a201 9e06 6f16 ef46 f925 d1bf ca25
00000040: b210 8e23 4eb4 f022 3d11 2025 8d5d ee23
00000050: 0d0e b523 2212 8925 fccf 6602 f401 0000
00000060: 6896 5126 0c92 6a24 70e4 7123 de9b c520
00000070: b3d3 6024 f401 0000 7a8f 5323 c20d c025
00000080: 1615 1826 2009 5b24 6a1e 7d24 ffb9 9b23
00000090: 1195 0e25 1e46 0525 9e39 d424 e442 6a23
000000a0: 1d6c 2423 e612 2624 c814 2c21 245f 1f23
000000b0: 8c74 cd20 120b f524 50ac ab24 b4aa 1b22
000000c0: e406 f724 8c7a af21 5077 c024 efee 0c21
000000d0: c589 8c24 61c9 1a20 4bf4 4f25 ded6 0c25
000000e0: d977 aa23 5cc3 db24 1d37 e122 3eec 9324
000000f0: 64fe a525 8213 9425 ed47 6223 7757 fd21
