pipeline/evaluation/agent_real_90.pth (torch, 854690 bytes, 27 tensors)

transformer_encoder.layers.0.self_attn.in_proj_weight f4 [108, 36]
000000 f8 b7 9a 3d bd c0 26 3e 0c 29 14 3d fe 42 ad 3d
       0.075546205 0.16284461 0.036171958 0.08460043
000010 27 26 10 3e 29 42 a5 bc 15 02 83 3d dc 93 2a be
       0.14077054 -0.02017315 0.063968815 -0.16657966
000020 af b0 19 3e 31 a1 21 be c5 f9 1c bd 8d 2f da 3d
       0.15008806 -0.15784146 -0.038324136 0.10653601
000030 3d ad d2 bd e2 aa 95 3d 6c 74 b9 bd 2d c7 51 bd
       -0.10286949 0.07307984 -0.09055409 -0.05121534
000040 55 fa 24 be e3 22 c2 bd 71 2d f2 bd e8 01 d5 bd
       -0.16111119 -0.0947931 -0.118250735 -0.10400754
000050 3c 00 ab 3d f5 45 1b be 9e e4 49 3d b9 59 58 3d
       0.08349654 -0.15163405 0.049290292 0.05281994
000060 33 a3 9a 3d 56 00 cc 3d 4a de f7 3d 95 31 4c be
       0.07550659 0.099610016 0.12102945 -0.19940789
000070 1c 62 ed 3d 74 55 bf 3d 2d cf 31 bc db 3e a5 bd
       0.115909785 0.09342471 -0.010852617 -0.08068629
000080 fb 92 d7 3d 9c 4f 7f bd 53 5c 3d bc d3 d7 38 be
       0.10526081 -0.06233178 -0.011557656 -0.1805108
000090 5c 90 4e 3e 16 bd 1e bd 43 88 43 3e b9 9e 25 3e
       0.20172256 -0.038754545 0.19094948 0.16173829
0000a0 bf 1e 46 be be 86 4a bd 7b 3f ce 3d ff 7d 2d bd
       -0.19347666 -0.049444906 0.10070702 -0.042356487
0000b0 ce 5a 66 bd ce 2f 36 3e f6 ca b7 3d bb 3a a7 3d
       -0.05623894 0.17791674 0.089742586 0.08165499
0000c0 3e cc 0c be 98 58 1a 3e 3c 41 fa bc 32 22 59 3d
       -0.13749787 0.15072858 -0.030548684 0.053011127
0000d0 ad 09 3e bd 60 63 9a 3d 06 98 48 3d 94 1e 57 3d
       -0.046395946 0.075384855 0.048973106 0.052519396
0000e0 9f f0 af 3d 5e 62 b0 3d a2 a6 30 be af 3e 02 3e
       0.08590817 0.08612512 -0.17251065 0.12719224
0000f0 f4 24 bd bc a6 8b e3 3d 0e 4f 74 bd ab 3f 4b be
       -0.02308891 0.1111062 -0.059645705 -0.19848506
000100 f4 48 b9 bd 6c 16 86 bd 35 09 5c bd 0a ba 59 3d
       -0.09047118 -0.065472454 -0.053719718 0.053155936
000110 cc 2a e2 3d 7f ec 90 bd 88 15 93 3d dc 93 2f 3e
       0.11043319 -0.07076358 0.07181841 0.17146248
000120 00 b0 f9 3d e2 27 36 3d 5b 72 9d bc 61 50 19 3c
       0.121917725 0.04447163 -0.019219568 0.009357543
000130 ff 81 10 be f4 70 34 3e dd ef 83 3c bc ea be 3d
       -0.1411209 0.17621213 0.016105587 0.09322116
000140 47 39 86 bd 6e 36 cc bd ca bd 25 be 2e 18 31 3e
       -0.065538935 -0.09971319 -0.1618568 0.1729438
000150 aa ff 9b 3d bf f5 eb 3c 1e 00 45 3e b9 ca 88 bb
       0.076171234 0.028803704 0.19238326 -0.004174557
000160 42 a2 17 3e b5 0e c9 bd 16 70 a5 bc 7e ff 07 bd
       0.1480799 -0.09817258 -0.020195048 -0.03320264
000170 e7 73 2a be 97 b1 9b 3c 8c 9c 08 be af eb 38 3d
       -0.16645776 0.01900558 -0.13340968 0.04514664
000180 3c 95 a6 3d 1c 06 c5 bc 05 c3 37 be ad 11 22 be
       0.08133933 -0.024050765 -0.17945488 -0.15827055
000190 ea 41 39 3e 06 2d f1 3a 77 3e 2d bb 0e 76 4f be
       0.1809155 0.0018400259 -0.0026434937 -0.20259878
0001a0 cb d8 09 3e 07 7a 39 3e d9 8d 4d be e1 9e 82 bd
       0.13461606 0.18112956 -0.20073642 -0.0637796
0001b0 17 50 2e be dd af 19 3e eb 58 a5 3d 06 4e 1e 3e
       -0.1702274 0.15008493 0.080736004 0.15459451
0001c0 fb c4 07 3e 96 e6 33 3e bd c0 c1 3c b5 f7 a4 bc
       0.13258736 0.1756843 0.023651475 -0.020137647
0001d0 f0 18 dd bd 41 2a f2 3d 83 3e 22 be 50 dd 8c bd
       -0.10795772 0.118244655 -0.15844159 -0.068781495
0001e0 3a 33 30 3e 37 ad 36 3e eb d6 3f 3d 0c 30 9a bd
       0.17207041 0.17839514 0.04683582 -0.075286955
0001f0 53 53 4c be 00 aa 83 3c 93 bc ba 3d a5 ba c5 3d
       -0.1995366 0.016072273 0.09117999 0.0965474
000200 d5 78 f5 bd 20 ca 43 bd 94 e4 f7 bd 6c a2 41 be
       -0.119859375 -0.047800183 -0.12104145 -0.18909615
000210 97 a1 37 be 50 a2 3a be ae 5c 4a be dd 86 92 3d
       -0.17932735 -0.1822598 -0.19761917 0.071546294
000220 9f ee 29 be 96 a7 ed 3d 50 ec 28 be 94 1c 12 be
       -0.16594933 0.1160423 -0.16496396 -0.14268714
000230 eb e0 17 3e b0 10 7f bd 18 af 02 3e 4b 66 0d 3e
       0.14831893 -0.062271774 0.12762105 0.13808553
000240 7d 8e b3 3d d7 bf b2 bd 2e 5a cb bd fb e4 f0 3d
       0.08767412 -0.08727997 -0.0992931 0.117624246
000250 68 19 67 3d 09 46 4b 3d 8a d3 15 bc c3 7e 51 ba
       0.056420714 0.049627338 -0.009144673 -0.0007991606
000260 b7 b0 2f bd 2d 97 fc bd a1 83 dd bc 4c 5a 29 3e
       -0.042893138 -0.12333522 -0.027040305 0.16538352
000270 ad b2 5e 3d 74 f4 df bc 78 db 9c bd 20 6c 2f 3e
       0.054369617 -0.027338244 -0.07659048 0.1713109
000280 e1 54 68 bc e4 d0 23 be 09 f6 96 bd bc fa 67 3d
       -0.014180393 -0.15997654 -0.07371146 0.056635603
000290 fc 6a 4e 3e b0 ab 66 bc 9a 21 18 3e bb 20 a2 3d
       0.20157999 -0.014079019 0.14856568 0.07916399
0002a0 85 dd 4d 3e cd 68 b3 bc c8 ff 28 3e c2 7d 27 be
       0.20104034 -0.021900559 0.16503823 -0.16356567
0002b0 18 fd 94 3d e4 1b d5 bd da c3 41 3d 8d b0 4e bc
       0.07274836 -0.1040571 0.04730592 -0.012615335
0002c0 fc 05 7b bd 1b e7 a5 3d 85 00 7c 3c 55 4b c5 bd
       -0.061285004 0.081007205 0.015380983 -0.09633509
0002d0 31 52 09 be d2 e2 1f bd 78 7a 50 3e 3b c3 20 be
       -0.1341026 -0.039034672 0.20359218 -0.15699475
0002e0 95 3a c9 bd 22 ef fa bd c6 0d 2b be 25 e8 11 be
       -0.09825627 -0.12252642 -0.16704473 -0.14248712
0002f0 47 75 7c 3d 06 d4 a8 3d 1a 82 25 3d 44 bb 46 3e
       0.061635282 0.08243565 0.040407278 0.19407374
000300 19 8d ca 3c 26 d8 f8 bd 63 57 93 bc 1c 90 2e 3e
       0.024725484 -0.12150602 -0.017986005 0.17047161
000310 05 57 23 be 97 af a2 bd 20 72 54 3c ed b9 6f bb
       -0.15951164 -0.07943647 0.012966663 -0.0036579326
000320 41 c8 b4 3c a9 10 b7 3c 4b b6 dc bd 11 4a 48 be
       0.022068145 0.022346811 -0.10776957 -0.19559504
000330 76 ee c2 bd 3f 9c bf bd cc 91 d2 bd ba ef 44 3e
       -0.09518139 -0.093559735 -0.10281715 0.19232073
000340 5f 68 ed 3d 10 72 bd 3d b6 1f e1 3d 13 38 fe 3d
       0.11592173 0.09250271 0.109923765 0.12413039
000350 45 51 3e 3c f1 eb db bc e6 69 06 bd e7 28 2d bd
       0.011616056 -0.026845904 -0.032815836 -0.042275336
000360 0d 11 2e be d8 a1 dc bd e0 02 fe 3d 01 5a 1a be
       -0.16998692 -0.10773057 0.12402892 -0.15073396
000370 15 46 fa 3b 9e 5e dd bd 2a a8 09 be 73 32 00 be
       0.007637749 -0.108090624 -0.13443056 -0.12519245
000380 58 d4 17 3e 16 ac 81 bd 22 82 48 bd 39 d3 f5 bd
       0.14827096 -0.06331651 -0.04895223 -0.12003178
000390 27 34 1e 3e 8f d8 1a be 9b f4 42 3e 7b a7 31 be
       0.15449582 -0.15121673 0.19038622 -0.17349045
0003a0 44 b4 a0 3d af 28 8e 3b 97 92 31 3e 90 39 e9 bd
       0.07846883 0.004338346 0.17341076 -0.11387932
0003b0 75 e3 a0 bc ce 13 fe 3d 79 a5 e7 bd f3 64 45 bd
       -0.01963971 0.12406121 -0.11310858 -0.048191976
0003c0 1c e0 1b 3e ad b6 fc bd 29 c4 06 be 79 3c 22 be
       0.1522221 -0.1233953 -0.13160767 -0.15843381
0003d0 97 78 7e 3b e2 85 d6 3d 1f 81 ce 3d e4 17 22 be
       0.0038829201 0.10474755 0.10083222 -0.15829426
0003e0 73 ef c4 bc 4e 44 52 3d ed d0 23 3e ba c3 37 3d
       -0.02403996 0.05133467 0.15997668 0.044864394
0003f0 db 61 17 be d4 e5 aa bc 76 0a 2e 3d da d2 03 bd
       -0.14783423 -0.020861544 0.042490445 -0.032183506

transformer_encoder.layers.0.self_attn.in_proj_bias f4 [108]
000000 00 00 00 00 00 00 00 00 00 00 00 00 00 00 00 00
       0.0 0.0 0.0 0.0
000010 00 00 00 00 00 00 00 00 00 00 00 00 00 00 00 00
       0.0 0.0 0.0 0.0
000020 00 00 00 00 00 00 00 00 00 00 00 00 00 00 00 00
       0.0 0.0 0.0 0.0
000030 00 00 00 00 00 00 00 00 00 00 00 00 00 00 00 00
       0.0 0.0 0.0 0.0
000040 00 00 00 00 00 00 00 00 00 00 00 00 00 00 00 00
       0.0 0.0 0.0 0.0
000050 00 00 00 00 00 00 00 00 00 00 00 00 00 00 00 00
       0.0 0.0 0.0 0.0
000060 00 00 00 00 00 00 00 00 00 00 00 00 00 00 00 00
       0.0 0.0 0.0 0.0
000070 00 00 00 00 00 00 00 00 00 00 00 00 00 00 00 00
       0.0 0.0 0.0 0.0
000080 00 00 00 00 00 00 00 00 00 00 00 00 00 00 00 00
       0.0 0.0 0.0 0.0
000090 00 00 00 00 00 00 00 00 00 00 00 00 00 00 00 00
       0.0 0.0 0.0 0.0
0000a0 00 00 00 00 00 00 00 00 00 00 00 00 00 00 00 00
       0.0 0.0 0.0 0.0
0000b0 00 00 00 00 00 00 00 00 00 00 00 00 00 00 00 00
       0.0 0.0 0.0 0.0
0000c0 00 00 00 00 00 00 00 00 00 00 00 00 00 00 00 00
       0.0 0.0 0.0 0.0
0000d0 00 00 00 00 00 00 00 00 00 00 00 00 00 00 00 00
       0.0 0.0 0.0 0.0
0000e0 00 00 00 00 00 00 00 00 00 00 00 00 00 00 00 00
       0.0 0.0 0.0 0.0
0000f0 00 00 00 00 00 00 00 00 00 00 00 00 00 00 00 00
       0.0 0.0 0.0 0.0
000100 00 00 00 00 00 00 00 00 00 00 00 00 00 00 00 00
       0.0 0.0 0.0 0.0
000110 00 00 00 00 00 00 00 00 00 00 00 00 00 00 00 00
       0.0 0.0 0.0 0.0
000120 fd 5e ce 3a 0e 09 e2 ba 34 f0 8e 37 2d 49 c9 3a
       0.0015744861 -0.001724513 1.7039572e-05 0.0015356891
000130 dd 51 d0 ba a1 f6 1c 3b 16 01 f2 ba c0 26 d5 3a
       -0.0015893538 0.0023950713 -0.0018463458 0.0016262159
000140 ac 0f 8f ba cd e1 bc ba 76 26 ce ba 0a 96 76 ba
       -0.0010914705 -0.0014410556 -0.0015728015 -0.0009406513
000150 55 26 e3 3a 14 15 97 3a a8 96 b8 ba 6e 51 cf 3a
       0.001733015 0.0011526668 -0.0014082985 0.0015817115
000160 de 17 f9 3a 22 d5 6c 3a 1f 20 2a bb 78 bb da 39
       0.0019004305 0.0009034445 -0.0025959087 0.00041719875
000170 c4 42 9f 3a 38 a3 d6 ba cc c6 8e ba 65 af 14 bb
       0.0012150635 -0.0016375547 -0.0010892986 -0.002268755
000180 45 5e 72 ba fb 73 f9 3a 2e 9a 02 bb bc 68 df ba
       -0.00092456146 0.0019031757 -0.0019928324 -0.0017044763
000190 35 18 18 3b 20 ca eb ba d4 c1 f4 ba 42 d8 d2 3a
       0.0023207788 -0.0017989315 -0.0018673488 0.0016086178
0001a0 74 0d 74 ba 8b 16 f2 3a 8f 57 ea 3a fb 77 80 ba
       -0.0009309866 0.0018469853 0.0017878878 -0.0009801382

transformer_encoder.layers.0.self_attn.out_proj.weight f4 [36, 36]
000000 b1 81 72 bd 68 c5 13 3e 6e d9 02 3d 8f a6 94 bd
       -0.059205715 0.14430773 0.03194564 -0.07258331
000010 0a f8 bc bd f1 fe 04 3e f0 90 ef bd ba 23 78 bd
       -0.09226997 0.12987877 -0.116975665 -0.060580947
000020 33 82 e8 3d f4 32 9d 3c cc 98 da bc ef 6e 5e 3d
       0.113529585 0.019189335 -0.026684187 0.054305013
000030 92 63 13 be 20 0f a3 3d fb 15 0a ba fb 40 e3 bd
       -0.14393452 0.07961869 -0.00052675576 -0.110963784
000040 70 6c a0 3d aa f9 09 be 34 53 26 be 5a 28 01 3d
       0.07833183 -0.13474146 -0.16242677 0.031532623
000050 92 03 e1 bd 94 35 a6 bd 3c 6f 28 bd 93 cd 7e bd
       -0.10987009 -0.08115688 -0.041121706 -0.06220777
000060 92 23 d2 3d d8 dc c6 3c 68 db 1f bb 18 78 fb bd
       0.10260691 0.024275228 -0.002439225 -0.122787654
000070 bd 99 af 3d 55 16 5d bd c1 45 4e 3d ea 7f 06 3e
       0.08574245 -0.053976376 0.05035949 0.13134733
000080 fd 76 02 3c 4e 98 b1 3d bd 51 bf 3d b0 73 72 3d
       0.007962939 0.08671628 0.09341762 0.05919236
000090 24 3a 18 be 21 cb fd bd 56 ef d4 bd f0 af a6 3d
       -0.14865929 -0.123922594 -0.10397212 0.08139026
0000a0 07 ff e2 bd cc 7d b1 3d 3a 8e 75 3c 70 3b fe bc
       -0.11083799 0.08666572 0.014987523 -0.031034201
0000b0 f6 52 96 3d 38 a1 83 bd bb 73 28 be 5c 47 15 be
       0.07340042 -0.064272344 -0.16450398 -0.14578003
0000c0 c5 26 aa 3c 3a 92 82 3d cf 87 23 bc fd 7f ec 3d
       0.02077044 0.06375547 -0.00998111 0.11547849
0000d0 be cd 05 be f3 ec 0e 3e 2d f8 84 3d e3 af 11 bd
       -0.13066766 0.13957576 0.06492648 -0.03556813
0000e0 96 fe 72 3d 18 46 63 bd 87 f1 84 bc 40 71 0c be
       0.059324823 -0.05548677 -0.01622845 -0.13715076
0000f0 7e d8 db 3d 26 59 8f 3d 58 4c 10 be f8 18 b7 bd
       0.10734652 0.069994256 -0.14091623 -0.08940309
000100 fa c3 e0 3d 4f 19 58 bd 76 6e e8 bd 6f a4 ac 3c
       0.109748796 -0.05275851 -0.11349194 0.021074502
000110 4a 78 15 be 75 18 27 3e 8a f4 9b 3d a5 a4 da bd
       -0.14596668 0.16317923 0.076150015 -0.10675935
000120 85 57 b2 3d 2d d0 e8 3c f8 94 70 bd 30 f9 86 bd
       0.08708099 0.028419578 -0.058735818 -0.065904975
000130 71 4d bb 3d 7f bb 1c 3e 6f 86 97 bd 39 2a c7 3d
       0.0914563 0.15305899 -0.07398688 0.0972485
000140 a7 9c cf bd 35 d1 e8 bd 46 bc ae bd 0e 85 24 3e
       -0.10137301 -0.11368028 -0.08532004 0.16066381
000150 79 90 42 bd 4c cb bc bd 26 bb 14 3e e3 e2 22 3d
       -0.04750106 -0.09218463 0.14524516 0.039767157
000160 a2 21 af 3d af 2a a5 bd d5 50 02 3e 1b 92 c4 3d
       0.08551337 -0.08064782 0.12726147 0.0959818
000170 3c b7 0b bd d7 2d d3 3d 1d 00 d0 bd 66 70 c4 bb
       -0.034110293 0.10311478 -0.101562716 -0.0059948443
000180 b7 f6 f5 3d 9c 9a a7 bc 82 5d 15 bd f1 cd 97 bc
       0.12009948 -0.020459466 -0.03646613 -0.018530818
000190 b2 05 e0 3d 53 3f 9e bd 68 cb 94 bd 87 c4 09 3e
       0.10938586 -0.07726922 -0.07265359 0.13453875
0001a0 25 c5 0e be dc 46 e1 3c f0 19 e7 bd 40 9e d2 39
       -0.13942392 0.027499609 -0.11284244 0.00040172227
0001b0 60 4b e0 bd b7 f4 f4 bd 34 4d fa 3d 87 25 62 bd
       -0.10951877 -0.11960738 0.122217566 -0.05521157
0001c0 24 0c 68 3d e9 28 13 3d bc 6c e4 bd 6e 8b 95 3c
       0.056652203 0.035927687 -0.11153552 0.018254962
0001d0 cb 6c 8b bd b3 3b 13 be 65 e9 0b be 8d 3c 95 3d
       -0.0680786 -0.14378242 -0.13663252 0.0728694
0001e0 53 bb b9 3d e8 1b ee 3c 43 83 41 3d 18 5f a3 bd
       0.090689324 0.029066041 0.04724432 -0.07977122
0001f0 1c 1c 4e bd af 7e d5 3d e7 48 b9 3d ab f4 21 3e
       -0.050319776 0.104245536 0.09047108 0.1581599
000200 6c 86 dd 3c f4 93 d4 3d b5 9a ab bd 01 f3 18 be
       0.027041636 0.10379782 -0.083791174 -0.14936449
000210 77 18 f1 3d 90 32 13 3e c8 9f 49 3d 87 64 fc bd
       0.117722444 0.14374757 0.049224645 -0.123238616
000220 7e e0 a3 3c be 0e 1e bc 38 49 a1 bd c6 18 8d 3d
       0.020004507 -0.0096470695 -0.078752935 0.06889491
000230 ac 94 0a 3d 4d cf f9 3d 92 91 03 be f0 49 e3 bd
       0.03383319 0.121977426 -0.128485 -0.11098087
000240 2e f9 1e be d4 f4 b1 bd 38 85 7e 3d 90 d0 d3 bd
       -0.15524742 -0.086892754 0.062138766 -0.103425145
000250 11 1b 94 bd 85 84 8a 3d 6e f3 55 3c 56 d9 56 3d
       -0.07231725 0.06763557 0.013058526 0.05245336
000260 3d 82 56 3c 8c f3 a1 3d 16 b9 d7 bd 7f 77 73 bc
       0.013092575 0.07907781 -0.10533349 -0.014860033
000270 7b e6 e7 bd 26 e0 c1 3c d8 df e9 3d 80 f8 05 3e
       -0.113232575 0.023666453 0.11419648 0.13083076
000280 84 04 92 bb 0d 57 1e 3e 69 42 55 3d f0 bf 00 3e
       -0.0044561047 0.15462895 0.052065287 0.12573218
000290 1f 18 b1 3d cc b2 83 3b 52 3f 64 bd dd 5d ce bd
       0.08647179 0.004019117 -0.05572445 -0.10076497
0002a0 4d 71 a3 3d 58 fc f9 3c 28 d9 07 3e 96 c8 cc bd
       0.07980595 0.030515835 0.13266432 -0.09999196
0002b0 e2 72 99 3d 95 3c c2 bd c1 a2 cb bc b6 d1 ca 3d
       0.07492615 -0.09484211 -0.02485788 0.099032804
0002c0 5b 4a 69 bd cb ec 60 3d e5 10 b5 3b d2 87 85 3d
       -0.056955677 0.054913323 0.0055256956 0.06520046
0002d0 3b e6 65 bc 39 8e 1c bd db 1b 4e bb 63 f5 e7 3d
       -0.014031942 -0.03822157 -0.0031449709 0.11326101
0002e0 9f ad 7b 3c 7a 53 d7 3d 5a c8 14 3d 63 ca e8 bd
       0.015361219 0.10513969 0.036323883 -0.11366727
0002f0 de 73 c7 bc 27 96 88 bd 1a 44 52 bd 3b b5 22 3e
       -0.024347242 -0.06669264 -0.051334478 0.15889446
000300 dd cc ec bc 02 21 29 3e 5b 28 9a bd 37 54 2b 3d
       -0.02890628 0.16516498 -0.075272284 0.04182836
000310 b8 16 16 be 6b 80 84 bc 5e e1 1c bd 87 ff 0c 3e
       -0.14657104 -0.016174516 -0.038300864 0.13769351
000320 a4 c2 0b be 2f 05 be bd ea fd ff bd 6a 56 28 bd
       -0.13648468 -0.092783324 -0.12499602 -0.041098036
000330 ef c9 27 3e c8 0f fa 3d b0 af f4 bc 45 72 16 be
       0.16385625 0.12210041 -0.02986893 -0.14692028
000340 3a 9b 0d 3e 7e 9d e9 bc 8e 24 86 3d ad 8f 48 3c
       0.13828745 -0.028517481 0.06549941 0.012241286
000350 49 78 28 3e f6 d7 f7 bd 1a a7 21 3d bb 43 ef bd
       0.16452135 -0.12101738 0.039466 -0.116828404
000360 8b 67 d2 bd 2a 83 83 bd b4 71 18 be 4c e3 1a bd
       -0.102736555 -0.06421502 -0.14887124 -0.037814423
000370 47 ab 17 bd cb 8d cf 3d a0 cf b4 bd 57 70 61 3d
       -0.037028577 0.10134467 -0.08828664 0.055038776
000380 a8 a5 7d bd 9f 57 b2 bd 14 3b cf 3d da 1d ae bd
       -0.06192556 -0.08708119 0.1011869 -0.085017875
000390 61 1e 05 bd 0e 42 df 3d ee d0 e3 bc 7a cd b2 3d
       -0.032499675 0.10901271 -0.027809586 0.08730598
0003a0 cc ea 03 3e a9 10 07 be 1f 03 c6 bd 09 70 a7 3d
       0.12882537 -0.13189949 -0.09668564 0.08175666
0003b0 da ba 57 bd b3 9e 06 bd 4d 68 b8 bd c1 fb 0c be
       -0.05266843 -0.03286619 -0.09004269 -0.13767911
0003c0 36 50 24 be c0 f1 40 3c a3 66 05 be 60 34 ae bd
       -0.16046223 0.011776388 -0.13027434 -0.085060835
0003d0 b6 1f 6d 3d 7f 9e fc bd ac 90 19 be 37 23 34 bd
       0.05789157 -0.12334918 -0.14996594 -0.043978896
0003e0 1e a7 6f bd a0 63 4d 3d c6 43 c4 3c f8 5e 29 be
       -0.058508985 0.050143838 0.023958098 -0.16540134
0003f0 ba 21 0f 3e 65 9e 0d be 68 11 28 3e fd c0 a8 bb
       0.1397771 -0.13829954 0.1641289 -0.005149959

transformer_encoder.layers.0.self_attn.out_proj.bias f4 [36]
000000 f0 c8 b0 ba e7 63 ee 3a 39 8c ba 3a 4a cd c8 3a
       -0.0013487618 0.0018187732 0.0014232463 0.001531997
000010 73 a8 3f bb 76 ba 01 3b d9 de e6 3a 7b 18 f4 3a
       -0.002924469 0.0019794977 0.0017614021 0.0018623018
000020 38 df de 3a 96 8c bb ba 56 c4 06 3b e7 cf cf ba
       0.001700378 -0.0014308866 0.0020563803 -0.0015854806
000030 e3 d7 c2 ba be 8f b0 ba f2 2d bc ba d4 bc 31 3b
       -0.0014865365 -0.0013470573 -0.0014356954 0.0027120607
000040 b8 c9 b1 3a 44 7d a6 3a b1 ad e6 ba ed 1d b6 ba
       0.0013564145 0.0012702127 -0.0017599371 -0.0013894417
000050 63 e7 27 bb 51 81 33 b9 ad cc 86 ba fd f3 99 ba
       -0.0025620095 -0.00017118944 -0.0010284387 -0.0011745688
000060 62 67 e0 ba 20 40 e2 3a 20 2a d3 3a b0 1a cd 3a
       -0.0017120654 0.0017261542 0.0016110577 0.0015648212
000070 b1 ec 0c ba 95 64 ad 3a 4c f5 e3 ba 6c 70 0b ba
       -0.0005375846 0.0013228828 -0.001739183 -0.00053191814
000080 32 10 2e 3a 83 27 12 3b 93 11 e1 3a 3e 05 04 bb
       0.00066399865 0.0022301383 0.0017171375 -0.0020144726

transformer_encoder.layers.0.linear1.weight f4 [128, 36]
000000 46 a6 81 bd 41 b1 a2 3c 83 42 ac bd 42 7f cc bd
       -0.06330542 0.019859912 -0.084111236 -0.0998521
000010 22 fa 96 bd eb 3b b3 bc c0 ba 97 bd 27 08 0b 3d
       -0.07371928 -0.021879157 -0.074086666 0.03394332
000020 e7 05 5a 3d 20 69 5a 3d 57 4e 19 3d 16 7d 6c 3d
       0.053228285 0.05332291 0.037428226 0.05773648
000030 e6 b9 0c 3e b6 be 0a 3d 0f e3 07 be 46 ba 44 bd
       0.1374279 0.033873282 -0.1327021 -0.048029207
000040 31 5c bc 3d 91 4a a0 bd 31 bf da bd 2f 35 21 3e
       0.091972716 -0.078267224 -0.10680998 0.15742944
000050 47 fb d1 3d b6 5a a7 3d 45 02 cd bd 3d 19 e1 3d
       0.102530055 0.081715986 -0.100101985 0.10991142
000060 50 05 1e be e6 61 93 bd 03 d5 f1 3d 4a fd 13 3c
       -0.15431714 -0.07196407 0.11808207 0.009032557
000070 35 18 8d 3d b6 90 88 bd 1b ad 49 3d 2a 89 85 bc
       0.06889383 -0.066682264 0.049237352 -0.016300756
000080 71 da 14 3e 1e 2b b4 3c c9 95 14 3e af 81 fe bd
       0.14536454 0.021993216 0.14510264 -0.12427079
000090 2b 95 ca bd a7 d4 1c 3e 0b 59 80 3d 44 07 96 3d
       -0.09891733 0.15315495 0.062669836 0.073256046
0000a0 b2 89 2b 3d 68 72 c2 3d 05 e0 47 3c f6 dc 0a 3e
       0.041879363 0.094944775 0.0121994065 0.13560852
0000b0 64 16 0a 3e 79 df a3 bd c0 61 e8 bd ab 3c 19 3e
       0.13485104 -0.080016084 -0.11346769 0.14964549
0000c0 6f ef 63 bd 80 3b a6 3d 9d 5b 8e ba fd af 14 bc
       -0.055648264 0.081168175 -0.0010861043 -0.009075162
0000d0 11 22 b0 bd ac c8 1b 3e 64 83 25 be d9 90 8c bd
       -0.08600248 0.15213269 -0.16163403 -0.06863565
0000e0 51 ca f6 3d 47 bf 24 3e 9d 66 1c be 2f 56 07 be
       0.120503075 0.16088592 -0.15273519 -0.1321647
0000f0 5e 6e f5 bc 97 1f da 3c bf bb 1d 3e da 7a bb 3d
       -0.029959854 0.026626391 0.1540365 0.091542915
000100 08 d3 01 be 21 8b 0b 3e 9b 6b 02 3e 17 5d 5c 3d
       -0.12678158 0.13627292 0.1273636 0.053799715
000110 bf 6c 0b be 88 7d bb 3d c2 84 d1 bc 66 ff 8b 3d
       -0.13615702 0.091548026 -0.025576 0.06835823
000120 bb 0f ca 3d 1f 42 8a 3c 96 f4 0c bc d1 f4 d0 3d
       0.098662816 0.016877232 -0.008603236 0.10202945
000130 0a 7d 1a 3d 90 e4 18 3e 59 e1 b7 3d f5 0a 46 bd
       0.037716903 0.1493094 0.089785285 -0.048350293
000140 00 79 6a 3d af 8f 8d bc c1 e0 42 bd 06 4c 13 3e
       0.0572443 -0.017280428 -0.047577623 0.1438447
000150 37 9e 25 3e aa a1 f5 bd 60 ee d1 bd 4d a3 e1 3c
       0.16173635 -0.119937256 -0.102505445 0.027543688
000160 ab e3 12 be d3 f7 a4 3d d3 a6 ea bd f3 16 b0 3c
       -0.14344661 0.08055081 -0.114576004 0.021495318
000170 ea d3 72 bd 47 ec 40 bd d0 1e bd bd c8 ce a9 3d
       -0.05928413 -0.04710033 -0.09234393 0.082913935
000180 16 ea bd 3d 26 f8 d9 bc e2 4a 80 3d f7 16 20 be
       0.09273164 -0.026607584 0.06264283 -0.1563376
000190 2b 02 c9 3b 78 65 5d bd 2c 02 81 3d 05 fd e1 bd
       0.0061342916 -0.054051846 0.062992424 -0.11034588
0001a0 ce 39 1c 3e c8 ae a5 bd 42 75 20 be 97 64 dd 3c
       0.15256426 -0.080899775 -0.1566973 0.027025504
0001b0 e0 a3 49 bd c1 55 03 3d 8d de 0d 3b 6d cc 3a 3d
       -0.04922855 0.032064203 0.0021647543 0.045605112
0001c0 e9 a1 d2 bc fc f7 22 bd dc c8 a9 3d 09 d5 b0 3d
       -0.02571197 -0.039787278 0.08290264 0.08634383
0001d0 20 0f b2 bb c4 e2 84 bd e9 6b aa bd 15 f3 9a bd
       -0.005433932 -0.064885646 -0.083213635 -0.075658955
0001e0 21 2a c1 bc 32 e2 a3 bd 35 a6 eb 3b 7d 2f 44 bd
       -0.023579659 -0.08002128 0.0071914443 -0.04789685
0001f0 82 12 7d bd ab 4d 05 3e 5f ea ad bd f4 4e 04 3e
       -0.06178523 0.13017909 -0.08491968 0.12920743
000200 df a0 d8 3c 1f 06 8c 3d 4f ed 3f 3d 0a 51 e0 3d
       0.026443897 0.06837105 0.046857174 0.10952957
000210 b3 b5 0f be 03 f9 cc bd d8 d5 11 be 78 71 1a bd
       -0.14034157 -0.10008433 -0.14241731 -0.03770587
000220 b7 1d 0f be 4c 29 ce bd 19 43 90 bd 76 a0 55 3d
       -0.13976179 -0.100664705 -0.07044048 0.05215498
000230 e8 ec d3 bd d5 22 f2 3d f7 ff c6 3d ff 41 fb bb
       -0.10347921 0.1182305 0.0971679 -0.0076677795
000240 99 50 88 b9 2b 2a a8 bd c2 b0 94 bc fe 32 e2 bc
       -0.0002599999 -0.08211168 -0.018150691 -0.027612206
000250 27 45 b5 bc 56 2d 5a 3d 8a b2 d6 bd 54 8d 1c bd
       -0.022127701 0.053265892 -0.104832724 -0.03822072
000260 4f 6b f0 bd 71 75 c0 bd 2f d9 9b 3d 31 1b a2 bd
       -0.117392175 -0.093974 0.07609784 -0.079153426
000270 63 b5 92 3c 8e 9b 2e bd 49 51 08 3e b7 f3 cc 3d
       0.017908758 -0.042628817 0.13312258 0.100074224
000280 e5 7f 8a bd 85 0d 1b be f5 34 87 bc 2c 66 f8 3d
       -0.06762675 -0.15141876 -0.016504744 0.12128863
000290 90 62 f0 bd 82 ec ec bd 74 14 dd 3d d2 2a 73 3c
       -0.11737549 -0.11568548 0.10794917 0.014841752
0002a0 8b d5 f3 3d 22 93 db bd fa 6d 0f 3e f2 a2 27 be
       0.119059645 -0.10721423 0.14006796 -0.16370752
0002b0 e5 cc 98 3d d6 5d ce 3d 08 4a d2 3d 60 f4 11 3d
       0.074609555 0.100764915 0.102680266 0.035633445
0002c0 00 ac 18 be 5f d8 9b 3d 16 5d f8 3d 70 b5 2c 3e
       -0.14909363 0.07609629 0.1212713 0.16866088
0002d0 50 85 8f 3b 89 ad 29 bd 3c 12 eb bd 73 7f d0 3d
       0.0043799058 -0.04142526 -0.11478087 0.10180559
0002e0 f3 64 ac bc cf 31 f0 bd 6c a9 21 bc b3 83 6f 3d
       -0.02104423 -0.1172825 -0.0098670535 0.058475208
0002f0 77 76 19 3e 02 23 11 3d 42 ea ad 3c 56 c1 33 bd
       0.14986597 0.035433777 0.021229867 -0.04388555
000300 8f b4 0b 3e 8a 09 ef bd b6 c2 fc 3d ea 37 d8 3b
       0.13643096 -0.11671741 0.12341826 0.0065984624
000310 9b 91 ba 3d c1 a3 97 bd 8a 5b 1d be 24 c8 03 3c
       0.09109803 -0.074042805 -0.1536695 0.008043323
000320 24 14 8e bd 29 ca 2d bd 43 3e 06 be 51 e5 af 3d
       -0.06937435 -0.042429123 -0.13109688 0.085886605
000330 7a 5a 11 be 71 10 e2 3d e7 20 9d bd a2 2e 56 3c
       -0.1419467 0.11038292 -0.07672291 0.013072642
000340 16 08 db bd 6e 0f a6 bd e0 ae c5 bd 8c 07 67 bd
       -0.10694902 -0.08108412 -0.096524954 -0.05640368
000350 96 97 1f bd 50 3c ab bc dd 76 2b be 54 93 9e 3d
       -0.038962923 -0.020902783 -0.16744561 0.07742944
000360 15 e7 e1 3d 01 db 29 3e de e9 d4 bc 50 93 b5 3d
       0.110304035 0.1658745 -0.025990423 0.08865988
000370 ea d7 de 3d ac 6c bf bc 5d 27 7a ba 63 3d 66 bc
       0.10881026 -0.023367248 -0.0009542609 -0.014052722
000380 ad b4 0c be 6e d9 13 3e 25 a3 d8 bd 87 fd 02 be
       -0.13740797 0.14438412 -0.10577992 -0.12792026
000390 61 56 df 3c d0 9b 2c 3d 76 37 6d 3d d7 ad 78 bc
       0.027262868 0.042140782 0.05791422 -0.015178165
0003a0 61 c4 14 3e 5e 25 f2 bd d2 88 73 bd 76 04 8a 3d
       0.14528038 -0.118235335 -0.059456654 0.06739132
0003b0 94 3d 88 bd 8a 0d dd 3d f0 30 03 3e e6 6e 8a bd
       -0.0665237 0.10793598 0.12811637 -0.067594334
0003c0 e6 d2 17 be 7a e2 1b bd 74 cc 37 3d 9a 3f 25 be
       -0.14826545 -0.03805778 0.044872716 -0.16137543
0003d0 39 f5 0f be 98 39 de bd 3a 35 e9 bd 95 f9 39 3c
       -0.14058389 -0.10850829 -0.11387105 0.011351009
0003e0 56 87 8b bd 57 28 07 be ac 26 1c 3e 84 74 e8 3d
       -0.06812923 -0.13198982 0.15249127 0.113503486
0003f0 22 40 c8 3d 63 25 1e be 26 c3 b7 bd 48 60 e4 bd
       0.09777857 -0.1544395 -0.089727685 -0.11151177

transformer_encoder.layers.0.linear1.bias f4 [128]
000000 6b 5f 10 bb 84 c5 8c 3b d9 f2 1b be 69 e4 42 bd
       -0.002202953 0.0042960066 -0.15229358 -0.04758111
000010 95 7e a2 bd 78 91 84 bc eb 97 1c be b3 3d 01 be
       -0.079343 -0.016182646 -0.15292327 -0.12621193
000020 8b 81 1a be d8 1a 19 be dd e4 a5 3c da 13 da 3d
       -0.15088479 -0.14951646 0.020250732 0.10648318
000030 01 ca f8 3d b6 ed 87 bc ed b8 f4 3d fb a7 0a 3e
       0.12147904 -0.016592842 0.11949334 0.13540642
000040 ec 0e bb bd ee 27 fd bd 53 d9 86 3d 2b a6 f0 3d
       -0.091337055 -0.123611316 0.0658442 0.11750444
000050 81 28 b3 3d 2e 8c cc 3d 9d 86 1c 3e b4 6a 04 be
       0.0874796 0.09987675 0.15285726 -0.12931329
000060 33 58 40 3d a4 53 5b bd 4a b9 16 3e 3c fd 1b be
       0.046959113 -0.053546563 0.1471912 -0.1523332
000070 e8 b8 b7 3d 1d d0 a7 3d 4e 9a 6f 3d ea 35 bb bd
       0.08970815 0.08193991 0.058496766 -0.09141143
000080 cb c1 1a 3e 06 a3 f1 3d 9f 8f 21 3c 3d 22 1b 3e
       0.15112989 0.117986724 0.009860902 0.1514978
000090 74 96 15 3c 18 87 29 3d 36 02 28 be d7 7e c6 bd
       0.009130109 0.0413886 -0.16407093 -0.096921615
0000a0 cd 9a 14 be d5 be 16 be 8b 1d 0f 3e 26 3e 8d 3d
       -0.14512177 -0.14721234 0.13976113 0.068966195
0000b0 a9 11 ad 3d 7b dc b5 3d 98 3b 58 bd 6e e8 a8 3d
       0.08450634 0.08879944 -0.052791208 0.082474574
0000c0 24 6c 9e bd 45 8b 9b bc 84 6a 7b 3d 4f 6a 23 bc
       -0.0773547 -0.018987307 0.061380878 -0.009974076
0000d0 84 81 23 3e da a8 57 3d bc e6 b3 3d 8a 44 d1 3d
       0.15967375 0.052651264 0.087842435 0.10218151
0000e0 57 fa 18 bb e0 88 b2 3d f4 a5 e4 bc 63 10 29 be
       -0.0023342574 0.08717513 -0.027911164 -0.16510157
0000f0 62 0a 0d bd 1f f9 a4 3d b2 9f 16 bd 09 c4 d2 bd
       -0.03443373 0.080553286 -0.03677339 -0.10291297
000100 1b 09 1f bd 9e 95 09 be 8b a0 06 3e 73 ba 5c 3c
       -0.038827043 -0.1343598 0.1314718 0.013472187
000110 de e0 13 3d c1 ef a0 bd b2 40 a7 bd 7a 99 52 bd
       0.036103122 -0.078582294 -0.081666365 -0.051415898
000120 ee f4 9a 3d e3 76 0c be 14 1e ca 3d eb 50 cf 3c
       0.07566248 -0.13717227 0.09869018 0.02530714
000130 84 f6 32 3d 85 e8 ea 3d b4 c1 f4 bb 14 7f ab bd
       0.043692127 0.11470131 -0.0074693803 -0.083738476
000140 f4 44 27 bc 72 d3 69 bc f3 eb da 3d f5 3f f0 bd
       -0.010209311 -0.014271604 0.10689535 -0.11730949
000150 12 92 28 be b4 bc b8 3d 49 b4 56 3d df 99 12 be
       -0.16461971 0.09020367 0.052418027 -0.1431651
000160 4b b6 94 bd 0d a0 c4 3c a6 c1 86 3d 9e e4 cb bc
       -0.07261332 0.0240021 0.06579904 -0.024889287
000170 2a db d3 bd f1 d2 5d bd 5c 10 12 be 1d 5c dd bd
       -0.103445366 -0.054156248 -0.14264053 -0.10808585
000180 74 be 12 3e c2 b3 af 3a c2 fe f3 3d e6 e4 12 be
       0.14330465 0.0013405012 0.119138256 -0.1434513
000190 a5 d2 bf 3d 67 be da bd dc cd b3 bc 6a f7 ca 3d
       0.09366349 -0.106808476 -0.021948747 0.09910472
0001a0 b9 a3 a5 3c b8 f4 01 be 66 82 c0 ba a3 1c 1a be
       0.02021967 -0.12691009 -0.0014687299 -0.15049987
0001b0 44 05 11 3e fe de 21 3d 89 ea 26 be 13 20 0c 3e
       0.14162165 0.039519303 -0.16300406 0.1368411
0001c0 e1 1a 3c 3d 4e b6 96 bd 46 72 5e 3b 2c b4 ae 3d
       0.04592407 -0.073589906 0.0033942624 0.08530459
0001d0 51 f8 38 3d 18 d7 38 3d 8b 7a cf 3d 57 4d ec bd
       0.045158688 0.045127004 0.10130795 -0.11538189
0001e0 b3 0e c1 bd d5 24 04 be b7 c6 1a bd 21 6b 0f bc
       -0.09426632 -0.12904675 -0.037787165 -0.008753569
0001f0 63 b1 5c bd 27 a7 eb 3b bc 52 04 be ac 79 23 3e
       -0.053880107 0.007191557 -0.12922186 0.15964383

transformer_encoder.layers.0.linear2.weight f4 [36, 128]
000000 42 75 24 3d ec 90 a1 bd d9 8b 4d bd d6 00 4b b9
       0.04015089 -0.0788897 -0.050182197 -0.000193599
000010 d0 00 a0 3d 3e 5d 34 3c 3a 0f 9e 3c 24 93 71 3d
       0.07812655 0.011008559 0.01929437 0.058978215
000020 1e d0 89 bc 5b fe 56 bd 6b b9 2b bc 9e 7f a8 bd
       -0.01682287 -0.052488666 -0.010481219 -0.08227466
000030 5c 10 4d bd 3a 69 84 bd 03 76 9f bd c5 96 44 3c
       -0.05006443 -0.06465383 -0.07786181 0.011998837
000040 d2 85 f7 3c 85 7d c6 bb 13 bd d8 3a 30 48 4c 3d
       0.030215178 -0.0060574436 0.0016535841 0.04987353
000050 ea 5b 88 bc 51 30 cd bc 6a 41 78 bc 50 f1 81 bd
       -0.01664539 -0.025047453 -0.015152315 -0.06344855
000060 f4 f4 3d 3d d9 80 9b bd 58 8a 93 3d 1d c6 52 bd
       0.046376184 -0.07592935 0.07204121 -0.051458467
000070 de bf c1 3c 2d ba 27 3d 20 34 36 bd 18 25 ae 3d
       0.02365106 0.040949035 -0.044483304 0.08503169
000080 66 45 9e bd bb e1 62 bc 34 29 76 bd c6 fc 0d bd
       -0.077280805 -0.013847764 -0.060097888 -0.03466489
000090 96 4e 75 3d 54 87 90 bc ed 0a 9a 3d 42 8c ae bd
       0.0598894 -0.017642654 0.07521615 -0.08522846
0000a0 1a 70 9e 3d 58 bf f1 bc a1 c0 b8 3c f7 e9 b2 bd
       0.077362254 -0.029510185 0.02255279 -0.087360315
0000b0 5a ad 02 3d 53 9b 04 3d f6 04 85 3d 2f 67 a3 3d
       0.031903602 0.03237469 0.06495087 0.07978665
0000c0 22 09 9d 3c 9a 23 6a 3d 89 38 1f 3d b8 01 11 3d
       0.019169394 0.05716286 0.038872276 0.03540203
0000d0 2c 23 e3 bb 0d 61 b0 3d da 2a ae 3d 49 35 05 3d
       -0.006931683 0.08612261 0.08504267 0.03252152
0000e0 59 15 09 bd 6d 01 a6 3d 1d ee 8e 3d ba 34 13 bc
       -0.033467624 0.08105741 0.0697901 -0.008984739
0000f0 e7 5e ac bd 99 5a 89 3d 58 ba 9c bd 88 8c 53 3d
       -0.08416539 0.06706733 -0.0765273 0.051647693
000100 ce 14 6c 3d 28 79 ad bd 88 a9 16 3d 33 e4 9e bd
       0.05763703 -0.08470374 0.03678277 -0.07758369
000110 e1 e2 1b 3d eb 84 c9 bc 5e d3 1d 3d 22 fb 94 3d
       0.038058165 -0.024599513 0.038531654 0.07274462
000120 ee 3d a5 bd 7a 31 5b 3d 38 f4 33 bd eb 0f 6e 3d
       -0.08068453 0.05351398 -0.043934077 0.05812065
000130 79 b3 65 bd c9 9d 8a bd 45 be 7a 3d 34 15 81 bc
       -0.05607936 -0.067683764 0.06121661 -0.01575718
000140 b2 10 18 bd 71 20 a9 3d 04 4e 8b 3d 6b d8 8c 3c
       -0.037125297 0.08258141 0.0680199 0.01719304
000150 59 01 58 3c 21 c8 86 bb 61 83 8f 3b e2 3e 3e 3d
       0.013183915 -0.0041132127 0.0043796753 0.04644669
000160 1f 8a 82 bd bb 86 52 3d a9 f7 7c bc bf 52 25 bc
       -0.06374001 0.05139802 -0.015439906 -0.010090529
000170 54 93 8c bd 50 96 68 bd 18 55 47 3d 5a 16 42 3d
       -0.06864038 -0.056783974 0.048665136 0.047384597
000180 b0 22 78 3c 33 83 86 3c b4 9d 8d bd 8f 1b a1 3b
       0.015144989 0.016419983 -0.06914845 0.0049166153
000190 fc 06 b1 3d ba 46 aa bd 9f c9 98 3c 9c 7e 25 3c
       0.0864391 -0.08314271 0.018650828 0.010100987
0001a0 fc 32 fa 3c 7b d0 a1 3c 6b 9e d1 bc 2b e5 00 bd
       0.03054189 0.019752732 -0.025588235 -0.03146855
0001b0 82 53 69 3d 31 a5 43 3c 78 71 55 bd c1 8c 9b bd
       0.056964405 0.01194124 -0.052110165 -0.07595206
0001c0 66 37 37 3d 72 b4 b7 bd 41 b0 8c 3d 55 42 19 3d
       0.044730566 -0.08969964 0.06869555 0.037416775
0001d0 b9 99 d0 bb 28 5f e7 3c ec e5 4b bd 9e ab 1a bd
       -0.0063659814 0.028243616 -0.049779817 -0.037761323
0001e0 3a 21 04 3d 45 8c 97 bd 20 1c b2 3d 21 84 9a bd
       0.03225825 -0.07399801 0.08696771 -0.07544733
0001f0 72 0a f2 3c 20 93 1c 3b 5f 47 91 3d c9 9a 50 bb
       0.029545996 0.0023891404 0.07093691 -0.003183054
000200 69 2c 47 ba b6 17 7e 3d 48 60 43 bd 2d d7 a4 3d
       -0.0007597865 0.06203433 -0.047699243 0.08048854
000210 e0 33 a5 bd 08 af 66 3d e2 ab 24 bd e0 eb 07 bc
       -0.08066535 0.056319267 -0.040202983 -0.008295983
000220 14 9d 4f bd f8 72 66 3d 86 36 95 bd dd 9b 2a 3d
       -0.05068691 0.056261986 -0.0728579 0.04165255
000230 8d d1 12 3d dc e4 87 bd df e7 2c bd 93 02 65 3d
       0.035844374 -0.06635448 -0.042213317 0.055910658
000240 b4 ff 62 3d 75 e3 66 3d 1a 5d f4 bc 9e 0c 63 3c
       0.05541964 0.056369264 -0.02982955 0.013857989
000250 42 75 73 bc eb 78 b0 bd 8f 99 9a 3d b1 4f 9f 3d
       -0.014859499 -0.08616813 0.0754882 0.07778872
000260 5a 11 b2 3d b6 5b 76 3d 76 e8 42 3d 8e 85 53 3c
       0.08694716 0.060146056 0.047584973 0.01291026
000270 9e 24 80 bd 22 83 73 3d 33 75 18 bd 1b de 9e 3d
       -0.06256984 0.05945123 -0.037221145 0.07757207
000280 49 b9 f9 3b ec 18 43 bd 35 9e 38 bd b4 c9 67 bd
       0.0076209647 -0.04763119 -0.045072753 -0.056588843
000290 64 1b 62 bd 0a d8 4a bd 60 ef ab 3d 4d 83 5c bc
       -0.055201903 -0.049522437 0.083952665 -0.013459039
0002a0 f6 02 38 bd 2a 09 9a 3c c6 7f 16 3d f5 39 8a bd
       -0.0449247 0.018803198 0.036742948 -0.06749336
0002b0 ca 7a a0 bd bf 32 74 3b d2 65 cc 3c f3 96 7d bd
       -0.0783592 0.0037261692 0.024950895 -0.061911535
0002c0 be 8f 13 3d ae c6 7e bd 3b 52 2f 3d e5 cd 97 3d
       0.036025755 -0.062201194 0.04280303 0.07412318
0002d0 66 72 82 3d 56 10 e6 bc 4c f1 c7 3c c2 7e a9 3d
       0.06369476 -0.028083961 0.024407052 0.0827613
0002e0 b4 5c 3b bd c0 8a 13 ba 54 ed 3d bd c5 7f 81 3d
       -0.045742705 -0.00056282803 -0.04636891 0.06323198
0002f0 7b 56 30 3d 12 71 2e bd 36 92 60 3d df 86 be bc
       0.043051224 -0.0425883 0.054826938 -0.02325767
000300 24 cb 74 bd b3 02 88 bd 15 1e 93 bd 94 c8 52 bb
       -0.059764042 -0.0664114 -0.07183472 -0.003216301
000310 4c c4 96 3c a9 01 ea 3c c6 56 98 3d e6 71 a5 bc
       0.018404149 0.028565245 0.07438426 -0.020195913
000320 d0 35 07 bd 89 28 27 3d 66 a3 8d 3d 04 8c 90 bd
       -0.033010304 0.04081014 0.069159314 -0.07057956
000330 98 1b 17 bd 50 d5 81 bd e5 ed 0c bb a1 9a 09 bd
       -0.03689155 -0.06339514 -0.00215041 -0.03359473
000340 b7 53 bc 3c ee ba 8c bd b8 42 af 3d 5a 63 58 bd
       0.022989137 -0.068715915 0.085576475 -0.052829124
000350 76 16 a9 bd c2 16 20 3d 9d f8 a8 bd ec 68 3b bd
       -0.08256237 0.039084204 -0.08250544 -0.04575436
000360 1a be 57 3c c3 c3 93 3c 00 ad b1 3d bf bb 12 bc
       0.013167882 0.018037682 0.08675575 -0.008955895
000370 c8 33 6f 3d 8f 75 a3 bd 89 b9 34 3d bd 21 5a bd
       0.05839899 -0.07981407 0.044122253 -0.05325483
000380 3f 41 ae 3d 10 52 9e 3d 34 3b bc bb c6 3e 02 bd
       0.085085385 0.07730496 -0.0057443622 -0.031798147
000390 6d db 5e bd 11 c5 1e bd 41 c9 7d 3d 54 4b 4e 3d
       -0.05440848 -0.038762156 0.06195951 0.050364807
0003a0 2b be 98 bd 46 a7 89 bd 81 aa 5a 3d 82 76 43 bd
       -0.07458147 -0.06721358 0.05338526 -0.04772044
0003b0 e3 96 1f 3d a4 45 de bc 21 54 6e bd d0 5a 2b bd
       0.038962256 -0.027132817 -0.0581857 -0.041834652
0003c0 07 10 67 bd 00 bb 00 3d ef 9d f0 3a 3f f8 91 3d
       -0.05641177 0.031428337 0.0018357615 0.07127427
0003d0 05 f2 8b bd c2 d1 7a 3c 9d b2 a2 bd 57 88 da bc
       -0.06833271 0.015308799 -0.07944224 -0.02667634
0003e0 ee 0b 3e 3d 75 51 84 3c 80 03 85 3d 67 ee b8 bb
       0.046398096 0.016152123 0.06494808 -0.005643654
0003f0 a6 c7 38 3c 9c 16 5f bd fa 59 61 bd 19 ab 85 bb
       0.011278069 -0.05446492 -0.05501745 -0.0040792343

transformer_encoder.layers.0.linear2.bias f4 [36]
000000 80 2c 2c bd 87 f2 7d bd b4 70 0d 3d 9f d5 0f bd
       -0.042034626 -0.06199887 0.03453131 -0.035115834
000010 23 a5 11 bd 71 99 0b bd 12 90 ab 3c da 14 fc bc
       -0.035557877 -0.03408188 0.020942722 -0.030771662
000020 4d 86 91 bd ee d6 82 bd 1a f6 85 3d fd 8b 7b 3d
       -0.07105694 -0.06388651 0.06541081 0.0614128
000030 57 7c b5 bd fd 48 6c bd 59 10 a2 3d 62 ac 83 3d
       -0.088616066 -0.057686795 0.07913274 0.06429364
000040 ff 38 a0 3d f0 cc 6b 3d ff 41 1c bc 9a 79 51 3b
       0.07823371 0.05756849 -0.009537219 0.003196335
000050 90 38 e9 bc 39 fd 57 3d 8e 94 aa bd de d0 86 3c
       -0.028469354 0.052731726 -0.08329116 0.016457018
000060 af c6 67 bd 4a 89 29 bd 7d e9 d3 bc 57 b8 63 3c
       -0.056585964 -0.041390695 -0.025868172 0.0138989305
000070 d2 11 41 3d da 31 73 bd da a5 34 3c a3 f3 5a bd
       0.047136135 -0.059373714 0.01102587 -0.053455006
000080 04 67 59 3c 30 0f fb bb 7b 99 e3 3c ab a4 96 bd
       0.01326919 -0.0076617226 0.027783146 -0.07355627

transformer_encoder.layers.0.norm1.weight f4 [36]
000000 28 12 80 3f d6 2d 80 3f df bc 7f 3f 8b 34 80 3f
       1.0005541 1.0013988 0.9989757 1.0016035
000010 32 78 80 3f 5c 5d 80 3f 43 79 7f 3f 54 ee 7f 3f
       1.0036681 1.0028491 0.99794406 0.99973035
000020 e4 db 7f 3f ab 59 7f 3f c8 85 7f 3f 75 62 80 3f
       0.999449 0.997462 0.9981351 1.0030047
000030 38 03 80 3f 70 b3 7f 3f d7 23 80 3f 19 55 80 3f
       1.0000982 0.99883175 1.0010937 1.002597
000040 e3 5c 7f 3f 70 90 7f 3f 91 05 80 3f e5 86 7f 3f
       0.9975111 0.9982977 1.0001699 0.9981521
000050 0d 69 80 3f 28 1d 80 3f 04 33 80 3f ff da 7f 3f
       1.0032059 1.0008898 1.0015569 0.99943537
000060 69 47 80 3f 10 64 80 3f 17 00 80 3f fa 47 80 3f
       1.0021793 1.0030537 1.0000027 1.0021966
000070 d7 1e 80 3f a7 4c 80 3f 24 c1 7f 3f a5 52 80 3f
       1.0009412 1.0023392 0.99904084 1.0025221
000080 f7 0e 80 3f 1c 58 80 3f 59 50 7f 3f 66 e9 7f 3f
       1.0004567 1.0026889 0.99731976 0.9996551

transformer_encoder.layers.0.norm1.bias f4 [36]
000000 f0 09 ab ba 18 ef ea 3a 74 4b b5 3a 61 38 c3 3a
       -0.0013049226 0.0017924039 0.0013831691 0.0014894122
000010 25 ab 25 bb e1 64 01 3b 8d 53 e5 3a 6c 8d f4 3a
       -0.0025279012 0.0019743966 0.0017496214 0.001865787
000020 90 09 c6 3a 3c c8 b9 ba 06 a5 06 3b 33 59 9b ba
       0.0015109051 -0.0014174054 0.002054514 -0.0011852145
000030 d1 1e c7 ba e0 42 ab ba 1e a0 ad ba 0f 2a 2e 3b
       -0.0015191679 -0.0013066195 -0.0013246571 0.0026575362
000040 59 9c ac 3a 4e ab 9e 3a 52 8b e2 ba 65 d9 aa ba
       0.0013169154 0.0012105496 -0.0017283952 -0.0013034759
000050 19 53 15 bb ba a4 33 b9 d4 e5 94 ba dc 59 95 ba
       -0.0022785126 -0.00017132136 -0.0011359998 -0.0011394578
000060 0f cc db ba f0 39 e5 3a 1c f2 cc 3a a4 8b 2a 3b
       -0.0016769188 0.001748858 0.0015636119 0.0026023174
000070 ec 2e 46 b9 4d eb b1 3a 93 ab e4 ba d5 de 6f 3a
       -0.00018900231 0.0013574153 -0.0017446153 0.0009150331
000080 2b ab 24 3a f5 5e 12 3b 37 df df 3a b7 f9 06 bb
       0.00062816095 0.002233443 0.0017080073 -0.002059562

transformer_encoder.layers.0.norm2.weight f4 [36]
000000 7f 1f 80 3f a6 2f 80 3f 8d f0 7f 3f fe 39 80 3f
       1.0009612 1.0014541 0.99976426 1.0017698
000010 7a 71 80 3f 34 68 80 3f 89 70 7f 3f 94 b1 7f 3f
       1.003463 1.00318 0.9978109 0.9988034
000020 6f ac 7f 3f 40 51 7f 3f 52 8e 7f 3f c8 67 80 3f
       0.9987249 0.9973335 0.9982654 1.0031672
000030 21 0f 80 3f 38 07 80 3f 78 2e 80 3f 92 54 80 3f
       1.0004617 1.0002203 1.0014181 1.0025809
000040 69 35 7f 3f 53 a9 7f 3f ed 00 80 3f a6 91 7f 3f
       0.9969087 0.99867743 1.0000283 0.99831617
000050 3a 5a 80 3f 1b 0f 80 3f 30 01 80 3f bd f1 7f 3f
       1.0027535 1.000461 1.0000362 0.9997824
000060 93 44 80 3f 61 37 80 3f 2f 1f 80 3f 8d 24 80 3f
       1.0020927 1.00169 1.0009516 1.0011154
000070 bb 21 80 3f f8 5d 80 3f 03 c4 7f 3f ac 66 80 3f
       1.0010294 1.0028677 0.99908465 1.0031333
000080 e9 05 80 3f 09 6d 80 3f 6c 70 7f 3f af 37 80 3f
       1.0001804 1.0033275 0.9978092 1.0016993

transformer_encoder.layers.0.norm2.bias f4 [36]
000000 58 d8 bb ba 9d 62 f0 3a 71 ee ca 3a f0 be c2 3a
       -0.0014331443 0.0018339936 0.0015482438 0.0014857929
000010 f1 ab 49 bb 9d bc e3 3a 29 20 e2 3a 1d 73 cc 3a
       -0.003077265 0.0017374937 0.0017252016 0.0015598271
000020 cc 3a b5 3a a4 b0 b6 ba 7f 61 ed 3a ad b5 8b ba
       0.0013826727 -0.0013938141 0.0018110721 -0.0010659002
000030 86 af c7 ba d8 32 80 ba 3b a2 ac ba f8 d8 1d 3b
       -0.0015234805 -0.0009780778 -0.0013170907 0.0024085622
000040 ef c1 ad 3a 0d 74 b2 3a d8 81 d8 ba 51 33 96 ba
       0.0013256649 0.0013614908 -0.0016518189 -0.0011459385
000050 b6 39 99 ba 38 c4 4f b9 8f 0c 89 b9 11 dd 84 ba
       -0.0011690173 -0.00019814156 -0.00026140033 -0.0010136684
000060 78 0a d5 ba 8a a3 01 3b 69 6b c0 3a 69 6a 0b 3b
       -0.001625373 0.0019781315 0.0014680448 0.0021273142
000070 80 4d a9 3a 2a d7 2b 3b 3b 64 d8 ba d5 c1 0e 3b
       0.0012916774 0.0026220777 -0.0016509363 0.0021783013
000080 ee 25 19 3a 64 59 c8 b9 c5 7b db 3a 50 77 fd ba
       0.0005842139 -0.00038213574 0.001674526 -0.0019337926

transformer_encoder.layers.1.self_attn.in_proj_weight f4 [108, 36]
000000 f8 b7 9a 3d bd c0 26 3e 0c 29 14 3d fe 42 ad 3d
       0.075546205 0.16284461 0.036171958 0.08460043
000010 27 26 10 3e 29 42 a5 bc 15 02 83 3d dc 93 2a be
       0.14077054 -0.02017315 0.063968815 -0.16657966
000020 af b0 19 3e 31 a1 21 be c5 f9 1c bd 8d 2f da 3d
       0.15008806 -0.15784146 -0.038324136 0.10653601
000030 3d ad d2 bd e2 aa 95 3d 6c 74 b9 bd 2d c7 51 bd
       -0.10286949 0.07307984 -0.09055409 -0.05121534
000040 55 fa 24 be e3 22 c2 bd 71 2d f2 bd e8 01 d5 bd
       -0.16111119 -0.0947931 -0.118250735 -0.10400754
000050 3c 00 ab 3d f5 45 1b be 9e e4 49 3d b9 59 58 3d
       0.08349654 -0.15163405 0.049290292 0.05281994
000060 33 a3 9a 3d 56 00 cc 3d 4a de f7 3d 95 31 4c be
       0.07550659 0.099610016 0.12102945 -0.19940789
000070 1c 62 ed 3d 74 55 bf 3d 2d cf 31 bc db 3e a5 bd
       0.115909785 0.09342471 -0.010852617 -0.08068629
000080 fb 92 d7 3d 9c 4f 7f bd 53 5c 3d bc d3 d7 38 be
       0.10526081 -0.06233178 -0.011557656 -0.1805108
000090 5c 90 4e 3e 16 bd 1e bd 43 88 43 3e b9 9e 25 3e
       0.20172256 -0.038754545 0.19094948 0.16173829
0000a0 bf 1e 46 be be 86 4a bd 7b 3f ce 3d ff 7d 2d bd
       -0.19347666 -0.049444906 0.10070702 -0.042356487
0000b0 ce 5a 66 bd ce 2f 36 3e f6 ca b7 3d bb 3a a7 3d
       -0.05623894 0.17791674 0.089742586 0.08165499
0000c0 3e cc 0c be 98 58 1a 3e 3c 41 fa bc 32 22 59 3d
       -0.13749787 0.15072858 -0.030548684 0.053011127
0000d0 ad 09 3e bd 60 63 9a 3d 06 98 48 3d 94 1e 57 3d
       -0.046395946 0.075384855 0.048973106 0.052519396
0000e0 9f f0 af 3d 5e 62 b0 3d a2 a6 30 be af 3e 02 3e
       0.08590817 0.08612512 -0.17251065 0.12719224
0000f0 f4 24 bd bc a6 8b e3 3d 0e 4f 74 bd ab 3f 4b be
       -0.02308891 0.1111062 -0.059645705 -0.19848506
000100 f4 48 b9 bd 6c 16 86 bd 35 09 5c bd 0a ba 59 3d
       -0.09047118 -0.065472454 -0.053719718 0.053155936
000110 cc 2a e2 3d 7f ec 90 bd 88 15 93 3d dc 93 2f 3e
       0.11043319 -0.07076358 0.07181841 0.17146248
000120 00 b0 f9 3d e2 27 36 3d 5b 72 9d bc 61 50 19 3c
       0.121917725 0.04447163 -0.019219568 0.009357543
000130 ff 81 10 be f4 70 34 3e dd ef 83 3c bc ea be 3d
       -0.1411209 0.17621213 0.016105587 0.09322116
000140 47 39 86 bd 6e 36 cc bd ca bd 25 be 2e 18 31 3e
       -0.065538935 -0.09971319 -0.1618568 0.1729438
000150 aa ff 9b 3d bf f5 eb 3c 1e 00 45 3e b9 ca 88 bb
       0.076171234 0.028803704 0.19238326 -0.004174557
000160 42 a2 17 3e b5 0e c9 bd 16 70 a5 bc 7e ff 07 bd
       0.1480799 -0.09817258 -0.020195048 -0.03320264
000170 e7 73 2a be 97 b1 9b 3c 8c 9c 08 be af eb 38 3d
       -0.16645776 0.01900558 -0.13340968 0.04514664
000180 3c 95 a6 3d 1c 06 c5 bc 05 c3 37 be ad 11 22 be
       0.08133933 -0.024050765 -0.17945488 -0.15827055
000190 ea 41 39 3e 06 2d f1 3a 77 3e 2d bb 0e 76 4f be
       0.1809155 0.0018400259 -0.0026434937 -0.20259878
0001a0 cb d8 09 3e 07 7a 39 3e d9 8d 4d be e1 9e 82 bd
       0.13461606 0.18112956 -0.20073642 -0.0637796
0001b0 17 50 2e be dd af 19 3e eb 58 a5 3d 06 4e 1e 3e
       -0.1702274 0.15008493 0.080736004 0.15459451
0001c0 fb c4 07 3e 96 e6 33 3e bd c0 c1 3c b5 f7 a4 bc
       0.13258736 0.1756843 0.023651475 -0.020137647
0001d0 f0 18 dd bd 41 2a f2 3d 83 3e 22 be 50 dd 8c bd
       -0.10795772 0.118244655 -0.15844159 -0.068781495
0001e0 3a 33 30 3e 37 ad 36 3e eb d6 3f 3d 0c 30 9a bd
       0.17207041 0.17839514 0.04683582 -0.075286955
0001f0 53 53 4c be 00 aa 83 3c 93 bc ba 3d a5 ba c5 3d
       -0.1995366 0.016072273 0.09117999 0.0965474
000200 d5 78 f5 bd 20 ca 43 bd 94 e4 f7 bd 6c a2 41 be
       -0.119859375 -0.047800183 -0.12104145 -0.18909615
000210 97 a1 37 be 50 a2 3a be ae 5c 4a be dd 86 92 3d
       -0.17932735 -0.1822598 -0.19761917 0.071546294
000220 9f ee 29 be 96 a7 ed 3d 50 ec 28 be 94 1c 12 be
       -0.16594933 0.1160423 -0.16496396 -0.14268714
000230 eb e0 17 3e b0 10 7f bd 18 af 02 3e 4b 66 0d 3e
       0.14831893 -0.062271774 0.12762105 0.13808553
000240 7d 8e b3 3d d7 bf b2 bd 2e 5a cb bd fb e4 f0 3d
       0.08767412 -0.08727997 -0.0992931 0.117624246
000250 68 19 67 3d 09 46 4b 3d 8a d3 15 bc c3 7e 51 ba
       0.056420714 0.049627338 -0.009144673 -0.0007991606
000260 b7 b0 2f bd 2d 97 fc bd a1 83 dd bc 4c 5a 29 3e
       -0.042893138 -0.12333522 -0.027040305 0.16538352
000270 ad b2 5e 3d 74 f4 df bc 78 db 9c bd 20 6c 2f 3e
       0.054369617 -0.027338244 -0.07659048 0.1713109
000280 e1 54 68 bc e4 d0 23 be 09 f6 96 bd bc fa 67 3d
       -0.014180393 -0.15997654 -0.07371146 0.056635603
000290 fc 6a 4e 3e b0 ab 66 bc 9a 21 18 3e bb 20 a2 3d
       0.20157999 -0.014079019 0.14856568 0.07916399
0002a0 85 dd 4d 3e cd 68 b3 bc c8 ff 28 3e c2 7d 27 be
       0.20104034 -0.021900559 0.16503823 -0.16356567
0002b0 18 fd 94 3d e4 1b d5 bd da c3 41 3d 8d b0 4e bc
       0.07274836 -0.1040571 0.04730592 -0.012615335
0002c0 fc 05 7b bd 1b e7 a5 3d 85 00 7c 3c 55 4b c5 bd
       -0.061285004 0.081007205 0.015380983 -0.09633509
0002d0 31 52 09 be d2 e2 1f bd 78 7a 50 3e 3b c3 20 be
       -0.1341026 -0.039034672 0.20359218 -0.15699475
0002e0 95 3a c9 bd 22 ef fa bd c6 0d 2b be 25 e8 11 be
       -0.09825627 -0.12252642 -0.16704473 -0.14248712
0002f0 47 75 7c 3d 06 d4 a8 3d 1a 82 25 3d 44 bb 46 3e
       0.061635282 0.08243565 0.040407278 0.19407374
000300 19 8d ca 3c 26 d8 f8 bd 63 57 93 bc 1c 90 2e 3e
       0.024725484 -0.12150602 -0.017986005 0.17047161
000310 05 57 23 be 97 af a2 bd 20 72 54 3c ed b9 6f bb
       -0.15951164 -0.07943647 0.012966663 -0.0036579326
000320 41 c8 b4 3c a9 10 b7 3c 4b b6 dc bd 11 4a 48 be
       0.022068145 0.022346811 -0.10776957 -0.19559504
000330 76 ee c2 bd 3f 9c bf bd cc 91 d2 bd ba ef 44 3e
       -0.09518139 -0.093559735 -0.10281715 0.19232073
000340 5f 68 ed 3d 10 72 bd 3d b6 1f e1 3d 13 38 fe 3d
       0.11592173 0.09250271 0.109923765 0.12413039
000350 45 51 3e 3c f1 eb db bc e6 69 06 bd e7 28 2d bd
       0.011616056 -0.026845904 -0.032815836 -0.042275336
000360 0d 11 2e be d8 a1 dc bd e0 02 fe 3d 01 5a 1a be
       -0.16998692 -0.10773057 0.12402892 -0.15073396
000370 15 46 fa 3b 9e 5e dd bd 2a a8 09 be 73 32 00 be
       0.007637749 -0.108090624 -0.13443056 -0.12519245
000380 58 d4 17 3e 16 ac 81 bd 22 82 48 bd 39 d3 f5 bd
       0.14827096 -0.06331651 -0.04895223 -0.12003178
000390 27 34 1e 3e 8f d8 1a be 9b f4 42 3e 7b a7 31 be
       0.15449582 -0.15121673 0.19038622 -0.17349045
0003a0 44 b4 a0 3d af 28 8e 3b 97 92 31 3e 90 39 e9 bd
       0.07846883 0.004338346 0.17341076 -0.11387932
0003b0 75 e3 a0 bc ce 13 fe 3d 79 a5 e7 bd f3 64 45 bd
       -0.01963971 0.12406121 -0.11310858 -0.048191976
0003c0 1c e0 1b 3e ad b6 fc bd 29 c4 06 be 79 3c 22 be
       0.1522221 -0.1233953 -0.13160767 -0.15843381
0003d0 97 78 7e 3b e2 85 d6 3d 1f 81 ce 3d e4 17 22 be
       0.0038829201 0.10474755 0.10083222 -0.15829426
0003e0 73 ef c4 bc 4e 44 52 3d ed d0 23 3e ba c3 37 3d
       -0.02403996 0.05133467 0.15997668 0.044864394
0003f0 db 61 17 be d4 e5 aa bc 76 0a 2e 3d da d2 03 bd
       -0.14783423 -0.020861544 0.042490445 -0.032183506

transformer_encoder.layers.1.self_attn.in_proj_bias f4 [108]
000000 00 00 00 00 00 00 00 00 00 00 00 00 00 00 00 00
       0.0 0.0 0.0 0.0
000010 00 00 00 00 00 00 00 00 00 00 00 00 00 00 00 00
       0.0 0.0 0.0 0.0
000020 00 00 00 00 00 00 00 00 00 00 00 00 00 00 00 00
       0.0 0.0 0.0 0.0
000030 00 00 00 00 00 00 00 00 00 00 00 00 00 00 00 00
       0.0 0.0 0.0 0.0
000040 00 00 00 00 00 00 00 00 00 00 00 00 00 00 00 00
       0.0 0.0 0.0 0.0
000050 00 00 00 00 00 00 00 00 00 00 00 00 00 00 00 00
       0.0 0.0 0.0 0.0
000060 00 00 00 00 00 00 00 00 00 00 00 00 00 00 00 00
       0.0 0.0 0.0 0.0
000070 00 00 00 00 00 00 00 00 00 00 00 00 00 00 00 00
       0.0 0.0 0.0 0.0
000080 00 00 00 00 00 00 00 00 00 00 00 00 00 00 00 00
       0.0 0.0 0.0 0.0
000090 00 00 00 00 00 00 00 00 00 00 00 00 00 00 00 00
       0.0 0.0 0.0 0.0
0000a0 00 00 00 00 00 00 00 00 00 00 00 00 00 00 00 00
       0.0 0.0 0.0 0.0
0000b0 00 00 00 00 00 00 00 00 00 00 00 00 00 00 00 00
       0.0 0.0 0.0 0.0
0000c0 00 00 00 00 00 00 00 00 00 00 00 00 00 00 00 00
       0.0 0.0 0.0 0.0
0000d0 00 00 00 00 00 00 00 00 00 00 00 00 00 00 00 00
       0.0 0.0 0.0 0.0
0000e0 00 00 00 00 00 00 00 00 00 00 00 00 00 00 00 00
       0.0 0.0 0.0 0.0
0000f0 00 00 00 00 00 00 00 00 00 00 00 00 00 00 00 00
       0.0 0.0 0.0 0.0
000100 00 00 00 00 00 00 00 00 00 00 00 00 00 00 00 00
       0.0 0.0 0.0 0.0
000110 00 00 00 00 00 00 00 00 00 00 00 00 00 00 00 00
       0.0 0.0 0.0 0.0
000120 e0 8a c5 3a 1a f8 c3 ba 91 dc 83 ba e6 8d b1 3a
       0.0015071295 -0.0014951259 -0.0010060241 0.0013546317
000130 5b db 9a ba 0e ec fa 3a ac 29 ee ba cd 82 d3 3a
       -0.0011814641 0.0019143836 -0.0018170378 0.0016137004
000140 01 f4 a5 ba 2c c6 2d bb 54 22 e6 ba 87 43 88 3a
       -0.001266122 -0.0026515825 -0.0017557838 0.0010396101
000150 0b b1 00 3b e5 09 94 3a ad 34 aa ba 56 2a cd 3a
       0.0019636776 0.0011294453 -0.0012985669 0.0015652876
000160 03 37 07 39 d5 9d 10 3a 2a d3 d8 ba f3 1c 81 3a
       0.00012895097 0.0005516683 -0.0016542424 0.0009850546
000170 54 bd d6 ba 42 a0 ad ba cb 8e 84 3a b2 0c 8d 3a
       -0.0016383328 -0.0013246613 0.0010113356 0.001076123
000180 d9 8e 6b ba 57 f7 de 3a 26 99 ec ba 07 bf 52 ba
       -0.00089858245 0.0017010969 -0.0018051013 -0.00080393296
000190 f8 ff 2f 3b 67 e9 d8 ba 4d a0 dd ba ac 6d bc 3a
       0.002685545 -0.0016549052 -0.0016908735 0.0014375946
0001a0 f3 b8 5e ba 97 9a ea 3a 14 a4 57 ba d8 78 a7 ba
       -0.00084961875 0.0017898855 -0.00082260487 -0.0012777103
