pipeline/evaluation/ILRLHybrid.pth (torch, 854921 bytes, 27 tensors)

transformer_encoder.layers.0.self_attn.in_proj_weight f4 [108, 36]
0	0x3de88a94	0.11354557
1	0x3de9f408	0.114234984
2	0x3dc22951	0.09480537
3	0xbd688f63	-0.05677737
4	0x3d9c6143	0.07635739
5	0xb8160800	-3.5770237e-05
6	0x3e33cb58	0.17558038
7	0x3e4d52a4	0.20051056
8	0xbe4e16b0	-0.20125842
9	0xbd87bfbb	-0.066283666
10	0xbe37e921	-0.17960025
11	0xbe3b3bcc	-0.1828453
12	0x3d9a20f8	0.075258195
13	0xbc36f569	-0.011166909
14	0x3dee40d8	0.11633462
15	0x3dfe33c6	0.12412219
16	0x3e500ec7	0.20318137
17	0xbc877397	-0.01653461
18	0x3e3dc6b1	0.18532826
19	0x3d96b4ef	0.07358729
20	0xbdbc600d	-0.09198008
21	0x3dfdc4cc	0.12391052
22	0xb77421eb	-1.45514305e-05
23	0x3de90692	0.11378206
24	0xbe1ef378	-0.15522563
25	0x3d05e0da	0.03268514
26	0xbda6820f	-0.081302755
27	0x3e426310	0.18983102
28	0xbe4ef3a2	-0.20210126
29	0xbdce59f4	-0.10075751
30	0x3e0a73b6	0.13520703
31	0x3d81880c	0.06324777
32	0xbdd6dcac	-0.104913086
33	0x3d767abb	0.06017564
34	0x3e42180c	0.18954486
35	0xbca3d571	-0.019999238
36	0xbd821faf	-0.063536994
37	0x3d0a928f	0.033831175
38	0x3e2fda5b	0.1717314
39	0x3c0fd319	0.008778357
40	0x3a5be147	0.0008387756
41	0xbc3fdb3b	-0.011709983
42	0xbe3b5da6	-0.18297443
43	0xbdbfa670	-0.09357917
44	0x3d53198a	0.051538028
45	0xbcdcbb6f	-0.026944844
46	0xb92a3042	-0.00016230441
47	0xbe0023bf	-0.12513636
48	0xbe2754ea	-0.16340986
49	0xbd94520a	-0.0724221
50	0xbe09844e	-0.13429376
51	0xbd47e8c2	-0.04880596
52	0xbb58bf7a	-0.0033073113
53	0xbd20d9d6	-0.039270245
54	0xbd7494a2	-0.05971206
55	0x3e32fd18	0.1747936
56	0xbda20e07	-0.07912832
57	0xbd192471	-0.03738827
58	0xbe1c6f87	-0.1527692
59	0xbe50d247	-0.20392714
60	0xbdcf5612	-0.101238385
61	0xbdf8db7e	-0.1215124
62	0x3e049954	0.12949115
63	0xbdb75b34	-0.089529425
64	0x3cbf2c0b	0.023336431
65	0xbc970198	-0.018433377
66	0x3dc407ab	0.09571775
67	0x3e47fd46	0.1953021
68	0x3dfe14d3	0.12406316
69	0xbcdc7cec	-0.026915036
70	0xbc49c9cd	-0.012316179
71	0xbd907a81	-0.07054616
72	0xbe039405	-0.12849434
73	0x3e24e1ff	0.16101836
74	0xbd85879d	-0.06520007
75	0xbe395e89	-0.18102469
76	0x3e07e8fe	0.13272473
77	0x3cd81b28	0.026380137
78	0x3e0a45cd	0.1350319
79	0x3d468074	0.048462346
80	0xbd2f5334	-0.042803958
81	0x3e33b181	0.17548181
82	0x3e06d26f	0.13166212
83	0xbe4a7b40	-0.19773579
84	0xbde2548a	-0.11051281
85	0x3e4f4716	0.20241961
86	0xbd374fc3	-0.0447538
87	0x3d6ca2f9	0.05777261
88	0x3e244efc	0.16045755
89	0x3e45076b	0.19241111
90	0x3cfe2def	0.031027762
91	0xbd9ce64d	-0.07661114
92	0xbe114260	-0.14185476
93	0x3cbb2f6c	0.022849761
94	0x3d771194	0.0603195
95	0xbe4df06c	-0.20111245
96	0xbc7cd7ab	-0.015432279
97	0x3e324e93	0.17412786
98	0xbda95c4d	-0.08269558
99	0xbdcb0bbe	-0.09914349
100	0xbe4551a9	-0.19269432
101	0x3e4bbfff	0.1989746
102	0x3e146a3e	0.14493653
103	0x3e143842	0.14474586
104	0xbe07ba27	-0.13254605
105	0x3e307c75	0.17234977
106	0xbdf60aa7	-0.120137505
107	0xbe01c433	-0.126725
108	0xbe010752	-0.12600449
109	0xbdf34dd2	-0.118800774
110	0x3dfb4f0f	0.122709386
111	0x3d8fd823	0.07023647
112	0x3e4e144f	0.20124935
113	0xbe27e69d	-0.16396566
114	0xbc989686	-0.018626463
115	0x3e40b70a	0.18819824
116	0x3e067349	0.13129915
117	0x3c7d9876	0.015478244
118	0x3c7f6546	0.01558811
119	0xbe3db090	-0.18524384
120	0x3e2f7eee	0.17138264
121	0x3e2d1c3c	0.16905302
122	0x3e1e0496	0.15431437
123	0xbc3e28db	-0.01160642
124	0x3e3157f3	0.17318706
125	0xbdf1b970	-0.118029475
126	0xbd144be1	-0.036205176
127	0xbe25c367	-0.16187821
128	0x3e16e92e	0.14737388
129	0x3e30cead	0.1726634
130	0x3e303f28	0.17211592
131	0xbc7d2eba	-0.015453035
132	0xbe3da7cf	-0.18521045
133	0x3d9f8f60	0.077910185
134	0x3cf00a67	0.029301835
135	0x3cb3bb52	0.021939907
136	0xbe3c87b8	-0.18411148
137	0x3a5505cf	0.0008126171
138	0xbe265792	-0.16244343
139	0xbca84ada	-0.020543505
140	0x3dffb81c	0.12486288
141	0xbdeaf2a0	-0.11472058
142	0xbe40bdc7	-0.18822394
143	0x3ddf4709	0.10902221
144	0xbdbe86d4	-0.0930306
145	0x3e50726b	0.20356147
146	0x3cb21b36	0.02174149
147	0xbdd24a0c	-0.102680296
148	0xbdb56e48	-0.08858925
149	0x3d25c37f	0.040469643
150	0xbdbbace1	-0.091638334
151	0x3c9fb0ea	0.019493539
152	0xbdcb39d3	-0.099231385
153	0x3d86ef10	0.06588566
154	0xbdc216d8	-0.09477013
155	0x3e1aee03	0.15129857
156	0xbca1ed2d	-0.019766415
157	0x3bd1fd86	0.006408396
158	0xbd662426	-0.056186818
159	0xbe02071d	-0.12698026
160	0xbd7575e9	-0.0599269
161	0x3e002fee	0.12518284
162	0x3e26a7eb	0.16274993
163	0xbc8dfcbf	-0.017332433
164	0xbe062b74	-0.13102514
165	0xbddb0f90	-0.10696328
166	0x3e16eccb	0.14738767
167	0x3deeb5b2	0.116557494
168	0x3e21710e	0.15765783
169	0xbdb71339	-0.08939213
170	0xbe1a4490	-0.15065217
171	0xbdd29b88	-0.102835715
172	0xbdc18c3b	-0.09450575
173	0x3b2a7f76	0.0026015914
174	0x3e4fc914	0.20291549
175	0x3dbc5287	0.09195428
176	0xbe097dba	-0.13426867
177	0x3e03b610	0.1286242
178	0x3c28cd98	0.010302924
179	0xbe345c14	-0.1761325
180	0x3dd36a2e	0.103229865
181	0x3d446048	0.047943383
182	0x3e42ce9d	0.19024129
183	0xbe140890	-0.14456391
184	0x3dcd77c2	0.100326076
185	0x3d851c5c	0.0649955
186	0xbe32aa5b	-0.17447798
187	0xbdbbf29d	-0.09177134
188	0xbe39ce31	-0.18145062
189	0x3d6c85dc	0.057744846
190	0xbd446416	-0.047947012
191	0xbdc9bd12	-0.098505154
192	0x3e0d9608	0.13826764
193	0x3d09056f	0.033452448
194	0x3c4942ac	0.012283962
195	0xbdf19bf7	-0.11797326
196	0xbda692c6	-0.081334636
197	0x3e22d637	0.15902029
198	0xbe3b4252	-0.18287018
199	0x3d71a75f	0.05899751
200	0xbdea85f7	-0.11451333
201	0x3d4874b6	0.04893943
202	0x3e470db8	0.19438827
203	0x3e0740f8	0.13208377
204	0xbcf9a7bb	-0.030475488
205	0xbdfad652	-0.122479096
206	0x3dd98e27	0.106228165
207	0x3da89f80	0.08233547
208	0x3d789403	0.06068803
209	0xbe401ad1	-0.1876023
210	0xbc124b11	-0.00892903
211	0xbe3688ee	-0.17825672
212	0x3d749038	0.05970785
213	0x3c18da9a	0.009329462
214	0x3c39a8c7	0.011331744
215	0xbb2b77ad	-0.0026163862
216	0x3e016a2b	0.12638156
217	0x3e3b7904	0.18307883
218	0x3e267e3f	0.16259097
219	0x3b746d09	0.0037296435
220	0xbe0abfc1	-0.13549711
221	0x3e3cea8c	0.18448848
222	0xbd7c64cc	-0.061619565
223	0x3c85d157	0.016335173
224	0x3d93e3c9	0.07221181
225	0x3dfcd344	0.12344983
226	0x3e50f8ab	0.2040736
227	0xbe348882	-0.17630199
228	0x3c3a89b9	0.011385375
229	0x3e2d4926	0.16922435
230	0xbe42c47a	-0.19020262
231	0xbdd9fc30	-0.10643804
232	0xbdc2b77d	-0.09507654
233	0x3d3c72d4	0.046007946
234	0x3e2e641f	0.1703038
235	0xbd3244c0	-0.043522596
236	0x3c2ca701	0.010537864
237	0x3ccf5245	0.025307784
238	0x3dc74401	0.097297676
239	0xbe2a6e10	-0.16643548
240	0x3d0be9b7	0.034158435
241	0x3e31473b	0.17312329
242	0xbe392838	-0.18081748
243	0x3c717ee1	0.014739723
244	0xbe50a058	-0.20373666
245	0x3d7ad3ab	0.06123702
246	0xbdeae41e	-0.11469291
247	0xbe152652	-0.145654
248	0xbd8f61e9	-0.07001097
249	0x3e485cf6	0.19566712
250	0x3d734ab8	0.05939743
251	0x3dfc5586	0.12321
252	0x3e3a84ef	0.18214773
253	0xbe078284	-0.13233382
254	0xbe039a0a	-0.1285173
255	0x3da48ee0	0.08035064

transformer_encoder.layers.0.self_attn.in_proj_bias f4 [108]
0	0x00000000	0.0
1	0x00000000	0.0
2	0x00000000	0.0
3	0x00000000	0.0
4	0x00000000	0.0
5	0x00000000	0.0
6	0x00000000	0.0
7	0x00000000	0.0
8	0x00000000	0.0
9	0x00000000	0.0
10	0x00000000	0.0
11	0x00000000	0.0
12	0x00000000	0.0
13	0x00000000	0.0
14	0x00000000	0.0
15	0x00000000	0.0
16	0x00000000	0.0
17	0x00000000	0.0
18	0x00000000	0.0
19	0x00000000	0.0
20	0x00000000	0.0
21	0x00000000	0.0
22	0x00000000	0.0
23	0x00000000	0.0
24	0x00000000	0.0
25	0x00000000	0.0
26	0x00000000	0.0
27	0x00000000	0.0
28	0x00000000	0.0
29	0x00000000	0.0
30	0x00000000	0.0
31	0x00000000	0.0
32	0x00000000	0.0
33	0x00000000	0.0
34	0x00000000	0.0
35	0x00000000	0.0
36	0x00000000	0.0
37	0x00000000	0.0
38	0x00000000	0.0
39	0x00000000	0.0
40	0x00000000	0.0
41	0x00000000	0.0
42	0x00000000	0.0
43	0x00000000	0.0
44	0x00000000	0.0
45	0x00000000	0.0
46	0x00000000	0.0
47	0x00000000	0.0
48	0x00000000	0.0
49	0x00000000	0.0
50	0x00000000	0.0
51	0x00000000	0.0
52	0x00000000	0.0
53	0x00000000	0.0
54	0x00000000	0.0
55	0x00000000	0.0
56	0x00000000	0.0
57	0x00000000	0.0
58	0x00000000	0.0
59	0x00000000	0.0
60	0x00000000	0.0
61	0x00000000	0.0
62	0x00000000	0.0
63	0x00000000	0.0
64	0x00000000	0.0
65	0x00000000	0.0
66	0x00000000	0.0
67	0x00000000	0.0
68	0x00000000	0.0
69	0x00000000	0.0
70	0x00000000	0.0
71	0x00000000	0.0
72	0x3ac1cca3	0.0014785718
73	0xbb0636af	-0.0020479371
74	0xbaa82c6f	-0.0012830625
75	0x3ac47063	0.0014987107
76	0xb9684ac6	-0.000221531
77	0x3afbd31b	0.0019212695
78	0xbb4675cd	-0.0030282617
79	0xbac73a97	-0.0015199956
80	0xbaf441c1	-0.0018635319
81	0x39e94065	0.000444892
82	0x3a8d023a	0.001075811
83	0xbaf05d2a	-0.0018338312
84	0x3ac088d6	0.0014689218
85	0x3ac472d1	0.0014987831
86	0xb8f68411	-0.000117547934
87	0xba765ea4	-0.0009398258
88	0xba16fe8d	-0.0005759977
89	0x3ab9b169	0.0014167252
90	0x3b30e499	0.0026991724
91	0x3a8be44a	0.0010672894
92	0x3afcac95	0.0019277508
93	0x3ae30cfe	0.0017322598
94	0xbaa077de	-0.0012242754
95	0xbb1e3803	-0.0024142272
96	0xba8a2351	-0.001053909
97	0xb9f0b53c	-0.00045911397
98	0x3a9a325c	0.0011764276
99	0xbae19653	-0.0017210938
100	0xbb1fc541	-0.0024379047
101	0xb97b908e	-0.00023991076
102	0xbb4a0a0e	-0.0030828747
103	0xb9145a79	-0.00014148084
104	0x3a25a2fa	0.0006318536
105	0x3b1f308b	0.0024290408
106	0x3a015005	0.00049328833
107	0x3b1fdeeb	0.0024394344

transformer_encoder.layers.0.self_attn.out_proj.weight f4 [36, 36]
0	0x3d1fbf8e	0.03900104
1	0x3da10945	0.07863096
2	0xbd98cec0	-0.074613094
3	0xbde4e92e	-0.11177288
4	0xbd869c27	-0.065727524
5	0x3d96974d	0.07353077
6	0xbdb74b3d	-0.089498974
7	0xbd50d887	-0.050987747
8	0xbe138597	-0.14406429
9	0xbdfdd21a	-0.12393589
10	0xbe209e73	-0.15685444
11	0x3e252446	0.16127118
12	0xbd5a070a	-0.05322937
13	0xbc69c1d2	-0.014267402
14	0xbd73ae1a	-0.059492208
15	0xbda4c6bd	-0.08045719
16	0xbdcbee9f	-0.09957623
17	0x3c2ea57f	0.0106595745
18	0xbe0f72d8	-0.14008653
19	0x3afd87cc	0.0019342839
20	0x3df5089e	0.11964534
21	0x3dd2362d	0.102642395
22	0x3e1e3c47	0.15452681
23	0x3e07f234	0.13275987
24	0x3e22d091	0.15899874
25	0x3df0fc2d	0.11766849
26	0xbde5d5e2	-0.112224355
27	0x3dd7fadd	0.10545895
28	0xbe0a069f	-0.13479088
29	0x3d220d27	0.039563324
30	0xbd842c35	-0.06453744
31	0x3c46057e	0.01208627
32	0xbe0f6a56	-0.14005408
33	0xbe28e0ca	-0.16492
34	0xbde73502	-0.11289407
35	0xbcf6d164	-0.030129142
36	0xbe173e67	-0.14769898
37	0xbe26f020	-0.16302538
38	0xbcbe107d	-0.023201222
39	0x3ca29fa6	0.019851517
40	0xbcdb04d4	-0.0267357
41	0xbd6e3d38	-0.05816385
42	0x3d3459e6	0.044031046
43	0xbdfa37b3	-0.12217655
44	0xbcc27c00	-0.023740768
45	0x3d6fedf8	0.058576554
46	0x3ce4f3fc	0.027948372
47	0x3dbae19d	0.091250636
48	0x3d5f9da3	0.054593693
49	0xbc743378	-0.014904849
50	0x3de112a8	0.109898865
51	0xbd8818a2	-0.06645323
52	0x3e0469c9	0.12930979
53	0x3e122e18	0.14275396
54	0xbd40fa15	-0.047113497
55	0x3d4cf087	0.050034072
56	0xbd880c53	-0.06642976
57	0x3dca0e90	0.09866059
58	0xbde9af0f	-0.11410343
59	0x3d8f289f	0.0699017
60	0x3e15b39a	0.14619294
61	0x3dbdcb2d	0.09267268
62	0x3e09823b	0.13428585
63	0x3e11c20c	0.1423418
64	0xb9a5a6e6	-0.00031595601
65	0x3da1565f	0.07877802
66	0x3d91a4fb	0.07111546
67	0xbe142e39	-0.14470758
68	0xbdba656c	-0.09101376
69	0x3d58abaa	0.052898087
70	0x3e290c31	0.16508557
71	0x3c8039fb	0.015652647
72	0xbd193f8b	-0.037414115
73	0x3df527c5	0.11970476
74	0x3cccddca	0.025008101
75	0x3d2661a4	0.04062046
76	0xbdd55546	-0.10416655
77	0x3e044d5b	0.12920134
78	0xbc1507a2	-0.009096058
79	0x3db51f98	0.08843917
80	0xbdf3ea2b	-0.11909898
81	0xbe20921f	-0.15680741
82	0x3c4d1a05	0.012518411
83	0xbe146432	-0.14491346
84	0xbc1cd0b9	-0.009571248
85	0xbdafee24	-0.085903436
86	0x3dbc03bf	0.09180402
87	0x3dffa1ed	0.12482057
88	0xbe28d7b3	-0.16488533
89	0xbdfe2210	-0.12408841
90	0xbd2b4bca	-0.041820325
91	0x3e168eb6	0.14702877
92	0xbdedc501	-0.11609841
93	0x3da44817	0.080215625
94	0xba981b58	-0.0011604829
95	0xbe26fca6	-0.16307315
96	0x3cbcc149	0.023041384
97	0x3d68fcf9	0.05688188
98	0xbd50d25a	-0.050981857
99	0x3e14d8c6	0.14535818
100	0x3d07fa30	0.03319758
101	0xbca6d26d	-0.02036401
102	0x3dee50a4	0.11636475
103	0xbd86578d	-0.06559668
104	0x3ca48dcd	0.020087147
105	0x3e1c0ed9	0.15240039
106	0x3dfca008	0.12335211
107	0x3d20c61c	0.03925143
108	0x3dc70116	0.09717004
109	0x3d9ffcf9	0.078119226
110	0xbc55165c	-0.013005819
111	0x3da2a985	0.079424895
112	0x3d4f5a3e	0.05062317
113	0x3d3d0b81	0.04615355
114	0xbd323096	-0.043503366
115	0xbdd55d83	-0.104182266
116	0x3cff18a1	0.031139674
117	0x3dba7d21	0.09105898
118	0xbe0b9b93	-0.13633566
119	0xbd7a710c	-0.061142966
120	0xbdbadb35	-0.09123842
121	0xbe0e9f3d	-0.13927932
122	0xbe0d971b	-0.13827173
123	0x3da6acb6	0.08138411
124	0xbde1aa08	-0.11018759
125	0x3d22be2f	0.039732154
126	0xbde7e1d8	-0.11322373
127	0xbd0e8b2f	-0.034800705
128	0xbcdc60da	-0.026901651
129	0xbd6b0e62	-0.057386763
130	0x3e033c4c	0.1281597
131	0xbd9114e2	-0.07084061
132	0x3c51121e	0.012760667
133	0xbc829db4	-0.01594434
134	0x3d740d97	0.059583273
135	0x3d836f56	0.0641772
136	0x3dadfe0d	0.08495722
137	0x3e0c538b	0.13703744
138	0xbd87fcb8	-0.06639999
139	0xbd930da8	-0.07180339
140	0x3dedf134	0.116182715
141	0xbe109ed5	-0.1412309
142	0x3e1e4c73	0.1545885
143	0x3c29fdff	0.010375499
144	0x3e204509	0.15651335
145	0x3d1261f9	0.035737965
146	0xbd9f2002	-0.07769777
147	0xbd02da44	-0.031946436
148	0xbc98457a	-0.018587817
149	0xbe08a5f7	-0.1334456
150	0x3ddb591f	0.10710358
151	0xbdde9df6	-0.108699724
152	0x3e1a27fa	0.15054312
153	0xbcb18f4a	-0.02167477
154	0xbe039441	-0.12849523
155	0xbd1506b9	-0.036383364
156	0x3e062c7d	0.13102908
157	0xbdeb3145	-0.11484007
158	0x3dac5b78	0.08415884
159	0xbe25aea5	-0.16179903
160	0x3d44866f	0.04797977
161	0xbdb58609	-0.08863456
162	0x3d6d8582	0.05798865
163	0x3db74cbd	0.089501835
164	0x3da750b1	0.081696875
165	0xbd5a66e2	-0.053320773
166	0xbd3d9223	-0.046281945
167	0xbe1d0dfe	-0.15337369
168	0xbdb8c403	-0.09021761
169	0xbb5fbe04	-0.0034140358
170	0xbe13289f	-0.14370964
171	0x3dc4a1c2	0.09601165
172	0xbbdb2fc2	-0.006689043
173	0x3d6e7b44	0.058223024
174	0x3e1c7d70	0.15282226
175	0xbd80fd8d	-0.06298361
176	0x3ddf0df9	0.10891337
177	0x3b74b2e3	0.003733807
178	0x3baee854	0.0053377543
179	0xbd3d4f8d	-0.046218444
180	0xbcb7f046	-0.022453438
181	0xbdee1cb2	-0.11626567
182	0xbc3a4f20	-0.011371404
183	0xbcd66acf	-0.026173977
184	0x3d3a5a16	0.04549607
185	0xbc026da4	-0.007960711
186	0x3dd94528	0.10608894
187	0xbdd4d85a	-0.10392828
188	0xbdd15adc	-0.10222408
189	0xbd0b41da	-0.033998348
190	0x3cc8f419	0.024530457
191	0x3d0aa1f2	0.03384585
192	0x3df997a4	0.12187126
193	0xbde7a6ed	-0.113111354
194	0x3ca06c87	0.019583
195	0x3dac72da	0.08420344
196	0xbd9c227a	-0.076237634
197	0x3db0648e	0.08612929
198	0xbdd1ef98	-0.10250777
199	0x3af52d53	0.0018705524
200	0x3e015d4e	0.12633249
201	0x3d9d0520	0.07666993
202	0x3d80276a	0.06257518
203	0xbda0f8b1	-0.07859934
204	0xbd81a5ff	-0.06330489
205	0xbe263b14	-0.16233474
206	0x3e109011	0.14117457
207	0xbe27c720	-0.16384554
208	0x3c850360	0.01623696
209	0x3d226824	0.039650097
210	0xbd8a11cf	-0.06741678
211	0x3d45e5a6	0.048314713
212	0x3d2b0bfd	0.04175948
213	0xbd6a0199	-0.05713043
214	0xbdfae58b	-0.12250813
215	0xbc867765	-0.016414354
216	0x3e0a65ea	0.1351544
217	0x3dcc64dc	0.09980175
218	0xbda15fd0	-0.07879603
219	0xbd8670c3	-0.06564476
220	0xbd6ca358	-0.057772964
221	0xbceeb13c	-0.029137246
222	0x3d9b40fc	0.07580754
223	0x3c3a9ec0	0.011390388
224	0x3ddf3acd	0.10899887
225	0xbe0804f0	-0.13283134
226	0x3ddf7ada	0.10912104
227	0x3db455ea	0.08805449
228	0xbcaaea14	-0.02086357
229	0xbdf830b4	-0.121186644
230	0xbda6201a	-0.08111592
231	0x3e06576c	0.13119286
232	0x3e1110c5	0.14166553
233	0xbdb8226c	-0.089909405
234	0xbb2fb56c	-0.0026811017
235	0x3dfe0c4b	0.124046884
236	0xbdb1fedf	-0.08691191
237	0xbcccabc3	-0.024984246
238	0xbd0b1eeb	-0.033965033
239	0xbddc5fd1	-0.10760463
240	0x3b68831b	0.0035478536
241	0xbdf4fd3d	-0.11962364
242	0x3e001b39	0.12510385
243	0x3d6f425a	0.058412887
244	0xbd7b2d05	-0.06132223
245	0xbde697cf	-0.11259424
246	0x3d4d2eff	0.050093647
247	0x3e10b446	0.14131269
248	0xbd485204	-0.04890634
249	0xbe0dc80b	-0.13845842
250	0xbd9edce0	-0.07756972
251	0xbd60fb2a	-0.05492703
252	0xbe02adc9	-0.12761606
253	0x3d92cecf	0.07168352
254	0x3dfa3d2b	0.12218698
255	0x3d04b4e4	0.032399073

transformer_encoder.layers.0.self_attn.out_proj.bias f4 [36]
0	0xbabbca6c	-0.0014327294
1	0xb9e4b384	-0.00043621298
2	0xbae960de	-0.0017805358
3	0xba91a3f0	-0.0011111479
4	0xbab470db	-0.0013766544
5	0x3aa4fd8e	0.0012587772
6	0xbb45284e	-0.0030083838
7	0x3b66d889	0.003522428
8	0x3acad50a	0.0015474868
9	0x3a39b351	0.000708391
10	0x39e53bf9	0.00043722967
11	0x3b893c9b	0.004188133
12	0x3aa31af4	0.0012443946
13	0x3aa59c39	0.0012635059
14	0xbaa28cb9	-0.0012401558
15	0xba726c95	-0.00092477474
16	0xba0c7c80	-0.0005359128
17	0x3b553971	0.0032535458
18	0xb9fd4185	-0.00048304736
19	0xb9637f3c	-0.00021695805
20	0xbb4f0e6d	-0.0031594292
21	0x3b761380	0.0037548244
22	0xba7cbab0	-0.0009640856
23	0x3b1f33b1	0.0024292285
24	0xb958722b	-0.00020641896
25	0xbacd3954	-0.0015657344
26	0xb90d2e1c	-0.00013463985
27	0xbabfb213	-0.0014625214
28	0xbb7a90ed	-0.0038233355
29	0x3a42c0ae	0.0007429224
30	0xb7bf166e	-2.2779419e-05
31	0x3a8bd6ed	0.0010668911
32	0xba80b44e	-0.000981936
33	0x3b3e58d7	0.0029044652
34	0x3b05661a	0.0020355047
35	0x3a9f35d2	0.0012146777

transformer_encoder.layers.0.linear1.weight f4 [128, 36]
0	0xbdf86e05	-0.121303596
1	0x3e10e8fe	0.1415138
2	0xbd060c4c	-0.03272657
3	0xbcb20ad8	-0.021733686
4	0x3c88a3c2	0.016679648
5	0xbdebce97	-0.11514013
6	0xbe18b529	-0.14912857
7	0x3cd12419	0.025529908
8	0xbd9ece9b	-0.077542506
9	0xbd431176	-0.047624074
10	0x3e1db893	0.1540244
11	0x3db2f8bd	0.08738849
12	0x3d90d688	0.070721686
13	0x3cf48de3	0.029852813
14	0x3e0fa5ff	0.14028166
15	0xbde4e8b9	-0.11177201
16	0xbd31d768	-0.043418318
17	0x3c17c6c4	0.009263698
18	0x3e283d27	0.16429578
19	0xbc90e3af	-0.017686693
20	0xbdff4035	-0.124634184
21	0x3de8fbd6	0.11376159
22	0x3e08b1f3	0.13349132
23	0x3dbd705b	0.09249946
24	0x3d98c257	0.074589424
25	0x3db2f89f	0.08738827
26	0x3d819ef6	0.063291475
27	0xbcb2b74c	-0.021815918
28	0x3e14c262	0.14527276
29	0x3dde7a7b	0.10863205
30	0x3df2bba1	0.118521936
31	0x3e19a205	0.15003212
32	0x3dcc4003	0.09973147
33	0x3d5283ee	0.05139535
34	0xbe0842f2	-0.13306788
35	0xbdf6e37f	-0.1205511
36	0x3d4832b0	0.048876464
37	0x3dde55ae	0.10856186
38	0xbda116af	-0.07865655
39	0x3da3b22a	0.079929665
40	0xbd232d89	-0.039838348
41	0x3d6f4832	0.05841846
42	0xbe1deb8f	-0.1542189
43	0xbcad29eb	-0.021138152
44	0xbe22d588	-0.15901768
45	0x3db8a6df	0.09016203
46	0xbe11288d	-0.14175625
47	0x3e12aba3	0.14323287
48	0x3e052d08	0.1300546
49	0x3c0122c2	0.007881822
50	0x3d8c2b32	0.06844176
51	0xbd9183b4	-0.071051985
52	0xbd94f869	-0.07273943
53	0xbba76841	-0.0051088636
54	0xbdb49322	-0.08817126
55	0x3c780a4e	0.015139176
56	0x3d1fae30	0.038984478
57	0x3c003d0a	0.007827053
58	0xbe21ba49	-0.15793718
59	0x3d1b1dfe	0.0378704
60	0x3c0811ed	0.008305055
61	0xbde68572	-0.112559214
62	0x3cc5a04a	0.024124283
63	0x3cc3a556	0.02388255
64	0x3d41daa2	0.047327645
65	0xbdb841d1	-0.089969285
66	0x3c9248b8	0.01785694
67	0xbdc84f6a	-0.09780772
68	0x3e2332fc	0.15937418
69	0x3d4c2db3	0.04984827
70	0xbd226ac4	-0.0396526
71	0xbd6b6249	-0.05746678
72	0xbbcb076b	-0.0061959527
73	0x3dc13e2f	0.09435689
74	0xbd6c0d18	-0.057629675
75	0xbdf28307	-0.11841398
76	0x3d82a577	0.06379216
77	0xbda94831	-0.082657225
78	0xbe116204	-0.14197546
79	0x3d3c9f16	0.046050154
80	0x3df732a6	0.12070207
81	0x3daba791	0.0838157
82	0xbdedc8ab	-0.1161054
83	0x3da9f388	0.08298403
84	0xbdf5a82a	-0.119949654
85	0x3d23fe4f	0.04003745
86	0xbdfa7bf9	-0.12230677
87	0xbe2d1ca2	-0.16905454
88	0xbdcc51d7	-0.09976547
89	0x3dbfd182	0.09366132
90	0xbe234a47	-0.15946303
91	0x3c52739d	0.012844947
92	0x3e109373	0.14118747
93	0xbe18324b	-0.14862935
94	0x3e18c1cb	0.14917676
95	0xbc1f90cc	-0.009739112
96	0x3de8c8cf	0.11366426
97	0x3c97e914	0.018543757
98	0xbdd937fd	-0.10606382
99	0xbd9976ab	-0.07493337
100	0x3c28db26	0.010306155
101	0x3d102d76	0.035199605
102	0xbb8ab303	-0.0042327656
103	0x3d395d83	0.045255195
104	0x3d9013d9	0.07035036
105	0xbd55a501	-0.052159313
106	0xbd564eed	-0.052321363
107	0xbb813d34	-0.0039440636
108	0x3d9b903a	0.075958684
109	0xbe0ab335	-0.13544925
110	0xbe1f3564	-0.1554771
111	0xbd77e568	-0.060521513
112	0xbe2a99ec	-0.16660279
113	0x3dd9ba4f	0.10631239
114	0x3de0f657	0.109844856
115	0xbe2667be	-0.16250512
116	0xbc3df0c0	-0.011593044
117	0x3e1e2f63	0.15447764
118	0x3ddf8924	0.109148294
119	0x3cd2c207	0.025727285
120	0xbdbb83cb	-0.09155997
121	0x3df9ec92	0.12203325
122	0x3e0e1845	0.13876446
123	0x3d98d46d	0.07462392
124	0xbe22cddc	-0.15898842
125	0xbd71998e	-0.05898433
126	0x3ce72036	0.028213602
127	0xbd5f06c8	-0.054449826
128	0xbc853f03	-0.016265398
129	0x3d092af3	0.033488225
130	0xbde4036b	-0.111334644
131	0xbe07cdab	-0.1326205
132	0xbe2ce81a	-0.16885415
133	0x3e1ce727	0.15322553
134	0xbe14f6ab	-0.14547221
135	0xbdc81da0	-0.097712755
136	0x3d87e08b	0.06634625
137	0x3db1bfa7	0.08679133
138	0xbd483f28	-0.048888355
139	0x3da0001f	0.07812523
140	0x3da24111	0.07922567
141	0xbdca8465	-0.098885335
142	0xbdef2545	-0.116770305
143	0xbc534f7c	-0.0128973685
144	0x3de4d1b1	0.11172808
145	0xbb5c932e	-0.0033657062
146	0xbcde0c20	-0.027105391
147	0x3e089f80	0.13342094
148	0x3d0a04af	0.033695873
149	0xbcd9024d	-0.026490355
150	0xbe0bb96d	-0.13644953
151	0x3d924954	0.071428925
152	0x3d2e9d99	0.042630766
153	0x3e1251e6	0.14289054
154	0xbd86f6c5	-0.06590036
155	0xbd72d957	-0.059289303
156	0xbe29ac4d	-0.16569634
157	0xbddf01cc	-0.108890146
158	0x3ca836e7	0.020533992
159	0x3ca9559d	0.020670706
160	0x3e1bc2d3	0.15211038
161	0x3d5fe407	0.054660823
162	0xbbd8487d	-0.006600438
163	0x3cefbb2b	0.029264053
164	0x3cd975fe	0.02654552
165	0xbd8424ec	-0.06452355
166	0xbdc8d7d1	-0.09806789
167	0xbd311a03	-0.043237697
168	0x3c92f959	0.017941164
169	0x3db297a9	0.08720333
170	0x3e094025	0.13403375
171	0x3d88f3b5	0.066871084
172	0x3e170e57	0.14751564
173	0xbe1c119f	-0.15241097
174	0xbcda2a89	-0.02663161
175	0xbbaa5aa4	-0.0051987935
176	0x3c25f666	0.010129547
177	0xbb033b8d	-0.0020024509
178	0xbddc0e0c	-0.10744867
179	0xbe0bd585	-0.1365567
180	0x3cfd43c6	0.030916106
181	0xbe08f5d7	-0.1337503
182	0xbe27d005	-0.16387947
183	0x3dbab2eb	0.09116157
184	0x3cd7bb67	0.026334478
185	0x3dbccf27	0.09219199
186	0x3de5ae98	0.11214942
187	0xbd924360	-0.07141757
188	0x3dd01860	0.10160899
189	0xbd1514ee	-0.036396913
190	0x3d422d71	0.047406618
191	0x3dd19140	0.10232782
192	0xbdf56dfe	-0.1198387
193	0xbde97a60	-0.11400294
194	0x3d5aab14	0.05338581
195	0xbe26f29b	-0.16303484
196	0xbd83e054	-0.064392716
197	0xbe160f3f	-0.14654253
198	0x3e003b93	0.12522726
199	0xbe08e346	-0.13367948
200	0xbd12370f	-0.03569704
201	0xbdcb8050	-0.09936583
202	0xbd671d43	-0.05642439
203	0xbd6caa70	-0.05777973
204	0xbe22694d	-0.15860482
205	0xbd4a5322	-0.049395688
206	0x3dbf1460	0.09330058
207	0x3e0740e2	0.13208345
208	0x3e2c9584	0.1685391
209	0xbc012d31	-0.00788431
210	0x3d618ebd	0.055067766
211	0xbdf14a8e	-0.11781798
212	0xbdc8bb26	-0.09801321
213	0x3e2476a5	0.16060884
214	0xbe0c1c24	-0.1368261
215	0x3e213fbf	0.15746973
216	0x3cd7e04e	0.026352074
217	0x3d5a3eec	0.053282663
218	0x3dd35515	0.103189625
219	0xbdb91131	-0.09036482
220	0x3d902ac0	0.07039404
221	0xbe243210	-0.16034722
222	0xbabb42af	-0.0014286841
223	0x3dbdce09	0.09267814
224	0xbde1b92d	-0.110216476
225	0x3cde45fc	0.02713298
226	0x3e07a404	0.13246161
227	0xbd50b46f	-0.050953325
228	0x3d235df4	0.039884523
229	0x3d960e71	0.07326973
230	0x3ddda53b	0.10822531
231	0x3e0adc67	0.1356064
232	0xbde522cf	-0.1118828
233	0xbe1fe8ea	-0.15616193
234	0xbdcb41ff	-0.09924697
235	0x3c9c4e81	0.019080402
236	0xbc7f81d6	-0.01559492
237	0xbe179b2e	-0.1480529
238	0xbe2c39ae	-0.16818878
239	0xbc0a30cf	-0.008434488
240	0xbd220e9f	-0.039564725
241	0xbe1c7786	-0.1527997
242	0x3dbf443b	0.09339186
243	0x3df38f12	0.11892523
244	0xbdf4fca9	-0.119622536
245	0x3e02d512	0.12776592
246	0x3d5d1e8c	0.05398421
247	0xbdc7ff71	-0.097655185
248	0x3d33c3ff	0.04388809
249	0xbe07b840	-0.1325388
250	0xbcfdd821	-0.030986847
251	0xbe10a91c	-0.1412701
252	0x3db36dcb	0.08761176
253	0x3db42ee7	0.087980084
254	0xbdbf5902	-0.09343149
255	0x3dde3cae	0.108514175

transformer_encoder.layers.0.linear1.bias f4 [128]
0	0xba09e277	-0.0005259881
1	0x3e0131f2	0.12616709
2	0x3dde653e	0.10859154
3	0x3db8f4e4	0.09031084
4	0xbc624b64	-0.01381192
5	0xbc7c2d89	-0.015391716
6	0xbdf28617	-0.11841982
7	0xbe177bd0	-0.14793324
8	0xbca72273	-0.020402169
9	0x3d07374a	0.033011712
10	0x3d5a10df	0.053238746
11	0x3d877144	0.066134006
12	0x3e0f1de2	0.13976243
13	0xbc1a442e	-0.009415669
14	0x3d4208ce	0.047371678
15	0xbd941eda	-0.07232447
16	0x3e18601b	0.14880411
17	0xbd87efc6	-0.0663753
18	0xbdda612e	-0.10663067
19	0xbb412c10	-0.0029475726
20	0x3e235490	0.15950227
21	0xbe15416b	-0.14575736
22	0xbe05defd	-0.13073345
23	0xbdaa7be8	-0.083244145
24	0x3daf8c15	0.085716404
25	0xbd9f2b46	-0.07771926
26	0x3dbd0d0c	0.09231004
27	0x3cad27c4	0.021137126
28	0x3dcd5c72	0.10027398
29	0x3db58336	0.08862917
30	0xbd6d0151	-0.057862584
31	0x3d33d41f	0.043903466
32	0x3d85027d	0.06494615
33	0xbe22460a	-0.1584703
34	0xbc8bfc04	-0.017087944
35	0xbb1f5b20	-0.002431579
36	0xbe1c0946	-0.15237913
37	0xbd353bae	-0.044246368
38	0x3e06d834	0.13168412
39	0x3d0ff2c6	0.035143636
40	0xbdc3d206	-0.09561543
41	0x3e0f53d5	0.13996823
42	0xbe0b721d	-0.1361775
43	0xbe25a510	-0.16176248
44	0xbd4b560d	-0.04964261
45	0xbd7b8e23	-0.06141485
46	0xbe0081dd	-0.12549539
47	0xbcd83998	-0.02639465
48	0x3dac74c3	0.08420708
49	0xbded94d0	-0.11600649
50	0xbadfd014	-0.0017075562
51	0xbe0133a3	-0.12617354
52	0x3d2afe5d	0.041746486
53	0xbe0ba11c	-0.13635677
54	0x3d056952	0.032571144
55	0x3de2960e	0.11063777
56	0xbce1bdf9	-0.027556406
57	0xbe1bead6	-0.15226302
58	0x3d71f18a	0.05906824
59	0xbe0edb5e	-0.1395087
60	0xbe0b330c	-0.13593692
61	0xbdf268db	-0.11836406
62	0x3cbf5aba	0.023358691
63	0xbe026b7f	-0.12736319
64	0x3e2b3b31	0.16721798
65	0xbdb5e0b6	-0.08880751
66	0x3df0545e	0.11734842
67	0xbe2040af	-0.15649675
68	0xbd8da37b	-0.06915947
69	0xbc8be3f8	-0.017076477
70	0x3d530bb4	0.051524833
71	0xbe02df7d	-0.12780567
72	0xbe0cfeac	-0.13769025
73	0xbdf701db	-0.12060901
74	0xbde3142d	-0.110878326
75	0x3e1f5cd3	0.15562753
76	0xbccbdd26	-0.024885725
77	0x3e19d9f7	0.15024553
78	0x3ca4e95b	0.020130804
79	0xbe271d2e	-0.16319725
80	0x3d43ae64	0.047773734
81	0x3d8d1b65	0.06889991
82	0xbdb22980	-0.08699322
83	0xbdb580fc	-0.088624924
84	0xbd8713b7	-0.06595557
85	0xbda011d5	-0.07815901
86	0xbcc8744f	-0.024469523
87	0xbd17d568	-0.037068754
88	0xbd90fde5	-0.070796765
89	0xbc2c5ad7	-0.010519705
90	0xbd876455	-0.06610934
91	0xbc095167	-0.008381224
92	0x3d970fe8	0.07376081
93	0xbd3df51d	-0.046376336
94	0xbe262d6b	-0.16228263
95	0xbb80ec04	-0.0039343853
96	0xbdd52b56	-0.10408656
97	0xbd03fcfc	-0.032223687
98	0x3e1c6f15	0.1527675
99	0x3dfbbc35	0.12291757
100	0xbe22b87c	-0.15890688
101	0x3b0f3820	0.0021853521
102	0x3d680f71	0.05665535
103	0xbcbe1b83	-0.023206478
104	0xbd33e0fc	-0.043915734
105	0xbd88e868	-0.06684953
106	0x3e111f9c	0.14172214
107	0x3d75790b	0.05992989
108	0xbd886898	-0.06660575
109	0xbe1b13f6	-0.15144333
110	0x3e0ed5d4	0.13948756
111	0x3e0dea92	0.13859013
112	0xbdc86c93	-0.09786334
113	0x3df19ba2	0.11797263
114	0xbc57173e	-0.0131281
115	0x3d953b81	0.0728674
116	0xbc182d19	-0.009288096
117	0xbe1974a0	-0.14985895
118	0xbd6f4562	-0.058415778
119	0xbd0c31ce	-0.034227185
120	0xbcaf822e	-0.02142438
121	0x3cff1fcd	0.031143093
122	0x3e1ca8b8	0.15298736
123	0xbde30695	-0.1108524
124	0xbc851bba	-0.016248573
125	0x3de4d3f3	0.111732386
126	0x3ce7dc6b	0.028303346
127	0xbe0ba13e	-0.13635728

transformer_encoder.layers.0.linear2.weight f4 [36, 128]
0	0x3d1d3f3a	0.038390376
1	0x3da3581b	0.07975789
2	0x3c869504	0.016428478
3	0xbd0adfdf	-0.033904906
4	0xbd4b16e0	-0.049582362
5	0x3d30ad34	0.04313393
6	0xbda10e47	-0.07864051
7	0x3c129edc	0.008949008
8	0xbd07f02b	-0.033188026
9	0x3cc90b69	0.024541574
10	0xbda039f5	-0.078235544
11	0x3cae6d23	0.021292275
12	0xbd9081bd	-0.070559956
13	0x3d864f52	0.06558098
14	0x3dad126f	0.084507816
15	0x3d402a8e	0.046915583
16	0x3da765f8	0.08173746
17	0x3d5f8cb1	0.054577533
18	0xbd03d96c	-0.03218977
19	0xbd25cb20	-0.04047692
20	0xbcacfcdf	-0.021116672
21	0xbd8b729b	-0.06808969
22	0xbc9bba92	-0.019009862
23	0xbd07fab8	-0.03319809
24	0x3aa5f194	0.0012660497
25	0x3b099e1c	0.0020998782
26	0xbd8a3dec	-0.06750092
27	0x3d3dcf9a	0.046340562
28	0xbc629909	-0.013830432
29	0xbd38c299	-0.045107458
30	0x3cf0b7c5	0.029384503
31	0xbcd9ed2f	-0.026602356
32	0x3c71dcc8	0.014762111
33	0xbdb64178	-0.08899206
34	0xbd4b1c14	-0.049587324
35	0x3d69eb66	0.05710926
36	0x3d433a18	0.047662824
37	0xbd924fbf	-0.071441166
38	0x3d3f6cf0	0.04673475
39	0xbd4404bb	-0.047856074
40	0x3d5cd5f1	0.053914968
41	0x3ab2708d	0.0013613865
42	0x3d92e54b	0.071726404
43	0xbc699e61	-0.014258952
44	0x3cd0ef4d	0.025504733
45	0xbc065514	-0.008198995
46	0x3b9e1fc2	0.004825563
47	0xbc9e1dbe	-0.019301292
48	0x3d029705	0.031882305
49	0x3c1b9e0f	0.009498133
50	0x3cefdb06	0.029279243
51	0xbd85f3c6	-0.06540637
52	0xba43266c	-0.0007444385
53	0xbd9058ae	-0.07048164
54	0xbaa2d7af	-0.0012423898
55	0x3be4198e	0.006961054
56	0x3d86c7bd	0.06581066
57	0xbd505568	-0.0508627
58	0xbcc4270d	-0.023944402
59	0x3d7d2b24	0.06180872
60	0x3d09b1f5	0.03361698
61	0x3cf0d0f8	0.029396519
62	0x3d17b0e3	0.037033927
63	0x3cf7d7e7	0.030254317
64	0x3cddc834	0.027073003
65	0x3d9a7b63	0.075430654
66	0xbce70282	-0.028199438
67	0xbd962c78	-0.073327005
68	0x3d5ffe27	0.054685738
69	0xbd90eeac	-0.07076773
70	0x3cee4f90	0.029090673
71	0x3c889589	0.016672866
72	0x3d66c045	0.056335706
73	0xbc4b57e0	-0.012411088
74	0xbdb09386	-0.08621888
75	0x3da5a6d4	0.080884606
76	0xbd8741ba	-0.06604333
77	0x3d929785	0.07157806
78	0x3db2a009	0.087219305
79	0x3d2b6569	0.04184476
80	0xbd8121eb	-0.063052975
81	0xbc167716	-0.009183666
82	0x3d0b489e	0.0340048
83	0xbd84d104	-0.06485179
84	0x3cb4fd35	0.022093395
85	0xbd05d381	-0.03267241
86	0x3d4de2e6	0.050265215
87	0xbd8772de	-0.06613706
88	0xbcad463f	-0.02115166
89	0x3d89b76c	0.06724438
90	0xbc37d39f	-0.011219888
91	0x3d98811b	0.074465
92	0xbc166154	-0.009178478
93	0xbd210767	-0.0393137
94	0x3d6818fe	0.05666446
95	0x3c030ce5	0.00799868
96	0xbd9e6872	-0.07734765
97	0x3d292bd3	0.04130156
98	0x3cb3b557	0.021937056
99	0xbd668c63	-0.056286227
100	0xbd9a1d8b	-0.07525166
101	0x3cc85256	0.024453323
102	0xbcc80b2c	-0.02441939
103	0x3d6ea588	0.05826333
104	0x3b023d72	0.001987305
105	0xbd52a2a4	-0.051424637
106	0x3d2cefd0	0.04222089
107	0xbd6ae234	-0.05734463
108	0xbd50b92b	-0.05095784
109	0x3ce4360a	0.0278578
110	0x3cc2250e	0.02369931
111	0x3d816c89	0.063195296
112	0x3c26b7d2	0.010175662
113	0xbcc59ee0	-0.024123609
114	0x3d04c8c4	0.032418028
115	0xbbd5744a	-0.006514107
116	0x3d8770d1	0.06613315
117	0x3d962471	0.073311694
118	0x3cb0f3aa	0.021600563
119	0xbbc8b9eb	-0.006125679
120	0xbd80387c	-0.062607735
121	0xbd653201	-0.05595589
122	0xbd8bc724	-0.068250924
123	0x3d01f889	0.031731162
124	0xbd9a2539	-0.07526631
125	0x3c78166f	0.015142067
126	0xbd019d73	-0.031644296
127	0x3d6b4c62	0.05744589
128	0x3d61615b	0.055024486
129	0xbd8183b9	-0.06323952
130	0xbd504805	-0.050849933
131	0xbd3f4c92	-0.046703883
132	0x3da87459	0.082253166
133	0xbcc0442e	-0.02347001
134	0x3d979d68	0.0740307
135	0x3d815245	0.0631452
136	0x3cf235de	0.029566702
137	0xbdb47b7f	-0.088126175
138	0x3d80b1fd	0.062839486
139	0xbd05fb1f	-0.03271019
140	0x3d7b1119	0.061295602
141	0x3d486c56	0.048931442
142	0x3d73bc03	0.059505474
143	0x3d9172f0	0.07102001
144	0xbcdf233e	-0.027238484
145	0xbcda0abb	-0.026616445
146	0xbd933197	-0.07187193
147	0xbd396644	-0.045263544
148	0x3db369cb	0.08760413
149	0x3d143273	0.036180925
150	0x3c8764d8	0.016527578
151	0xbd3b414b	-0.045716565
152	0x3d15c41a	0.03656397
153	0x3da2240c	0.07917032
154	0xbd802bea	-0.06258376
155	0x3cc838e6	0.024441194
156	0x3d7f62d4	0.06235011
157	0xbd9915f8	-0.07474893
158	0xbc5d234b	-0.013497184
159	0xbd2ccae7	-0.04218569
160	0x3d5112f1	0.051043455
161	0xbd95f49e	-0.07322048
162	0x3d75b51b	0.05998717
163	0x3d1beeae	0.03806942
164	0xbd9c1909	-0.076219626
165	0x3c67eb00	0.014155149
166	0xbd84aacb	-0.06477889
167	0xbd3deadf	-0.04636657
168	0x3d244189	0.04010156
169	0x3cd8c394	0.026460446
170	0x3d6a7608	0.05724147
171	0xbdb63bfe	-0.08898161
172	0x3da74a65	0.081684865
173	0xbd5c9c48	-0.05385998
174	0x3d661d0a	0.056180038
175	0x3905fe0d	0.0001277851
176	0xbb4a9a71	-0.0030914808
177	0xbd998451	-0.074959405
178	0x3ca3c925	0.019993374
179	0xbc7619f5	-0.015020837
180	0x3d9c9e28	0.076473534
181	0xbd06f15e	-0.03294503
182	0xbccdd58d	-0.025126243
183	0x3c7b6218	0.015343212
184	0x3d92d0ec	0.07168755
185	0xbdb7b6fe	-0.0897045
186	0x3c0cdb95	0.008597274
187	0xbd47cd5a	-0.048779823
188	0xbd921223	-0.071323656
189	0xbd6561a9	-0.05600134
190	0xbd88dcb4	-0.06682721
191	0xbd508a4c	-0.05091314
192	0xbd2354c4	-0.03987576
193	0xbcf72cc0	-0.030172706
194	0x3d4469c8	0.047952443
195	0x3c056e04	0.008143906
196	0x3dac1485	0.08402351
197	0xbc8b14ca	-0.016977686
198	0xbbc59ff9	-0.006031033
199	0xbd9a35b6	-0.07529776
200	0xbd29cca0	-0.04145491
201	0xbc146bf0	-0.009058937
202	0xbca1238e	-0.019670274
203	0xbd13a84f	-0.036049183
204	0xbcfb6575	-0.030688027
205	0xbb9e813f	-0.0048371847
206	0xbc41bd9d	-0.0118249925
207	0xbcb15f0e	-0.02165177
208	0xbca2f2ac	-0.019891106
209	0xbd95497a	-0.07289405
210	0x3d2d500e	0.042312674
211	0x3beb87a2	0.0071877996
212	0x3d5ed27b	0.05439995
213	0xbd8c47c0	-0.06849623
214	0x3d36c5cb	0.044622224
215	0x3d462be6	0.04838171
216	0xbd87aca1	-0.06624723
217	0xbcb38a6c	-0.02191659
218	0x3d3781e7	0.04480162
219	0x3cac6f5c	0.021049194
220	0xbd5d04aa	-0.053959526
221	0xbda31f23	-0.07964923
222	0xbd8b3ad7	-0.06798332
223	0xbda41de4	-0.08013514
224	0x3c0c61b8	0.00856822
225	0xbc4626d6	-0.01209422
226	0x3c57f838	0.013181739
227	0x3d6c3433	0.05766697
228	0xbd931c28	-0.07183105
229	0xbda3b03e	-0.079926
230	0xbc1f10e4	-0.009708617
231	0xbce27ffb	-0.027648916
232	0x3cba14aa	0.022714932
233	0xbd0b6350	-0.03403026
234	0x3c2d87c9	0.010591456
235	0x3d737f67	0.059447672
236	0xbdb19752	-0.0867144
237	0xbd8ff0ea	-0.070283726
238	0x3c99d086	0.01877619
239	0xbc142736	-0.009042552
240	0x3d6b9bad	0.05752151
241	0xbc842167	-0.016129209
242	0x3d08a762	0.033362754
243	0x3d3f73cd	0.046741296
244	0x3d31bb52	0.043391533
245	0x3d4e3472	0.050342984
246	0x3cc66fa0	0.024223149
247	0x3d6120dc	0.054962978
248	0xbd93a686	-0.07209496
249	0xbd314615	-0.043279726
250	0x3d05cbf4	0.032665208
251	0x3d5483c1	0.051883463
252	0xbd651e6a	-0.05593721
253	0xbda936cd	-0.082624055
254	0x3cc26fe3	0.023734992
255	0xbd276ec6	-0.040877126

transformer_encoder.layers.0.linear2.bias f4 [36]
0	0x3d86b95e	0.06578325
1	0xbd1358d6	-0.035973392
2	0xbd465b9d	-0.048427213
3	0x3da57833	0.08079567
4	0x3d953db1	0.07287157
5	0xbd828732	-0.06373443
6	0x3d8a325f	0.06747889
7	0xbd339a67	-0.04384842
8	0x3da1345e	0.078713164
9	0xbdb01088	-0.08596903
10	0xbd316574	-0.043309644
11	0xbbb4de0f	-0.0055196355
12	0x3da1c86a	0.07899554
13	0xbcf8988c	-0.030346178
14	0x3daea754	0.08528009
15	0x3db300ff	0.08740424
16	0x3c769582	0.015050294
17	0x3d24a61f	0.040197488
18	0xbc372cb8	-0.011180095
19	0x3cd622f8	0.026139721
20	0x3d8afdcf	0.067866914
21	0xbd6e5db2	-0.058194824
22	0x3b1437e4	0.0022616321
23	0xbcb2affc	-0.021812432
24	0xbbf875bb	-0.007582394
25	0xbceecdb4	-0.029150821
26	0xbb5f4b84	-0.003407211
27	0xbd70e0d3	-0.05880816
28	0xbc8df351	-0.017327936
29	0xbd51412b	-0.05108754
30	0xbd9c2964	-0.07625082
31	0x3d63da9f	0.055628415
32	0x3cf4632d	0.029832447
33	0xbd407ac1	-0.046992067
34	0x3ca1191d	0.019665295
35	0x3b0aa07d	0.0021152787

transformer_encoder.layers.0.norm1.weight f4 [36]
0	0x3f7fe305	0.9995578
1	0x3f7fa4a6	0.9986061
2	0x3f804dfc	1.0023799
3	0x3f7fd171	0.9992896
4	0x3f7f40c6	0.9970821
5	0x3f7f6ea5	0.99778205
6	0x3f7fa26c	0.9985721
7	0x3f804d93	1.0023674
8	0x3f80447a	1.0020897
9	0x3f8027ee	1.0012186
10	0x3f8045e6	1.0021331
11	0x3f806f60	1.0033989
12	0x3f806c97	1.0033139
13	0x3f805a76	1.0027606
14	0x3f7f8c34	0.9982331
15	0x3f7f2bd0	0.9967623
16	0x3f7f6c73	0.99774855
17	0x3f807139	1.0034553
18	0x3f7f9afc	0.9984586
19	0x3f80101f	1.000492
20	0x3f80630e	1.0030229
21	0x3f806ae7	1.0032624
22	0x3f7f6ddb	0.99777
23	0x3f805ef4	1.0028977
24	0x3f7f7e02	0.9980165
25	0x3f807af8	1.0037527
26	0x3f8041ba	1.0020058
27	0x3f7faa4a	0.99869215
28	0x3f8071c6	1.0034721
29	0x3f7f4bff	0.99725336
30	0x3f7f1b09	0.9965063
31	0x3f8036e7	1.0016755
32	0x3f7fdb17	0.9994368
33	0x3f807050	1.0034275
34	0x3f8045ae	1.0021265
35	0x3f7f94b5	0.99836284

transformer_encoder.layers.0.norm1.bias f4 [36]
0	0xbaf013cf	-0.001831645
1	0xb969b9e1	-0.00022289857
2	0xbac4e163	-0.0015020784
3	0xba0933f3	-0.0005233876
4	0xba394ff1	-0.0007069102
5	0x3ac8a1c9	0.0015307005
6	0xbb488b7a	-0.0030600713
7	0x3b6a0d9b	0.0035713676
8	0x3b02fc54	0.0019986825
9	0x3a09e052	0.00052595616
10	0x39aab839	0.00032562183
11	0x3b901997	0.004397582
12	0x3ad33be1	0.0016115868
13	0x3ace0d1c	0.001572046
14	0xba808bad	-0.0009807252
15	0xbaa25db0	-0.001238754
16	0xba459187	-0.0007536639
17	0x3b598641	0.0033191594
18	0xba5ff49d	-0.0008543225
19	0xba57041c	-0.00082022115
20	0xbb66b2f4	-0.003520188
21	0x3b7e7d7f	0.0038832126
22	0xba9bf255	-0.0011897782
23	0x3b2dcabb	0.0026518542
24	0xb985fbe1	-0.000255554
25	0xbae110c8	-0.0017171139
26	0x38db47d7	0.00010456115
27	0xbac9fccb	-0.0015410421
28	0xbb3ed121	-0.002911635
29	0x3a418169	0.00073816493
30	0xb907f4f9	-0.00012965863
31	0x3aba0393	0.0014191739
32	0xbaab789d	-0.001308221
33	0x3b4a85b8	0.0030902456
34	0x3b38847d	0.002815514
35	0x3a60d1d1	0.0008576187

transformer_encoder.layers.0.norm2.weight f4 [36]
0	0x3f7fbc1a	0.99896395
1	0x3f807684	1.0036168
2	0x3f80473f	1.0021743
3	0x3f801bce	1.0008485
4	0x3f7f47da	0.9971901
5	0x3f7fd326	0.9993156
6	0x3f7f8488	0.998116
7	0x3f805b0c	1.0027785
8	0x3f80594d	1.0027252
9	0x3f801b18	1.0008268
10	0x3f806a31	1.0032407
11	0x3f8063f0	1.0030499
12	0x3f7fc59c	0.999109
13	0x3f806dbc	1.0033488
14	0x3f80174e	1.0007112
15	0x3f7f331e	0.99687374
16	0x3f7f60ee	0.9975728
17	0x3f807d20	1.0038185
18	0x3f7fb0a3	0.998789
19	0x3f80298b	1.0012678
20	0x3f7feceb	0.99970883
21	0x3f8072bf	1.0035018
22	0x3f7f56fc	0.997421
23	0x3f806693	1.0031303
24	0x3f7faba4	0.9987128
25	0x3f807b50	1.0037632
26	0x3f804c39	1.0023261
27	0x3f7fa2f7	0.9985804
28	0x3f804432	1.0020812
29	0x3f7f4026	0.9970726
30	0x3f7f0bd2	0.9962741
31	0x3f804548	1.0021143
32	0x3f7fb6e8	0.9988847
33	0x3f8073bf	1.0035323
34	0x3f8059dd	1.0027424
35	0x3f7f7abb	0.99796647

transformer_encoder.layers.0.norm2.bias f4 [36]
0	0xb9e84b62	-0.00044306653
1	0xbb498cc9	-0.003075408
2	0xba4cac6c	-0.0007807675
3	0x3aaa5174	0.0012994246
4	0xbac1c666	-0.0014783859
5	0x3b0a9150	0.0021143742
6	0xbadda37b	-0.0016909683
7	0x3b5280b6	0.0032120175
8	0x3aa66589	0.0012695055
9	0x3a984214	0.0011616373
10	0x3a19c583	0.00058659184
11	0x3b529280	0.0032130778
12	0x3a902362	0.0010996873
13	0x3ad63b93	0.0016344659
14	0xbabb5a64	-0.0014293906
15	0xba5d7f93	-0.0008449491
16	0xb8d9bb9d	-0.00010382312
17	0x3b60e53b	0.003431632
18	0xbacae98f	-0.0015480983
19	0xbaa8aec8	-0.0012869472
20	0xbb2a6b47	-0.0026003884
21	0x3aec7682	0.0018040689
22	0xba45f5d0	-0.00075515825
23	0x3b3dd95e	0.0028968672
24	0xba6e6e95	-0.00090954575
25	0xbb39b571	-0.0028336907
26	0xba72ac40	-0.00092572346
27	0xbadcc290	-0.0016842652
28	0xbb3bafa7	-0.0028638633
29	0x3a9b851b	0.001186523
30	0xba248bc2	-0.0006276929
31	0x3b0d7d9c	0.0021589762
32	0xbacec268	-0.001577449
33	0x3b44e81e	0.003004558
34	0x3b21b596	0.0024674884
35	0x3a5ee0c0	0.0008502118

transformer_encoder.layers.1.self_attn.in_proj_weight f4 [108, 36]
0	0x3de88a94	0.11354557
1	0x3de9f408	0.114234984
2	0x3dc22951	0.09480537
3	0xbd688f63	-0.05677737
4	0x3d9c6143	0.07635739
5	0xb8160800	-3.5770237e-05
6	0x3e33cb58	0.17558038
7	0x3e4d52a4	0.20051056
8	0xbe4e16b0	-0.20125842
9	0xbd87bfbb	-0.066283666
10	0xbe37e921	-0.17960025
11	0xbe3b3bcc	-0.1828453
12	0x3d9a20f8	0.075258195
13	0xbc36f569	-0.011166909
14	0x3dee40d8	0.11633462
15	0x3dfe33c6	0.12412219
16	0x3e500ec7	0.20318137
17	0xbc877397	-0.01653461
18	0x3e3dc6b1	0.18532826
19	0x3d96b4ef	0.07358729
20	0xbdbc600d	-0.09198008
21	0x3dfdc4cc	0.12391052
22	0xb77421eb	-1.45514305e-05
23	0x3de90692	0.11378206
24	0xbe1ef378	-0.15522563
25	0x3d05e0da	0.03268514
26	0xbda6820f	-0.081302755
27	0x3e426310	0.18983102
28	0xbe4ef3a2	-0.20210126
29	0xbdce59f4	-0.10075751
30	0x3e0a73b6	0.13520703
31	0x3d81880c	0.06324777
32	0xbdd6dcac	-0.104913086
33	0x3d767abb	0.06017564
34	0x3e42180c	0.18954486
35	0xbca3d571	-0.019999238
36	0xbd821faf	-0.063536994
37	0x3d0a928f	0.033831175
38	0x3e2fda5b	0.1717314
39	0x3c0fd319	0.008778357
40	0x3a5be147	0.0008387756
41	0xbc3fdb3b	-0.011709983
42	0xbe3b5da6	-0.18297443
43	0xbdbfa670	-0.09357917
44	0x3d53198a	0.051538028
45	0xbcdcbb6f	-0.026944844
46	0xb92a3042	-0.00016230441
47	0xbe0023bf	-0.12513636
48	0xbe2754ea	-0.16340986
49	0xbd94520a	-0.0724221
50	0xbe09844e	-0.13429376
51	0xbd47e8c2	-0.04880596
52	0xbb58bf7a	-0.0033073113
53	0xbd20d9d6	-0.039270245
54	0xbd7494a2	-0.05971206
55	0x3e32fd18	0.1747936
56	0xbda20e07	-0.07912832
57	0xbd192471	-0.03738827
58	0xbe1c6f87	-0.1527692
59	0xbe50d247	-0.20392714
60	0xbdcf5612	-0.101238385
61	0xbdf8db7e	-0.1215124
62	0x3e049954	0.12949115
63	0xbdb75b34	-0.089529425
64	0x3cbf2c0b	0.023336431
65	0xbc970198	-0.018433377
66	0x3dc407ab	0.09571775
67	0x3e47fd46	0.1953021
68	0x3dfe14d3	0.12406316
69	0xbcdc7cec	-0.026915036
70	0xbc49c9cd	-0.012316179
71	0xbd907a81	-0.07054616
72	0xbe039405	-0.12849434
73	0x3e24e1ff	0.16101836
74	0xbd85879d	-0.06520007
75	0xbe395e89	-0.18102469
76	0x3e07e8fe	0.13272473
77	0x3cd81b28	0.026380137
78	0x3e0a45cd	0.1350319
79	0x3d468074	0.048462346
80	0xbd2f5334	-0.042803958
81	0x3e33b181	0.17548181
82	0x3e06d26f	0.13166212
83	0xbe4a7b40	-0.19773579
84	0xbde2548a	-0.11051281
85	0x3e4f4716	0.20241961
86	0xbd374fc3	-0.0447538
87	0x3d6ca2f9	0.05777261
88	0x3e244efc	0.16045755
89	0x3e45076b	0.19241111
90	0x3cfe2def	0.031027762
91	0xbd9ce64d	-0.07661114
92	0xbe114260	-0.14185476
93	0x3cbb2f6c	0.022849761
94	0x3d771194	0.0603195
95	0xbe4df06c	-0.20111245
96	0xbc7cd7ab	-0.015432279
97	0x3e324e93	0.17412786
98	0xbda95c4d	-0.08269558
99	0xbdcb0bbe	-0.09914349
100	0xbe4551a9	-0.19269432
101	0x3e4bbfff	0.1989746
102	0x3e146a3e	0.14493653
103	0x3e143842	0.14474586
104	0xbe07ba27	-0.13254605
105	0x3e307c75	0.17234977
106	0xbdf60aa7	-0.120137505
107	0xbe01c433	-0.126725
108	0xbe010752	-0.12600449
109	0xbdf34dd2	-0.118800774
110	0x3dfb4f0f	0.122709386
111	0x3d8fd823	0.07023647
112	0x3e4e144f	0.20124935
113	0xbe27e69d	-0.16396566
114	0xbc989686	-0.018626463
115	0x3e40b70a	0.18819824
116	0x3e067349	0.13129915
117	0x3c7d9876	0.015478244
118	0x3c7f6546	0.01558811
119	0xbe3db090	-0.18524384
120	0x3e2f7eee	0.17138264
121	0x3e2d1c3c	0.16905302
122	0x3e1e0496	0.15431437
123	0xbc3e28db	-0.01160642
124	0x3e3157f3	0.17318706
125	0xbdf1b970	-0.118029475
126	0xbd144be1	-0.036205176
127	0xbe25c367	-0.16187821
128	0x3e16e92e	0.14737388
129	0x3e30cead	0.1726634
130	0x3e303f28	0.17211592
131	0xbc7d2eba	-0.015453035
132	0xbe3da7cf	-0.18521045
133	0x3d9f8f60	0.077910185
134	0x3cf00a67	0.029301835
135	0x3cb3bb52	0.021939907
136	0xbe3c87b8	-0.18411148
137	0x3a5505cf	0.0008126171
138	0xbe265792	-0.16244343
139	0xbca84ada	-0.020543505
140	0x3dffb81c	0.12486288
141	0xbdeaf2a0	-0.11472058
142	0xbe40bdc7	-0.18822394
143	0x3ddf4709	0.10902221
144	0xbdbe86d4	-0.0930306
145	0x3e50726b	0.20356147
146	0x3cb21b36	0.02174149
147	0xbdd24a0c	-0.102680296
148	0xbdb56e48	-0.08858925
149	0x3d25c37f	0.040469643
150	0xbdbbace1	-0.091638334
151	0x3c9fb0ea	0.019493539
152	0xbdcb39d3	-0.099231385
153	0x3d86ef10	0.06588566
154	0xbdc216d8	-0.09477013
155	0x3e1aee03	0.15129857
156	0xbca1ed2d	-0.019766415
157	0x3bd1fd86	0.006408396
158	0xbd662426	-0.056186818
159	0xbe02071d	-0.12698026
160	0xbd7575e9	-0.0599269
161	0x3e002fee	0.12518284
162	0x3e26a7eb	0.16274993
163	0xbc8dfcbf	-0.017332433
164	0xbe062b74	-0.13102514
165	0xbddb0f90	-0.10696328
166	0x3e16eccb	0.14738767
167	0x3deeb5b2	0.116557494
168	0x3e21710e	0.15765783
169	0xbdb71339	-0.08939213
170	0xbe1a4490	-0.15065217
171	0xbdd29b88	-0.102835715
172	0xbdc18c3b	-0.09450575
173	0x3b2a7f76	0.0026015914
174	0x3e4fc914	0.20291549
175	0x3dbc5287	0.09195428
176	0xbe097dba	-0.13426867
177	0x3e03b610	0.1286242
178	0x3c28cd98	0.010302924
179	0xbe345c14	-0.1761325
180	0x3dd36a2e	0.103229865
181	0x3d446048	0.047943383
182	0x3e42ce9d	0.19024129
183	0xbe140890	-0.14456391
184	0x3dcd77c2	0.100326076
185	0x3d851c5c	0.0649955
186	0xbe32aa5b	-0.17447798
187	0xbdbbf29d	-0.09177134
188	0xbe39ce31	-0.18145062
189	0x3d6c85dc	0.057744846
190	0xbd446416	-0.047947012
191	0xbdc9bd12	-0.098505154
192	0x3e0d9608	0.13826764
193	0x3d09056f	0.033452448
194	0x3c4942ac	0.012283962
195	0xbdf19bf7	-0.11797326
196	0xbda692c6	-0.081334636
197	0x3e22d637	0.15902029
198	0xbe3b4252	-0.18287018
199	0x3d71a75f	0.05899751
200	0xbdea85f7	-0.11451333
201	0x3d4874b6	0.04893943
202	0x3e470db8	0.19438827
203	0x3e0740f8	0.13208377
204	0xbcf9a7bb	-0.030475488
205	0xbdfad652	-0.122479096
206	0x3dd98e27	0.106228165
207	0x3da89f80	0.08233547
208	0x3d789403	0.06068803
209	0xbe401ad1	-0.1876023
210	0xbc124b11	-0.00892903
211	0xbe3688ee	-0.17825672
212	0x3d749038	0.05970785
213	0x3c18da9a	0.009329462
214	0x3c39a8c7	0.011331744
215	0xbb2b77ad	-0.0026163862
216	0x3e016a2b	0.12638156
217	0x3e3b7904	0.18307883
218	0x3e267e3f	0.16259097
219	0x3b746d09	0.0037296435
220	0xbe0abfc1	-0.13549711
221	0x3e3cea8c	0.18448848
222	0xbd7c64cc	-0.061619565
223	0x3c85d157	0.016335173
224	0x3d93e3c9	0.07221181
225	0x3dfcd344	0.12344983
226	0x3e50f8ab	0.2040736
227	0xbe348882	-0.17630199
228	0x3c3a89b9	0.011385375
229	0x3e2d4926	0.16922435
230	0xbe42c47a	-0.19020262
231	0xbdd9fc30	-0.10643804
232	0xbdc2b77d	-0.09507654
233	0x3d3c72d4	0.046007946
234	0x3e2e641f	0.1703038
235	0xbd3244c0	-0.043522596
236	0x3c2ca701	0.010537864
237	0x3ccf5245	0.025307784
238	0x3dc74401	0.097297676
239	0xbe2a6e10	-0.16643548
240	0x3d0be9b7	0.034158435
241	0x3e31473b	0.17312329
242	0xbe392838	-0.18081748
243	0x3c717ee1	0.014739723
244	0xbe50a058	-0.20373666
245	0x3d7ad3ab	0.06123702
246	0xbdeae41e	-0.11469291
247	0xbe152652	-0.145654
248	0xbd8f61e9	-0.07001097
249	0x3e485cf6	0.19566712
250	0x3d734ab8	0.05939743
251	0x3dfc5586	0.12321
252	0x3e3a84ef	0.18214773
253	0xbe078284	-0.13233382
254	0xbe039a0a	-0.1285173
255	0x3da48ee0	0.08035064

transformer_encoder.layers.1.self_attn.in_proj_bias f4 [108]
0	0x00000000	0.0
1	0x00000000	0.0
2	0x00000000	0.0
3	0x00000000	0.0
4	0x00000000	0.0
5	0x00000000	0.0
6	0x00000000	0.0
7	0x00000000	0.0
8	0x00000000	0.0
9	0x00000000	0.0
10	0x00000000	0.0
11	0x00000000	0.0
12	0x00000000	0.0
13	0x00000000	0.0
14	0x00000000	0.0
15	0x00000000	0.0
16	0x00000000	0.0
17	0x00000000	0.0
18	0x00000000	0.0
19	0x00000000	0.0
20	0x00000000	0.0
21	0x00000000	0.0
22	0x00000000	0.0
23	0x00000000	0.0
24	0x00000000	0.0
25	0x00000000	0.0
26	0x00000000	0.0
27	0x00000000	0.0
28	0x00000000	0.0
29	0x00000000	0.0
30	0x00000000	0.0
31	0x00000000	0.0
32	0x00000000	0.0
33	0x00000000	0.0
34	0x00000000	0.0
35	0x00000000	0.0
36	0x00000000	0.0
37	0x00000000	0.0
38	0x00000000	0.0
39	0x00000000	0.0
40	0x00000000	0.0
41	0x00000000	0.0
42	0x00000000	0.0
43	0x00000000	0.0
44	0x00000000	0.0
45	0x00000000	0.0
46	0x00000000	0.0
47	0x00000000	0.0
48	0x00000000	0.0
49	0x00000000	0.0
50	0x00000000	0.0
51	0x00000000	0.0
52	0x00000000	0.0
53	0x00000000	0.0
54	0x00000000	0.0
55	0x00000000	0.0
56	0x00000000	0.0
57	0x00000000	0.0
58	0x00000000	0.0
59	0x00000000	0.0
60	0x00000000	0.0
61	0x00000000	0.0
62	0x00000000	0.0
63	0x00000000	0.0
64	0x00000000	0.0
65	0x00000000	0.0
66	0x00000000	0.0
67	0x00000000	0.0
68	0x00000000	0.0
69	0x00000000	0.0
70	0x00000000	0.0
71	0x00000000	0.0
72	0x3afba06d	0.0019197591
73	0xbb64f2ea	-0.0034934827
74	0x3b0aba0e	0.0021168026
75	0x3abe3965	0.0014512955
76	0xb945f771	-0.00018879563
77	0x3b3c681f	0.0028748584
78	0xbb2f1c23	-0.0026719652
79	0xbb0e0c2a	-0.002167473
80	0xbb103bf5	-0.0022008393
81	0xb9e521fd	-0.00043703607
82	0xb93fefde	-0.00018304537
83	0xba917668	-0.001109791
84	0xbae81911	-0.0017707666
85	0xba3a59d5	-0.0007108723
86	0x389d83c9	7.51089e-05
87	0xba895ec8	-0.0010480518
88	0xba054749	-0.00050841697
89	0x3afdda39	0.0019367404
90	0x3a900605	0.0010988122
91	0x3aa21e9e	0.0012368744
92	0x3b050bd8	0.002030125
93	0xb99f9a99	-0.00030442027
94	0xba933673	-0.0011231437
95	0x39ecf954	0.00045199192
96	0xbb327176	-0.0027228273
97	0xbae5b24c	-0.001752445
98	0xbb252c7d	-0.002520352
99	0xbaa92a4f	-0.0012906286
100	0xbb3f4e66	-0.0029191016
101	0x39868731	0.00025659197
102	0xbb5f6eba	-0.0034093098
103	0xb9ed9e6f	-0.00045322205
104	0x39fbfe08	0.0004806372
105	0x3af09c99	0.0018357217
106	0xb9ae754a	-0.00033275253
107	0x3b116e81	0.002219111
