pipeline/evaluation/MLP_best_IL.pth (torch, 25022 bytes, 5 tensors)

fc1.weight f4 [64, 22]
00000000: bcf1 ca3d 8271 363e 6763 b33d 98a6 81bd
00000010: cce5 7f3e 514f 0bbb ba1f 3fbb f7ff ecbd
00000020: 81ac a83d 165b 2bbe f61e 1a3e 36e5 89bc
00000030: 04f3 073d 2c33 463e 6e9c 133e f916 0e3e
00000040: 87f4 603d 607f 363e 12f6 053e 4517 0cbe
00000050: 29f9 193e 6989 ac3c cd00 b33d 179f 81be
00000060: 9c09 d6bc 236c f43c 72e3 323e 8b16 14be
00000070: 0a9c aabd 537f 463e 2ded 65be e5da ec3c
00000080: c773 7fbe 89b8 0bbe ad03 653e 2604 26bd
00000090: d160 f13d 3950 293e 80b9 163e a000 1abe
000000a0: b9df 39bd b6e2 99bd eb05 283d 82d9 d63d
000000b0: f1ec 3fbe 3db2 2c39 e19f 8bbc 5474 49be
000000c0: c2fd 0f3e 251f 9abd 5757 773d 3887 623e
000000d0: e0e3 123d 2a79 ffbd 828b e03d 2309 d53b
000000e0: d7df 42be 2b59 423e 3dff 10be ab16 383e
000000f0: 382c 3d3e e24b 26bc e757 2e3d acd0 323e
00000100: 4436 153e 5973 12be 7531 2e3e d180 15be
00000110: 79b7 463d f93e 47bd a76f b5bc 0ab6 ee3d
00000120: d539 8c3d c7cd 0dbe 2482 42bd 08e8 1ebe
00000130: 53f2 f73d 879b 533e 6ba0 033e 816c d53b
00000140: fc20 abbd 9cc8 b53d a1ff 52be 12ae 0abe
00000150: 4cb6 753d f4c2 35be 0c27 b03d 7fa8 a73d
00000160: 799d 3c3e 6fc7 463e 164b a4bd e013 29bd
00000170: f203 85be 86a8 00be af77 2abe a0a0 11be
00000180: 2e42 013d 3d0e 02be 3c84 623e b030 5abd
00000190: 77af 80be 85ed 3839 81cb 253d c351 bfbd
000001a0: 6da8 04be bcaa 973d a0b9 c73a 2490 b23a
000001b0: c864 2bbe 3b13 96bd dce8 fcbd e9cc 53be
000001c0: 70ae 07be d756 5b3e 8094 5a3e 318b 093e
000001d0: 6b12 1e3d a496 e63d 72d6 12be a948 a1bd
000001e0: 1649 47be c349 123d a4f3 0dbe 9422 7f3d
000001f0: ba5a 2dbd a5a5 d73d b5fc 9bbd f0b5 ecbd
00000200: 6775 62bc 6e96 77bc 66ba 8c3a 1424 583e
00000210: 9f6c ffbd 6aed 1ebe ced6 7fbe 5ab0 4a3e
00000220: 6c27 183e 358a a63d b88f d6bd 6f10 19be
00000230: a406 093d 1c24 6fbe 551e 84be 2473 343e
00000240: 7a66 c6bd 32e4 e63c a23b 5c3e e54d 1c3d
00000250: 6533 ba3d b44b 8c3d 8fde 3bbe d380 29bd
00000260: 79a0 39bd 4ff3 7ebe 20e1 9f3d 44af 3dbe
00000270: f7fc a93c bf5a 11bc ca0d 493e 68a3 69be
00000280: dffa 18bd 6a6b 4cbe 7c65 3bbe b503 7cbc
00000290: 517b 44be 8e98 21be 9f71 38be 8334 2c3e
000002a0: 0003 81bb eedb 2abe d939 333e 78e8 44be
000002b0: db8b 00bd 632d d43d 58e9 2fbe 5448 17be
000002c0: 6535 c53c 12c0 fa3d 0032 9d3d 20cd 1c3e
000002d0: 3973 85bd 1d84 083d 2497 febb bd6e 133e
000002e0: bc09 efbd b076 e23d 43af 28be 0b6b 493e
000002f0: 4834 943c 94e6 0f3d ce59 9dba 4917 6a3d
00000300: 411e 1c3c 2855 403e 3c5f 453e 32d1 263e
00000310: f04f 623d 2141 51be c11d 8a3d 0dac 193e
00000320: b624 d4bd ce21 813d bd13 323e 9ad1 283e
00000330: 9d63 18be 17e8 e03d 4b5b 453e a141 cd3d
00000340: 66b3 f1bd 6269 c5bd 0e9e d43d 0aa9 9b3d
00000350: 0a1c 463d 55d9 a5bc a62b bbbc 709b 20be
00000360: 7848 47bc 8d2d 1d3e 49d7 81bd 21e0 113e
00000370: f373 ce3d 4f10 d7bb a2a1 ffbd 588d 12be
00000380: 0d4d 62be 1f76 6ebd aabc 353e e42d ea3d
00000390: 7bb6 813d d252 d4bd d72d 29be 2030 d2bd
000003a0: 9bdc 9b3d 72e3 f2bd 74d1 193d 60a2 2bbe
000003b0: 150b a0bd 22bf 67bd d898 773d b62b 033e
000003c0: 1241 2bbe c09c 63bc 847e 6d3d bb97 32be
000003d0: 99d1 c3bc 32ad 0d3d d7d3 3d3e e3ac 4e3e
000003e0: fc33 b3bc f024 28be 72e1 a33c aa17 17bd
000003f0: 7a3e 083e 6b24 b03d dcf8 5b3e b4e6 5e3d
0.099093884 0.17816737 0.08759194 -0.06330603 0.24990004 -0.0021256993 -0.0029163198 -0.11572259
0.082360275 -0.16733965 0.15050873 -0.01683293 0.033190742 0.19355458 0.14415142 0.13875951
0.0549207 0.17822027 0.1308215 -0.13680752 0.15036453 0.021061616 0.08740387 -0.25316688
-0.026127629 0.02983672 0.17469576 -0.14461724 -0.08330543 0.19384508 -0.22453757 0.02891297
-0.2494651 -0.13644613 0.22364683 -0.0405313 0.117860444 0.16534509 0.147192 -0.15039301
-0.045379374 -0.07513945 0.04102127 0.10490705 -0.1874273 0.00016469597 -0.01704401 -0.19673282
0.14061645 -0.075254716 0.06038603 0.22121894 0.03586185 -0.12474282 0.10964109 0.0065013333
-0.190307 0.18979327 -0.14159866 0.17977397 0.184739 -0.010149928 0.0425643 0.17462415
0.14571482 -0.14301814 0.17011054 -0.14599921 0.048514817 -0.04864404 -0.022147967 0.11655815
0.06846968 -0.13848029 -0.047487393 -0.155182 0.121067666 0.20664798 0.12854163 0.006513179
-0.08355901 0.08876154 -0.20605327 -0.13542965 0.059988305 -0.1775015 0.086011976 0.08186435
0.18419446 0.19412015 -0.08022134 -0.04127872 -0.25979573 -0.12564287 -0.16647218 -0.1422143
0.031557254 -0.12700744 0.22120756 -0.05326909 -0.2513387 0.0001763609 0.04047728 -0.09341767
-0.12954874 0.07405612 0.0015237816 0.001362328 -0.16737664 -0.07327887 -0.12349102 -0.20683636
-0.13250136 0.21419846 0.21345711 0.13432004 0.038591783 0.11259201 -0.14339617 -0.07875187
-0.19461474 0.035714876 -0.13862473 0.062288836 -0.04232285 0.10529641 -0.076165594 -0.11558139
-0.013821936 -0.015111549 0.0010736703 0.21107513 -0.1247189 -0.15520254 -0.24984285 0.19793835
0.14858788 0.0813183 -0.10476631 -0.14947675 0.0334536 -0.23353618 -0.25804392 0.17622048
-0.096875146 0.028184984 0.21507123 0.038160224 0.09091834 0.06850377 -0.18346618 -0.041382622
-0.045319054 -0.24897502 0.07806611 -0.1852389 0.020750506 -0.008871733 0.19634166 -0.22816241
-0.037348624 -0.1996285 -0.18300432 -0.015381743 -0.19187666 -0.15780851 -0.18012093 0.16816907
-0.003937125 -0.16685459 0.17502536 -0.19229305 -0.031383377 0.10360219 -0.17178857 -0.14773685
0.024073312 0.12243666 0.07675552 0.15312624 -0.065161176 0.033329118 -0.007769482 0.14397712
-0.116717786 0.11057794 -0.16473107 0.1966974 0.018091336 0.035132006 -0.0012004913 0.057151113
0.0095286975 0.18782485 0.1927461 0.16290739 0.055252016 -0.20435001 0.06743956 0.15007038
-0.103585646 0.06305276 0.17390342 0.16486207 -0.1488175 0.109817676 0.19273107 0.10022283
-0.11801796 -0.09639241 0.10381709 0.07600601 0.048366584 -0.020245234 -0.022847962 -0.15684295
-0.012163274 0.15349407 -0.063398905 0.14245655 0.10080709 -0.0065632234 -0.12482001 -0.14311731
-0.22099705 -0.058218118 0.17747751 0.11434534 0.063336335 -0.10367359 -0.16521393 -0.10263085
0.076104365 -0.11859788 0.037553266 -0.1676116 -0.07814614 -0.056578763 0.060448498 0.12809643
-0.16724041 -0.013892353 0.057981983 -0.17440693 -0.023903655 0.034589 0.18537842 0.20183139
-0.021875374 -0.1642034 0.020004962 -0.036887802 0.13305083 0.08600696 0.21481651 0.054419234

fc1.bias f4 [64]
00000000: d20b 023e e70c efbd b7c5 743c d30f 45be
00000010: a7e8 11bd b942 19be 0dc1 793d 61ed 97bd
00000020: 948f 183d 98ad 09be 6cdf 913c 2228 9abd
00000030: 96f7 b9bd 5a4c 11be aed3 2dbe 8756 433e
00000040: 0307 5bbe c624 e1bd 3db8 d4bd 0f95 ca3c
00000050: be99 103e 4da5 0b3e 65d2 d6bd 34fb b2bd
00000060: 1918 d53d 8ade fcbd 4185 afbd 022c e23d
00000070: b8d1 ae3d a6f0 16be bf07 f7bd b986 e83d
00000080: 1d1d 7fbd cb5a f6bd ac43 bb3d 51ca 263e
00000090: f9ef 7a3d 6a9d ff3d 113e 173e 6e5b 193e
000000a0: 9a9d 02be ea14 df3b 1cc0 223e f3db 40bd
000000b0: a9d7 d93d 2458 b73c 86a7 90bd 68e9 4cbe
000000c0: 220d 7cbd 7960 c8bc 5f59 69bd d412 2ebe
000000d0: 0381 ea3d 2cb5 41bd 1cb5 5cbd f494 473e
000000e0: 6b51 fabd 2c0d 6c3d 0c8f 5e3d b9b7 24bc
000000f0: b43c 003e 8876 db3d 71ed 16be 6b7a 9cbd
0.12699822 -0.11672383 0.014939717 -0.19244318 -0.035622265 -0.14966859 0.060975123 -0.07418323
0.0372463 -0.13445127 0.017806731 -0.07527186 -0.090804264 -0.14189282 -0.1697528 0.19075976
-0.21389394 -0.10993342 -0.10386703 0.02472928 0.14121148 0.13637276 -0.10489348 -0.087393194
0.10404987 -0.123471335 -0.08570338 0.1104355 0.085360944 -0.14740238 -0.12062024 0.11353821
-0.062283624 -0.12029036 0.09143767 0.16288115 0.061264012 0.12481196 0.1476977 0.14976284
-0.12755433 0.006807913 0.15893596 -0.04708476 0.10636837 0.022380896 -0.070632026 -0.20010912
-0.061535962 -0.024460064 -0.056969997 -0.1699937 0.11450388 -0.04729192 -0.053883657 0.19490415
-0.122225605 0.05762975 0.05433564 -0.0100535685 0.12523156 0.107159674 -0.14739014 -0.07640537

fc2.weight f4 [64, 64]
00000000: 461a 733d 2bb6 4fbd cdf0 f9bd ceb5 9cbd
00000010: 04f0 db3d 826f abbd de12 aabd 074c c2bd
00000020: 67d0 00be cae6 673d fbd7 643d ebd5 24bc
00000030: 33f0 f93c 8b6c e7bd 7d58 4abd ecba e1bd
00000040: 8340 a5bd 03dc 1b3d d300 673d 1c38 1e3d
00000050: eb15 d6bb f804 54bd e2cb a13d b3f7 c53d
00000060: 30a2 f93d bf6f 25bc d8b3 1bbd 1e41 93bd
00000070: f874 d9bc 1bce 45bd 97ea 9a3d fd13 a23d
00000080: 4e82 b0bd bc30 8bbd 5b6b 5dbc e7c7 d8bb
00000090: fb5a 08be 8b2f 8e3d b1de 4dbd ba1d 77bd
000000a0: 32ac 5b3d 2c06 a03d fbe6 04be ee7e 86bd
000000b0: 5850 bb3c 2309 14be 2752 9f3d 6042 5c3d
000000c0: 0527 7f3d e330 e13d b982 b93c edf2 253d
000000d0: 70d6 98bd 04d7 a83d 08ac 01be 1423 e1bd
000000e0: 7850 69bc 5d8d 673d 6c92 81bd f16b b23d
000000f0: bd83 6ebd 861f 9bbd 8c20 963c 184a d23d
00000100: ebd1 123c 2538 ac3d 2298 e33c 7155 e2bd
00000110: f76b ad3d 237b 96bd a9d8 95bc 3f9c e0bd
00000120: f33d 0cbe 2492 08be b812 abbd 67ef bb3d
00000130: a042 a53d 7dc4 81bd 616e 003d 5dbe c23d
00000140: e5a2 bcbd 0a0f a13d 1696 73bd 3131 9e3d
00000150: a445 c13c baac eb3d cf7f 49bd 917e 073d
00000160: ddbe b5bd 10f6 31bd 57b9 cc3d 6f8f bbbd
00000170: 85e5 bd3c 3daf 45bd 3eeb fcbd bf12 1cbc
00000180: 98b6 d7bd 84bf c13d c1b8 b03c fd25 943c
00000190: 24f3 ed3c 7811 ddbd 17b5 973d 578b 773c
000001a0: 2cde ea3c d0dd 29bd e8d8 67bc 0e4e 42bd
000001b0: 102b 033d b70b fbbd a9c5 e6bc 8b17 bb3c
000001c0: 25dc e93c fae7 f4bd f4a0 13bd def7 183d
000001d0: 6469 1abd 0c77 bd3c dad3 89bd 293c b9bd
000001e0: 1475 28bd 73b5 203d 6dab 833c 04e9 08be
000001f0: a26b 113b e604 6fbc 3bdf babd b7d5 cfbd
00000200: 7d5e 3bbd ee19 7abd b87f a0bd 284b dfbd
00000210: a853 1b3d 32d0 21bd 516f cc3d d514 8d3d
00000220: be46 97bd 912b 983c 2038 8e3d 9e12 8cbd
00000230: 823a ae3d 0f70 90bd 4398 36bc d6a3 9c3d
00000240: d6a5 97bd b831 2d3d bcb0 f6bd 19f3 01be
00000250: 1424 bf3c 4b58 15be ec0b 98bc caf1 c93c
00000260: 3757 a23d 884d d63d aba3 6bbd b4a1 d4bb
00000270: 979c cf3d 9bc8 abbd 76b4 c5bd 5f8f a0bd
00000280: 56ac 683c fa5b ddbd 896a 37bd d9d0 8a3d
00000290: d761 05be f2a9 80bd 24be e0bd c6cb ee3c
000002a0: 456c cfbd c1f5 e73c b6f5 b6bc 1566 35bd
000002b0: a5cd 293d 66dd 703d 10b2 66bd 4435 f8bc
000002c0: 017a d93d e0c7 b8bd aaf0 dd3d f682 0fbd
000002d0: 689f fb3c e235 f73d aeea 0fbe 97e9 ccbc
000002e0: 45ce 38bc ddea d0b8 b173 c53d d814 c2bd
000002f0: 6232 81bd 9301 d9bd be86 d43d 89df c83d
00000300: 20af c9bd 9b78 e0bd 7beb d53d 43cd 97bd
00000310: 67bd e43d 9786 bbbd 5913 f93c b989 8a3d
00000320: da1f 1bbc 71e5 97bc d496 c03c 9168 8ebd
00000330: b9d1 e4bc fc11 9e3d fde9 2bbd e3a7 f53d
00000340: 2341 a7bd c3f5 d53d 383c 64bd d42d be3d
00000350: e882 913d 81a8 9d3d 5ff2 143d 0427 543d
00000360: ffd0 98bd c6f9 c9bd 2e6b 6b3d 98ff cdbd
00000370: 9657 0b3c 7f70 d93d 7a2a 19bd 184d fb3d
00000380: 86cf 383d 16c4 45bd f163 d23d e755 e83d
00000390: a42f d83d 88b4 0cbd 2781 d9bd d0a2 abbd
000003a0: 53ce e83d 6520 d73d 26ea 613d 8546 b3bd
000003b0: 20a1 6f3b ec34 61bc b5d0 7cbc efe6 363d
000003c0: 0c53 ebbc 735c 563d 1f38 dc3d 2f49 8b3d
000003d0: 94db babd 2e28 e73d 62b0 dabc 663c f73d
000003e0: 8cc4 413d bd56 b63d b790 cb3d 8fb7 38bd
000003f0: 67c7 233d f0d6 d2bc a139 4b3d ce5c 1fbd
0.05935123 -0.05071084 -0.12204132 -0.07651864 0.10739139 -0.08370878 -0.0830438 -0.09487157
-0.12579499 0.056616582 0.055870038 -0.010060768 0.030510044 -0.113 -0.049400795 -0.11021981
-0.08068945 0.038051616 0.05639727 0.03862773 -0.0065333745 -0.05176255 0.07900216 0.096663855
0.12189138 -0.010097443 -0.03801331 -0.071901545 -0.026545033 -0.04829226 0.07564276 0.07913969
-0.08618604 -0.06796405 -0.013514365 -0.006615627 -0.13315956 0.06942662 -0.050261203 -0.060331084
0.053631015 0.07813677 -0.12978737 -0.06567179 0.02286546 -0.1445661 0.07779341 0.053774238
0.06229307 0.109956525 0.022645341 0.040514875 -0.07462776 0.08244136 -0.12663281 -0.10993019
-0.014240377 0.0565313 -0.06326756 0.087119944 -0.058231104 -0.07574372 0.018326066 0.102680385
0.008961181 0.08409146 0.027782504 -0.11051453 0.08467858 -0.07347705 -0.018291788 -0.109673016
-0.13695507 -0.13336998 -0.0835318 0.09176522 0.08069348 -0.06336305 0.031355266 0.09508965
-0.09210757 0.078641966 -0.059469305 0.07724226 0.023592778 0.11507554 -0.049194153 0.033079688
-0.08874295 -0.043447554 0.09996288 -0.09158217 0.023180733 -0.048262823 -0.123495564 -0.009525954
-0.10532874 0.09460357 0.021572473 0.01808452 0.029046603 -0.107943475 0.07407587 0.015108905
0.028670393 -0.041471303 -0.014150836 -0.04743772 0.03202349 -0.12258094 -0.028170424 0.022838375
0.028547356 -0.119583085 -0.03604217 0.03734576 -0.037698165 0.023128055 -0.067298606 -0.09044678
-0.04112728 0.039235543 0.016072953 -0.13370138 0.0022189398 -0.01458857 -0.09124609 -0.10148185
-0.045744408 -0.061059885 -0.078368604 -0.10903007 0.037921578 -0.03950519 0.099821694 0.06888739
-0.0738654 0.018575462 0.06944299 -0.068394884 0.08507253 -0.070526235 -0.0111447 0.07648437
-0.074046776 0.042283744 -0.12045428 -0.1269039 0.023332633 -0.14584462 -0.018560372 0.024651427
0.07926791 0.10464007 -0.057529133 -0.006489003 0.10137289 -0.08387872 -0.09653561 -0.07839846
0.014201244 -0.10808559 -0.044779334 0.06778116 -0.13025604 -0.062824145 -0.109737664 0.029149901
-0.10128073 0.028315427 -0.022333961 -0.044286806 0.041455884 0.058804892 -0.056322157 -0.030298837
0.106189735 -0.09022498 0.10836919 -0.035037003 0.03071566 0.12070824 -0.14054367 -0.025013728
-0.011279647 -9.9619596e-05 0.09641207 -0.09476632 -0.06308438 -0.105960034 0.103772625 0.09808261
-0.098478556 -0.10960504 0.10445305 -0.074121974 0.11168938 -0.0915653 0.030404733 0.0676455
-0.009468043 -0.018542023 0.02350942 -0.06953538 -0.027932035 0.07718274 -0.041971195 0.119949125
-0.08166721 0.10447266 -0.05572149 0.09286085 0.071050465 0.07698155 0.036363956 0.05179502
-0.07461738 -0.098620936 0.05747526 -0.10058516 0.008504769 0.1061716 -0.037394024 0.12270564
0.045119785 -0.048282705 0.102729686 0.113445096 0.10555962 -0.034351856 -0.10620337 -0.083806634
0.11367478 0.10504226 0.055154942 -0.08753685 0.0036564544 -0.013745528 -0.015430619 0.04465383
-0.028726123 0.05233426 0.10752892 0.06801068 -0.091239125 0.112869605 -0.026695434 0.12072067
0.047306582 0.08903263 0.099397115 -0.04509693 0.039985087 -0.025737256 0.049615506 -0.038906865

fc2.bias f4 [64]
00000000: fba7 8cbd 670e 643d 7aa7 43bc f38b 743d
00000010: 73c9 4c3c 0313 843d 8f2c dbbd 942a 1b3d
00000020: 2e75 8bbd 8d21 db3d 3631 ddbd 339e 683b
00000030: 4732 e7bd cd8a b33d 93ef 30bc f190 123d
00000040: 2c90 8dbd fb42 873d c971 a4bd f520 95bd
00000050: 4cb0 843d 96bb a53c 9da5 13be ed25 d1bd
00000060: 7687 493d c9d4 c33a 812b 38bd a39b 41bc
00000070: 608c 003e d351 bcbd f525 8dbc c8e8 c13d
00000080: 6e9d cebd ffd7 0bbd 391a e3bd f66e 11bd
00000090: 8aaa 543d 473b 783c 9633 bf3d d2cd 64bd
000000a0: c0cb fa3d ac3e c03b e687 e93d 245d d83c
000000b0: 4c61 ae3d def5 b3bd d4e1 3a3c cf16 ca3d
000000c0: b7b9 afbc 0345 f4bd d797 9f3d dc9a 7a3d
000000d0: 9266 ccbd b4f3 d53d 8797 853d 78ec 273d
000000e0: 3469 a13d 3fe5 b8bd ed38 143d 3e00 d9bd
000000f0: 732a 73bb f2aa 7cbd db99 62bd c115 cf3d
-0.06867977 0.055677798 -0.011941785 0.05970378 0.012499201 0.06448939 -0.10701858 0.037882403
-0.068094596 0.10699759 -0.10800402 0.0035494685 -0.112888865 0.087667085 -0.010799306 0.03578276
-0.06912264 0.066045724 -0.08029515 -0.07281677 0.064789385 0.02023105 -0.14418645 -0.10212312
0.04920145 0.0014940734 -0.044963364 -0.011816892 0.12553549 -0.09195294 -0.017230013 0.094682276
-0.10088621 -0.034141537 -0.11088986 -0.03550621 0.05192045 0.015150852 0.09336011 -0.055860348
0.122458935 0.005866846 0.11402874 0.0264116 0.08514652 -0.0878713 0.011406381 0.09867632
-0.02145086 -0.119272254 0.07792633 0.06118284 -0.09980501 0.10446873 0.06523042 0.040997
0.07881394 -0.090281 0.0361871 -0.10595749 -0.003710416 -0.061686464 -0.05532251 0.10111571

fc3.weight f4 [1, 64]
00000000: 8998 ab3d b512 4bbd 8c8f 253d 8136 b0bd
00000010: eaf9 2f3d 88da e23c b075 163d 9635 39bd
00000020: 17e0 9b3d edc4 af3d 34b9 3d3d 3de6 11bd
00000030: b119 ffbb 8920 03bd 076e bfbd f728 7fbd
00000040: 911a b6bd 9b17 b8bd 0554 e1bd 8f87 a53d
00000050: 6726 a03d 7f87 8dbd 0b91 ff3b 7ddc 1b3d
00000060: 2367 a63b fca6 ed3c cb0c 8c3b 182d b8bd
00000070: add3 15bd 50ee bfbd 7b4a 8b3d 45b9 853d
00000080: e89a 713d c098 b3bd 690b 5bbd 3387 863c
00000090: 1ca5 09bd 42f7 ee3d 0611 fb3b 709a 8f3d
000000a0: ae80 dbbd 72e1 953d a4b0 a5bd cf07 c3bc
000000b0: 40f6 bf3d 19b4 6cbc 2203 0d3b e845 673d
000000c0: 7777 dbbc 2ea2 b3ba df74 ee3c 6b29 583d
000000d0: ccf5 96bd 714f bd3d 07fd afbd 95e0 d53b
000000e0: a781 923c f514 193a d3d7 e2bd f6b4 98bc
000000f0: 72db 3b3d d55e fabc 208b 85bd 3f07 dfbd
0.08378703 -0.049578387 0.0404201 -0.08604146 0.042962946 0.027692094 0.03673333 -0.04521712
0.07611101 0.085824825 0.0463192 -0.035619963 -0.007785045 -0.03201345 -0.09347158 -0.062294926
-0.08891786 -0.089888774 -0.110023536 0.080824964 0.07819825 -0.069106095 0.007799273 0.03805207
0.005078213 0.029010288 0.004273986 -0.08992976 -0.036578823 -0.093716264 0.068013154 0.06529478
0.05898562 -0.08769369 -0.05347768 0.01642189 -0.033604726 0.116682544 0.0076619415 0.070118785
-0.10717903 0.07318391 -0.08090332 -0.023807434 0.0937314 -0.0144472355 0.002151676 0.056463152
-0.026790364 -0.001370495 0.029108463 0.052773874 -0.07371101 0.09243668 -0.08593183 0.0065270164
0.017884089 0.00058396097 -0.110763215 -0.018640976 0.045863576 -0.030562798 -0.065206766 -0.10890054
