pipeline/checkpoint.pth (torch, 854690 bytes, 27 tensors)

transformer_encoder.layers.0.self_attn.in_proj_weight f4 [108, 36]
000000 fb 12 8e bd 4d 72 e7 3b dd a8 76 bd 9a e1 04 3e
       -0.06937214 0.0070631863 -0.060219634 0.12976685
000010 3c eb c2 bd c1 09 b9 3d 99 7e 45 3e af 65 6b 3d
       -0.09517524 0.090350635 0.19286574 0.05747002
000020 0a ca ea bd 27 7a 17 3e 43 ba 89 bc 27 45 ab bc
       -0.11464317 0.14792691 -0.01681245 -0.020906998
000030 ae 6c 86 3c 21 00 22 be 3b 08 a4 3d ec 8d 22 3d
       0.016409244 -0.15820362 0.08009382 0.03968613
000040 66 f2 cd bd fd f8 d8 bd 01 01 a5 3d fb 84 f9 3c
       -0.100559995 -0.10594366 0.08056832 0.030458918
000050 66 ac ba 3d eb be 32 3b e1 c0 1f 3e 87 79 af bd
       0.09114914 0.002727444 0.15600921 -0.085681014
000060 26 57 28 bd f8 3d d5 3d e4 b6 d4 bd 9d 3d 3e 3e
       -0.041098736 0.1041221 -0.10386446 0.18578191
000070 24 1a 00 be 00 8d bf bc f1 25 6d bd 98 7c 76 3d
       -0.12509972 -0.023382664 -0.057897512 0.060177416
000080 a4 8b 09 3e e0 d5 23 be 94 91 d7 bb fe 2f 1e 3e
       0.13432175 -0.15999556 -0.0065786336 0.15447995
000090 14 f9 bc 3d 4f c6 08 bd 7b a2 1e be 69 24 64 3c
       0.092271954 -0.033392247 -0.15491669 0.0139246965
0000a0 b2 fd ef 3b f3 4a 27 be 1d 6d ea 3d 05 6c 96 bc
       0.007323944 -0.16337185 0.11446593 -0.018362055
0000b0 6c 34 a0 bc d6 fd 0f be c7 72 4a be 34 8c bd bd
       -0.019556247 -0.14061674 -0.19770347 -0.09255257
0000c0 72 1a 0c 3e a2 f7 ac 3b 8f f0 05 3e 1e 45 13 bc
       0.13681963 0.0052785436 0.13080047 -0.008988647
0000d0 87 db 5e 3d 8d 91 57 3d d6 f9 42 be 6c 94 6e bd
       0.054408576 0.052629042 -0.19040617 -0.058247015
0000e0 95 16 bb bd f3 46 0c bc f5 67 1f be 48 8f 89 bd
       -0.091351666 -0.0085618375 -0.15567 -0.06716782
0000f0 b8 96 05 3e af 7b dc 3d 1f ef 33 be fe bc 34 be
       0.13045776 0.10765778 -0.17571686 -0.1765022
000100 e8 9b e7 3d ec ad 2f 3e 75 7d 47 be c0 a9 11 3e
       0.11309034 0.1715619 -0.19481452 0.1422491
000110 2e 72 09 3e 89 44 07 be 01 2b 21 bd c9 be 15 3e
       0.13422462 -0.13209738 -0.039347652 0.1462356
000120 ad 7f 4f 3e a1 1a cc bd c7 2c d3 3d 2e 26 94 bd
       0.20263548 -0.099660166 0.10311275 -0.07233845
000130 f3 63 a2 bd 17 3e 8a 3d 93 34 8e bc e6 9b 0a 3d
       -0.0792922 0.06750124 -0.017359054 0.033840083
000140 e6 45 b7 3d cb e4 c1 3d 02 f1 5f bd 1b cd 85 bd
       0.08948879 0.09467467 -0.054673202 -0.065332614
000150 57 a4 a2 bd a4 de 27 bd 23 ca 63 3d 31 b9 15 be
       -0.079415016 -0.04098381 0.055612694 -0.14621426
000160 fb a3 9e bc 2f 73 62 3d 53 72 9f bd bb f7 5b bb
       -0.019365301 0.05528563 -0.077854775 -0.0033564407
000170 29 b3 de 3d d3 ca 11 3e 3c 12 f9 bd 44 02 e1 bd
       0.10874016 0.14237528 -0.12161681 -0.1098676
000180 82 0e 4c 3e a8 b2 53 bc 09 65 47 3e cf 9d b8 3d
       0.1992741 -0.012921013 0.19472136 0.090144746
000190 7a fa e7 bd ce f1 30 bd 7f e9 e7 bd 4e 75 0c 3e
       -0.113270715 -0.043199353 -0.11323833 0.13716623
0001a0 9d b1 24 be 3a 89 45 3e 9b af 41 be 04 b7 b9 bd
       -0.16083379 0.19290629 -0.18914644 -0.090681106
0001b0 1d 01 05 3e 7f 9e f8 bd 8c b3 d4 bc 3a ce f7 3d
       0.12988706 -0.12139606 -0.02596452 0.120998815
0001c0 50 f0 29 be f5 6e 0d bd f7 c5 da 3d 8b 44 fd 3d
       -0.16595578 -0.034529645 0.1068229 0.12366589
0001d0 6e 5d be 3d 39 23 fc 3d f1 6b f3 bc eb e5 1c bc
       0.09295164 0.12311406 -0.029714556 -0.009576301
0001e0 e6 ce 15 bd 47 db 01 3d d1 b9 20 3d ca c6 3a be
       -0.036574267 0.03170326 0.03923971 -0.18239895
0001f0 e7 9c 31 be d7 bc 4b 3e 54 1b ff 3c 15 83 b8 3d
       -0.1734501 0.19896255 0.03114096 0.09009377
000200 f8 fe 0b 3d 29 81 34 3e 0f 00 3b be ce bd 54 3d
       0.034178704 0.17627396 -0.18261741 0.051938824
000210 bd c7 fe bc db 5b ee bc 8f 41 9c 3d 07 28 0d 3e
       -0.031101102 -0.029096534 0.07629692 0.137848
000220 1e 1c 20 3e 8f 8f bc 3d 86 62 06 3d 8b 3f 46 3d
       0.15635726 0.09207069 0.032808803 0.048400443
000230 fc 42 b0 3d 57 59 4e 3e b3 76 1b 3e 61 29 30 3e
       0.08606526 0.20151268 0.15181999 0.17203285
000240 ac c9 53 bd 6e b3 f5 bd e1 bc 07 be 50 e9 92 bd
       -0.051706 -0.11997114 -0.13255645 -0.07173407
000250 b8 97 3f 3d 64 97 07 be 83 a3 24 be 85 26 5e 3d
       0.04677555 -0.13241345 -0.16078 0.054235954
000260 35 97 9b 3c ee 78 9b 3d a2 c9 4a be 29 78 2b bd
       0.018993 0.07591425 -0.1980348 -0.04186264
000270 19 0c 28 3e 94 ac 20 be b8 b7 87 3d 0a 6c 3b be
       0.16410865 -0.15690833 0.066268384 -0.18302932
000280 de b3 b8 3d b6 9a aa 3c 4b 63 8d ba c7 1f 37 3e
       0.09018682 0.020825725 -0.0010787038 0.17883216
000290 dc 71 bc bd c4 a6 41 3e 40 eb 4a 3d 97 86 e6 3d
       -0.092014045 0.18911272 0.049540758 0.1125614
0002a0 ba 85 1e be 82 a0 7a 3d 9a f3 59 3c da a9 41 3d
       -0.154807 0.06118823 0.013302708 0.047281124
0002b0 d1 70 3e 3e 9c b5 46 3e 68 88 e0 bd 5b 1a 22 3e
       0.18597724 0.19405216 -0.109635174 0.15830366
0002c0 ad 6c 90 3d 41 7c 0b be bd 31 36 be 6b 70 86 3d
       0.07051978 -0.13621618 -0.17792411 0.06564411
0002d0 a7 de 07 bc 6a 36 28 3d ed dd 3b be 3b 58 ca bc
       -0.008292831 0.04106752 -0.18346377 -0.024700275
0002e0 25 35 16 be 80 34 96 bb df e4 48 3e a0 7d 44 3e
       -0.1466871 -0.004583895 0.19618557 0.19188547
0002f0 4a 90 85 3d 0f 02 8c bd 25 d9 42 3e 6f 8e 20 be
       0.065216616 -0.0683633 0.19028147 -0.15679334
000300 92 a4 8b 3d 2e 7b da 3d cb f6 4f be 51 ff 8a bd
       0.06818499 0.10668026 -0.20308988 -0.06786979
000310 3e ba 15 be f7 92 4f be dc 40 23 3e 7d e6 30 be
       -0.14621827 -0.20270906 0.1594271 -0.17275424
000320 c1 be 00 3e 0b 30 3c be c0 fe 1a 3d 38 76 09 be
       0.12572767 -0.18377702 0.037840605 -0.13424003
000330 87 38 2a 3e 86 88 b6 bd 9e 38 d3 3d 2b 11 86 bd
       0.16623126 -0.089127585 0.10313533 -0.06546243
000340 94 f0 5d 3d 14 52 b4 bd fa 6a 08 be a8 62 d2 3d
       0.05418451 -0.08804718 -0.13322058 0.102727234
000350 7b c8 30 be 50 18 01 3d fb a1 ca 3d 38 9c 49 3e
       -0.17263977 0.031517327 0.098941766 0.19688499
000360 56 14 17 be a5 3c 94 3d 7d 14 2e 3c ca d4 c8 bd
       -0.14753851 0.072381295 0.010625002 -0.09806211
000370 81 73 44 be 53 24 1c 3e a9 a9 1f 3e 0b 3c 34 3e
       -0.19184686 0.15248232 0.15592064 0.1760103
000380 97 97 1a 3d 75 7f 34 bd 32 82 03 3d b3 b7 19 3e
       0.037742224 -0.044066865 0.032106586 0.15011482
000390 97 a3 e9 bc 7d 2c 1b 3e f3 aa 32 3e d7 d1 b7 3d
       -0.028520389 0.1515369 0.17448024 0.08975571
0003a0 2a bc ff bd d0 d1 ae ba 3b bf 00 3e 24 bd 26 3e
       -0.12487061 -0.0013337675 0.12572949 0.16283089
0003b0 f1 1d 32 be 01 37 10 3e a4 23 26 3d 34 6b ff bd
       -0.17394234 0.14083482 0.040561333 -0.12471619
0003c0 5b ee fe bd ff 90 9e 3c 89 85 2b 3e 18 ef 16 be
       -0.124478064 0.019356249 0.16750158 -0.14739645
0003d0 39 32 02 3e b6 cd 39 3e a4 07 0e bd 1e e8 8d bd
       0.12714471 0.18144879 -0.034675255 -0.069290385
0003e0 67 56 34 bd 58 a9 e9 3d 75 f3 44 be 78 f7 48 3e
       -0.044027712 0.11409253 -0.19233496 0.19625652
0003f0 67 f7 63 bc 64 1d a6 3c 60 cd 09 bd a3 1c cf 3d
       -0.013913966 0.020277686 -0.033643126 0.10112884

transformer_encoder.layers.0.self_attn.in_proj_bias f4 [108]
000000 00 00 00 00 00 00 00 00 00 00 00 00 00 00 00 00
       0.0 0.0 0.0 0.0
000010 00 00 00 00 00 00 00 00 00 00 00 00 00 00 00 00
       0.0 0.0 0.0 0.0
000020 00 00 00 00 00 00 00 00 00 00 00 00 00 00 00 00
       0.0 0.0 0.0 0.0
000030 00 00 00 00 00 00 00 00 00 00 00 00 00 00 00 00
       0.0 0.0 0.0 0.0
000040 00 00 00 00 00 00 00 00 00 00 00 00 00 00 00 00
       0.0 0.0 0.0 0.0
000050 00 00 00 00 00 00 00 00 00 00 00 00 00 00 00 00
       0.0 0.0 0.0 0.0
000060 00 00 00 00 00 00 00 00 00 00 00 00 00 00 00 00
       0.0 0.0 0.0 0.0
000070 00 00 00 00 00 00 00 00 00 00 00 00 00 00 00 00
       0.0 0.0 0.0 0.0
000080 00 00 00 00 00 00 00 00 00 00 00 00 00 00 00 00
       0.0 0.0 0.0 0.0
000090 00 00 00 00 00 00 00 00 00 00 00 00 00 00 00 00
       0.0 0.0 0.0 0.0
0000a0 00 00 00 00 00 00 00 00 00 00 00 00 00 00 00 00
       0.0 0.0 0.0 0.0
0000b0 00 00 00 00 00 00 00 00 00 00 00 00 00 00 00 00
       0.0 0.0 0.0 0.0
0000c0 00 00 00 00 00 00 00 00 00 00 00 00 00 00 00 00
       0.0 0.0 0.0 0.0
0000d0 00 00 00 00 00 00 00 00 00 00 00 00 00 00 00 00
       0.0 0.0 0.0 0.0
0000e0 00 00 00 00 00 00 00 00 00 00 00 00 00 00 00 00
       0.0 0.0 0.0 0.0
0000f0 00 00 00 00 00 00 00 00 00 00 00 00 00 00 00 00
       0.0 0.0 0.0 0.0
000100 00 00 00 00 00 00 00 00 00 00 00 00 00 00 00 00
       0.0 0.0 0.0 0.0
000110 00 00 00 00 00 00 00 00 00 00 00 00 00 00 00 00
       0.0 0.0 0.0 0.0
000120 17 b7 d1 b8 17 b7 d1 b8 18 b7 d1 38 17 b7 d1 b8
       -1e-04 -1e-04 0.000100000005 -1e-04
000130 17 b7 d1 38 18 b7 d1 38 16 b7 d1 38 18 b7 d1 b8
       1e-04 0.000100000005 9.999999e-05 -0.000100000005
000140 17 b7 d1 b8 17 b7 d1 b8 16 b7 d1 38 16 b7 d1 b8
       -1e-04 -1e-04 9.999999e-05 -9.999999e-05
000150 17 b7 d1 b8 18 b7 d1 38 16 b7 d1 38 17 b7 d1 38
       -1e-04 0.000100000005 9.999999e-05 1e-04
000160 16 b7 d1 b8 18 b7 d1 38 17 b7 d1 b8 18 b7 d1 b8
       -9.999999e-05 0.000100000005 -1e-04 -0.000100000005
000170 16 b7 d1 b8 17 b7 d1 38 18 b7 d1 38 17 b7 d1 38
       -9.999999e-05 1e-04 0.000100000005 1e-04
000180 16 b7 d1 b8 18 b7 d1 38 16 b7 d1 38 17 b7 d1 b8
       -9.999999e-05 0.000100000005 9.999999e-05 -1e-04
000190 17 b7 d1 38 18 b7 d1 b8 16 b7 d1 b8 16 b7 d1 38
       1e-04 -0.000100000005 -9.999999e-05 9.999999e-05
0001a0 18 b7 d1 38 18 b7 d1 38 16 b7 d1 b8 15 b7 d1 b8
       0.000100000005 0.000100000005 -9.999999e-05 -9.999998e-05

transformer_encoder.layers.0.self_attn.out_proj.weight f4 [36, 36]
000000 d7 a1 50 bd af 7e 05 bd ae 84 18 3c be 1d e3 bd
       -0.050935593 -0.032591518 0.009308977 -0.11089657
000010 e5 01 99 bd 2c 80 2c bd 19 47 88 bd fc f6 03 3e
       -0.074710645 -0.04211442 -0.06654186 0.12887186
000020 01 0e 08 3e 62 c4 77 bd 59 40 14 be cd 4c db bd
       0.13286592 -0.06049002 -0.14477672 -0.10708008
000030 6f 34 1e be 6e 70 55 3c 1a 02 52 bd c9 69 eb bc
       -0.1544969 0.013027294 -0.051271535 -0.028736966
000040 b4 f7 2c bd e4 d9 53 3d e3 d9 29 be 3a 29 63 3d
       -0.042228416 0.05172147 -0.16587023 0.05545924
000050 15 0d 87 bd 16 99 f6 bd 8c a3 67 bd f1 6f b3 bd
       -0.06594292 -0.120409176 -0.056552455 -0.087615855
000060 8c 39 d2 3d d1 38 9e 3d a5 f8 ba bd f1 fd f5 3d
       0.102648824 0.077256806 -0.091294564 0.12011326
000070 44 d4 60 3c 5c 94 29 3e 29 a9 10 3e d9 cc 22 be
       0.013722483 0.16560501 0.1412703 -0.15898456
000080 0a d7 15 be 25 a9 1c be 0f 59 20 be e5 70 b8 3d
       -0.14632812 -0.15298899 -0.15658973 0.09005908
000090 9f 46 14 be a5 95 e7 bd 5d 40 ce 3d 4f c4 b3 bb
       -0.14480065 -0.11307839 0.1007087 -0.0054860483
0000a0 64 cd 0d 3d 90 12 86 bd 15 aa 9c bd ac d5 2f 3d
       0.034619704 -0.06546509 -0.07649628 0.042928383
0000b0 bf 82 03 be 60 08 e8 bd 1c 38 cf 3d c8 15 a1 bd
       -0.12842844 -0.113297224 0.10118124 -0.078654826
0000c0 82 b8 16 bd 61 43 ad 3d 37 a6 95 bc 35 1a 82 3d
       -0.036797054 0.08460117 -0.018267734 0.06352655
0000d0 84 d7 28 3e 7f 93 ca bc b6 86 f7 bd 41 7e 07 3e
       0.16488463 -0.024728535 -0.12086241 0.13231756
0000e0 6f 89 47 3d a0 58 f5 bd 07 d8 e2 3b 11 9b e7 3d
       0.04871505 -0.119797945 0.006922725 0.113088734
0000f0 62 0b 43 bd f7 d4 c0 bc f7 9e 8e bc 52 c8 24 be
       -0.047618277 -0.02353905 -0.017409785 -0.16092041
000100 e9 a0 ea 3c 8d 58 b5 bd 7a 7e eb 3d a5 6f 97 3d
       0.028641181 -0.0885478 0.11498733 0.073943414
000110 f1 18 e0 3d 91 c2 e6 3d f6 f0 92 3d 5e c2 aa 3d
       0.10942257 0.11267579 0.07174866 0.08337854
000120 8e 9f c0 3d d7 c0 7b 3d 9d 4c 1f 3b 4d c0 f1 bd
       0.09405433 0.061463203 0.002430714 -0.118042566
000130 b5 12 0e be 6b e3 28 3e 6c ab 23 3d 0c 17 13 be
       -0.13874324 0.16493003 0.039958403 -0.1436426
000140 4f 64 15 be 82 8b 5c 3d 3e 4d 9a 3d ff 99 e2 bc
       -0.14589046 0.053843983 0.07534264 -0.027661322
000150 22 45 db 3c 5c f8 9e 3d a2 e5 0b 3e 91 90 03 3e
       0.026766364 0.077622145 0.13661817 0.12848116
000160 26 e8 24 be 6d 49 0b 3e 8a c0 60 3d 92 8f 6b 3c
       -0.16104183 0.13602228 0.05487112 0.014377492
000170 49 30 f2 3d da 4e c0 3d 94 68 21 be d7 c6 d6 bc
       0.11825616 0.0939004 -0.1576255 -0.026217861
000180 54 2b ce bc f4 ac a6 3c 77 91 92 3c 7d 14 a0 3d
       -0.025167145 0.020346142 0.017891629 0.07816408
000190 ae ff 34 3c 83 e2 20 be 9b 18 19 be 8b cd 26 3e
       0.011047287 -0.15711407 -0.14950792 0.16289346
0001a0 f4 87 1e bd 1f c5 83 bc 29 67 f9 3d d6 29 bc 3d
       -0.038703874 -0.016085206 0.12177879 0.09187667
0001b0 2c 80 39 bd 21 57 05 3e ae bf 23 3c 08 2d 2a 3e
       -0.04528825 0.13021518 0.0099944305 0.1661874
0001c0 be 66 7f bc a5 31 83 3d 82 97 98 3d 17 a9 c2 bc
       -0.0155884605 0.06405953 0.07450773 -0.023762269
0001d0 ac d9 c4 3d ce 5e 17 be 41 16 23 3e 69 b0 12 3e
       0.0961183 -0.14782259 0.15926458 0.14325108
0001e0 52 1a 34 3d 13 6c 0f be f0 b1 df bd e4 76 06 be
       0.043970414 -0.14006071 -0.10922611 -0.1313129
0001f0 58 de c3 bd 3f 31 ef 3c 1d cf e0 bd 12 0f cf 3d
       -0.09563893 0.029198287 -0.10977004 0.10110296
000200 69 90 18 3e 5a 82 3a 3d 82 95 09 be ee b2 c2 bd
       0.14898838 0.04553447 -0.13435939 -0.095067844
000210 74 00 4e bd 32 93 07 3e b2 f8 8a 3b 45 fc 8b bd
       -0.0502934 0.13239744 0.0042410726 -0.06835226
000220 b6 c1 ae 3d 01 18 a2 bd 68 6d 80 bd 04 78 8a 3d
       0.08533041 -0.07914735 -0.062708676 0.067611724
000230 c2 c0 6b bd 67 bd 44 bd 7a 37 6f 3d 79 3d 19 3e
       -0.057556875 -0.04803219 0.058402516 0.14964856
000240 08 ce 1b be 0d 8c cd 3d 70 a7 f1 3d 5a 51 93 bd
       -0.15215313 0.10036478 0.11799514 -0.07193251
000250 ac d9 bf bd d7 1a 8b 3c 37 a7 17 3d f7 73 11 3d
       -0.093676895 0.016980572 0.037024703 0.035510983
000260 dc a3 5e bd de eb da 3d b7 a3 49 bd 31 0e e7 bd
       -0.054355487 0.10689519 -0.049228396 -0.11282004
000270 32 a0 2a bd 21 6a df bd 6e 99 94 bd ee 21 cd bd
       -0.04165668 -0.10908914 -0.07255827 -0.10016237
000280 28 5f 97 3d 1c 48 0b be b9 fb 38 3b 30 f4 0c be
       0.073911965 -0.13601726 0.002822621 -0.13765025
000290 52 57 1a be c6 74 b2 3d 54 2b 3b bd ae 52 cf 3d
       -0.15072373 0.08713679 -0.045695618 0.10123192
0002a0 62 a5 1f be 52 33 14 3c 1c 3f 34 bd fc 62 b1 bd
       -0.15590432 0.009045439 -0.0440055 -0.08661458
0002b0 52 9c 16 be 4f 24 8b bb 8c 22 e1 bd 54 56 1e 3d
       -0.14708069 -0.0042462717 -0.109929174 0.038656548
0002c0 08 df cd bd 74 4a 65 bd 22 b3 e4 bd a8 9b 48 bc
       -0.100523055 -0.055979207 -0.11166979 -0.012244143
0002d0 62 20 e6 3d a7 0c 43 bd 6f f5 0e be 12 c1 21 bc
       0.11236645 -0.047619488 -0.13960813 -0.009872692
0002e0 d3 d6 18 3e 0d a5 f3 bd b8 96 1f be f4 f4 13 bd
       0.14925699 -0.11896715 -0.15584838 -0.036122277
0002f0 f0 af f4 3d 62 eb d1 3c ad b8 e4 3d 62 35 89 3d
       0.1194762 0.025624935 0.111680366 0.06699635
000300 03 87 14 3e e4 79 06 3d 44 06 95 bd 6e 79 6b bc
       0.14504628 0.032831088 -0.07276586 -0.014372213
000310 7d da 18 3c 7c 54 25 be ba 08 e8 bd f2 f2 1e bb
       0.009329435 -0.1614551 -0.113297895 -0.0024253693
000320 63 22 16 be 4d 28 17 3e f2 23 30 bb 1d 82 9b bd
       -0.14661555 0.14761467 -0.0026876894 -0.075931765
000330 e0 42 11 3e 07 19 05 bd 0d 30 c7 bc 44 0c 18 3c
       0.14185667 -0.03249457 -0.024314905 0.009280268
000340 5f 30 44 3d 83 aa 0c be 36 15 f7 bd 53 88 18 be
       0.047897693 -0.1373692 -0.120645925 -0.14895754
000350 cf 00 3a bd 4c ae f0 3d a2 fd 4c 3d b7 ee 08 3d
       -0.045410927 0.117519945 0.05004657 0.03343078
000360 39 01 f0 3d 4f 6a 1a 3e ac 42 14 3e 9f 9b ea bc
       0.11718983 0.15079616 0.14478558 -0.028638659
000370 2c 72 89 bd b0 dd e8 bd fc f5 42 3d f0 97 f6 bd
       -0.0671123 -0.113704085 0.04759787 -0.120406985
000380 32 34 17 be 6d 0b a5 bd d7 10 ab bc 79 c8 bd 3d
       -0.14766005 -0.0805882 -0.020882053 0.09266753
000390 76 5f 05 3e b9 38 56 3b e4 f5 22 3e 0c 14 e7 bd
       0.13024697 0.0032687618 0.15914112 -0.112831205
0003a0 d9 03 57 bc 66 d3 f3 3d 44 44 5a bd f8 bb 98 bd
       -0.013123476 0.119055554 -0.05328776 -0.07457727
0003b0 54 00 0e 3e 2e 30 98 3d b6 23 d8 3d 94 bf e0 3d
       0.13867313 0.074310645 0.10553686 0.10974041
0003c0 a6 32 20 be 68 1f e3 3d 6c a6 10 bd 46 c6 94 bd
       -0.15644321 0.11089975 -0.035314962 -0.0726438
0003d0 bc 48 be 3d c4 7a c0 3d 74 71 88 3c 24 0e ea 3b
       0.09291217 0.09398416 0.016655661 0.007142799
0003e0 46 05 08 3e e7 b5 12 3d 9d 05 54 bb 7a 9d 08 bd
       0.13283262 0.035818007 -0.0032351979 -0.033353306
0003f0 fd ba bc bd 5c 35 00 3d 92 b3 a7 bd fa bf f0 3b
       -0.09215353 0.031300887 -0.08188547 0.007347104

transformer_encoder.layers.0.self_attn.out_proj.bias f4 [36]
000000 17 b7 d1 b8 16 b7 d1 38 16 b7 d1 38 18 b7 d1 b8
       -1e-04 9.999999e-05 9.999999e-05 -0.000100000005
000010 17 b7 d1 38 17 b7 d1 38 17 b7 d1 38 18 b7 d1 b8
       1e-04 1e-04 1e-04 -0.000100000005
000020 17 b7 d1 b8 16 b7 d1 b8 18 b7 d1 b8 18 b7 d1 38
       -1e-04 -9.999999e-05 -0.000100000005 0.000100000005
000030 18 b7 d1 38 16 b7 d1 38 17 b7 d1 b8 18 b7 d1 38
       0.000100000005 9.999999e-05 -1e-04 0.000100000005
000040 16 b7 d1 38 18 b7 d1 38 17 b7 d1 38 16 b7 d1 38
       9.999999e-05 0.000100000005 1e-04 9.999999e-05
000050 16 b7 d1 b8 18 b7 d1 38 17 b7 d1 38 16 b7 d1 38
       -9.999999e-05 0.000100000005 1e-04 9.999999e-05
000060 17 b7 d1 38 17 b7 d1 38 16 b7 d1 b8 18 b7 d1 b8
       1e-04 1e-04 -9.999999e-05 -0.000100000005
000070 16 b7 d1 b8 16 b7 d1 38 17 b7 d1 38 17 b7 d1 38
       -9.999999e-05 9.999999e-05 1e-04 1e-04
000080 16 b7 d1 b8 16 b7 d1 b8 17 b7 d1 b8 16 b7 d1 b8
       -9.999999e-05 -9.999999e-05 -1e-04 -9.999999e-05

transformer_encoder.layers.0.linear1.weight f4 [128, 36]
000000 ad de 15 bc 44 f8 1b 3c 80 2f b3 3d 49 5f 20 3e
       -0.009147328 0.00951964 0.08749294 0.15661348
000010 c2 e4 f0 3d b5 8e a5 bd fd 34 6d 3c 22 ff 25 bd
       0.11762382 -0.0808386 0.014477965 -0.040526517
000020 85 3a 09 be cf 54 1d 3e 79 56 8b 3d 6d 5f 8b bc
       -0.1340123 0.15364383 0.06803603 -0.017013276
000030 4d cf 80 3c f9 53 ea bd ca f0 dc bd a7 a0 69 bd
       0.015723849 -0.11441798 -0.10788114 -0.057037976
000040 ee e8 c5 b8 e7 8e 18 be 15 f2 19 be 0e c4 63 bb
       -9.4370786e-05 -0.14898263 -0.15033753 -0.003475431
000050 bc 27 f9 3d cd 06 c9 bc 89 31 e1 3d eb f7 26 be
       0.12165782 -0.024539376 0.10995776 -0.1630551
000060 b4 68 d4 bc 50 fc 0b 3e 0a f9 d2 bd c9 52 9f 3c
       -0.025928833 0.13670468 -0.10301407 0.019448655
000070 b9 a8 87 bd 07 fb 13 3e ce 2e 9d bd fb 7e 10 be
       -0.06623978 0.14451228 -0.07674943 -0.14110939
000080 9d 06 2a 3e f2 e1 00 be ce 06 0b 3e 1f b2 17 bd
       0.16604085 -0.12586191 0.13576815 -0.037035104
000090 17 66 e6 3c 6b 31 0a 3e d7 65 73 3d 2c ff 12 3e
       0.028124852 0.13495414 0.059423294 0.14355153
0000a0 49 6a ea 3d 9a 67 68 3d ef 82 23 bd 04 be ff bd
       0.114460535 0.056739427 -0.03991979 -0.124874145
0000b0 8f aa e0 3a 09 1b bc bd 4b 38 25 3e 3a 28 69 3d
       0.0017140674 -0.09184844 0.16134755 0.05692313
0000c0 89 9f 80 bc d2 c5 d5 3d 3a 16 d7 bd 3c 6e 7f bd
       -0.015701072 0.10438122 -0.10502286 -0.062360987
0000d0 b4 03 a0 3d 7a ae 81 3b a2 61 58 3d d5 c9 dd 3d
       0.07813206 0.003957567 0.052827485 0.10829512
0000e0 b2 dc 4d 3d 1c 1a 27 be d7 84 05 3e fa b9 b1 bd
       0.0502593 -0.16318554 0.13038956 -0.0867805
0000f0 b0 f3 b4 3d 53 e0 08 be c6 02 dd bd c9 19 93 bd
       0.08835542 -0.13366823 -0.107915446 -0.071826525
000100 f1 26 02 3d 6d 71 05 3e c2 d6 9b 3c 65 a3 14 be
       0.03177542 0.1303155 0.019023303 -0.14515455
000110 77 75 ef 3c d6 fb 83 3d e6 73 ba 3d 2a eb 5e 3d
       0.029230816 0.06444518 0.09104137 0.05442349
000120 39 6b 1b be 39 ad 08 3e 5c 33 1b bd 08 4f fa bd
       -0.15177621 0.13347329 -0.037890777 -0.12222105
000130 21 23 2a be b2 94 48 3d 99 b6 c9 bd d0 79 d9 bd
       -0.16614963 0.048969932 -0.09849281 -0.10618937
000140 7a 03 f5 bb 80 ee 9b bd 37 80 b3 bc f5 77 dc bd
       -0.007477221 -0.0761385 -0.021911724 -0.107650675
000150 bd 33 0b 3c b1 b0 eb 3d 47 0b 75 bd 73 56 31 ba
       0.008496222 0.115083106 -0.059825208 -0.0006764896
000160 ad 3b cd 3d 02 bf 92 3c 05 fa e3 3d 75 72 c3 bd
       0.10021148 0.017913345 0.11131672 -0.09543315
000170 7f 7f dc 3c 04 b4 1e 3d 82 99 3a bd d2 a9 19 be
       0.026916264 0.038745895 -0.045556553 -0.15006188
000180 39 50 2d 3a 24 2d 43 3d 73 32 4a ba 77 6c c8 3c
       0.00066113804 0.04765047 -0.0007713206 0.024465783
000190 71 44 d2 bd 66 87 dd 3d 53 cf 22 3e c1 f3 27 be
       -0.102669604 0.10816841 0.158994 -0.16401578
0001a0 d2 97 5f bd 89 f0 1b be 3d dc df 3d 72 57 14 3e
       -0.054588147 -0.15228476 0.10930679 0.14486483
0001b0 74 2e f8 bc 94 01 0d 3e 14 5a e8 bc 68 69 ba 3d
       -0.030295588 0.13770133 -0.028363265 0.09102136
0001c0 a5 56 06 3e cd fb 83 3d e6 ad 83 3d e8 36 0b 3e
       0.1311899 0.064445116 0.06429653 0.13595164
0001d0 79 e0 15 3e 7f e2 cb 3c 9f 67 21 be 77 99 09 be
       0.14636411 0.024888275 -0.15762185 -0.13437448
0001e0 e8 8f 38 bc 05 2e 87 3d 28 ed 02 be 2f 3c 0c 3e
       -0.011264779 0.066005744 -0.1278578 0.13694833
0001f0 14 1d 93 3d 41 92 83 bd 04 e5 1d bd f2 4c 48 bd
       0.071832806 -0.0642438 -0.038548484 -0.048901506
000200 84 b8 3a 3c 69 13 fc bd 3d 07 e5 bd 3e bc fd bd
       0.011396531 -0.1230839 -0.11183021 -0.1238942
000210 7a 8d e6 3d 80 b6 e7 bd b4 00 a8 bd 12 8d fc 3d
       0.11257453 -0.11314106 -0.08203259 0.123315945
000220 77 14 4b 3d ca b9 18 b9 39 b3 ec 3d b2 ed cd bd
       0.049580064 -0.00014565061 0.115576215 -0.100551024
000230 24 1c 01 be 32 64 35 3d 0c f9 6b 3d 5f 81 96 3c
       -0.12608391 0.044285007 0.057610556 0.018372236
000240 79 a5 d1 3d a1 0f 26 3e 52 1b 06 3e 91 0e c5 bd
       0.102366395 0.162169 0.1309636 -0.09621919
000250 a7 d2 48 3d 54 d7 f8 bd 59 c4 56 3c dd b5 ae 3d
       0.04902902 -0.121504456 0.013108336 0.085307814
000260 31 3c aa bd 62 dc 1a be eb 3b 10 3e bf ce 0a 3e
       -0.08312262 -0.15123132 0.14085357 0.1355543
000270 fd e3 04 be 97 0e 66 bd 80 30 04 be 0d 14 21 3e
       -0.12977596 -0.056166258 -0.12909126 0.15730305
000280 5c c1 cb 3b 52 4a 01 3c 94 5e d5 bc 9e 68 d8 bd
       0.0062181186 0.0078912545 -0.026046075 -0.10566829
000290 d7 d7 17 3e 97 ba 65 bd 60 0d 14 be 57 16 0f bd
       0.1482843 -0.05608615 -0.14458227 -0.034933414
0002a0 92 eb 8f bd 2c df f2 3d a5 2d 12 3e 8f ec da 3a
       -0.07027353 0.11858973 0.14275225 0.001670258
0002b0 6c 4d 2c 3d 22 cc c6 bd 0d bd da 3c 96 df 8c 3d
       0.042066023 -0.09706904 0.026701475 0.06878583
0002c0 06 05 91 3d 88 7d 05 3e b2 b1 10 3e b2 79 03 be
       0.07081036 0.13036168 0.14130285 -0.12839392
0002d0 21 e5 16 be 75 c4 00 3e eb 3a 21 be d9 5f b5 3d
       -0.14735843 0.12574942 -0.15745132 0.08856172
0002e0 5c 88 6b bd 60 fb bb bd 2f bf 06 be bf 34 c7 bc
       -0.05750309 -0.09178805 -0.13158868 -0.024317143
0002f0 34 b9 aa 3d 16 05 e2 3d cf 84 17 3e 5a 71 3e bd
       0.08336106 0.11036126 0.14796756 -0.04649482
000300 ac c7 4b bd 7e c1 c0 3d b2 9f 58 bd 8e c5 ff 3d
       -0.04975097 0.09411906 -0.052886672 0.124888524
000310 1d 17 d9 3d 0d 58 bb bd 5f 94 06 be 47 09 12 be
       0.10600112 -0.09147654 -0.13142537 -0.14261352
000320 e5 83 19 be 30 46 16 3e f5 f4 b4 3d d6 24 09 be
       -0.1499172 0.14675212 0.08835784 -0.13392958
000330 cc d8 52 3d 0c 57 1f bd 52 78 fd bd a5 c7 ef bd
       0.051476285 -0.038901374 -0.12376465 -0.11708001
000340 ec 3c c9 3d e9 e1 db 3c 09 61 96 3c fe d1 09 be
       0.09826073 0.02684112 0.018356817 -0.13459012
000350 02 d6 39 bd d9 09 12 be 85 27 08 be 0d 9e c7 bd
       -0.04537011 -0.14261569 -0.13296326 -0.09746943
000360 98 f9 9a 3d 54 f1 13 be de 11 d6 bd f7 34 0e bd
       0.075671375 -0.14447528 -0.10452627 -0.03471848
000370 74 8a 4a 3d c4 ca 4a bc 70 e8 a3 bd 0d 51 f4 bc
       0.049448445 -0.012377445 -0.08003318 -0.029823804
000380 d4 d8 ef bc 8a 16 34 3d 0d e9 dc bd 89 5f 10 be
       -0.029278196 0.043966807 -0.107866384 -0.14098944
000390 aa 57 74 bd 67 a3 09 3e 81 f0 b6 3d 57 46 29 bd
       -0.059653915 0.1344124 0.08932591 -0.041326847
0003a0 62 0c ab 3d 8e 3d 14 3e ba a5 74 3d a2 78 bf 3d
       0.08351971 0.14476606 0.05972836 0.09349181
0003b0 be da 11 3e 9f a5 93 3c b5 39 9f bd 5a 22 68 3d
       0.142436 0.01802331 -0.077746786 0.056673385
0003c0 7c ec 6e 3d a2 ef 28 bd 0c ba 15 3d 6d 0e 93 bd
       0.058330998 -0.041244157 0.03655438 -0.07180486
0003d0 aa 57 41 bd 7d 50 30 3c 71 59 10 3e 34 59 bc 3c
       -0.047202744 0.010761377 0.14096619 0.022991754
0003e0 ee c9 c7 3d 84 bc 3a bc 34 ab 20 bd 9f 41 a2 3c
       0.09755312 -0.011397485 -0.039225772 0.019806681
0003f0 94 50 98 3c 5c 34 04 3d 75 ac 09 be c3 4c 0f 3e
       0.01859311 0.032276496 -0.13444693 0.13994126

transformer_encoder.layers.0.linear1.bias f4 [128]
000000 69 3a fc 3c 80 34 a9 3d 43 aa 15 be 02 28 80 bc
       0.03078957 0.08261967 -0.14615731 -0.015644077
000010 7e 94 ca bd 38 8a de bd 44 a2 a7 bd 2e de 07 3c
       -0.09891604 -0.10866207 -0.081852466 0.008292718
000020 52 b0 5e 3d df 49 1d be b1 a4 e7 bd 67 bc 59 3d
       0.05436737 -0.15360211 -0.11310709 0.05315819
000030 eb 9e 08 3e f7 fa 22 bd 1e 94 2a 3e bd 19 a6 3d
       0.13341872 -0.03979012 0.16658065 0.08110378
000040 90 57 ba b9 77 83 f4 3c 75 3c f2 3d 6a 1b 08 be
       -0.00035541924 0.029847844 0.118279375 -0.13291708
000050 09 8b e7 bd c9 02 b7 3c c5 65 b1 3d 82 f0 d0 3d
       -0.11305816 0.022340195 0.08661989 0.10202123
000060 7f 5e 21 be c1 99 e6 bd 21 3b b2 3d 0b 12 1a be
       -0.15758704 -0.11259795 0.08702684 -0.15045945
000070 5c da 1c be 37 0f 23 3d c7 0c 16 3e cd b5 9d 3d
       -0.15317672 0.039809432 0.14653312 0.07700691
000080 17 62 df bc 6f 0d 1a bd 81 e5 0a 3e 32 7f 7a bd
       -0.027268453 -0.037610468 0.13564111 -0.06115646
000090 ae 13 6a 3c aa 19 de 3d ee 31 00 3e 82 92 1e bd
       0.014286919 0.10844739 0.12519047 -0.03871394
0000a0 c0 f1 c0 bd 17 05 80 bc 0f 02 3b 3d 9c 0e a8 3d
       -0.0942111 -0.015627427 0.04565626 0.082059115
0000b0 df 42 24 be bf cc 26 bd c9 03 ea bd 06 44 f0 bd
       -0.16041134 -0.040722605 -0.11426503 -0.117317244
0000c0 34 f9 d4 bc 0c 09 16 bd 9e 24 d3 bd f0 d2 ff 3d
       -0.025997736 -0.03662972 -0.103097185 0.12491405
0000d0 34 47 d7 3d 39 78 e9 bd a4 ea 74 bd ad ab e9 bd
       0.10511628 -0.11399884 -0.059794083 -0.11409698
0000e0 59 de 4b 3c 55 82 06 be f0 03 a0 3d 55 8d b1 bd
       0.0124431485 -0.13135655 0.07813251 -0.08669535
0000f0 2f 63 0e 3e 6f 47 0d 3d 54 c7 c0 3c f3 b6 10 be
       0.13905023 0.034491953 0.023532547 -0.1413229
000100 04 28 9e 3d ff 1a 26 3d 37 75 e9 3c ba a7 09 bd
       0.07722476 0.04055309 0.028498275 -0.033607222
000110 84 60 dc bd a5 08 08 3e 24 35 3c bd ea 21 09 3e
       -0.107605964 0.13284548 -0.045949116 0.13391843
000120 dd c2 f7 bd 8c d5 0e bd 47 28 0b 3d fc 69 e3 3d
       -0.12097714 -0.034871623 0.03397396 0.11104199
000130 65 fe bd 3d 96 ea e6 3d e4 fe ed 3d 3a 6d 4e 3d
       0.092770375 0.112752125 0.11620882 0.050397135
000140 46 6e bb 3d d0 05 28 be ea 44 d5 bd 15 8a ba bd
       0.09151892 -0.16408467 -0.10413535 -0.09108368
000150 d6 78 9c 3b 09 b0 b7 3d 7a e3 9e 3d 81 8a f3 bd
       0.004775147 0.08969123 0.077582315 -0.11891652
000160 42 50 77 bd b5 27 ed bd a8 c4 cf 3d 78 c9 08 3e
       -0.060379274 -0.11579839 0.10144931 0.13358104
000170 d9 6a b9 bd bc 88 ab 3d 07 da 5d 3d 10 2e 9f 3d
       -0.09053583 0.083756894 0.054163005 0.077724576
000180 7f 02 ea bc 21 3f 41 39 32 0d 6b bd a8 c7 1d 3c
       -0.028565643 0.00018429432 -0.05738563 0.009630121
000190 58 ce ea bd b5 d6 83 3d 2e d1 0a be 39 50 d5 bd
       -0.11465138 0.064374365 -0.13556358 -0.10415692
0001a0 34 e4 0f bd 18 99 92 3d a7 fb 1a 3d 94 af fa bd
       -0.03512974 0.071581066 0.03783765 -0.1224052
0001b0 2f a6 6a bd 72 6c 0a be b4 58 dd bd 49 d5 19 be
       -0.05728739 -0.13517931 -0.108079344 -0.15022768
0001c0 0f f0 77 bd 62 f2 dc bd f2 3c 71 bb 49 64 e1 bd
       -0.060531672 -0.10788418 -0.0036810008 -0.11005456
0001d0 3a ba e5 bd ce cf b3 3d b4 cb a9 3c 9e 95 bd bd
       -0.112171605 0.0877987 0.020727016 -0.09257053
0001e0 1f f4 d6 bc 3a 5b dc 3a 6c 6b a0 3d b2 d3 02 bd
       -0.026239453 0.0016811856 0.07832989 -0.03194017
0001f0 44 06 58 3d a4 5e 08 3e 64 f8 4f bd 7c 28 b9 bd
       0.05274035 0.13317353 -0.050773993 -0.09040925

transformer_encoder.layers.0.linear2.weight f4 [36, 128]
000000 59 21 a6 bd 7a 7c 48 3c a9 8d 0b 3c fc ce 31 3d
       -0.08111829 0.012236709 0.008517661 0.043410286
000010 a8 20 7f bd ce 6f 66 bd 8a 0e 6b bc 7e 40 44 3d
       -0.062287003 -0.05625897 -0.014346728 0.047913067
000020 00 40 76 3c e0 ad 90 3d 38 0f ae 3d c5 73 b3 3c
       0.015029907 0.07064414 0.084989965 0.02190579
000030 31 df a0 bb 08 42 34 3b 51 88 06 3c 04 37 dc 3a
       -0.004909419 0.0027505178 0.008211211 0.0016801064
000040 69 1f 19 bd 53 e2 64 bd d3 c0 bf bc 7f f6 4c 3d
       -0.03738347 -0.055879902 -0.023407375 0.050039764
000050 e8 d9 46 bd fb 3b 94 bc ac f7 ac 3d 7a eb f9 bc
       -0.048547655 -0.018095007 0.08445677 -0.030507792
000060 06 4e 3f bd 56 63 13 bd c9 1d 9a 3d 8e f6 5b bd
       -0.04670527 -0.035983406 0.07525212 -0.05370193
000070 cf 51 05 3c 45 0e 3b bc 93 84 ae bd 92 32 10 3c
       0.0081371805 -0.011416976 -0.0852138 0.008801119
000080 c8 e4 7e bd ee 18 a5 3d cb 71 99 3d f0 fe 40 bc
       -0.0622299 0.080613956 0.074924074 -0.011779532
000090 34 99 cb bc 63 3c 16 bd 8e 1e e7 bc 3f f1 d2 bb
       -0.024853326 -0.036678683 -0.028212812 -0.00643745
0000a0 7e 5b 92 bd 7d 34 90 3d 9a 73 74 3d d0 d9 24 3d
       -0.07146357 0.07041261 0.05968056 0.040246785
0000b0 1d 3d 8a 3d af 26 a3 3c ec 00 9a 3d 5f cb 8b 3d
       0.06749938 0.019915907 0.07519707 0.06825899
0000c0 69 0e af bd e9 9c 92 bc c0 04 86 3d 57 3a 7f ba
       -0.085476704 -0.017897086 0.06543875 -0.00097361713
0000d0 0e 06 ec 3a 4e 3f 8b bd 7d f1 41 bd 17 20 fe bc
       0.0018007176 -0.06799184 -0.04734944 -0.031021161
0000e0 c6 49 73 bd 0f 94 84 3d 6e f5 76 bd c6 2a 69 3d
       -0.059396528 0.064735524 -0.060292654 0.056925558
0000f0 00 03 44 bd b8 f0 7f 3c c6 1b 95 3d 66 0f 83 3d
       -0.047854424 0.015621357 0.07280688 0.063994214
000100 5c 43 94 bd b7 72 45 bc ec 43 59 bd 6d ae 74 3d
       -0.0723941 -0.012051276 -0.05304329 0.059736658
000110 2d e3 f3 3b f3 70 5d 3d c0 02 28 bd 54 0d 3c bd
       0.007442853 0.054062795 -0.041018248 -0.04591115
000120 72 d9 1c 3d 19 3c 3b 3d 0e ad 97 bc 12 67 ce 3c
       0.03829331 0.04571161 -0.018515136 0.025195632
000130 f0 ac b1 3d 33 95 69 bd 2e 5e b4 bd 0a f2 b9 3c
       0.08675563 -0.057027053 -0.08807026 0.022698421
000140 85 cf 8c bc 09 43 1e bc 44 16 25 bd 65 c5 a5 bd
       -0.017188797 -0.009659537 -0.040304437 -0.08094291
000150 eb 09 80 bd 63 aa 9b 3d 8a 47 91 bd c3 f3 25 3d
       -0.06251892 0.07600858 -0.07093723 0.040515672
000160 fa f1 0b 3d 13 dd 6e bc dc c1 aa 3d ba 76 64 3d
       0.034166314 -0.014579075 0.08337757 0.05577729
000170 8c f2 ab 3d 68 55 93 bd e5 de 6c 3c 27 98 3a bd
       0.083958715 -0.07194024 0.014457439 -0.04555526
000180 b7 f4 97 bd c9 82 87 3d 9f 6d 9a bd 4e 55 32 bc
       -0.074197225 0.06616742 -0.0754044 -0.010884596
000190 f1 db 23 3c 6e 53 a8 bc e6 b7 17 3d 78 a1 90 3c
       0.010001169 -0.020547595 0.037040614 0.01765512
0001a0 4f 4f 31 bd a8 40 91 3d 84 75 b0 3d 6a de 88 bd
       -0.043288525 0.0709241 0.08616164 -0.06683047
0001b0 83 dd 92 bd dd 76 58 bd 2e 94 94 bd bb d6 84 bd
       -0.07171156 -0.05284773 -0.072548255 -0.06486269
0001c0 24 7f 54 3d 04 4b 68 bd 55 5f a8 bd 0e 3c 6c 3d
       0.051879063 -0.056712165 -0.08221308 0.05767446
0001d0 8a 67 12 bd e2 38 8d bd c7 e6 7b bd 05 01 b2 3c
       -0.035743274 -0.06895615 -0.061499383 0.021729002
0001e0 b2 0b 9b bd 91 65 f7 3a 9a d1 8f bd ff 2f 83 bd
       -0.0757059 0.0018874874 -0.070224 -0.06405639
0001f0 66 ba 2f 3d 4d e1 ea 3c b0 01 8b bd 88 84 78 3d
       0.042902373 0.028671885 -0.06787431 0.060673267
000200 07 d2 05 bd b9 8c a0 3b b6 32 24 3d 2a 39 fb bb
       -0.032671 0.004899588 0.040087424 -0.0076667266
000210 33 ce 3f 3d 03 67 1b bd ff a9 83 bd 2f 98 dd 3c
       0.046827506 -0.037940037 -0.064289086 0.027050106
000220 c0 a5 d0 3b ae 39 8c bc e2 a8 2b 3d 9c 9b b4 3d
       0.006367415 -0.017117348 0.041909106 0.08818743
000230 aa 12 a3 3b ff ad 38 3d f7 fc ac 3d 5c a1 a5 3d
       0.00497659 0.04508781 0.08446687 0.080874175
000240 29 75 48 bd ae 3b 89 bd ac 00 7d bd d1 24 b3 3c
       -0.048939858 -0.06700836 -0.06176822 0.021868141
000250 49 2a 6d 3d 48 92 a2 bc b0 c3 a9 3d ef 89 a4 3d
       0.057901654 -0.019845143 0.082892776 0.08034121
000260 9d 09 80 bc d3 fa 2d bd 12 3d 8a 3d 01 76 27 3b
       -0.015629584 -0.042475533 0.067499295 0.0025552514
000270 6c d3 61 3d 6c 60 b1 3d bc c5 b0 bd 1e ad 97 bd
       0.05513327 0.08660969 -0.08631465 -0.07406066
000280 86 12 37 bc 4f e5 2e 3d c1 7b 07 bd 4b b2 31 3d
       -0.01117385 0.042699154 -0.033077005 0.043382924
000290 d0 bc 32 bb 4b 66 02 bd 29 c9 9e bd 77 db 23 3d
       -0.0027273186 -0.031835835 -0.07753212 0.04000422
0002a0 ae 0f b2 3d 77 6d a6 3d 16 fb 96 bd cc 23 89 3c
       0.08694397 0.081263475 -0.073721096 0.016740702
0002b0 1e 41 9a 3b 2e 92 8c bd c8 43 48 bb 8c 98 56 bd
       0.0047074696 -0.06863819 -0.003055798 -0.052391574
0002c0 87 02 cf 3c 25 49 1f 3d 94 11 2e bb 2c 2f 90 bd
       0.02526976 0.038888115 -0.002656077 -0.07040247
0002d0 65 b9 ad 3d 78 8a 8c 3d 9f 5f 71 bd 4f 64 5d 3d
       0.08482627 0.06862348 -0.058929082 0.05405074
0002e0 43 6e 09 3d c8 7c 3a bd c9 ac 77 3b d5 8e b4 3d
       0.03355242 -0.045529157 0.0037792197 0.088163055
0002f0 8c d3 53 bd 7c 9c 5f 3d 84 69 a1 bd f1 1d 8f 3d
       -0.05171542 0.054592595 -0.07881454 0.06988133
000300 83 0c 70 3c 4b e1 97 bd b0 79 02 3d 64 b6 4e 3b
       0.0146514205 -0.07416018 0.03185433 0.0031541819
000310 21 20 89 3c 25 69 34 3b b8 f0 c9 bc 77 6b 78 3d
       0.016738953 0.0027528491 -0.024650916 0.06064936
000320 5c 10 22 bc d7 6d 2d 3d d3 3a bb bc 13 4e 53 3d
       -0.009891596 0.04234108 -0.022855198 0.05158813
000330 4c 59 3a 3d 2d c5 7c bb 78 b7 58 bd fb 69 99 3d
       0.045495316 -0.0038569674 -0.052909344 0.07490917
000340 45 48 9b 3d 76 0c 03 bd e1 c6 47 bd 53 ca 62 bd
       0.07582144 -0.031994306 -0.04877365 -0.055368733
000350 1f 50 53 bd 3a 21 af bd cf 1f 99 bd 94 11 28 3d
       -0.05159008 -0.08551259 -0.0747677 0.04103239
000360 b1 e0 2b bd 34 0e 2c bd cd 07 aa 3d 72 16 6f bd
       -0.04196233 -0.042005733 0.08302269 -0.058371015
000370 bf 35 70 3d 9b ee b0 3d 7c f2 50 3d 40 24 54 3d
       0.058645006 0.086392604 0.0510125 0.051792383
000380 c4 ab 55 3d 35 b9 c1 bc fd 89 22 bb 46 98 0b 3d
       0.05216576 -0.023647884 -0.0024801486 0.034080766
000390 29 2e 8c bd 53 40 a4 bd 41 75 23 bd f0 b6 6c 3d
       -0.06844742 -0.08020081 -0.039906744 0.05779165
0003a0 58 93 85 bc c5 b6 66 ba 66 b7 80 3d 01 0a 85 bc
       -0.01630561 -0.00088010385 0.062849805 -0.016240122
0003b0 64 81 df 3c 8d 15 75 3d 24 b0 de ba 6c 1e 2a 3d
       0.027283378 0.059835006 -0.001698975 0.04153292
0003c0 09 a4 dc 3c a0 b6 ca bc ba ec 8d 3c d0 da 87 3c
       0.026933687 -0.024745286 0.017324794 0.01658383
0003d0 5e 4d c6 3c a4 d6 65 3d 5a fb 4d bd e8 6d ea bc
       0.024206813 0.0561129 -0.050288536 -0.02861686
0003e0 90 c4 12 ba a3 8d 9a bd 70 dc f4 ba 54 f6 09 bd
       -0.0005598748 -0.07546546 -0.0018681418 -0.033682182
0003f0 ca 1d 4e bb 74 0d 96 bd d6 eb 64 bb cf eb 69 3d
       -0.003145086 -0.07326785 -0.0034930608 0.05710965

transformer_encoder.layers.0.linear2.bias f4 [36]
000000 49 16 d6 3c 6d d6 5a bd 1c a2 b2 bd f5 4a b7 bc
       0.026133673 -0.05342715 -0.08722326 -0.02237461
000010 17 66 52 3d 97 7b 8d bd a9 1f 41 bd 98 3c cf bc
       0.05136689 -0.069083385 -0.047149334 -0.025297448
000020 c3 34 18 bd 75 a3 84 3d aa 98 cd bb 03 43 6e 3c
       -0.037159692 0.064764895 -0.0062743025 0.014542344
000030 50 ea aa 3d 53 23 87 3d 38 a1 ca ba 7f 9b 20 bb
       0.08345473 0.065985344 -0.0015459424 -0.0024506745
000040 1e 5b 12 39 10 5b 8f 3d b0 36 ab 3d 1c 75 ee bc
       0.00013957589 0.06999791 0.0836004 -0.029108576
000050 d4 25 78 bd f9 c3 18 bc 77 9a a6 bd 90 7f 80 bd
       -0.06058295 -0.009324067 -0.081349306 -0.062743306
000060 b9 7c 48 3d 61 16 ff bc 8f af ee 3c 49 74 89 bd
       0.04894707 -0.0311386 0.029136447 -0.06711633
000070 1f 8d ab 3d 53 2a 13 3d 66 ef 7d bd 66 27 c0 3c
       0.08376526 0.035929035 -0.061995886 0.023456287
000080 2f 59 6e 3d fd 91 16 bd 2b ac 99 3d 31 67 29 3d
       0.05819052 -0.03676032 0.075035416 0.041358177

transformer_encoder.layers.0.norm1.weight f4 [36]
000000 47 03 80 3f 47 03 80 3f 72 f9 7f 3f 72 f9 7f 3f
       1.0001 1.0001 0.9999 0.9999
000010 72 f9 7f 3f 47 03 80 3f 72 f9 7f 3f 72 f9 7f 3f
       0.9999 1.0001 0.9999 0.9999
000020 72 f9 7f 3f 47 03 80 3f 47 03 80 3f 47 03 80 3f
       0.9999 1.0001 1.0001 1.0001
000030 72 f9 7f 3f 47 03 80 3f 47 03 80 3f 47 03 80 3f
       0.9999 1.0001 1.0001 1.0001
000040 72 f9 7f 3f 47 03 80 3f 72 f9 7f 3f 47 03 80 3f
       0.9999 1.0001 0.9999 1.0001
000050 47 03 80 3f 47 03 80 3f 72 f9 7f 3f 47 03 80 3f
       1.0001 1.0001 0.9999 1.0001
000060 47 03 80 3f 72 f9 7f 3f 72 f9 7f 3f 72 f9 7f 3f
       1.0001 0.9999 0.9999 0.9999
000070 47 03 80 3f 72 f9 7f 3f 72 f9 7f 3f 47 03 80 3f
       1.0001 0.9999 0.9999 1.0001
000080 47 03 80 3f 47 03 80 3f 47 03 80 3f 72 f9 7f 3f
       1.0001 1.0001 1.0001 0.9999

transformer_encoder.layers.0.norm1.bias f4 [36]
000000 17 b7 d1 b8 16 b7 d1 38 16 b7 d1 38 17 b7 d1 b8
       -1e-04 9.999999e-05 9.999999e-05 -1e-04
000010 18 b7 d1 38 17 b7 d1 38 16 b7 d1 38 17 b7 d1 b8
       0.000100000005 1e-04 9.999999e-05 -1e-04
000020 17 b7 d1 b8 17 b7 d1 b8 18 b7 d1 b8 18 b7 d1 38
       -1e-04 -1e-04 -0.000100000005 0.000100000005
000030 18 b7 d1 38 18 b7 d1 38 16 b7 d1 b8 18 b7 d1 38
       0.000100000005 0.000100000005 -9.999999e-05 0.000100000005
000040 16 b7 d1 38 18 b7 d1 38 17 b7 d1 38 17 b7 d1 38
       9.999999e-05 0.000100000005 1e-04 1e-04
000050 17 b7 d1 b8 18 b7 d1 38 16 b7 d1 38 17 b7 d1 38
       -1e-04 0.000100000005 9.999999e-05 1e-04
000060 18 b7 d1 38 17 b7 d1 38 17 b7 d1 b8 16 b7 d1 b8
       0.000100000005 1e-04 -1e-04 -9.999999e-05
000070 17 b7 d1 b8 18 b7 d1 38 17 b7 d1 38 17 b7 d1 38
       -1e-04 0.000100000005 1e-04 1e-04
000080 17 b7 d1 b8 18 b7 d1 b8 18 b7 d1 b8 17 b7 d1 b8
       -1e-04 -0.000100000005 -0.000100000005 -1e-04

transformer_encoder.layers.0.norm2.weight f4 [36]
000000 47 03 80 3f 47 03 80 3f 72 f9 7f 3f 72 f9 7f 3f
       1.0001 1.0001 0.9999 0.9999
000010 72 f9 7f 3f 47 03 80 3f 47 03 80 3f 47 03 80 3f
       0.9999 1.0001 1.0001 1.0001
000020 72 f9 7f 3f 47 03 80 3f 47 03 80 3f 47 03 80 3f
       0.9999 1.0001 1.0001 1.0001
000030 72 f9 7f 3f 47 03 80 3f 47 03 80 3f 47 03 80 3f
       0.9999 1.0001 1.0001 1.0001
000040 72 f9 7f 3f 47 03 80 3f 72 f9 7f 3f 47 03 80 3f
       0.9999 1.0001 0.9999 1.0001
000050 47 03 80 3f 47 03 80 3f 72 f9 7f 3f 47 03 80 3f
       1.0001 1.0001 0.9999 1.0001
000060 47 03 80 3f 72 f9 7f 3f 72 f9 7f 3f 72 f9 7f 3f
       1.0001 0.9999 0.9999 0.9999
000070 72 f9 7f 3f 47 03 80 3f 72 f9 7f 3f 47 03 80 3f
       0.9999 1.0001 0.9999 1.0001
000080 47 03 80 3f 47 03 80 3f 47 03 80 3f 72 f9 7f 3f
       1.0001 1.0001 1.0001 0.9999

transformer_encoder.layers.0.norm2.bias f4 [36]
000000 16 b7 d1 b8 17 b7 d1 38 18 b7 d1 38 18 b7 d1 b8
       -9.999999e-05 1e-04 0.000100000005 -0.000100000005
000010 17 b7 d1 38 17 b7 d1 38 17 b7 d1 38 17 b7 d1 38
       1e-04 1e-04 1e-04 1e-04
000020 17 b7 d1 b8 16 b7 d1 b8 16 b7 d1 b8 18 b7 d1 38
       -1e-04 -9.999999e-05 -9.999999e-05 0.000100000005
000030 17 b7 d1 38 17 b7 d1 38 18 b7 d1 b8 18 b7 d1 38
       1e-04 1e-04 -0.000100000005 0.000100000005
000040 18 b7 d1 38 17 b7 d1 38 17 b7 d1 38 18 b7 d1 38
       0.000100000005 1e-04 1e-04 0.000100000005
000050 18 b7 d1 b8 16 b7 d1 38 17 b7 d1 38 16 b7 d1 38
       -0.000100000005 9.999999e-05 1e-04 9.999999e-05
000060 18 b7 d1 38 17 b7 d1 38 17 b7 d1 b8 17 b7 d1 b8
       0.000100000005 1e-04 -1e-04 -1e-04
000070 17 b7 d1 b8 17 b7 d1 38 17 b7 d1 38 19 b7 d1 38
       -1e-04 1e-04 1e-04 0.00010000001
000080 16 b7 d1 b8 16 b7 d1 b8 16 b7 d1 b8 17 b7 d1 b8
       -9.999999e-05 -9.999999e-05 -9.999999e-05 -1e-04

transformer_encoder.layers.1.self_attn.in_proj_weight f4 [108, 36]
000000 fb 12 8e bd 4d 72 e7 3b dd a8 76 bd 9a e1 04 3e
       -0.06937214 0.0070631863 -0.060219634 0.12976685
000010 3c eb c2 bd c1 09 b9 3d 99 7e 45 3e af 65 6b 3d
       -0.09517524 0.090350635 0.19286574 0.05747002
000020 0a ca ea bd 27 7a 17 3e 43 ba 89 bc 27 45 ab bc
       -0.11464317 0.14792691 -0.01681245 -0.020906998
000030 ae 6c 86 3c 21 00 22 be 3b 08 a4 3d ec 8d 22 3d
       0.016409244 -0.15820362 0.08009382 0.03968613
000040 66 f2 cd bd fd f8 d8 bd 01 01 a5 3d fb 84 f9 3c
       -0.100559995 -0.10594366 0.08056832 0.030458918
000050 66 ac ba 3d eb be 32 3b e1 c0 1f 3e 87 79 af bd
       0.09114914 0.002727444 0.15600921 -0.085681014
000060 26 57 28 bd f8 3d d5 3d e4 b6 d4 bd 9d 3d 3e 3e
       -0.041098736 0.1041221 -0.10386446 0.18578191
000070 24 1a 00 be 00 8d bf bc f1 25 6d bd 98 7c 76 3d
       -0.12509972 -0.023382664 -0.057897512 0.060177416
000080 a4 8b 09 3e e0 d5 23 be 94 91 d7 bb fe 2f 1e 3e
       0.13432175 -0.15999556 -0.0065786336 0.15447995
000090 14 f9 bc 3d 4f c6 08 bd 7b a2 1e be 69 24 64 3c
       0.092271954 -0.033392247 -0.15491669 0.0139246965
0000a0 b2 fd ef 3b f3 4a 27 be 1d 6d ea 3d 05 6c 96 bc
       0.007323944 -0.16337185 0.11446593 -0.018362055
0000b0 6c 34 a0 bc d6 fd 0f be c7 72 4a be 34 8c bd bd
       -0.019556247 -0.14061674 -0.19770347 -0.09255257
0000c0 72 1a 0c 3e a2 f7 ac 3b 8f f0 05 3e 1e 45 13 bc
       0.13681963 0.0052785436 0.13080047 -0.008988647
0000d0 87 db 5e 3d 8d 91 57 3d d6 f9 42 be 6c 94 6e bd
       0.054408576 0.052629042 -0.19040617 -0.058247015
0000e0 95 16 bb bd f3 46 0c bc f5 67 1f be 48 8f 89 bd
       -0.091351666 -0.0085618375 -0.15567 -0.06716782
0000f0 b8 96 05 3e af 7b dc 3d 1f ef 33 be fe bc 34 be
       0.13045776 0.10765778 -0.17571686 -0.1765022
000100 e8 9b e7 3d ec ad 2f 3e 75 7d 47 be c0 a9 11 3e
       0.11309034 0.1715619 -0.19481452 0.1422491
000110 2e 72 09 3e 89 44 07 be 01 2b 21 bd c9 be 15 3e
       0.13422462 -0.13209738 -0.039347652 0.1462356
000120 ad 7f 4f 3e a1 1a cc bd c7 2c d3 3d 2e 26 94 bd
       0.20263548 -0.099660166 0.10311275 -0.07233845
000130 f3 63 a2 bd 17 3e 8a 3d 93 34 8e bc e6 9b 0a 3d
       -0.0792922 0.06750124 -0.017359054 0.033840083
000140 e6 45 b7 3d cb e4 c1 3d 02 f1 5f bd 1b cd 85 bd
       0.08948879 0.09467467 -0.054673202 -0.065332614
000150 57 a4 a2 bd a4 de 27 bd 23 ca 63 3d 31 b9 15 be
       -0.079415016 -0.04098381 0.055612694 -0.14621426
000160 fb a3 9e bc 2f 73 62 3d 53 72 9f bd bb f7 5b bb
       -0.019365301 0.05528563 -0.077854775 -0.0033564407
000170 29 b3 de 3d d3 ca 11 3e 3c 12 f9 bd 44 02 e1 bd
       0.10874016 0.14237528 -0.12161681 -0.1098676
000180 82 0e 4c 3e a8 b2 53 bc 09 65 47 3e cf 9d b8 3d
       0.1992741 -0.012921013 0.19472136 0.090144746
000190 7a fa e7 bd ce f1 30 bd 7f e9 e7 bd 4e 75 0c 3e
       -0.113270715 -0.043199353 -0.11323833 0.13716623
0001a0 9d b1 24 be 3a 89 45 3e 9b af 41 be 04 b7 b9 bd
       -0.16083379 0.19290629 -0.18914644 -0.090681106
0001b0 1d 01 05 3e 7f 9e f8 bd 8c b3 d4 bc 3a ce f7 3d
       0.12988706 -0.12139606 -0.02596452 0.120998815
0001c0 50 f0 29 be f5 6e 0d bd f7 c5 da 3d 8b 44 fd 3d
       -0.16595578 -0.034529645 0.1068229 0.12366589
0001d0 6e 5d be 3d 39 23 fc 3d f1 6b f3 bc eb e5 1c bc
       0.09295164 0.12311406 -0.029714556 -0.009576301
0001e0 e6 ce 15 bd 47 db 01 3d d1 b9 20 3d ca c6 3a be
       -0.036574267 0.03170326 0.03923971 -0.18239895
0001f0 e7 9c 31 be d7 bc 4b 3e 54 1b ff 3c 15 83 b8 3d
       -0.1734501 0.19896255 0.03114096 0.09009377
000200 f8 fe 0b 3d 29 81 34 3e 0f 00 3b be ce bd 54 3d
       0.034178704 0.17627396 -0.18261741 0.051938824
000210 bd c7 fe bc db 5b ee bc 8f 41 9c 3d 07 28 0d 3e
       -0.031101102 -0.029096534 0.07629692 0.137848
000220 1e 1c 20 3e 8f 8f bc 3d 86 62 06 3d 8b 3f 46 3d
       0.15635726 0.09207069 0.032808803 0.048400443
000230 fc 42 b0 3d 57 59 4e 3e b3 76 1b 3e 61 29 30 3e
       0.08606526 0.20151268 0.15181999 0.17203285
000240 ac c9 53 bd 6e b3 f5 bd e1 bc 07 be 50 e9 92 bd
       -0.051706 -0.11997114 -0.13255645 -0.07173407
000250 b8 97 3f 3d 64 97 07 be 83 a3 24 be 85 26 5e 3d
       0.04677555 -0.13241345 -0.16078 0.054235954
000260 35 97 9b 3c ee 78 9b 3d a2 c9 4a be 29 78 2b bd
       0.018993 0.07591425 -0.1980348 -0.04186264
000270 19 0c 28 3e 94 ac 20 be b8 b7 87 3d 0a 6c 3b be
       0.16410865 -0.15690833 0.066268384 -0.18302932
000280 de b3 b8 3d b6 9a aa 3c 4b 63 8d ba c7 1f 37 3e
       0.09018682 0.020825725 -0.0010787038 0.17883216
000290 dc 71 bc bd c4 a6 41 3e 40 eb 4a 3d 97 86 e6 3d
       -0.092014045 0.18911272 0.049540758 0.1125614
0002a0 ba 85 1e be 82 a0 7a 3d 9a f3 59 3c da a9 41 3d
       -0.154807 0.06118823 0.013302708 0.047281124
0002b0 d1 70 3e 3e 9c b5 46 3e 68 88 e0 bd 5b 1a 22 3e
       0.18597724 0.19405216 -0.109635174 0.15830366
0002c0 ad 6c 90 3d 41 7c 0b be bd 31 36 be 6b 70 86 3d
       0.07051978 -0.13621618 -0.17792411 0.06564411
0002d0 a7 de 07 bc 6a 36 28 3d ed dd 3b be 3b 58 ca bc
       -0.008292831 0.04106752 -0.18346377 -0.024700275
0002e0 25 35 16 be 80 34 96 bb df e4 48 3e a0 7d 44 3e
       -0.1466871 -0.004583895 0.19618557 0.19188547
0002f0 4a 90 85 3d 0f 02 8c bd 25 d9 42 3e 6f 8e 20 be
       0.065216616 -0.0683633 0.19028147 -0.15679334
000300 92 a4 8b 3d 2e 7b da 3d cb f6 4f be 51 ff 8a bd
       0.06818499 0.10668026 -0.20308988 -0.06786979
000310 3e ba 15 be f7 92 4f be dc 40 23 3e 7d e6 30 be
       -0.14621827 -0.20270906 0.1594271 -0.17275424
000320 c1 be 00 3e 0b 30 3c be c0 fe 1a 3d 38 76 09 be
       0.12572767 -0.18377702 0.037840605 -0.13424003
000330 87 38 2a 3e 86 88 b6 bd 9e 38 d3 3d 2b 11 86 bd
       0.16623126 -0.089127585 0.10313533 -0.06546243
000340 94 f0 5d 3d 14 52 b4 bd fa 6a 08 be a8 62 d2 3d
       0.05418451 -0.08804718 -0.13322058 0.102727234
000350 7b c8 30 be 50 18 01 3d fb a1 ca 3d 38 9c 49 3e
       -0.17263977 0.031517327 0.098941766 0.19688499
000360 56 14 17 be a5 3c 94 3d 7d 14 2e 3c ca d4 c8 bd
       -0.14753851 0.072381295 0.010625002 -0.09806211
000370 81 73 44 be 53 24 1c 3e a9 a9 1f 3e 0b 3c 34 3e
       -0.19184686 0.15248232 0.15592064 0.1760103
000380 97 97 1a 3d 75 7f 34 bd 32 82 03 3d b3 b7 19 3e
       0.037742224 -0.044066865 0.032106586 0.15011482
000390 97 a3 e9 bc 7d 2c 1b 3e f3 aa 32 3e d7 d1 b7 3d
       -0.028520389 0.1515369 0.17448024 0.08975571
0003a0 2a bc ff bd d0 d1 ae ba 3b bf 00 3e 24 bd 26 3e
       -0.12487061 -0.0013337675 0.12572949 0.16283089
0003b0 f1 1d 32 be 01 37 10 3e a4 23 26 3d 34 6b ff bd
       -0.17394234 0.14083482 0.040561333 -0.12471619
0003c0 5b ee fe bd ff 90 9e 3c 89 85 2b 3e 18 ef 16 be
       -0.124478064 0.019356249 0.16750158 -0.14739645
0003d0 39 32 02 3e b6 cd 39 3e a4 07 0e bd 1e e8 8d bd
       0.12714471 0.18144879 -0.034675255 -0.069290385
0003e0 67 56 34 bd 58 a9 e9 3d 75 f3 44 be 78 f7 48 3e
       -0.044027712 0.11409253 -0.19233496 0.19625652
0003f0 67 f7 63 bc 64 1d a6 3c 60 cd 09 bd a3 1c cf 3d
       -0.013913966 0.020277686 -0.033643126 0.10112884

transformer_encoder.layers.1.self_attn.in_proj_bias f4 [108]
000000 00 00 00 00 00 00 00 00 00 00 00 00 00 00 00 00
       0.0 0.0 0.0 0.0
000010 00 00 00 00 00 00 00 00 00 00 00 00 00 00 00 00
       0.0 0.0 0.0 0.0
000020 00 00 00 00 00 00 00 00 00 00 00 00 00 00 00 00
       0.0 0.0 0.0 0.0
000030 00 00 00 00 00 00 00 00 00 00 00 00 00 00 00 00
       0.0 0.0 0.0 0.0
000040 00 00 00 00 00 00 00 00 00 00 00 00 00 00 00 00
       0.0 0.0 0.0 0.0
000050 00 00 00 00 00 00 00 00 00 00 00 00 00 00 00 00
       0.0 0.0 0.0 0.0
000060 00 00 00 00 00 00 00 00 00 00 00 00 00 00 00 00
       0.0 0.0 0.0 0.0
000070 00 00 00 00 00 00 00 00 00 00 00 00 00 00 00 00
       0.0 0.0 0.0 0.0
000080 00 00 00 00 00 00 00 00 00 00 00 00 00 00 00 00
       0.0 0.0 0.0 0.0
000090 00 00 00 00 00 00 00 00 00 00 00 00 00 00 00 00
       0.0 0.0 0.0 0.0
0000a0 00 00 00 00 00 00 00 00 00 00 00 00 00 00 00 00
       0.0 0.0 0.0 0.0
0000b0 00 00 00 00 00 00 00 00 00 00 00 00 00 00 00 00
       0.0 0.0 0.0 0.0
0000c0 00 00 00 00 00 00 00 00 00 00 00 00 00 00 00 00
       0.0 0.0 0.0 0.0
0000d0 00 00 00 00 00 00 00 00 00 00 00 00 00 00 00 00
       0.0 0.0 0.0 0.0
0000e0 00 00 00 00 00 00 00 00 00 00 00 00 00 00 00 00
       0.0 0.0 0.0 0.0
0000f0 00 00 00 00 00 00 00 00 00 00 00 00 00 00 00 00
       0.0 0.0 0.0 0.0
000100 00 00 00 00 00 00 00 00 00 00 00 00 00 00 00 00
       0.0 0.0 0.0 0.0
000110 00 00 00 00 00 00 00 00 00 00 00 00 00 00 00 00
       0.0 0.0 0.0 0.0
000120 17 b7 d1 b8 17 b7 d1 b8 18 b7 d1 38 17 b7 d1 b8
       -1e-04 -1e-04 0.000100000005 -1e-04
000130 18 b7 d1 38 17 b7 d1 38 16 b7 d1 38 17 b7 d1 b8
       0.000100000005 1e-04 9.999999e-05 -1e-04
000140 16 b7 d1 b8 15 b7 d1 b8 17 b7 d1 38 17 b7 d1 b8
       -9.999999e-05 -9.999998e-05 1e-04 -1e-04
000150 17 b7 d1 b8 17 b7 d1 38 17 b7 d1 38 17 b7 d1 38
       -1e-04 1e-04 1e-04 1e-04
000160 18 b7 d1 b8 17 b7 d1 38 16 b7 d1 38 17 b7 d1 b8
       -0.000100000005 1e-04 9.999999e-05 -1e-04
000170 18 b7 d1 b8 17 b7 d1 38 16 b7 d1 38 16 b7 d1 38
       -0.000100000005 1e-04 9.999999e-05 9.999999e-05
000180 16 b7 d1 b8 17 b7 d1 38 17 b7 d1 38 16 b7 d1 b8
       -9.999999e-05 1e-04 1e-04 -9.999999e-05
000190 17 b7 d1 38 17 b7 d1 b8 16 b7 d1 b8 17 b7 d1 38
       1e-04 -1e-04 -9.999999e-05 1e-04
0001a0 18 b7 d1 38 17 b7 d1 38 17 b7 d1 b8 16 b7 d1 b8
       0.000100000005 1e-04 -1e-04 -9.999999e-05
