pipeline/right_ankle_model.pth (torch, 854921 bytes, 27 tensors)

transformer_encoder.layers.0.self_attn.in_proj_weight f4 [108, 36]
0	0xbe3b6d3d	-0.1830339
1	0x3e49b110	0.1969645
2	0xbe31e62e	-0.17372963
3	0x3c1cb18f	0.009563818
4	0xbce685ac	-0.028139912
5	0x3e391b24	0.1807676
6	0x3d95f9ba	0.07323022
7	0xbd1b76a6	-0.03795495
8	0xbd1bac48	-0.038006097
9	0x3dca7be0	0.098869085
10	0xbddf6b03	-0.10909083
11	0xbd151800	-0.03639984
12	0xbdb97f16	-0.09057443
13	0xbe4a78af	-0.197726
14	0xbe1e29a2	-0.15445569
15	0xbdb575a8	-0.08860332
16	0xbdd0abca	-0.10189016
17	0xbe089b83	-0.13340573
18	0x3d28a780	0.041175365
19	0xbc99b5ba	-0.018763412
20	0x3df44392	0.119269505
21	0x3d2a4804	0.041572586
22	0x3e019e1e	0.12657973
23	0xbd95d359	-0.07315702
24	0x3e0fe636	0.14052662
25	0xbe1ddbb4	-0.15415841
26	0x3dd9136f	0.1059941
27	0x3e20d54a	0.15706363
28	0x3c5f2e74	0.013621915
29	0x3e17a87f	0.1481037
30	0x3da8f446	0.082497165
31	0x3d39bd4b	0.04534654
32	0xbc8827d5	-0.016620556
33	0xbdf9e406	-0.12201695
34	0x3e28d08c	0.16485804
35	0x3e03b6a3	0.12862639
36	0xbd21d4e9	-0.039509688
37	0x3d9d43e7	0.07678967
38	0xbde2be36	-0.11071436
39	0xbdece413	-0.11566939
40	0x3b9e14a2	0.004824237
41	0xbd613ba3	-0.054988515
42	0x3dfd67e5	0.12373332
43	0x3d04dac9	0.032435212
44	0xbd932ed5	-0.07186667
45	0xbe2f5c32	-0.17125013
46	0x3ceec817	0.029148145
47	0xbd2245cb	-0.03961734
48	0xbdac4e53	-0.08413377
49	0x3e06a97a	0.13150588
50	0x3b87b3af	0.004141293
51	0x3e49ce8a	0.19707695
52	0x3de8818b	0.11352833
53	0x3e4165f8	0.18886554
54	0x3d85cd4f	0.065333
55	0x3da28b9a	0.07936783
56	0x3c508243	0.012726369
57	0xbe18bb43	-0.14915185
58	0xbe290b71	-0.16508271
59	0xbe202833	-0.15640335
60	0x3d0fcc50	0.035106957
61	0x3d8b7a19	0.06810398
62	0x3d2bf1d8	0.041978687
63	0xbda436cc	-0.08018264
64	0xbe3de841	-0.18545629
65	0x3e39f102	0.18158343
66	0xbe10621b	-0.14099924
67	0xbcbd1522	-0.023081366
68	0xbd99af7a	-0.075041726
69	0xbdc42cbe	-0.095788464
70	0xbd1e100b	-0.03858952
71	0x3e193b73	0.14964084
72	0x3e34c14b	0.1765186
73	0x3de6501a	0.11245747
74	0xbe2b8764	-0.16750866
75	0xbc9241a0	-0.017853558
76	0x3e3a4dc3	0.18193726
77	0xbd377dd1	-0.044797722
78	0xbd1c2dc6	-0.03812959
79	0xbde2b140	-0.11068964
80	0x3e3e6697	0.18593822
81	0xbe4f9023	-0.20269828
82	0x3e1a0885	0.15042312
83	0xbcd0257d	-0.0254085
84	0xbdbf8abb	-0.093526326
85	0x3d271fd6	0.040801845
86	0xbe0fd068	-0.14044344
87	0xbde95028	-0.11392242
88	0x3dd6f408	0.10495764
89	0x3de4b41a	0.11167164
90	0xbdcec34b	-0.10095843
91	0xbdfd81fc	-0.12378308
92	0xbd545a86	-0.051844142
93	0xbcbdf6e5	-0.023189018
94	0x3e4c21d3	0.19934778
95	0xbd9dca35	-0.077045836
96	0xbe3e7bf4	-0.18601972
97	0x3e0c5168	0.13702929
98	0x3d038baa	0.032115616
99	0x3d2635a7	0.04057851
100	0x3d9e6709	0.07734496
101	0xbe3b9001	-0.18316652
102	0x3e26a305	0.16273125
103	0x3e26ef6a	0.16302267
104	0x3e0a444d	0.13502617
105	0xbe4c19e4	-0.19931751
106	0xbded06f7	-0.11573594
107	0x3cf63a68	0.030057147
108	0xbe44d6df	-0.19222592
109	0xbda53e7f	-0.08068561
110	0xbe211f85	-0.1573468
111	0xbe1e45fd	-0.15456386
112	0x3e2dd633	0.16976242
113	0xbd5eb41b	-0.05437098
114	0xbd13a972	-0.036050268
115	0x3e312dae	0.17302582
116	0xbdd9dc9d	-0.10637782
117	0x3e0d32a8	0.13788855
118	0x3b94a9b9	0.004536834
119	0xbd704bf4	-0.058666185
120	0xbe42f9e8	-0.19040644
121	0xbe070a9a	-0.13187638
122	0x3d9c5331	0.07633055
123	0xbe1526cf	-0.14565586
124	0x3c8cce49	0.017188208
125	0x3cc5977f	0.02412009
126	0xbe0a8166	-0.13525924
127	0x3e4c60db	0.19958822
128	0x3c02d92f	0.007986351
129	0xbd4c1a3f	-0.049829718
130	0xbe430af1	-0.19047143
131	0x3e40ee54	0.18840915
132	0x3cb9b15a	0.022667576
133	0x3dd212ba	0.10257478
134	0x3dd1cbc5	0.10243944
135	0x3cda18db	0.02662318
136	0x3e0ffa19	0.14060248
137	0xbe19f847	-0.15036117
138	0xbdb77da0	-0.08959508
139	0xbd1f2fe8	-0.038864046
140	0xbde572f2	-0.11203565
141	0x3d732d74	0.05936952
142	0x3e04a802	0.12954715
143	0x3de04594	0.10950771
144	0x3da83ab0	0.08214319
145	0x3e2c558f	0.16829513
146	0x3dfe58ed	0.12419305
147	0x3e2a62f2	0.16639307
148	0xbda93197	-0.08261412
149	0x3e09f0d2	0.13470772
150	0xbd87af0b	-0.06625184
151	0xbc7371c2	-0.014858665
152	0xbd01f6cf	-0.031729516
153	0x3df30e2f	0.1186794
154	0x3e0b505e	0.13604876
155	0x3caa156b	0.020762166
156	0xbe232ef7	-0.15935884
157	0xbe2ebe17	-0.17064701
158	0xbd997690	-0.07493317
159	0xbe14b20e	-0.14521047
160	0xbe1304b0	-0.14357257
161	0x3e205cd6	0.15660414
162	0xbe4d07e6	-0.20022544
163	0xbcceff4b	-0.025268218
164	0xbdf00bf5	-0.117210306
165	0xbd8a449f	-0.0675137
166	0xbdaf74ef	-0.08567225
167	0x3e089759	0.13338985
168	0x3d336b33	0.043803405
169	0xbd2201a4	-0.039552346
170	0x3e238bb7	0.15971266
171	0xbdd51d66	-0.10405998
172	0xbdc0e8a3	-0.09419372
173	0xbda3385e	-0.079697356
174	0xbe3f09da	-0.18656102
175	0xbe487e89	-0.1957952
176	0xbe41b583	-0.18916897
177	0x3e0e99ff	0.13925932
178	0xbe198f11	-0.14995982
179	0xbe08152b	-0.13289325
180	0xbdeeb795	-0.11656109
181	0xbe319849	-0.17343248
182	0x3d7aefc2	0.061263807
183	0xbbdb2237	-0.0066874283
184	0x3e4ccf6d	0.20001002
185	0xbe10f4b3	-0.14155845
186	0x3de97fa7	0.11401301
187	0xbd4d46df	-0.050116416
188	0xbd8a76ab	-0.06760915
189	0xbd2ae13c	-0.041718706
190	0x3e4daa2a	0.20084444
191	0x3e128987	0.14310275
192	0xbe2377bf	-0.15963648
193	0x3d2486fa	0.040167786
194	0x3e43ccf0	0.19121146
195	0x3c3be610	0.011468425
196	0xbdb90103	-0.09033396
197	0xbe331e56	-0.17492041
198	0x3d968e1f	0.07351326
199	0xbe3ac87c	-0.18240541
200	0xbdebce2f	-0.11513936
201	0x3d5c58f2	0.053795762
202	0x3c4444a6	0.011979258
203	0xbd949bb4	-0.072562605
204	0xbd98d94c	-0.07463321
205	0xbbd0d9a0	-0.006373599
206	0xbddf4bdc	-0.10903141
207	0xbddf3ea1	-0.109006174
208	0xbdb50091	-0.08837999
209	0x3cdd97d6	0.02704994
210	0xbe231514	-0.1592601
211	0x3e473e95	0.19457467
212	0xbd3e23b3	-0.046420764
213	0x3da867bc	0.08222911
214	0xbe068344	-0.13136011
215	0x3e2ceb76	0.16886696
216	0xbdeedc0e	-0.11663066
217	0x3db949bc	0.09047267
218	0x3e207c68	0.15672457
219	0xbdcf4abe	-0.10121678
220	0xbdf773f4	-0.12082663
221	0x3d60aafe	0.05485057
222	0xbdbf0028	-0.09326202
223	0x3da9b230	0.0828594
224	0xbdcc25aa	-0.09968121
225	0x3e4075f5	0.18794997
226	0x3e33e735	0.17568667
227	0xbe4d12db	-0.20026724
228	0x3a24933a	0.0006278042
229	0xbdeda6c8	-0.116040766
230	0xbd4d48c9	-0.05011824
231	0xbc2f9ffa	-0.010719294
232	0x3d9a8273	0.075444125
233	0x3d206597	0.039159384
234	0x3e42661a	0.18984261
235	0x3c855d4c	0.016279839
236	0xbd9003e2	-0.070319906
237	0x3e2d45c8	0.1692115
238	0x3ceb5160	0.028725326
239	0x3d98e41b	0.07465383
240	0xbd872623	-0.06599071
241	0x3dcfbed0	0.101438165
242	0xbe1ff8ee	-0.15622303
243	0xbc11b819	-0.00889399
244	0x3e0b3755	0.13595326
245	0x3de0970d	0.10966311
246	0xbda73fd8	-0.08166474
247	0xbd9d42e9	-0.07678778
248	0xbd4c3f59	-0.0498651
249	0x3c52aad3	0.0128581105
250	0xbe1f5aac	-0.15561932
251	0x3d761d93	0.060086798
252	0xbe074baf	-0.13212465
253	0x3c425797	0.011861703
254	0xbe463708	-0.1935693
255	0x3d881de2	0.06646325

transformer_encoder.layers.0.self_attn.in_proj_bias f4 [108]
0	0x00000000	0.0
1	0x00000000	0.0
2	0x00000000	0.0
3	0x00000000	0.0
4	0x00000000	0.0
5	0x00000000	0.0
6	0x00000000	0.0
7	0x00000000	0.0
8	0x00000000	0.0
9	0x00000000	0.0
10	0x00000000	0.0
11	0x00000000	0.0
12	0x00000000	0.0
13	0x00000000	0.0
14	0x00000000	0.0
15	0x00000000	0.0
16	0x00000000	0.0
17	0x00000000	0.0
18	0x00000000	0.0
19	0x00000000	0.0
20	0x00000000	0.0
21	0x00000000	0.0
22	0x00000000	0.0
23	0x00000000	0.0
24	0x00000000	0.0
25	0x00000000	0.0
26	0x00000000	0.0
27	0x00000000	0.0
28	0x00000000	0.0
29	0x00000000	0.0
30	0x00000000	0.0
31	0x00000000	0.0
32	0x00000000	0.0
33	0x00000000	0.0
34	0x00000000	0.0
35	0x00000000	0.0
36	0x00000000	0.0
37	0x00000000	0.0
38	0x00000000	0.0
39	0x00000000	0.0
40	0x00000000	0.0
41	0x00000000	0.0
42	0x00000000	0.0
43	0x00000000	0.0
44	0x00000000	0.0
45	0x00000000	0.0
46	0x00000000	0.0
47	0x00000000	0.0
48	0x00000000	0.0
49	0x00000000	0.0
50	0x00000000	0.0
51	0x00000000	0.0
52	0x00000000	0.0
53	0x00000000	0.0
54	0x00000000	0.0
55	0x00000000	0.0
56	0x00000000	0.0
57	0x00000000	0.0
58	0x00000000	0.0
59	0x00000000	0.0
60	0x00000000	0.0
61	0x00000000	0.0
62	0x00000000	0.0
63	0x00000000	0.0
64	0x00000000	0.0
65	0x00000000	0.0
66	0x00000000	0.0
67	0x00000000	0.0
68	0x00000000	0.0
69	0x00000000	0.0
70	0x00000000	0.0
71	0x00000000	0.0
72	0x00000000	0.0
73	0x00000000	0.0
74	0x00000000	0.0
75	0x00000000	0.0
76	0x00000000	0.0
77	0x00000000	0.0
78	0x00000000	0.0
79	0x00000000	0.0
80	0x00000000	0.0
81	0x00000000	0.0
82	0x00000000	0.0
83	0x00000000	0.0
84	0x00000000	0.0
85	0x00000000	0.0
86	0x00000000	0.0
87	0x00000000	0.0
88	0x00000000	0.0
89	0x00000000	0.0
90	0x00000000	0.0
91	0x00000000	0.0
92	0x00000000	0.0
93	0x00000000	0.0
94	0x00000000	0.0
95	0x00000000	0.0
96	0x00000000	0.0
97	0x00000000	0.0
98	0x00000000	0.0
99	0x00000000	0.0
100	0x00000000	0.0
101	0x00000000	0.0
102	0x00000000	0.0
103	0x00000000	0.0
104	0x00000000	0.0
105	0x00000000	0.0
106	0x00000000	0.0
107	0x00000000	0.0

transformer_encoder.layers.0.self_attn.out_proj.weight f4 [36, 36]
0	0xbd9b0c63	-0.07570722
1	0x3da05726	0.07829122
2	0xbe0ab5ab	-0.13545863
3	0x3d81a326	0.06329946
4	0xbb611aab	-0.003434817
5	0xbdeb341e	-0.1148455
6	0x3d810db0	0.06301439
7	0xbde2e5b3	-0.11078968
8	0x3e077b36	0.13230595
9	0xbc8a32eb	-0.016869983
10	0xbc8c940b	-0.017160436
11	0xbe0a30fb	-0.13495247
12	0xbd2b01f6	-0.041749917
13	0x3d810378	0.0629949
14	0x3e195f7a	0.14977828
15	0xbd32c8c0	-0.04364848
16	0x3d603db0	0.05474633
17	0x3d6ca290	0.05777222
18	0x3de21136	0.11038439
19	0x3dd8f8ae	0.10594307
20	0x3daa4333	0.083135985
21	0x3d2c644b	0.042087834
22	0xbd9414d6	-0.07230537
23	0x3e0ce5bb	0.1375951
24	0xbe1aa05e	-0.15100238
25	0xbd35d096	-0.044388376
26	0xbe0063bf	-0.1253805
27	0xbcc5acd6	-0.024130266
28	0x3d2f188b	0.042748015
29	0x3beb8f00	0.007188678
30	0x3e24c474	0.16090566
31	0x3e264fb3	0.1624134
32	0xbe1ee016	-0.1551517
33	0xbe0e949f	-0.13923882
34	0x3cefa900	0.02925539
35	0xbdc77576	-0.09739201
36	0x3d5a9dcb	0.05337314
37	0xbce8f70b	-0.028438112
38	0xbdbdafe6	-0.092620656
39	0x3c6f1bab	0.014593999
40	0x3e05efa8	0.13079703
41	0x3e1a5562	0.15071633
42	0x3d90cca8	0.07070285
43	0x3d1e26bb	0.038611155
44	0xbddb16e6	-0.10697727
45	0xbca69ac0	-0.020337462
46	0xbc6a1c16	-0.014288923
47	0xbd86ed58	-0.065882385
48	0xbdac8bd6	-0.08425109
49	0x3d28d82b	0.04122178
50	0xbcd104b6	-0.025514942
51	0xbda633e3	-0.08115365
52	0xbdabfc3b	-0.083977185
53	0xbdf6a58b	-0.120432936
54	0xbe2429fb	-0.1603164
55	0x3e13d804	0.14437872
56	0x3e067caf	0.131335
57	0xbe2a08a7	-0.16604863
58	0xbd4fa0ab	-0.050690334
59	0x3df6ec0e	0.120567426
60	0x3e2204f7	0.15822206
61	0x3dd32756	0.10310237
62	0xbddede36	-0.10882227
63	0xbd9b7d66	-0.07592277
64	0xbd6d9e20	-0.058012128
65	0xbd493d80	-0.049130917
66	0x3e144f5a	0.14483395
67	0x3d4b5206	0.04963877
68	0xbda91adb	-0.082570754
69	0xbd4756e0	-0.048666835
70	0x3d4a7cc0	0.049435377
71	0xbd24c750	-0.04022914
72	0x3d75ab8b	0.05997805
73	0xbdba1dc8	-0.090877116
74	0xbd583826	-0.052787922
75	0xbbda2556	-0.006657283
76	0x3e11920a	0.14215866
77	0xbdb6e8b8	-0.08931106
78	0x3e119fe0	0.14221144
79	0x3dd822eb	0.10553535
80	0x3cc5c3ab	0.024141153
81	0x3c322740	0.010873616
82	0xbd62e5b0	-0.05539483
83	0xbd870f66	-0.06594734
84	0xbe057750	-0.13033795
85	0xbd4eb560	-0.05046594
86	0xbdce964b	-0.1008726
87	0xbe03c08a	-0.12866417
88	0x3dd38563	0.10328176
89	0x3de52963	0.111895345
90	0xbdd5ca20	-0.10438943
91	0x3e1e24a4	0.15443665
92	0xbcd18b0b	-0.025578996
93	0x3cb13b80	0.021634817
94	0x3ce14956	0.02750079
95	0xbd804688	-0.06263453
96	0x3d7ccd5b	0.06171928
97	0x3d001fd6	0.03128036
98	0x3d3a33db	0.04545961
99	0x3e13db6e	0.14439175
100	0xbd83e6f3	-0.064405344
101	0x3d88ddc0	0.066829205
102	0xbe185f08	-0.14880002
103	0xbda995ab	-0.082805
104	0x3d29e5ab	0.041478794
105	0xbdba72f6	-0.09103958
106	0x3db1c90e	0.08680926
107	0xbda3e733	-0.08003082
108	0x3d2e2a3b	0.042520743
109	0xbe1cb33f	-0.15302752
110	0xbd7ce566	-0.06174221
111	0x3da252f3	0.079259776
112	0xbd9bce58	-0.07607716
113	0x3d4f6500	0.05063343
114	0x3dfb01de	0.122562155
115	0xbd7c5eab	-0.06161372
116	0x3d180100	0.03711033
117	0xbc941c76	-0.018079977
118	0x3d8ec660	0.06971431
119	0xbc86d8e0	-0.016460836
120	0xbe256a02	-0.1615372
121	0x3dbaa450	0.09113371
122	0xbd2ecd9b	-0.04267655
123	0x3e23901a	0.15972939
124	0xbc0a9940	-0.008459389
125	0x3dc86b50	0.09786093
126	0x3ccc3fa0	0.024932683
127	0x3d311e0b	0.04324154
128	0x3dc3b478	0.09555906
129	0xbe1447ba	-0.14480487
130	0x3be768ab	0.007062038
131	0xbdb22a48	-0.08699471
132	0x3dbc4d80	0.091944695
133	0x3dec8d5b	0.11550399
134	0xbd30649b	-0.043064695
135	0x3d8729b3	0.0659975
136	0xbc72cf16	-0.014819881
137	0xbdefa8d0	-0.1170212
138	0x3c2d71eb	0.010586242
139	0x3dee6ba3	0.11641624
140	0x3dcc3da8	0.099726975
141	0xbd347f66	-0.04406681
142	0x3d71797b	0.058953743
143	0x3d5fb7b0	0.054618537
144	0xbc6f79eb	-0.01461647
145	0xbe0132ce	-0.12617037
146	0x3e0c2b47	0.13688384
147	0x3d930056	0.071777984
148	0xbdc46b6e	-0.09590803
149	0x3d8a9b6e	0.06767927
150	0xbac95000	-0.0015358925
151	0x3e29b78f	0.16573928
152	0xbd761b10	-0.060084403
153	0xbe141827	-0.14462338
154	0x3d82e676	0.06391613
155	0xbd65eed6	-0.056135975
156	0xbc5ebf2b	-0.013595383
157	0x3d718450	0.058964074
158	0x3cab3b00	0.020902157
159	0xbd80e1e3	-0.062930845
160	0xbc3f8756	-0.011689981
161	0x3d0afa50	0.033930123
162	0x3d8872d8	0.0666253
163	0x3dbe2f10	0.0928632
164	0xbd545916	-0.05184277
165	0x3cb77616	0.022395175
166	0xbda0f476	-0.07859127
167	0xbdb79083	-0.0896311
168	0xbccebdb6	-0.025236946
169	0xbe298288	-0.165537
170	0x3e2365c8	0.15956795
171	0x3e0197c2	0.12655547
172	0xbcca1dc0	-0.024672389
173	0x3d94c72e	0.07264553
174	0xbe1d8fd4	-0.15386897
175	0xbda5a41b	-0.08087941
176	0x3e0a12f6	0.13483796
177	0xbe1c8508	-0.15285122
178	0xbcc09036	-0.023506265
179	0xbd8c4bf3	-0.06850424
180	0x3e288c8e	0.16459867
181	0x3df88450	0.121346116
182	0x3ce5c056	0.028045814
183	0xbdb835b6	-0.089946195
184	0x3e262942	0.16226676
185	0xbd92382e	-0.07139622
186	0x3de5dd98	0.11223906
187	0x3e0bc96b	0.13651054
188	0x3c996f00	0.018729687
189	0x3dd88f18	0.10574168
190	0xbe221486	-0.15828142
191	0xbb8ed72b	-0.004359146
192	0xbd6cf466	-0.057850264
193	0xbdc4f320	-0.09616685
194	0x3bbb182b	0.005709668
195	0x3e1bd22e	0.15216896
196	0xbe125eea	-0.1429402
197	0xbe28fb9c	-0.16502231
198	0x3cb0be40	0.021575093
199	0x3d0bd3c6	0.03413751
200	0xbd7d6b66	-0.06187
201	0xbe030807	-0.12796031
202	0x3d667ccb	0.056271356
203	0x3e1581a8	0.14600241
204	0xbe219222	-0.15778401
205	0xbdbf0e76	-0.0932893
206	0x3cf5b420	0.029993117
207	0x3e28240c	0.16420001
208	0x3de1267b	0.10993668
209	0xbd4e3f20	-0.05035317
210	0xbde5b5e6	-0.11216335
211	0x3dcb6d6e	0.099329814
212	0xbda6338b	-0.081153
213	0x3e0a3280	0.13495827
214	0x3d79cff0	0.06098932
215	0x3dc2032e	0.09473263
216	0x3d052666	0.032507323
217	0xbd023fd6	-0.03179916
218	0x3de6ad98	0.11263579
219	0x3b443a56	0.0029941997
220	0x3e1093b2	0.14118841
221	0x3e25fe07	0.16210185
222	0xbd76bddb	-0.060239654
223	0xbdbdcad8	-0.09267205
224	0xbde80a28	-0.11330062
225	0xbe05f1b7	-0.13080488
226	0x3d45fb76	0.048335515
227	0x3dd1d7de	0.102462515
228	0xbd45c776	-0.048285924
229	0x3be7e300	0.007076621
230	0x3def2990	0.11677849
231	0xbdc5d2c3	-0.0965934
232	0xbe1449b7	-0.14481245
233	0x3cfb63f6	0.030687314
234	0x3c5b35eb	0.013379554
235	0x3d069ad0	0.032862484
236	0x3d6e5996	0.058190905
237	0xbddb159e	-0.106974825
238	0xbd954f7b	-0.0729055
239	0xbd595fe6	-0.05306997
240	0x3dd82670	0.10554206
241	0x3c42efeb	0.011898021
242	0x3dd85a26	0.105640694
243	0x3dcdf600	0.100566864
244	0xbdbbc93b	-0.09169241
245	0xbe0640c2	-0.1311064
246	0x3e276c1f	0.16349839
247	0xbd72ba50	-0.059259713
248	0xbe0462b2	-0.12928274
249	0x3df2e626	0.118603036
250	0x3db17b46	0.08666091
251	0xbe247b4c	-0.16062659
252	0x3e120470	0.14259505
253	0x3d95d7d0	0.073165536
254	0xbdbd33d0	-0.09238398
255	0x3c57f5eb	0.01318119

transformer_encoder.layers.0.self_attn.out_proj.bias f4 [36]
0	0x00000000	0.0
1	0x00000000	0.0
2	0x00000000	0.0
3	0x00000000	0.0
4	0x00000000	0.0
5	0x00000000	0.0
6	0x00000000	0.0
7	0x00000000	0.0
8	0x00000000	0.0
9	0x00000000	0.0
10	0x00000000	0.0
11	0x00000000	0.0
12	0x00000000	0.0
13	0x00000000	0.0
14	0x00000000	0.0
15	0x00000000	0.0
16	0x00000000	0.0
17	0x00000000	0.0
18	0x00000000	0.0
19	0x00000000	0.0
20	0x00000000	0.0
21	0x00000000	0.0
22	0x00000000	0.0
23	0x00000000	0.0
24	0x00000000	0.0
25	0x00000000	0.0
26	0x00000000	0.0
27	0x00000000	0.0
28	0x00000000	0.0
29	0x00000000	0.0
30	0x00000000	0.0
31	0x00000000	0.0
32	0x00000000	0.0
33	0x00000000	0.0
34	0x00000000	0.0
35	0x00000000	0.0

transformer_encoder.layers.0.linear1.weight f4 [128, 36]
0	0x3e19e2a3	0.15027861
1	0xbe088c64	-0.13334805
2	0x3ddaae88	0.106778204
3	0x3da28940	0.079363346
4	0x3d805ee0	0.06268096
5	0x3c04d356	0.008107027
6	0xbd9b82b8	-0.07593292
7	0xbe25a9db	-0.16178076
8	0xbe200d48	-0.15630066
9	0x3d844da6	0.06460123
10	0x3e1ffa30	0.15622783
11	0x3e19ab0f	0.1500666
12	0xbe0a499c	-0.13504642
13	0x3ccbc70b	0.024875185
14	0xbe0af83b	-0.13571255
15	0xbbf33e2b	-0.0074231825
16	0xbdd3584b	-0.10319575
17	0xbb7207ab	-0.003693084
18	0x3e02c49b	0.12770312
19	0xbd7054d0	-0.058674634
20	0x3d3a3f46	0.0454705
21	0xbd7f0b36	-0.06226655
22	0xbddac370	-0.10681808
23	0x3df1e1de	0.11810659
24	0xbd3c7766	-0.046012305
25	0xba864aab	-0.0010245641
26	0xbe13dcbe	-0.14439675
27	0xbe07d4f7	-0.13264833
28	0xbd0e50a6	-0.03474488
29	0xbdf4b520	-0.11948609
30	0x3dc44bb0	0.09584749
31	0x3cbde7cb	0.023181817
32	0xbc7dc040	-0.0154877305
33	0xbe1c76af	-0.15279649
34	0xbde5baee	-0.11217295
35	0x3d9b3d8e	0.075801
36	0x3db498cb	0.088182054
37	0xbdf7fdc3	-0.12108948
38	0x3e10f83a	0.14157191
39	0xbd981173	-0.07425203
40	0xbe16f663	-0.14742427
41	0x3e128376	0.14307961
42	0x3b7d7fab	0.0038680832
43	0xbd2e2566	-0.042516135
44	0x3daafbb8	0.08348793
45	0x3d8e9228	0.06961471
46	0x3d4dbb80	0.050227642
47	0xbdb21988	-0.08696276
48	0x3b359600	0.0027707815
49	0x3dfa1676	0.12211315
50	0xbe07607e	-0.13220403
51	0xbc64fe96	-0.013976714
52	0x3bd83b80	0.00659889
53	0x3abed800	0.0014560223
54	0x3e281907	0.16415797
55	0x3dedb046	0.11605887
56	0xbd938dab	-0.072047554
57	0xbd45573b	-0.048178893
58	0x3d9cba9e	0.07652782
59	0x3dcd4580	0.10023022
60	0x3cfd5bf6	0.03092764
61	0xbdc36c5e	-0.09542154
62	0x3e09e8ee	0.13467762
63	0xbd744590	-0.059636652
64	0x3c9001ab	0.01757892
65	0xbd4472db	-0.047961097
66	0x3c6de8d6	0.014520844
67	0xbe17a1de	-0.14807841
68	0xbdb88ad3	-0.090108536
69	0xbde735d3	-0.11289563
70	0xbacaa4ab	-0.0015460452
71	0x3e1842bb	0.14869206
72	0xbd0d36d6	-0.034476124
73	0x3e0a1a38	0.13486564
74	0x3d512616	0.051061712
75	0x3c884a8b	0.016637107
76	0xbd183596	-0.03716048
77	0xbde2ef96	-0.11080854
78	0x3dae8d80	0.08523083
79	0x3cd9cd6b	0.026587209
80	0x3dc13630	0.094341636
81	0x3bb32a80	0.005467713
82	0x3de7a80e	0.11311351
83	0x3d259850	0.04042846
84	0x3e20d8d3	0.15707712
85	0x3d80ffbe	0.06298779
86	0x3cb85c0b	0.022504827
87	0x3d4b1b86	0.049586795
88	0x3dd97dd3	0.10619702
89	0x3e05e8db	0.13077109
90	0x3db1e38b	0.086859785
91	0x3dba61eb	0.091007076
92	0x3e27ffa2	0.1640611
93	0x3dca4178	0.098757684
94	0x3e25b2ee	0.16181538
95	0xbd9e151e	-0.077188715
96	0x3cd2a780	0.025714636
97	0xbddc3ede	-0.107541785
98	0xbdb39b83	-0.08769896
99	0x3d62663b	0.055273276
100	0xbc91cc00	-0.01779747
101	0xbdd56e8e	-0.10421477
102	0xbde542b0	-0.1119436
103	0x3d96b5d8	0.07358903
104	0x3cfda7b6	0.03096376
105	0xbd32f840	-0.04369378
106	0x3e14904f	0.14508174
107	0xbbaffe2b	-0.0053708754
108	0xbe0bae37	-0.13640676
109	0xbe00727a	-0.1254367
110	0x3c6bf016	0.014400503
111	0xbdf34c36	-0.118797705
112	0x3e00be0b	0.12572496
113	0x3df59ce8	0.11992818
114	0xbd12ba0b	-0.035821956
115	0x3d0d3d1b	0.034482103
116	0x3e1a6e6b	0.15081184
117	0x3e1f37e7	0.15548669
118	0xbe088710	-0.13332772
119	0xbdd2ce60	-0.10293269
120	0x3e06ee7a	0.13176909
121	0xbd58cd26	-0.05293002
122	0xbdfd396b	-0.12364467
123	0x3c864076	0.01638816
124	0xbdd39c50	-0.103325486
125	0x3d23c976	0.03998705
126	0xbd4c1afb	-0.049830418
127	0x3d2a6d86	0.041608356
128	0x3d87464e	0.066052064
129	0xbdaf1b66	-0.08550148
130	0xbe0db08f	-0.13836883
131	0x3d041c60	0.032253623
132	0xbd971070	-0.07376182
133	0x3d28aa7b	0.041178208
134	0xbcf755d6	-0.030192297
135	0xbda1993e	-0.07890557
136	0x3d17761b	0.03697787
137	0xbdcd29e6	-0.10017757
138	0xbe1629cb	-0.1466438
139	0xbd935db6	-0.07195608
140	0xbe1b2d1e	-0.1515393
141	0x3deddaeb	0.11614021
142	0xbe08e567	-0.1336876
143	0x3dac1483	0.0840235
144	0x3dfc956b	0.12333187
145	0xbde7161b	-0.11283513
146	0x3ceb6096	0.02873258
147	0x3dd66b46	0.104696795
148	0xbd6cd450	-0.057819664
149	0xbb3690ab	-0.0027857225
150	0xbdcbe8ee	-0.09956537
151	0xbd021020	-0.03175366
152	0xbd2115a6	-0.039327286
153	0xbd5001d6	-0.050783
154	0x3de2cd0b	0.11074265
155	0xbd04c696	-0.03241595
156	0xbdc9a7e6	-0.09846477
157	0x3df2dd5e	0.11858629
158	0x3e0b2c92	0.13591221
159	0xbe1bca13	-0.15213804
160	0x3d823036	0.06356852
161	0xbddc9a5e	-0.10771631
162	0xbc8f6e4b	-0.017508646
163	0x3dc79c20	0.09746575
164	0xbd2e9990	-0.042626917
165	0x3ddd7d0b	0.10814866
166	0xbd358f4b	-0.044326108
167	0xbd19f3eb	-0.037586134
168	0x3d6e17f0	0.058128297
169	0x3e114c3b	0.14189236
170	0xbc77cd2b	-0.015124599
171	0xbd36323b	-0.044481497
172	0xbc0e5fc0	-0.008689821
173	0x3b89be2b	0.004203578
174	0xbd3fa420	-0.04678738
175	0x3db70c23	0.08937862
176	0xbe25de92	-0.16198185
177	0x3d13f510	0.03612238
178	0x3d950398	0.07276076
179	0xbe07f1da	-0.13275853
180	0x3dacec2b	0.08443483
181	0xbdd562f8	-0.104192674
182	0xbcfae9c0	-0.030629039
183	0xbd9a4ef8	-0.07534593
184	0xbd862b46	-0.065512225
185	0x3cc010e0	0.023445547
186	0x3ac49356	0.0014997523
187	0x3bf76000	0.007549286
188	0x3dee59fe	0.116382584
189	0xbd163450	-0.036670983
190	0xbcf08140	-0.029358506
191	0x3e0f8552	0.14015701
192	0xbc2613ab	-0.010136525
193	0xbe032d84	-0.12810332
194	0x3e09b23b	0.13446896
195	0xbdb084a3	-0.086190484
196	0xbdd00b38	-0.1015839
197	0xbc2b7e00	-0.010467052
198	0x3d45cbf6	0.048290215
199	0x3d817d26	0.06322698
200	0x3cab8aa0	0.020940125
201	0x3d8d9108	0.06912428
202	0xbd483e90	-0.04888779
203	0x3ddf794e	0.10911809
204	0xbcac5d56	-0.0210406
205	0x3df9f706	0.12205319
206	0xbbdab52b	-0.006674429
207	0xbdd938a0	-0.106065035
208	0x3df42438	0.11920971
209	0x3dbfddf3	0.09368505
210	0x3dbfbcb8	0.09362167
211	0xbe2772b6	-0.16352352
212	0xbdda69f0	-0.10664737
213	0xbd21e540	-0.03952527
214	0x3d3ff986	0.046868823
215	0x3e1d4180	0.15357018
216	0x3b99772b	0.0046833954
217	0x3d263600	0.040578842
218	0xbe01dc58	-0.1268171
219	0x3df3d028	0.11904937
220	0xbd4cd9d0	-0.05001241
221	0x3dcef068	0.101044476
222	0x3bc49856	0.005999605
223	0xbdc1cf98	-0.094634235
224	0x3d891723	0.06693866
225	0x3cb76f76	0.022392016
226	0xbe04f2f4	-0.12983304
227	0xbacd4000	-0.0015659332
228	0x3c4ae52b	0.012383739
229	0x3db45f90	0.088072896
230	0x3e246760	0.1605506
231	0x3deeec2e	0.116661415
232	0xbde48ea0	-0.11160016
233	0xbdd8c9c6	-0.1058536
234	0x3d383840	0.04497552
235	0xbd96d760	-0.07365298
236	0xbd12fbeb	-0.03588478
237	0x3e0f94c7	0.14021598
238	0xbd292b86	-0.041301273
239	0xbe0a81ff	-0.13526152
240	0x3dcd5693	0.10026278
241	0xbe0f2a68	-0.1398102
242	0x3c342deb	0.010997276
243	0xbdb64d6b	-0.08901485
244	0xbdb4af83	-0.08822539
245	0x3ddba946	0.10725646
246	0x3e1d9c18	0.15391576
247	0x3dd391ab	0.10330518
248	0x3d309c70	0.04311794
249	0xbd202826	-0.03910079
250	0xbe08d1ea	-0.13361326
251	0xbdba9c00	-0.09111786
252	0xbdd24300	-0.102666855
253	0xbda18718	-0.07887095
254	0xbdb8bd43	-0.09020474
255	0xbdbaeb13	-0.09126868

transformer_encoder.layers.0.linear1.bias f4 [128]
0	0x3de47926	0.1115592
1	0x3dff459e	0.1246445
2	0xbe181684	-0.14852339
3	0xbc1ce1d6	-0.009575328
4	0xbdb5fc1b	-0.08885976
5	0x3da50cb8	0.080590665
6	0x3e254a2a	0.16141573
7	0xbe02d607	-0.12776957
8	0xbdb2a6a3	-0.0872319
9	0xbdbf4c83	-0.09340765
10	0xbd83c76b	-0.0643452
11	0x3e115200	0.14191437
12	0xbd971313	-0.07376685
13	0xbe198a2e	-0.14994118
14	0x3c65ba56	0.014021477
15	0x3df50f78	0.11965841
16	0xbe1bd8c0	-0.15219402
17	0x3dbe412b	0.092897736
18	0xbe023837	-0.12716757
19	0x3da0be10	0.078487515
20	0xbe1348db	-0.14383261
21	0x3e011763	0.12606578
22	0x3dd39b1e	0.10332321
23	0xbcbe7096	-0.023247045
24	0xbd5ebfd6	-0.054382168
25	0xbdd78220	-0.10522866
26	0x3c2ef516	0.01067855
27	0x3e08aa4b	0.13346212
28	0xbce5e3ab	-0.028062662
29	0x3c28176b	0.0102594895
30	0x3deb595e	0.11491655
31	0xbdaf9bee	-0.08574663
32	0xbc23cfeb	-0.009998302
33	0xbdba75c0	-0.0910449
34	0xbd2c0d9b	-0.042005163
35	0xbd54bc0b	-0.051937144
36	0xbbf0c280	-0.007347405
37	0xbd5d4d30	-0.05402869
38	0xbe235870	-0.15951705
39	0x3d5be6bb	0.05368684
40	0x3dd5148e	0.10404311
41	0x3e19ea92	0.15030888
42	0xbe047064	-0.12933499
43	0xbddafde3	-0.10692956
44	0xbdb4ef88	-0.088347495
45	0x3c19f9c0	0.009397924
46	0x3e07bfba	0.13256732
47	0xbc4e4b40	-0.012591183
48	0x3dcbaff3	0.09945669
49	0xbdd2dac8	-0.102956355
50	0xbe15c017	-0.14624058
51	0x3dd69f3e	0.10479592
52	0x3e215fe3	0.15759234
53	0x3db3c880	0.08778477
54	0x3e276056	0.16345343
55	0xbdd4afe8	-0.10385114
56	0x3dd17c70	0.10228813
57	0x3e15e49f	0.14637993
58	0xbd352edb	-0.044234138
59	0xbdf73e70	-0.12072456
60	0x3dde89c6	0.10866122
61	0x3ddc089e	0.10743831
62	0x3e206ccc	0.15666503
63	0x3e279480	0.16365242
64	0x3d7c65cb	0.061620515
65	0xbe29e437	-0.16590963
66	0xbd4b61a6	-0.04965367
67	0xbc809640	-0.015696645
68	0x3e2944f7	0.16530214
69	0xbcc6a480	-0.024248362
70	0xbafe8756	-0.0019418995
71	0xbd410c80	-0.04713106
72	0x3da2cdbb	0.07949396
73	0x3ddb4e98	0.1070835
74	0x3d0279f6	0.031854592
75	0x3e05547e	0.13020512
76	0xbcd3b900	-0.02584505
77	0xbd89c30e	-0.06726657
78	0xbcc60220	-0.024170935
79	0xbdb1142b	-0.08646425
80	0xbe240413	-0.16017179
81	0x3d84c606	0.064830825
82	0xbdd5cc86	-0.104394004
83	0x3dd6db16	0.10491006
84	0xbcdb2acb	-0.026753804
85	0xbd6bf50b	-0.057606738
86	0xbdb0d1ab	-0.08633741
87	0xbdd08273	-0.10181131
88	0x3def0cd8	0.116723716
89	0xbd3ec75b	-0.04657684
90	0xbe110f9f	-0.14166115
91	0xbe09b896	-0.1344932
92	0xbd2abcdb	-0.041684013
93	0x3c60ec00	0.013728142
94	0xbc9236d6	-0.017848413
95	0xbe0bf71e	-0.13668486
96	0xbe1b103c	-0.15142912
97	0xbde19133	-0.11014023
98	0x3dedd828	0.11613494
99	0xbdee2bbe	-0.11629437
100	0xbdb7487b	-0.089493714
101	0x3d55db7b	0.052211266
102	0xbd0195cb	-0.031636994
103	0x3d3926d0	0.04520303
104	0x3c7aae80	0.015300393
105	0x3e0c97c4	0.13729769
106	0xbc6ec0ab	-0.014572303
107	0x3c34be40	0.011031687
108	0xbaf8fe00	-0.0018996596
109	0xbdc4b2fb	-0.0960445
110	0xbcd9b3d6	-0.02657501
111	0x3db946fe	0.09046744
112	0xbd6d79a0	-0.05797732
113	0x3cec1d00	0.028822422
114	0x3d6f8470	0.05847591
115	0xbe29b1ba	-0.16571704
116	0xbdb870bb	-0.09005877
117	0x3d567d06	0.052365325
118	0x3de0a373	0.109686755
119	0x3daaff83	0.08349516
120	0x3db252f0	0.08707225
121	0x3dd21998	0.10258788
122	0xbdf6e8d6	-0.12056129
123	0x3dde9743	0.10868695
124	0xbc2193c0	-0.0098618865
125	0x3e28aef6	0.16472992
126	0x3d9a5276	0.075352594
127	0xbe1ab84c	-0.15109366

transformer_encoder.layers.0.linear2.weight f4 [36, 128]
0	0x3c598141	0.013275445
1	0xbd4a8292	-0.049440928
2	0x3d91905a	0.07107611
3	0xbd8d15fb	-0.06888958
4	0x3bf0d9c4	0.0073501784
5	0xbd8b7ceb	-0.068109356
6	0xbce8087b	-0.028324356
7	0x3c41cdd6	0.01182886
8	0x3cd5fa04	0.026120193
9	0xbd85ab14	-0.06526771
10	0x3d92b70c	0.0716382
11	0x3d9d8f6d	0.07693372
12	0x3daf5982	0.08561994
13	0xbd96e3f3	-0.073676966
14	0xbd8330b7	-0.06405776
15	0xbd563db6	-0.052304946
16	0x3cef440b	0.02920725
17	0x3da83b4f	0.08214437
18	0x3bef7b4e	0.0073084002
19	0xbd954696	-0.07288854
20	0x3db06bfa	0.08614345
21	0xbd28e04c	-0.04122953
22	0xbcc774e9	-0.02434774
23	0x3d90be23	0.07067516
24	0xbd07a0d5	-0.033112366
25	0x3bcbde50	0.00622157
26	0xbd2a1b4e	-0.041529946
27	0x3d6435e7	0.055715468
28	0x3da7a136	0.081850454
29	0xbd9109a3	-0.07081916
30	0xbc60b515	-0.013715048
31	0xbd0ea630	-0.034826458
32	0x3d2520ad	0.040314365
33	0x3d3825c2	0.044957884
34	0x3b631c16	0.0034654192
35	0x3d5b4bb1	0.05353898
36	0xbae01738	-0.0017096763
37	0xbd1d72ff	-0.038439747
38	0x3d312d2d	0.043255974
39	0xbd086d24	-0.03330721
40	0x3d9ae04d	0.07562313
41	0x3d893253	0.06699052
42	0x3d9c0984	0.076190025
43	0x3d7f209a	0.06228695
44	0x3d8aebb5	0.06783239
45	0xbd99618e	-0.0748931
46	0x3c3a59b6	0.011373928
47	0xbd19793a	-0.037469126
48	0xbd9549aa	-0.07289441
49	0xbd51f89c	-0.051262483
50	0x3cd74cfc	0.026281826
51	0xbd3cb1fa	-0.04606817
52	0xbb572650	-0.0032829233
53	0x3d3ebce5	0.046566863
54	0xbdb44710	-0.088026166
55	0xbd6368be	-0.05551981
56	0x3c97bffb	0.01852416
57	0xbc957df7	-0.018248541
58	0xbd8239d2	-0.063586846
59	0x3b863131	0.0040952195
60	0xbd03d84e	-0.032188706
61	0x3d282ab4	0.04105635
62	0xbd82e86a	-0.06391986
63	0xbcbce511	-0.023058446
64	0x3c09582d	0.008382839
65	0xbb057df1	-0.0020369256
66	0x3d51a41f	0.05118191
67	0xbda8f9c4	-0.08250764
68	0x3d8342d0	0.06409228
69	0x3d090b0f	0.033457812
70	0xbd70cfa2	-0.058791764
71	0xbd71951e	-0.0589801
72	0x3c46de24	0.012137923
73	0x3cf88fc4	0.03034199
74	0xbc09ec73	-0.00841819
75	0xbd3c2b4e	-0.045939736
76	0x3b5245bd	0.0032085024
77	0x3d39c25b	0.045351367
78	0x3d180769	0.037116442
79	0xbc7e3084	-0.015514497
80	0xbc154555	-0.009110768
81	0x3bd1d57d	0.0064036236
82	0x3cc97267	0.024590684
83	0xbc9aba22	-0.018887583
84	0xbb8b009e	-0.004242017
85	0xbb84005e	-0.004028364
86	0xbd9654d4	-0.073403984
87	0xbd0568c5	-0.03257062
88	0x3b8f469a	0.00437243
89	0x3d832008	0.06402594
90	0x3d07ef4a	0.03318719
91	0xbdb1fef2	-0.08691205
92	0x3c25080a	0.010072717
93	0x3d8705c4	0.065928966
94	0xbcf6d2e8	-0.030129865
95	0xbccb66c5	-0.024829278
96	0x3d968dc7	0.07351261
97	0xbdaf316f	-0.085543506
98	0x3d36e472	0.044651456
99	0x3d9e1588	0.077189505
100	0xbcd014a7	-0.025400473
101	0x3b78349d	0.0037873157
102	0x3ccffa44	0.02538789
103	0xbd4147da	-0.047187664
104	0xbcf62331	-0.030046077
105	0x3d894fee	0.067046985
106	0x3d90b250	0.070652604
107	0xbc449026	-0.011997258
108	0x3d1e3029	0.038620148
109	0xbd0fdfbc	-0.03512548
110	0x3d68e9da	0.056863643
111	0xbc298352	-0.010346251
112	0xbbf5ec47	-0.007504973
113	0x3cefbcb7	0.029264791
114	0xbdaa6b5e	-0.0832126
115	0x3da0a743	0.07844403
116	0x3cded177	0.02719949
117	0x3d8a0716	0.06739633
118	0xbd9dbecc	-0.07702407
119	0x3d2ae54b	0.041722577
120	0x3d0e2e47	0.034712102
121	0xbcfe9860	-0.031078517
122	0xbd8a70d2	-0.067598
123	0x3d36a59f	0.044591542
124	0xbd65a0c2	-0.056061514
125	0xbd026ca2	-0.03184188
126	0xbd8e4e4e	-0.06948529
127	0xbcc68ee1	-0.024238052
128	0x3d8205b8	0.06348747
129	0x3cf9ceab	0.030494055
130	0x3c4ad61f	0.012380152
131	0x3da30186	0.07959275
132	0xbd94a6ad	-0.072583534
133	0xbda7ff50	-0.08202994
134	0xbd8c6d22	-0.06856753
135	0x3d694ca0	0.05695784
136	0x3c735d25	0.01485375
137	0xbd3dcb49	-0.046336446
138	0x3d5b06df	0.05347335
139	0xbab103a5	-0.0013505114
140	0x3cffe75d	0.031238252
141	0x3da78e73	0.08181467
142	0x3cff6723	0.03117711
143	0x3c571c5f	0.013129323
144	0xbd654d57	-0.05598196
145	0xbb1f2e90	-0.0024289228
146	0x3d7e54b6	0.062092505
147	0x3d2182c7	0.03943136
148	0xbd1a11c1	-0.037614588
149	0x3d624b2e	0.05524748
150	0x3d7238b1	0.059136096
151	0x3c4e77f7	0.012601844
152	0x3a9dabc7	0.0012029343
153	0x3d86ef60	0.06588626
154	0x3d43a27f	0.04776239
155	0xbd8f6218	-0.07001132
156	0x3d453186	0.048142932
157	0x3d8d7ead	0.06908927
158	0xbd2519d1	-0.040307824
159	0xbcc486e4	-0.023990102
160	0xbbaabe6c	-0.0052106883
161	0x3d3b8389	0.04577974
162	0xbd046a9c	-0.032328233
163	0x3d96f97f	0.07371806
164	0x3d962aab	0.07332357
165	0x3daa1e5e	0.08306573
166	0x3d5ae058	0.053436607
167	0xbda4e372	-0.08051194
168	0x3d9f28f9	0.07771487
169	0xbc80d8eb	-0.015728435
170	0xbdb451ac	-0.0880464
171	0xbcacd220	-0.02109629
172	0x3da87a5a	0.08226462
173	0x3d75c33f	0.060000654
174	0x3c2e8cf3	0.010653722
175	0xbd433b83	-0.047664177
176	0x3cfbe664	0.030749507
177	0xbd5cfa93	-0.053949904
178	0xbcaf5aeb	-0.021405658
179	0x3d214082	0.03936816
180	0x3d5c88e8	0.0538415
181	0xbd6fa799	-0.058509443
182	0x3cd69507	0.026194109
183	0xbcb3e5bb	-0.02196013
184	0x3d1a96be	0.037741415
185	0x3c8b97b2	0.017040107
186	0xbd48eb5b	-0.049052577
187	0xbcfd1a72	-0.0308964
188	0xbca67f67	-0.020324422
189	0xbd0a0e94	-0.03370531
190	0xbc2d7599	-0.0105871195
191	0xbd3b9413	-0.04579551
192	0x3d26c68b	0.04071669
193	0x3d942212	0.07233061
194	0xbd72f00d	-0.05931096
195	0x3ccf850b	0.025331995
196	0xbd8344ee	-0.06409632
197	0x3d959d66	0.07305412
198	0x3d7df790	0.062003672
199	0x3c91b689	0.017787235
200	0x3d97f659	0.07420034
201	0x3d9411d1	0.07229961
202	0xbd13569c	-0.03597127
203	0xbd57f856	-0.052727066
204	0x3d88c051	0.066773064
205	0xbd8451c4	-0.06460908
206	0xbd8b10e6	-0.067903325
207	0x3d3f1cf6	0.04665848
208	0x3d523df9	0.051328633
209	0xbca04776	-0.019565325
210	0xbd83f3d2	-0.064429894
211	0xbc9acf09	-0.01889755
212	0xbd34d4e6	-0.04414835
213	0x3c7afc02	0.015318872
214	0xbc664df2	-0.01405667
215	0xbbfdf8ca	-0.0077506052
216	0xbd992b08	-0.07478911
217	0xbd93aa4c	-0.07210216
218	0x3ccbeb65	0.024892518
219	0x3ca3f001	0.020011904
220	0x3da2f19d	0.0795624
221	0x3c973810	0.01845935
222	0xbd27d4c2	-0.040974386
223	0xbd6bbd8a	-0.057553805
224	0xbc1b3c1c	-0.00947478
225	0xbd7d8037	-0.061889853
226	0x3c758ab3	0.014986682
227	0xbc7cd5c5	-0.015431826
228	0x39cc6fcd	0.0003899321
229	0xbd106665	-0.0352539
230	0x3c5a2c1c	0.013316181
231	0xbc7c26ac	-0.0153900795
232	0xbc8c6a4e	-0.017140534
233	0x3c6c20a8	0.014412083
234	0x3cad8bdf	0.02118486
235	0x3d97eb0f	0.07417881
236	0xbc036687	-0.00802005
237	0xbd19114e	-0.03737002
238	0xbdacb88f	-0.08433639
239	0x3d806717	0.06269663
240	0xbd503f28	-0.05084148
241	0x3ced12aa	0.028939564
242	0x3d7dd629	0.061971817
243	0xbd899a3a	-0.067188695
244	0xbd6fde03	-0.058561336
245	0xbd437af4	-0.04772468
246	0x3bb703a8	0.0055851527
247	0x3d87079f	0.065932505
248	0x3d950563	0.07276418
249	0xbd889727	-0.06669455
250	0xbb9b36ce	-0.004736758
251	0xbd8f4424	-0.06995419
252	0x3d603e49	0.0547469
253	0xbd2e52e9	-0.042559538
254	0x3d897a24	0.067127496
255	0x3d202e83	0.039106857

transformer_encoder.layers.0.linear2.bias f4 [36]
0	0x3d95b82d	0.07310519
1	0x3cce4baf	0.025182573
2	0xbc0539ed	-0.008131486
3	0x3ca7ccfb	0.020483484
4	0xbc29cd91	-0.010363952
5	0x3d47a77d	0.048743714
6	0xbcff8004	-0.031188972
7	0x3d904424	0.07044247
8	0x3d970540	0.07374048
9	0xbd4e443f	-0.050358053
10	0x3ccb3fe1	0.024810733
11	0x3da6cb70	0.081442714
12	0x3d7bb18c	0.06144862
13	0xbdac04f8	-0.08399385
14	0x3d10aea4	0.0353228
15	0xbdadb9df	-0.08482718
16	0xbd7146a1	-0.058905248
17	0x3da1274b	0.07868823
18	0xbc07a27a	-0.0082784835
19	0x3bfa7a1f	0.0076439525
20	0x3c8cdb54	0.017194428
21	0x3d759e14	0.05996521
22	0x3cf1fcf6	0.029539566
23	0x3d08a80d	0.03336339
24	0x3db22cbc	0.08699939
25	0x3d8140c2	0.0631118
26	0xbd6d49dd	-0.05793177
27	0xbd81d584	-0.06339553
28	0xbd571b60	-0.05251634
29	0xbd04e68b	-0.032446425
30	0xbcba347f	-0.02273011
31	0xbd382bf2	-0.044963785
32	0x3cf55f41	0.029952647
33	0x3d753d86	0.059873126
34	0xbd2a6d65	-0.041608233
35	0x3d5bacb6	0.053631507

transformer_encoder.layers.0.norm1.weight f4 [36]
0	0x3f800000	1.0
1	0x3f800000	1.0
2	0x3f800000	1.0
3	0x3f800000	1.0
4	0x3f800000	1.0
5	0x3f800000	1.0
6	0x3f800000	1.0
7	0x3f800000	1.0
8	0x3f800000	1.0
9	0x3f800000	1.0
10	0x3f800000	1.0
11	0x3f800000	1.0
12	0x3f800000	1.0
13	0x3f800000	1.0
14	0x3f800000	1.0
15	0x3f800000	1.0
16	0x3f800000	1.0
17	0x3f800000	1.0
18	0x3f800000	1.0
19	0x3f800000	1.0
20	0x3f800000	1.0
21	0x3f800000	1.0
22	0x3f800000	1.0
23	0x3f800000	1.0
24	0x3f800000	1.0
25	0x3f800000	1.0
26	0x3f800000	1.0
27	0x3f800000	1.0
28	0x3f800000	1.0
29	0x3f800000	1.0
30	0x3f800000	1.0
31	0x3f800000	1.0
32	0x3f800000	1.0
33	0x3f800000	1.0
34	0x3f800000	1.0
35	0x3f800000	1.0

transformer_encoder.layers.0.norm1.bias f4 [36]
0	0x00000000	0.0
1	0x00000000	0.0
2	0x00000000	0.0
3	0x00000000	0.0
4	0x00000000	0.0
5	0x00000000	0.0
6	0x00000000	0.0
7	0x00000000	0.0
8	0x00000000	0.0
9	0x00000000	0.0
10	0x00000000	0.0
11	0x00000000	0.0
12	0x00000000	0.0
13	0x00000000	0.0
14	0x00000000	0.0
15	0x00000000	0.0
16	0x00000000	0.0
17	0x00000000	0.0
18	0x00000000	0.0
19	0x00000000	0.0
20	0x00000000	0.0
21	0x00000000	0.0
22	0x00000000	0.0
23	0x00000000	0.0
24	0x00000000	0.0
25	0x00000000	0.0
26	0x00000000	0.0
27	0x00000000	0.0
28	0x00000000	0.0
29	0x00000000	0.0
30	0x00000000	0.0
31	0x00000000	0.0
32	0x00000000	0.0
33	0x00000000	0.0
34	0x00000000	0.0
35	0x00000000	0.0

transformer_encoder.layers.0.norm2.weight f4 [36]
0	0x3f800000	1.0
1	0x3f800000	1.0
2	0x3f800000	1.0
3	0x3f800000	1.0
4	0x3f800000	1.0
5	0x3f800000	1.0
6	0x3f800000	1.0
7	0x3f800000	1.0
8	0x3f800000	1.0
9	0x3f800000	1.0
10	0x3f800000	1.0
11	0x3f800000	1.0
12	0x3f800000	1.0
13	0x3f800000	1.0
14	0x3f800000	1.0
15	0x3f800000	1.0
16	0x3f800000	1.0
17	0x3f800000	1.0
18	0x3f800000	1.0
19	0x3f800000	1.0
20	0x3f800000	1.0
21	0x3f800000	1.0
22	0x3f800000	1.0
23	0x3f800000	1.0
24	0x3f800000	1.0
25	0x3f800000	1.0
26	0x3f800000	1.0
27	0x3f800000	1.0
28	0x3f800000	1.0
29	0x3f800000	1.0
30	0x3f800000	1.0
31	0x3f800000	1.0
32	0x3f800000	1.0
33	0x3f800000	1.0
34	0x3f800000	1.0
35	0x3f800000	1.0

transformer_encoder.layers.0.norm2.bias f4 [36]
0	0x00000000	0.0
1	0x00000000	0.0
2	0x00000000	0.0
3	0x00000000	0.0
4	0x00000000	0.0
5	0x00000000	0.0
6	0x00000000	0.0
7	0x00000000	0.0
8	0x00000000	0.0
9	0x00000000	0.0
10	0x00000000	0.0
11	0x00000000	0.0
12	0x00000000	0.0
13	0x00000000	0.0
14	0x00000000	0.0
15	0x00000000	0.0
16	0x00000000	0.0
17	0x00000000	0.0
18	0x00000000	0.0
19	0x00000000	0.0
20	0x00000000	0.0
21	0x00000000	0.0
22	0x00000000	0.0
23	0x00000000	0.0
24	0x00000000	0.0
25	0x00000000	0.0
26	0x00000000	0.0
27	0x00000000	0.0
28	0x00000000	0.0
29	0x00000000	0.0
30	0x00000000	0.0
31	0x00000000	0.0
32	0x00000000	0.0
33	0x00000000	0.0
34	0x00000000	0.0
35	0x00000000	0.0

transformer_encoder.layers.1.self_attn.in_proj_weight f4 [108, 36]
0	0xbe3b6d3d	-0.1830339
1	0x3e49b110	0.1969645
2	0xbe31e62e	-0.17372963
3	0x3c1cb18f	0.009563818
4	0xbce685ac	-0.028139912
5	0x3e391b24	0.1807676
6	0x3d95f9ba	0.07323022
7	0xbd1b76a6	-0.03795495
8	0xbd1bac48	-0.038006097
9	0x3dca7be0	0.098869085
10	0xbddf6b03	-0.10909083
11	0xbd151800	-0.03639984
12	0xbdb97f16	-0.09057443
13	0xbe4a78af	-0.197726
14	0xbe1e29a2	-0.15445569
15	0xbdb575a8	-0.08860332
16	0xbdd0abca	-0.10189016
17	0xbe089b83	-0.13340573
18	0x3d28a780	0.041175365
19	0xbc99b5ba	-0.018763412
20	0x3df44392	0.119269505
21	0x3d2a4804	0.041572586
22	0x3e019e1e	0.12657973
23	0xbd95d359	-0.07315702
24	0x3e0fe636	0.14052662
25	0xbe1ddbb4	-0.15415841
26	0x3dd9136f	0.1059941
27	0x3e20d54a	0.15706363
28	0x3c5f2e74	0.013621915
29	0x3e17a87f	0.1481037
30	0x3da8f446	0.082497165
31	0x3d39bd4b	0.04534654
32	0xbc8827d5	-0.016620556
33	0xbdf9e406	-0.12201695
34	0x3e28d08c	0.16485804
35	0x3e03b6a3	0.12862639
36	0xbd21d4e9	-0.039509688
37	0x3d9d43e7	0.07678967
38	0xbde2be36	-0.11071436
39	0xbdece413	-0.11566939
40	0x3b9e14a2	0.004824237
41	0xbd613ba3	-0.054988515
42	0x3dfd67e5	0.12373332
43	0x3d04dac9	0.032435212
44	0xbd932ed5	-0.07186667
45	0xbe2f5c32	-0.17125013
46	0x3ceec817	0.029148145
47	0xbd2245cb	-0.03961734
48	0xbdac4e53	-0.08413377
49	0x3e06a97a	0.13150588
50	0x3b87b3af	0.004141293
51	0x3e49ce8a	0.19707695
52	0x3de8818b	0.11352833
53	0x3e4165f8	0.18886554
54	0x3d85cd4f	0.065333
55	0x3da28b9a	0.07936783
56	0x3c508243	0.012726369
57	0xbe18bb43	-0.14915185
58	0xbe290b71	-0.16508271
59	0xbe202833	-0.15640335
60	0x3d0fcc50	0.035106957
61	0x3d8b7a19	0.06810398
62	0x3d2bf1d8	0.041978687
63	0xbda436cc	-0.08018264
64	0xbe3de841	-0.18545629
65	0x3e39f102	0.18158343
66	0xbe10621b	-0.14099924
67	0xbcbd1522	-0.023081366
68	0xbd99af7a	-0.075041726
69	0xbdc42cbe	-0.095788464
70	0xbd1e100b	-0.03858952
71	0x3e193b73	0.14964084
72	0x3e34c14b	0.1765186
73	0x3de6501a	0.11245747
74	0xbe2b8764	-0.16750866
75	0xbc9241a0	-0.017853558
76	0x3e3a4dc3	0.18193726
77	0xbd377dd1	-0.044797722
78	0xbd1c2dc6	-0.03812959
79	0xbde2b140	-0.11068964
80	0x3e3e6697	0.18593822
81	0xbe4f9023	-0.20269828
82	0x3e1a0885	0.15042312
83	0xbcd0257d	-0.0254085
84	0xbdbf8abb	-0.093526326
85	0x3d271fd6	0.040801845
86	0xbe0fd068	-0.14044344
87	0xbde95028	-0.11392242
88	0x3dd6f408	0.10495764
89	0x3de4b41a	0.11167164
90	0xbdcec34b	-0.10095843
91	0xbdfd81fc	-0.12378308
92	0xbd545a86	-0.051844142
93	0xbcbdf6e5	-0.023189018
94	0x3e4c21d3	0.19934778
95	0xbd9dca35	-0.077045836
96	0xbe3e7bf4	-0.18601972
97	0x3e0c5168	0.13702929
98	0x3d038baa	0.032115616
99	0x3d2635a7	0.04057851
100	0x3d9e6709	0.07734496
101	0xbe3b9001	-0.18316652
102	0x3e26a305	0.16273125
103	0x3e26ef6a	0.16302267
104	0x3e0a444d	0.13502617
105	0xbe4c19e4	-0.19931751
106	0xbded06f7	-0.11573594
107	0x3cf63a68	0.030057147
108	0xbe44d6df	-0.19222592
109	0xbda53e7f	-0.08068561
110	0xbe211f85	-0.1573468
111	0xbe1e45fd	-0.15456386
112	0x3e2dd633	0.16976242
113	0xbd5eb41b	-0.05437098
114	0xbd13a972	-0.036050268
115	0x3e312dae	0.17302582
116	0xbdd9dc9d	-0.10637782
117	0x3e0d32a8	0.13788855
118	0x3b94a9b9	0.004536834
119	0xbd704bf4	-0.058666185
120	0xbe42f9e8	-0.19040644
121	0xbe070a9a	-0.13187638
122	0x3d9c5331	0.07633055
123	0xbe1526cf	-0.14565586
124	0x3c8cce49	0.017188208
125	0x3cc5977f	0.02412009
126	0xbe0a8166	-0.13525924
127	0x3e4c60db	0.19958822
128	0x3c02d92f	0.007986351
129	0xbd4c1a3f	-0.049829718
130	0xbe430af1	-0.19047143
131	0x3e40ee54	0.18840915
132	0x3cb9b15a	0.022667576
133	0x3dd212ba	0.10257478
134	0x3dd1cbc5	0.10243944
135	0x3cda18db	0.02662318
136	0x3e0ffa19	0.14060248
137	0xbe19f847	-0.15036117
138	0xbdb77da0	-0.08959508
139	0xbd1f2fe8	-0.038864046
140	0xbde572f2	-0.11203565
141	0x3d732d74	0.05936952
142	0x3e04a802	0.12954715
143	0x3de04594	0.10950771
144	0x3da83ab0	0.08214319
145	0x3e2c558f	0.16829513
146	0x3dfe58ed	0.12419305
147	0x3e2a62f2	0.16639307
148	0xbda93197	-0.08261412
149	0x3e09f0d2	0.13470772
150	0xbd87af0b	-0.06625184
151	0xbc7371c2	-0.014858665
152	0xbd01f6cf	-0.031729516
153	0x3df30e2f	0.1186794
154	0x3e0b505e	0.13604876
155	0x3caa156b	0.020762166
156	0xbe232ef7	-0.15935884
157	0xbe2ebe17	-0.17064701
158	0xbd997690	-0.07493317
159	0xbe14b20e	-0.14521047
160	0xbe1304b0	-0.14357257
161	0x3e205cd6	0.15660414
162	0xbe4d07e6	-0.20022544
163	0xbcceff4b	-0.025268218
164	0xbdf00bf5	-0.117210306
165	0xbd8a449f	-0.0675137
166	0xbdaf74ef	-0.08567225
167	0x3e089759	0.13338985
168	0x3d336b33	0.043803405
169	0xbd2201a4	-0.039552346
170	0x3e238bb7	0.15971266
171	0xbdd51d66	-0.10405998
172	0xbdc0e8a3	-0.09419372
173	0xbda3385e	-0.079697356
174	0xbe3f09da	-0.18656102
175	0xbe487e89	-0.1957952
176	0xbe41b583	-0.18916897
177	0x3e0e99ff	0.13925932
178	0xbe198f11	-0.14995982
179	0xbe08152b	-0.13289325
180	0xbdeeb795	-0.11656109
181	0xbe319849	-0.17343248
182	0x3d7aefc2	0.061263807
183	0xbbdb2237	-0.0066874283
184	0x3e4ccf6d	0.20001002
185	0xbe10f4b3	-0.14155845
186	0x3de97fa7	0.11401301
187	0xbd4d46df	-0.050116416
188	0xbd8a76ab	-0.06760915
189	0xbd2ae13c	-0.041718706
190	0x3e4daa2a	0.20084444
191	0x3e128987	0.14310275
192	0xbe2377bf	-0.15963648
193	0x3d2486fa	0.040167786
194	0x3e43ccf0	0.19121146
195	0x3c3be610	0.011468425
196	0xbdb90103	-0.09033396
197	0xbe331e56	-0.17492041
198	0x3d968e1f	0.07351326
199	0xbe3ac87c	-0.18240541
200	0xbdebce2f	-0.11513936
201	0x3d5c58f2	0.053795762
202	0x3c4444a6	0.011979258
203	0xbd949bb4	-0.072562605
204	0xbd98d94c	-0.07463321
205	0xbbd0d9a0	-0.006373599
206	0xbddf4bdc	-0.10903141
207	0xbddf3ea1	-0.109006174
208	0xbdb50091	-0.08837999
209	0x3cdd97d6	0.02704994
210	0xbe231514	-0.1592601
211	0x3e473e95	0.19457467
212	0xbd3e23b3	-0.046420764
213	0x3da867bc	0.08222911
214	0xbe068344	-0.13136011
215	0x3e2ceb76	0.16886696
216	0xbdeedc0e	-0.11663066
217	0x3db949bc	0.09047267
218	0x3e207c68	0.15672457
219	0xbdcf4abe	-0.10121678
220	0xbdf773f4	-0.12082663
221	0x3d60aafe	0.05485057
222	0xbdbf0028	-0.09326202
223	0x3da9b230	0.0828594
224	0xbdcc25aa	-0.09968121
225	0x3e4075f5	0.18794997
226	0x3e33e735	0.17568667
227	0xbe4d12db	-0.20026724
228	0x3a24933a	0.0006278042
229	0xbdeda6c8	-0.116040766
230	0xbd4d48c9	-0.05011824
231	0xbc2f9ffa	-0.010719294
232	0x3d9a8273	0.075444125
233	0x3d206597	0.039159384
234	0x3e42661a	0.18984261
235	0x3c855d4c	0.016279839
236	0xbd9003e2	-0.070319906
237	0x3e2d45c8	0.1692115
238	0x3ceb5160	0.028725326
239	0x3d98e41b	0.07465383
240	0xbd872623	-0.06599071
241	0x3dcfbed0	0.101438165
242	0xbe1ff8ee	-0.15622303
243	0xbc11b819	-0.00889399
244	0x3e0b3755	0.13595326
245	0x3de0970d	0.10966311
246	0xbda73fd8	-0.08166474
247	0xbd9d42e9	-0.07678778
248	0xbd4c3f59	-0.0498651
249	0x3c52aad3	0.0128581105
250	0xbe1f5aac	-0.15561932
251	0x3d761d93	0.060086798
252	0xbe074baf	-0.13212465
253	0x3c425797	0.011861703
254	0xbe463708	-0.1935693
255	0x3d881de2	0.06646325

transformer_encoder.layers.1.self_attn.in_proj_bias f4 [108]
0	0x00000000	0.0
1	0x00000000	0.0
2	0x00000000	0.0
3	0x00000000	0.0
4	0x00000000	0.0
5	0x00000000	0.0
6	0x00000000	0.0
7	0x00000000	0.0
8	0x00000000	0.0
9	0x00000000	0.0
10	0x00000000	0.0
11	0x00000000	0.0
12	0x00000000	0.0
13	0x00000000	0.0
14	0x00000000	0.0
15	0x00000000	0.0
16	0x00000000	0.0
17	0x00000000	0.0
18	0x00000000	0.0
19	0x00000000	0.0
20	0x00000000	0.0
21	0x00000000	0.0
22	0x00000000	0.0
23	0x00000000	0.0
24	0x00000000	0.0
25	0x00000000	0.0
26	0x00000000	0.0
27	0x00000000	0.0
28	0x00000000	0.0
29	0x00000000	0.0
30	0x00000000	0.0
31	0x00000000	0.0
32	0x00000000	0.0
33	0x00000000	0.0
34	0x00000000	0.0
35	0x00000000	0.0
36	0x00000000	0.0
37	0x00000000	0.0
38	0x00000000	0.0
39	0x00000000	0.0
40	0x00000000	0.0
41	0x00000000	0.0
42	0x00000000	0.0
43	0x00000000	0.0
44	0x00000000	0.0
45	0x00000000	0.0
46	0x00000000	0.0
47	0x00000000	0.0
48	0x00000000	0.0
49	0x00000000	0.0
50	0x00000000	0.0
51	0x00000000	0.0
52	0x00000000	0.0
53	0x00000000	0.0
54	0x00000000	0.0
55	0x00000000	0.0
56	0x00000000	0.0
57	0x00000000	0.0
58	0x00000000	0.0
59	0x00000000	0.0
60	0x00000000	0.0
61	0x00000000	0.0
62	0x00000000	0.0
63	0x00000000	0.0
64	0x00000000	0.0
65	0x00000000	0.0
66	0x00000000	0.0
67	0x00000000	0.0
68	0x00000000	0.0
69	0x00000000	0.0
70	0x00000000	0.0
71	0x00000000	0.0
72	0x00000000	0.0
73	0x00000000	0.0
74	0x00000000	0.0
75	0x00000000	0.0
76	0x00000000	0.0
77	0x00000000	0.0
78	0x00000000	0.0
79	0x00000000	0.0
80	0x00000000	0.0
81	0x00000000	0.0
82	0x00000000	0.0
83	0x00000000	0.0
84	0x00000000	0.0
85	0x00000000	0.0
86	0x00000000	0.0
87	0x00000000	0.0
88	0x00000000	0.0
89	0x00000000	0.0
90	0x00000000	0.0
91	0x00000000	0.0
92	0x00000000	0.0
93	0x00000000	0.0
94	0x00000000	0.0
95	0x00000000	0.0
96	0x00000000	0.0
97	0x00000000	0.0
98	0x00000000	0.0
99	0x00000000	0.0
100	0x00000000	0.0
101	0x00000000	0.0
102	0x00000000	0.0
103	0x00000000	0.0
104	0x00000000	0.0
105	0x00000000	0.0
106	0x00000000	0.0
107	0x00000000	0.0
