pipeline/right_ankle_model.pth (torch, 854921 bytes, 27 tensors)

transformer_encoder.layers.0.self_attn.in_proj_weight f4 [108, 36]
-0.10261226 -0.06151437 -0.027933272 0.0517517 -0.12658542 0.13424683 0.053015288 0.07677198
0.12275684 0.076666616 0.077143095 0.1184208 0.1971427 0.0023295672 -0.11660132 -0.17039573
-0.1532278 0.06164246 -0.1521881 0.00070501433 -0.16526023 -0.1129117 -0.17277777 0.1568078
0.19414932 0.16552389 0.12772627 -0.079261154 -0.1829451 -0.011408297 -0.11691558 0.007806502
0.0061799777 0.021952877 0.07378466 0.06886608 0.08310777 -0.188047 -0.16915108 -0.09501763
0.15644199 0.13704075 -0.15643379 -0.0718516 0.101377405 0.18510331 -0.17928213 -0.107523315
0.02212382 -0.014215676 -0.12813745 0.17639531 -0.06401707 -0.17352636 -0.12824242 -0.027100043
-0.0373936 -0.12539588 -0.14271206 0.1702618 -0.084155254 -0.1349966 0.019656524 -0.11925793
0.074516825 -0.03169934 0.15859665 1.747145e-05 0.12900443 0.041430257 -0.18820062 0.1960974
0.0037334883 -0.15486833 0.036341246 0.14363854 0.15391736 -0.07257156 -0.16839512 -0.01562719
0.065061346 -0.16703731 0.079830244 0.14299427 -0.094382815 0.20204018 -0.20064315 0.08187744
-0.04287102 0.049794436 0.041807912 -0.16457127 -0.13857393 -0.11966624 0.04552274 -0.117300466
0.13317673 0.13242929 0.12926817 -0.06497055 -0.046338152 -0.15201001 -0.060639556 0.08471417
-0.09137721 -0.17115657 0.17965999 -0.045064196 -0.005447053 -0.07773274 0.14339502 -0.00021749278
-0.0021716915 -0.10364755 -0.16762029 0.09471774 -0.11975562 0.073515356 -0.11440254 -0.04174915
0.18539062 -0.18473308 0.020848112 0.07259511 0.15799427 -0.008120598 0.18582483 -0.041298833
-0.07218237 0.06237305 0.14727503 -0.0042696036 0.15204403 -0.05703173 0.032831553 0.17219785
0.053472176 -0.20339368 -0.18333001 -0.1169439 0.18291147 -0.096851446 0.058938865 -0.16940856
0.09975071 -0.044455934 0.009472324 0.07728785 -0.12154282 -0.11327875 -0.08426439 0.03221847
-0.17801446 0.027660541 -0.11439612 -0.065145366 -0.16290043 -0.13594557 -0.062454153 -0.20238566
0.02234231 -0.12912299 0.08752237 0.14563677 -0.13869615 0.10010428 -0.040174577 -0.18772332
0.10166245 0.17173216 -0.033270046 0.009844285 -0.14674428 -0.09931198 -0.0414186 0.12620443
0.11428654 0.1901048 0.15988342 0.16914698 -0.19182333 -0.092105836 0.07770841 -0.110303685
0.008710783 0.12936658 -0.042543758 0.16551998 -0.123768404 -0.1257196 -0.17349964 -0.009480281
0.14716226 -0.15231371 -0.17311506 0.022115204 -0.1821522 0.12619048 0.12533914 0.080178864
-0.18722983 0.18406625 -0.13381143 0.19188169 -0.071942955 0.14061312 0.20213623 -0.13847542
0.07791403 0.08400706 0.18403247 -0.08489467 -0.13388664 -0.09009579 -0.06594572 -0.06569737
-0.14355743 0.10940556 0.11674529 -0.099395804 -0.1692048 -0.14399983 0.032679398 -0.11220654
-0.13021053 -0.049297106 -0.04637475 -0.09352562 -0.17117324 -0.13321766 -0.16025692 0.11204703
-0.19713691 -0.14143783 -0.11104143 0.027391948 -0.1821658 0.14107762 0.16259247 -0.05741897
-0.12564892 -0.16562481 0.13607559 0.015480386 -0.009458308 -0.193159 0.19216655 -0.14134926
0.078533925 -0.19763426 -0.06905243 -0.19782113 -0.15409426 -0.13059899 0.16013937 -0.1599871
00000000: 6026 d2bd 7ef6 7bbd 51d4 e4bc 97f9 533d
00000010: 9c9f 01be 0078 093e 8f26 593d a13a 9d3d
00000020: f067 fb3d 6303 9d3d 33fd 9d3d 9b86 f23d
00000030: c7df 493e a7ab 183b accc eebd 387c 2ebe
00000040: c0e7 1cbe ce7c 7c3d 33d7 1bbe b6d0 383a
00000050: fa39 29be 403e e7bd a8ec 30be 3992 203e
00000060: 14cf 463e 187f 293e adca 023e ac53 a2bd
00000070: f655 3bbe dee9 3abc 7071 efbd afcd ff3b
00000080: 6981 ca3b 85d6 b33c 691c 973d a909 8d3d
00000090: 6834 aa3d 658f 40be f135 2dbe 9a98 c2bd
000000a0: 5432 203e 6954 0c3e 2e30 20be ef26 93bd
000000b0: f59e cf3d b98b 3d3e bc95 37be 2f35 dcbd
000000c0: 033d b53c dee8 68bc 7736 03be f9a0 343e
000000d0: 621b 83bd e5b0 31be fb51 03be e900 debc
000000e0: 082a 19bd c767 00be 1c23 12be 1c59 2e3e
000000f0: 9759 acbd 8c3c 0abe b806 a13c 803d f4bd
00000100: 479c 983d 2bd7 01bd 2967 223e a78f 9237
00000110: bd19 043e c6b2 293d aab7 40be c2cd 483e
00000120: 8aad 743b ce95 1ebe 8fda 143d fb15 133e
00000130: 839c 1d3e 66a0 94bd c56f 2cbe 9804 80bc
00000140: e23e 853d d40b 2bbe 0a7e a33d 176d 123e
00000150: c74b c1bd 9fe3 4e3e 6675 4dbe 5caf a73d
00000160: 8699 2fbd 40f5 4b3d c63e 2b3d 5f85 28be
00000170: 53e6 0dbe 9313 f5bd 0d76 3a3d 3a3b f0bd
00000180: 7b5f 083e 8b9b 073e e05e 043e 480f 85bd
00000190: 13cd 3dbd 83a8 1bbe 2f61 78bd 9f7e ad3d
000001a0: fa23 bbbd ab43 2fbe caf8 373e 3c95 38bd
000001b0: 317d b2bb 5832 9fbd 25d6 123e c60e 64b9
000001c0: f052 0ebb 2b45 d4bd a7a4 2bbe 60fb c13d
000001d0: 6f42 f5bd 388f 963d e14b eabd 2801 2bbd
000001e0: 0ad7 3d3e ab2a 3dbe a9c9 aa3c bfac 943d
000001f0: 40c9 213e 420c 05bc dd48 3e3e f728 29bd
00000200: 5ad4 93bd e27a 7f3d 44cf 163e 08e8 8bbb
00000210: 6eb1 1b3e 1a9a 69bd 617a 063d a254 303e
00000220: a405 5b3d 6f46 50be ddba 3bbe 4980 efbd
00000230: 254d 3b3e 0d5a c6bd e169 713d 7079 2dbe
00000240: 1a4a cc3d 6d17 36bd ce31 1b3c 1849 9e3d
00000250: 71eb f8bd b0fe e7bd cf92 acbd 84f7 033d
00000260: 6c49 36be 5c98 e23c 8348 eabd ef6a 85bd
00000270: 5fcf 26be 5135 0bbe edcf 7fbd 303e 4fbe
00000280: 3807 b73c d138 04be ee3e b33d ce21 153e
00000290: 5d06 0ebe 7903 cd3d 198e 24bd 8b3a 40be
000002a0: 6734 d03d 8eda 2f3e 2c46 08bd ed49 213c
000002b0: 2244 16be 1464 cbbd 8da6 29bd bc3b 013e
000002c0: 100f ea3d d5aa 423e 7bb8 233e de34 2d3e
000002d0: 566d 44be fca1 bcbd 9625 9f3d e6e6 e1bd
000002e0: acb7 0e3c ac78 043e 5d42 2ebd 127e 293e
000002f0: 4a7a fdbd a4bc 00be e4a9 31be 2e53 1bbc
00000300: b4b1 163e 20f8 1bbe 1345 31be f22a b53c
00000310: 1b86 3abe 1438 013e e758 003e d134 a43d
00000320: 2db9 3fbe dd7b 3c3e dd05 09be a27c 443e
00000330: d456 93bd e3fc 0f3e cdfc 4e3e 80cc 0dbe
00000340: 6491 9f3d e50b ac3d 0273 3c3e 42dd adbd
00000350: 9419 09be 2484 b8bd 8d0e 87bd 588c 86bd
00000360: b800 13be 0610 e03d 2818 ef3d 0790 cbbd
00000370: 0644 2dbe b174 13be d5da 053d 8bcc e5bd
00000380: e955 05be c3eb 49bd 73f3 3dbd 5c8a bfbd
00000390: 0a48 2fbe 366a 08be 641a 24be ea78 e53d
000003a0: 42de 49be 14d5 10be b069 e3bd 1465 e03c
000003b0: ac89 3abe a776 103e a47e 263e 2730 6bbd
000003c0: 1caa 00be 8d99 29be 6657 0b3e 72a1 7d3c
000003d0: 05f7 1abc 79cb 45be 4fc7 443e dcbd 10be
000003e0: 65d6 a03d a360 4abe 5c6b 8dbd 9f91 4abe
000003f0: e3ca 1dbe bebb 05be 93fb 233e a9d3 23be

transformer_encoder.layers.0.self_attn.in_proj_bias f4 [108]
0.0 0.0 0.0 0.0 0.0 0.0 0.0 0.0
0.0 0.0 0.0 0.0 0.0 0.0 0.0 0.0
0.0 0.0 0.0 0.0 0.0 0.0 0.0 0.0
0.0 0.0 0.0 0.0 0.0 0.0 0.0 0.0
0.0 0.0 0.0 0.0 0.0 0.0 0.0 0.0
0.0 0.0 0.0 0.0 0.0 0.0 0.0 0.0
0.0 0.0 0.0 0.0 0.0 0.0 0.0 0.0
0.0 0.0 0.0 0.0 0.0 0.0 0.0 0.0
0.0 0.0 0.0 0.0 0.0 0.0 0.0 0.0
0.0005700784 0.00079602597 0.00033492644 -0.00013743804 0.00044889742 -0.0009425287 0.00087381457 -0.00030843486
0.0010264412 0.00065938145 -0.00018669902 0.0006688642 -0.0010868758 0.0005564777 -0.00047445207 -0.0010698148
-0.0006862703 -0.0008891661 0.00017634091 0.00042421397 0.000976884 0.0007448551 0.00027208246 -0.0007325384
-0.0010381243 -0.0003749359 -0.00038069588 0.00033173835 0.00014245849 -0.0010279428 0.0010904965 -0.0010318937
-0.00010279639 0.0008975039 0.00011233168 -0.0010646116
00000000: 0000 0000 0000 0000 0000 0000 0000 0000
00000010: 0000 0000 0000 0000 0000 0000 0000 0000
00000020: 0000 0000 0000 0000 0000 0000 0000 0000
00000030: 0000 0000 0000 0000 0000 0000 0000 0000
00000040: 0000 0000 0000 0000 0000 0000 0000 0000
00000050: 0000 0000 0000 0000 0000 0000 0000 0000
00000060: 0000 0000 0000 0000 0000 0000 0000 0000
00000070: 0000 0000 0000 0000 0000 0000 0000 0000
00000080: 0000 0000 0000 0000 0000 0000 0000 0000
00000090: 0000 0000 0000 0000 0000 0000 0000 0000
000000a0: 0000 0000 0000 0000 0000 0000 0000 0000
000000b0: 0000 0000 0000 0000 0000 0000 0000 0000
000000c0: 0000 0000 0000 0000 0000 0000 0000 0000
000000d0: 0000 0000 0000 0000 0000 0000 0000 0000
000000e0: 0000 0000 0000 0000 0000 0000 0000 0000
000000f0: 0000 0000 0000 0000 0000 0000 0000 0000
00000100: 0000 0000 0000 0000 0000 0000 0000 0000
00000110: 0000 0000 0000 0000 0000 0000 0000 0000
00000120: 5071 153a 66ac 503a 1199 af39 3e1d 10b9
00000130: fe59 eb39 0814 77ba b410 653a 6db5 a1b9
00000140: a789 863a 57da 2c3a a3c4 43b9 b756 2f3a
00000150: 8075 8eba 96e0 113a e1bf f8b9 0739 8cba
00000160: d2e6 33ba ed16 69ba 27e8 3839 0969 de39
00000170: ca0a 803a 6142 433a 4aa6 8e39 d207 40ba
00000180: ac11 88ba 0b93 c4b9 2398 c7b9 2bed ad39
00000190: e960 1539 09bc 86ba feee 8e3a 9b40 87ba
000001a0: 6494 d7b8 7846 6b3a 9d93 eb38 708a 8bba

transformer_encoder.layers.0.self_attn.out_proj.weight f4 [36, 36]
0.13408312 0.07808298 0.09605707 0.06303729 0.1481208 0.061902963 0.055076133 -0.071326666
0.056400344 0.13898462 0.084480025 0.07386981 -0.008783008 -0.08659724 -0.052983146 0.15887348
-0.07134128 -0.088651896 0.09095851 0.026941774 0.055600554 -0.082754925 -0.14624962 -0.11035596
-0.04788779 -0.023272688 -0.030353459 0.08189752 0.1436652 0.1532994 0.08525589 -0.10931676
-0.066776015 0.121667564 0.09943048 -0.025336301 -0.06714046 -0.07942396 0.054810096 0.16633372
-0.09221359 0.08034198 0.042422585 0.055271152 0.06435424 -0.15452302 0.0014348924 0.1435003
0.11836747 0.12595811 0.16313142 -0.115938425 -0.049668472 0.08661339 -0.058442656 -0.12295419
-0.14223982 -0.12040635 -0.104468025 -0.13517332 0.05691925 -0.03609569 -0.059972446 0.08177975
0.14452396 0.1521731 0.018857798 0.009250722 0.12283068 -0.058176346 0.014504739 0.035310376
-0.15318964 0.08722111 0.123640284 -0.002639737 -0.030715853 -0.1449815 -0.0595158 -0.16254577
-0.14796817 -0.10104565 0.12748095 0.031039918 0.020897942 -0.040550116 0.09110131 0.09523024
0.04519935 -0.07736779 -0.047947276 0.14927308 0.10258131 0.11705513 -0.07742942 0.07285435
0.0044359853 0.15536271 0.1556496 0.13244031 -0.14425598 -0.14630096 0.10235838 -0.034679085
-0.11488357 -0.11030417 -0.14070044 -0.080862604 0.02527166 -0.0771702 0.031634014 -0.15619211
0.10538515 0.010025159 -0.07449756 0.11224386 0.12559898 0.12753083 -0.13966222 -0.046890672
0.017100848 0.01167863 -0.0937072 0.09862252 -0.06353178 -0.13449165 0.085542604 -0.074856356
0.1343014 0.044334646 0.060725767 -0.05198497 -0.046786692 0.14379393 -0.12608029 0.16485265
0.03983162 0.14057119 0.15100393 -0.08979561 -0.01841208 -0.14167495 -0.03357781 -0.1094288
-0.11815054 0.07848946 -0.11331607 0.019715166 -0.053839944 0.12763107 -0.08612254 0.14009176
0.05440488 -0.07088653 -0.0060046096 -0.13698135 -0.058665574 -0.07166356 0.07770807 -0.16452383
-0.023072515 -0.1550182 -0.014393716 -0.0140884165 0.11969576 0.05881914 -0.040305223 -0.14612003
0.12232838 -0.08179943 -0.05794173 0.091292985 -0.15177613 0.15745942 -0.12096021 0.15035711
0.15866011 0.0066957218 0.0014667779 0.11099058 -0.0004940327 -0.02021991 0.09014927 0.0053297966
0.1464466 -0.06551749 -0.059925146 -0.1144246 -0.14326026 -0.016517486 -0.1475241 -0.14868014
0.16215993 0.07354475 0.00018668766 0.14125796 -0.10135092 -0.053767886 0.15450843 0.025653088
-0.07550566 0.15602802 -0.13558143 -0.124726325 -0.02793738 0.04314654 0.02674453 -0.08781953
-0.091403715 0.16119231 0.06655859 0.0016697169 0.15095949 0.051888768 0.059494294 -0.12859261
-0.027129661 -0.10137695 0.1600752 -0.1069121 0.113115095 0.1632072 0.010068326 -0.047101125
-0.023582013 -0.08079242 -0.1059297 -0.09702839 -0.050020155 -0.16260184 0.005879472 0.08930062
-0.035917398 -0.10921279 -0.025964433 -0.04180523 -0.032973155 -0.12149918 0.13369326 -0.028576829
-0.059537634 0.06504388 0.065791026 0.13071619 -0.16610251 0.14855595 -0.08120483 0.02842294
-0.115062214 0.063909054 -0.11718488 0.082272194 -0.13681804 0.042163007 -0.15393916 0.13357018
00000000: 164d 093e f8e9 9f3d 92b9 c43d b219 813d
00000010: fbac 173e f68d 7d3d 8397 613d b713 92bd
00000020: 0c04 673d fc51 0e3e dd03 ad3d 0e49 973d
00000030: 9be6 0fbc e559 b1bd db04 59bd bbaf 223e
00000040: 611b 92bd 208f b5bd 7548 ba3d ffb4 dc3c
00000050: 68bd 633d 6a7b a9bd 76c2 15be 4e02 e2bd
00000060: fd25 44bd 5da6 bebc d1a7 f8bc e3b9 a73d
00000070: f81c 133e 85fa 1c3e a49a ae3d 77e1 dfbd
00000080: ddc1 88bd d82c f93d 35a2 cb3d 138e cfbc
00000090: f080 89bd 07a9 a2bd 8d80 603d 6353 2a3e
000000a0: 7bda bcbd 568a a43d 4ec3 2d3d 0164 623d
000000b0: 28cc 833d 483b 1ebe 0013 bc3a bef1 123e
000000c0: a56a f23d 2afb 003e ec0b 273e 2071 edbd
000000d0: 2b71 4bbd 5c62 b13d 9161 6fbd 68cf fbbd
000000e0: 51a7 11be 9b97 f6bd 55f3 d5bd e06a 0abe
000000f0: 2924 693d 13d9 13bd aba5 75bd 247c a73d
00000100: 17fe 133e 44d3 1b3e ab7b 9a3c 5790 173c
00000110: a78e fb3d 524a 6ebd 49a5 6d3c 9da1 103d
00000120: bfdd 1cbe fba0 b23d 1e37 fd3d 70ff 2cbb
00000130: d09f fbbc 0876 14be d7c6 73bd 6672 26be
00000140: f884 17be 06f1 cebd 5e8a 023e 6d47 fe3c
00000150: 2932 ab3c e117 26bd 5393 ba3d 1208 c33d
00000160: f422 393d 0173 9ebd 5d64 44bd 0bdb 183e
00000170: 2616 d23d 9aba ef3d 5193 9ebd a934 953d
00000180: be5b 913b 6717 1f3e 9c62 1f3e 6f9e 073e
00000190: d7b7 13be ebcf 15be 45a1 d13d a80b 0ebd
000001a0: 1448 ebbd 27e7 e1bd c713 10be 4b9b a5bd
000001b0: 8306 cf3c 690b 9ebd ab92 013d d3f0 1fbe
000001c0: 2bd4 d73d 9140 243c 2d92 98bd 1ce0 e53d
000001d0: 059d 003e 7197 023e 9d03 0fbe 6f10 40bd
000001e0: 1417 8c3c b957 3f3c 8fe9 bfbd 9bfa c93d
000001f0: f31c 82bd 2eb8 09be f630 af3d 4a4e 99bd
00000200: 4e86 093e 3f98 353d 95bb 783d 31ee 54bd
00000210: 67a3 3fbd b73e 133e 311b 01be 22cf 283e
00000220: 7b26 233d e5f1 0f3e c6a0 1a3e c3e6 b7bd
00000230: eed4 96bc 3d13 11be e388 09bd 351c e0bd
00000240: e9f8 f1bd 15bf a03d 4112 e8bd b381 a13c
00000250: 4687 5cbd b8b1 023e 0461 b0bd 3774 0f3e
00000260: a7d7 5e3d f52c 91bd 51c2 c4bb d744 0cbe
00000270: 504b 70bd 58c4 92bd 6925 9f3d ef78 28be
00000280: 9202 bdbc 17bd 1ebe 9fd3 6bbc 1ad3 66bc
00000290: 0d23 f53d 57ec 703d 1717 25bd 7da0 15be
000002a0: 4d87 fa3d 7686 a7bd 4f54 6dbd d1f7 ba3d
000002b0: 346b 1bbe 0b3d 213e fdb9 f7bd 37f7 193e
000002c0: cc77 223e c967 db3b e640 c03a 074f e33d
000002d0: f981 01ba 3aa4 a5bc 2ea0 b83d 93a5 ae3b
000002e0: 19f6 153e 092e 86bd 1274 75bd 7257 eabd
000002f0: d1b2 12be ae4f 87bc 8f10 17be 9b3f 18be
00000300: 410d 263e a19e 963d 96c1 4339 eda5 103e
00000310: 1291 cfbd b73b 5cbd 7537 1e3e 6d26 d23c
00000320: b6a2 9abd cfc5 1f3e dcd5 0abe 8470 ffbd
00000330: efdc e4bc 6dba 303d 5817 db3c bada b3bd
00000340: df31 bbbd 990f 253e df4f 883d 67da da3a
00000350: 2095 1a3e 5189 543d 4ab0 733d c8ad 03be
00000360: 063f debc b89e cfbd c1ea 233e bbf4 dabd
00000370: e3a8 e73d ca1f 273e 9ff5 243c 1ced 40bd
00000380: 112f c1bc 7f76 a5bd acf1 d8bd d2b6 c6bd
00000390: efe1 4cbd 1981 26be 96a8 c03b 3ee3 b63d
000003a0: 1f1e 13bd f5aa dfbd 5db3 d4bc f63b 2bbd
000003b0: dc0e 07bd 90d4 f8bd e3e6 083e f419 eabc
000003c0: bcdd 73bd ba35 853d 72bd 863d 77da 053e
000003d0: c716 2abe 0d1f 183e b84e a6bd 3ad7 e83c
000003e0: bda5 ebbd c0e2 823d a0fe efbd 537e a83d
000003f0: 071a 0cbe 1eb3 2c3d 3aa2 1dbe 9fc6 083e

transformer_encoder.layers.0.self_attn.out_proj.bias f4 [36]
0.00032969174 -0.00045655112 -0.00084115536 0.00078919396 -0.0010376668 -7.1046685e-05 -0.0004718275 -2.6755137e-05
-0.0010207174 0.0005718271 0.0005440398 -5.60851e-05 -0.0007237803 0.0009373164 -0.00039113272 0.00032742263
-0.00036766377 0.00057300844 -0.0008276849 -0.0005549499 -0.00067072414 0.00019641063 -3.292189e-06 -0.0005181525
-0.00022400863 -0.00040757217 0.001093033 0.0010875191 6.749066e-05 -8.595621e-05 5.3582116e-06 0.00030749873
-0.0009188592 0.0009999078 -0.0007153285 0.0009069884
00000000: 7ada ac39 415d efb9 fb80 5cba e9e1 4e3a
00000010: 5202 88ba e6fe 94b8 9d5f f7b9 3870 e0b7
00000020: 98c9 85ba abe6 153a e59d 0e3a eb3c 6bb8
00000030: 13bc 3dba 3db6 753a f210 cdb9 eca9 ab39
00000040: ffc2 c0b9 f235 163a fef8 58ba 0f7a 11ba
00000050: 89d3 2fba 94f3 4d39 60ef 5cb6 a0d4 07ba
00000060: dce3 6ab9 69af d5b9 1a44 8f3a 168b 8e3a
00000070: c689 8d38 6443 b4b8 b0ca b336 c837 a139
00000080: 99df 70ba 570f 833a e284 3bba f6c2 6d3a

transformer_encoder.layers.0.linear1.weight f4 [128, 36]
0.11284581 -0.053409785 0.13497815 -0.079048745 0.079318866 0.020388445 -0.0068363557 0.04945836
0.055996466 -0.00087660324 0.056759946 -0.0045242645 0.12287229 -0.12665583 -0.16464521 0.034418743
-0.10650761 -0.04403136 -0.12333083 -0.0560401 0.0888947 -0.055128444 -0.13864169 -0.15982194
0.10621543 0.045448214 0.07888223 -0.16585417 -0.10997234 0.07463127 -0.011933983 -0.15037847
0.12762086 -0.0060099857 -0.041773602 0.059116013 0.10455504 0.119195424 -0.057140276 -0.15644717
-0.054687925 -0.12089872 -0.1233106 0.14373639 -0.04947293 -0.112815656 0.10773741 0.0623301
0.12592681 0.05376271 0.0045886445 -0.15877636 -0.0317805 0.10753684 0.013359634 0.014415479
-0.04874907 -0.15251936 0.14192548 0.1428366 0.13180292 -0.15587918 0.13447993 -0.08946258
-0.031264346 0.0020017466 -0.13647485 0.08647196 -0.0041741203 -0.065858416 0.08754036 -0.03442317
0.116374314 -0.09686678 -0.14159338 0.058179434 0.025080362 0.15344451 -0.15271896 0.094388075
0.0054423125 -0.10338305 -0.14713393 0.09988651 -0.14859241 -0.107256755 0.1343285 0.0034584196
-0.026429867 -0.08568267 0.07995222 0.08570742 -0.02180901 0.024570508 0.075087436 0.026070392
-0.07984539 -0.019683598 0.094317816 -0.00021805511 0.13465522 -0.07174427 0.0073498385 -0.078051716
-0.1650195 -0.11724765 0.07642114 0.124848925 -0.09429181 -0.14206631 -0.14848487 0.070757866
0.03813335 -0.037715383 0.16419882 0.013984815 -0.012841241 0.13407207 -0.07263919 -0.09854589
0.100408465 -0.096723415 0.052463938 -0.14995971 -0.081640005 -0.09823959 -0.15223387 -0.011837754
-0.05253747 -0.09547668 0.03566792 -0.0063528228 -0.12087683 -0.04933216 0.10246694 0.14194931
-0.00081909524 -0.142464 0.010402395 0.09473873 0.11390214 -0.11937919 -0.069423 -0.09807252
-0.10574968 -0.11975645 0.046890352 -0.10172534 0.013979507 -0.06602705 -0.06438586 0.15615831
0.024462355 -0.055398185 0.02651041 -0.0032317569 0.095598325 0.1002338 0.11986401 -0.11978338
0.15910193 -0.13275313 -0.134286 0.04742248 0.06048427 0.12365285 -0.11522002 -0.1066991
0.13323064 -0.006082952 -0.029215902 0.11288561 0.028348114 -0.019092338 -0.14229722 0.13412838
0.06413598 0.0066979285 -0.15838917 0.1170346 0.014034132 0.11547195 0.15802255 -0.1513168
0.047772255 0.010945163 0.07256818 0.035605855 -0.04682523 0.09128293 0.04948451 0.08977626
-0.14184344 0.049599156 -0.04921782 0.015314305 -0.014040633 -0.14015342 -0.12738745 -0.086397186
-0.03838169 0.059802447 0.1620873 -0.151813 0.14373447 0.116650395 0.074979275 -0.021724587
-0.12270539 0.13379708 -0.0027747843 0.14779304 -0.018925808 0.13914573 -0.08152558 -0.054298174
-0.015751584 0.14669567 0.019972015 -0.026042046 -0.057888024 0.033542916 0.047806345 0.112099566
-0.0657289 0.12813066 0.077390075 0.040128298 0.041728612 -0.15070203 -0.10929141 -0.06733078
-0.06747104 0.15426525 0.0024324642 -0.015162956 0.009427906 0.13421479 -0.16024442 -0.030353677
-0.027365347 0.009675891 -0.0031204321 -0.16654111 -0.15859565 0.09823357 0.1599828 -0.031759758
0.040208958 0.035463758 0.020761216 0.039734505 -0.12950471 -0.013240176 0.03240779 0.14667034
00000000: b41b e73d 38c4 5abd b637 0a3e 4fe4 a1bd
00000010: ee71 a23d ab05 a73c 8203 e0bb d994 4a3d
00000020: 8d5c 653d d9cb 65ba 1e7d 683d 4840 94bb
00000030: 78a4 fb3d 11b2 01be c198 28be abfa 0c3d
00000040: a920 dabd 3a5a 34bd e094 fcbd 4e8a 65bd
00000050: 6d0e b63d 5dce 61bd 16f8 0dbe 5da8 23be
00000060: 7a87 d93d e827 3a3d 028d a13d add5 29be
00000070: 2e39 e1bd 47d8 983d c186 43bc d0fc 19be
00000080: 0baf 023e 6aef c4bb cc1a 2bbd a223 723d
00000090: f420 d63d bb1c f43d ec0b 6abd b033 20be
000000a0: 7200 60bd c099 f7bd 458a fcbd a22f 133e
000000b0: 21a4 4abd e50b e7bd 6ea5 dc3d d94d 7f3d
000000c0: f5f2 003e 4a36 5c3d 575c 963b 4596 22be
000000d0: 452c 02bd 463c dc3d 5ee2 5a3c e72e 6c3c
000000e0: 1bad 47bd 092e 1cbe ea54 113e c243 123e
000000f0: 58f7 063e cb9e 1fbe 1bb5 093e 2838 b7bd
00000100: 0b0f 00bd bc2f 033b 10c0 0bbe 3618 b13d
00000110: 0fc7 88bb c7e0 86bd 5c48 b33d 4fff 0cbd
00000120: a855 ee3d 1762 c6bd dbfd 10be 8f4d 6e3d
00000130: 5575 cd3c 8f20 1d3e 5c62 1cbe 894e c13d
00000140: 6d55 b23b 7eba d3bd 47aa 16be 4c91 cc3d
00000150: 9c28 18be 6ea9 dbbd 698d 093e a7a6 623b
00000160: 7383 d8bc 657a afbd fdbd a33d 5f87 af3d
00000170: cfa8 b2bc 1748 c93c 71c7 993d 9391 d53c
00000180: fb85 a3bd 7f3f a1bc b329 c13d b9a5 64b9
00000190: 0fe3 093e a9ee 92bd ead6 f03b 94d9 9fbd
000001a0: dffa 28be 891f f0bd b082 9c3d cbb0 ff3d
000001b0: 111c c1bd d579 11be 6b0c 18be 80e9 903d
000001c0: b731 1c3d 727b 1abd bc23 283e 9120 653c
000001d0: 1264 52bc 304a 093e dbc3 94bd 6dd2 c9bd
000001e0: f4a2 cd3d ed16 c6bd 6de4 563d 0a8f 19be
000001f0: e032 a7bd d731 c9bd 32e3 1bbe 24f3 41bc
00000200: 8831 57bd 4789 c3bd 8618 123d 572b d0bb
00000210: 458e f7bd 8510 4abd 30da d13d 295b 113e
00000220: 8db8 56ba 15e2 11be cf6e 2a3c 6106 c23d
00000230: 8645 e93d 147d f4bd a52d 8ebd 3fda c8bd
00000240: 4a93 d8bd df42 f5bd 1910 403d 6055 d0bd
00000250: 4d0a 653c 3139 87bd bcdc 83bd f7e7 1f3e
00000260: 4765 c83c 35e9 62bd 5c2c d93c e2cb 53bb
00000270: 0ec9 c33d 6147 cd3d 437b f53d fd50 f5bd
00000280: 9eeb 223e 70f0 07be 4582 09be 133e 423d
00000290: 5bbe 773d b53d fd3d 79f8 ebbd 0f85 dabd
000002a0: 9d6d 083e 8053 c7bb 3056 efbc 9230 e73d
000002b0: 4e3a e83c 8967 9cbc 5db6 11be f358 093e
000002c0: ba59 833d 4c7a db3b c530 22be d6af ef3d
000002d0: 6aef 653c 8f7c ec3d aad0 213e cbf2 1abe
000002e0: d7ac 433d 5753 333c a09e 943d 72d7 113d
000002f0: d0cb 3fbd 8bf2 ba3d 45b0 4a3d 9edc b73d
00000300: 683f 11be 7c28 4b3d a098 49bd dae8 7a3c
00000310: af0a 66bc 6184 0fbe db71 02be 02f1 b0bd
00000320: 1e36 1dbd 69f3 743d 37fa 253e de74 1bbe
00000330: 212f 133e 67e6 ee3d bc8e 993d c3f7 b1bc
00000340: f74c fbbd 1a02 093e 28d9 35bb 0f57 173e
00000350: 4c0a 9bbc 387c 0e3e e2f6 a6bd c367 5ebd
00000360: 7709 81bc 6437 163e 5a9c a33c 2156 d5bc
00000370: fe1b 6dbd 4c64 093d 96d0 433d 7594 e53d
00000380: e09c 86bd af34 033e b07e 9e3d 925d 243d
00000390: 9feb 2a3d a251 1abe 2dd4 dfbd b8e4 89bd
000003a0: 422e 8abd b6f7 1d3e fa69 1f3b 0c6e 78bc
000003b0: 8177 1a3c 9a6f 093e 1d17 24be 46a8 f8bc
000003c0: 4b2d e0bc a187 1e3c 2a80 4cbb c189 2abe
000003d0: e666 22be af2e c93d 88d2 233e 8516 02bd
000003e0: 26b2 243d 7242 113d 6d13 aa3c a6c0 223d
000003f0: e29c 04be 53ed 58bc 08be 043d c030 163e

transformer_encoder.layers.0.linear1.bias f4 [128]
0.044517346 0.0067197233 -0.14496382 -0.13976072 -0.16434896 -0.06432928 -0.07975043 0.13812356
0.04694014 0.1361442 0.05128621 -0.069708675 -0.14570749 -0.12435914 -0.104350574 -0.01263467
-0.08127678 -0.13675794 -0.029552352 -0.13381544 0.021125184 -0.029717725 -0.01486328 0.16463111
0.025405293 -0.055237103 -0.14030972 0.024390582 -0.017943252 0.03373315 -0.07784763 0.083376214
-0.027016299 -0.016521098 0.052959498 -0.046804857 0.02829137 -0.087385826 -0.14078322 0.02343394
-0.04519266 -0.055031564 -0.11756493 -0.1118037 -0.106901996 0.019884827 0.046001118 -0.057717998
-0.029198436 0.046609852 -0.12095013 0.047112912 0.03135988 0.044691317 0.15839478 0.0051312847
0.05820476 0.020854624 0.10313408 0.10550695 -0.01148102 -0.07160405 0.06294932 0.034259766
-0.112613864 0.097613126 0.057743855 -0.06804403 -0.004577677 0.1443122 -0.13303848 0.12650688
0.074126065 -0.033597026 0.14433534 -0.01972469 0.05929642 -0.08423242 0.050850023 -0.091369376
-0.029057797 0.0042311028 -0.0018588419 0.056485243 0.1661035 0.09938402 0.10066785 -0.10209569
-0.12142499 -0.107080735 -0.02304241 0.09678415 -0.11490003 0.10050864 -0.045812987 -0.010421388
-0.14207292 -0.012257837 0.0026715144 -0.056411978 0.11288012 -0.10316229 -0.11845707 0.1497981
-0.043211017 -0.06845554 0.083671786 -0.13682306 0.1058757 0.066489294 0.16335821 -0.06351637
-0.10968304 0.01546489 -0.15772721 -0.06664495 -0.117164426 -0.1036036 0.06735581 0.11814528
-0.06990411 -0.15747355 0.03911152 -0.00876865 -0.0643293 0.11306422 -0.029799623 -0.043125894
00000000: d257 363d 2031 dc3b 6571 14be 6f1d 0fbe
00000010: 184b 28be 12bf 83bd 3254 a3bd 4370 0d3e
00000020: 4e44 403d 6369 0b3e 7d11 523d 6cc3 8ebd
00000030: 5834 15be 01b0 febd c1b5 d5bd a601 4fbc
00000040: 7174 a6bd 460a 0cbe c617 f2bc ea06 09be
00000050: b90e ad3c 9672 f3bc 1d85 73bc 0f95 283e
00000060: c31e d03c 4d40 62bd 5aad 0fbe c2ce c73c
00000070: bafd 92bc c62b 0a3d 946e 9fbd 26c1 aa3d
00000080: 4951 ddbc 4157 87bc 0fec 583d 73b6 3fbd
00000090: 4ec3 e73c 57f7 b2bd 7a29 10be 89f8 bf3c
000000a0: f01b 39bd c768 61bd e2c5 f0bd 57f9 e4bd
000000b0: 6fef dabd 81e5 a23c ab6b 3c3d b569 6cbd
000000c0: 8f31 efbc f9e9 3e3d b4b4 f7bd 78f9 403d
000000d0: 3873 003d 3e0e 373d 3e32 223e 5624 a83b
000000e0: 1d68 6e3d 51d7 aa3c f637 d33d 0714 d83d
000000f0: e31a 3cbc 25a5 92bd 93eb 803d f853 0c3d
00000100: 19a2 e6bd 64e9 c73d d284 6c3d ab5a 8bbd
00000110: 5700 96bb 94c6 133e 3d3b 08be 058b 013e
00000120: 68cf 973d 099d 09bd a5cc 133e ac95 a1bc
00000130: cee0 723d 0c82 acbd 1d48 503d de1f bbbd
00000140: 9e0a eebc 10a5 8a3b 62a4 f3ba 125d 673d
00000150: 0917 2a3e d989 cb3d f22a ce3d 8c17 d1bd
00000160: aaad f8bd 254d dbbd 70c3 bcbc c536 c63d
00000170: b550 ebbd 79d7 cd3d 66a6 3bbd 78be 2abc
00000180: 907b 11be 18d5 48bc 9314 2f3b 3f10 67bd
00000190: b12d e73d c046 d3bd 9f99 f2bd ac64 193e
000001a0: 09fe 30bd 6b32 8cbd 1d5c ab3d 581b 0cbe
000001b0: 5cd5 d83d 8a2b 883d 6047 273e df14 82bd
000001c0: 80a1 e0bd 7360 7d3c 3e83 21be 267d 88bd
000001d0: e7f3 efbd 202e d4bd d8f1 893d 27f6 f13d
000001e0: e329 8fbd bf40 21be 6733 203d 62aa 0fbc
000001f0: 14bf 83bd 378e e73d 571e f4bc c7a4 30bd

transformer_encoder.layers.0.linear2.weight f4 [36, 128]
-0.029610602 -0.0742712 0.076091975 -0.016260944 0.012829036 0.06833863 -0.05257607 0.073687494
-0.047959547 0.045624327 -0.006940965 0.08335046 -0.0075097666 0.046212237 -0.037957948 0.001264706
0.019172845 -0.016659385 -0.050207306 0.015075795 0.081562564 0.07425882 -0.08722282 -0.08854415
0.082446255 0.0021850145 -0.07865918 0.028416662 -0.023348449 0.039528903 0.07871924 -0.034337014
0.036000084 0.08100699 0.016201653 0.08442897 -0.035587084 -0.028070338 0.04622074 0.0810248
0.038973566 -0.019805139 0.024505436 0.07673904 0.05893652 0.0645548 -0.061153255 0.055632606
0.068115495 -0.06783257 0.03760307 0.025230275 -0.045258492 0.056278683 -0.06880073 0.075042255
-0.04927145 -0.08096306 0.0670045 -0.041551188 -0.065688685 -0.049963906 -0.022271026 0.04117358
0.039473776 0.0120835155 -0.0040372745 0.01566325 0.04672753 0.07465086 0.05881274 -0.021417473
-0.052091546 -0.07468031 -0.06261379 -0.08384942 -0.025242805 -0.010829813 -0.014176078 -0.0017746806
-0.066085584 0.048171073 0.016190842 -0.022835985 -0.03434792 0.06494026 0.022960816 0.0041773813
0.065190226 -0.025784958 -0.03334434 0.022686245 0.07677834 0.009484501 0.057185505 -0.05394463
0.04068781 0.050491147 -0.07139288 0.030255307 0.08087501 -0.059220165 -0.026729356 0.016366383
0.055725105 0.026414488 0.009237481 0.074001886 -0.07564895 -0.013912825 -0.036123455 0.049764737
-0.082937814 0.011928628 0.0114079295 0.08026345 0.07075702 -0.040168103 0.0723608 -0.08521397
0.027374236 0.067789406 -0.007577097 0.0150311105 0.049739227 0.08828812 -0.0005493561 0.06599856
-0.067337885 0.07173604 -0.00066149794 -0.029492212 0.002977998 -0.054164715 0.0597657 0.006206502
0.07152532 -0.07124512 0.032145187 -0.026555864 0.0075808917 -0.08475212 0.05125612 0.059583366
-0.058544427 -0.018162096 -0.08814896 0.080940224 0.08667664 -0.041690677 0.045748044 0.011577399
0.08277477 0.08599817 -0.019507963 0.06627647 -0.079696506 -0.08054331 -0.00965376 -0.011355447
-0.074398465 0.02064836 -0.030736148 -0.035076834 -0.0689873 -0.0086202845 0.053272147 0.08437177
0.0043506916 0.027221823 0.004757711 0.04241376 0.046819378 0.009013832 -0.0086398795 0.07683038
0.020312486 -0.023569448 -0.0824407 -0.04521296 0.024526266 0.034717675 0.07719442 -0.0040842467
-0.01725962 -0.0038187702 0.04102097 -0.031924766 -0.05396126 0.014371721 -0.08378082 0.063123286
-0.005983875 0.08336114 0.04004086 0.049354903 -0.0214684 -0.008426004 -0.004116465 0.05924258
0.036987484 0.0038861579 0.030963313 0.00739091 -0.007900553 0.06840283 -0.040206652 -0.041966524
-0.0025775167 0.01635001 -0.049450364 -0.06270505 -0.0042915996 0.02633247 0.03986709 -0.06885048
-0.00059027236 0.06802362 -0.043957803 -0.014873753 0.06717903 -0.03437929 -0.04988589 0.023546109
0.02092039 0.0004965059 -0.00916792 0.023693014 -0.080023445 0.023277802 -0.008001767 0.02048844
0.0540473 0.032639075 0.052449 0.042219035 -0.08094507 -0.040767778 0.03185931 -0.01812021
0.03646077 -0.021595893 -0.068983786 -0.074247666 0.01044713 0.04010253 0.031465657 0.004745548
-0.03889788 0.055172943 -0.08472368 0.055655263 0.07057416 0.077970125 -0.016310506 -0.040119424
00000000: ef91 f2bc 801b 98bd 1cd6 9b3d ac35 85bc
00000010: e130 523c 20f5 8b3d 015a 57bd 78e9 963d
00000020: 3b71 44bd 93e0 3a3d 0971 e3bb a5b3 aa3d
00000030: 7d14 f6bb 0b49 3d3d cb79 1bbd 7ec4 a53a
00000040: 5f10 9d3c 4379 88bc 2da6 4dbd 7800 773c
00000050: 460a a73d 0215 983d e1a1 b2bd a356 b5bd
00000060: 95d9 a83d 7632 0f3b 1018 a1bd 0fca e83c
00000070: 3f45 bfbc 0fe9 213d 8e37 a13d f8a4 0cbd
00000080: d374 133d fee6 a53d 54b9 843c 19e9 ac3d
00000090: c3c3 11bd c4f3 e5bc f551 3d3d 55f0 a53d
000000a0: bfa2 1f3d 633e a2bc a0bf c83c 5c29 9d3d
000000b0: 6c67 713d 4f35 843d d67b 7abd 04df 633d
000000c0: 2380 8b3d cdeb 8abd ad05 1a3d b9af ce3c
000000d0: f860 39bd 7a84 663d 66e7 8cbd c1af 993d
000000e0: dcd0 49bd f6cf a5bd a839 893d 9431 2abd
000000f0: ca87 86bd f4a6 4cbd ba71 b6bc a1a5 283d
00000100: 41af 213d f0f9 453c 1d4b 84bb 3750 803c
00000110: 5e65 3f3d 8de2 983d a1e5 703d b273 afbc
00000120: f25d 55bd fef1 98bd a93b 80bd 3fb9 abbd
00000130: 00ca cebc 876f 31bc c842 68bc 669c e8ba
00000140: e157 87bd 084f 453d a8a2 843c 8812 bbbc
00000150: 68b0 0cbd 66ff 843d 5218 bc3c 6ae2 883b
00000160: 7482 853d fa3a d3bc 1394 08bd 81d8 b93c
00000170: f63d 9d3d e164 1b3c 593b 6a3d 0bf5 5cbd
00000180: 43a8 263d cecf 4e3d 6e36 92bd fad9 f73c
00000190: cca1 a53d d890 72bd 86f7 dabc cb12 863c
000001a0: 0240 643d 3263 d83c ce58 173c 4d8e 973d
000001b0: d6ed 9abd 9ef2 63bc 30f6 13bd 1cd6 4b3d
000001c0: 4ddb a9bd 4b70 433c 53e8 3a3c 2a61 a43d
000001d0: 0ee9 903d 4f87 24bd e631 943d a984 aebd
000001e0: ef3f e03c 2cd5 8a3d 4c49 f8bb 0c45 763c
000001f0: 5cbb 4b3d 67d0 b43d aa02 10ba 412a 873d
00000200: 72e8 89bd 58ea 923d 6068 2dba a799 f1bc
00000210: 842a 433b d2db 5dbd e1cc 743d ea5f cb3b
00000220: de7b 923d f6e8 91bd acaa 033d af8b d9bc
00000230: 2169 f83b 8592 adbd f0f1 513d b00d 743d
00000240: 48cc 6fbd adc8 94bc 7187 b4bd fdc3 a53d
00000250: 8683 b13d d8c3 2abd 4d62 3b3d 22af 3d3c
00000260: d285 a93d cf1f b03d 2acf 9fbc f5bb 873d
00000270: ec37 a3bd e4f3 a4bd ce2a 1ebc 320c 3abc
00000280: 395e 98bd c026 a93c 60ca fbbc baac 0fbd
00000290: 3749 8dbd 183c 0dbc e533 5a3d 1bcb ac3d
000002a0: 3f90 8e3b 4d00 df3c 93e6 9b3b 0dba 2d3d
000002b0: adc5 3f3d c0ae 133c 488e 0dbc 3f59 9d3d
000002c0: 5f66 a63c b714 c1bc abd6 a8bd 3a31 39bd
000002d0: 4feb c83c 1f34 0e3d 1c18 9e3d 25d5 85bb
000002e0: 0c64 8dbc 5544 7abb 9b05 283d 8bc3 02bd
000002f0: 7b06 5dbd 5e77 6b3c 4795 abbd c846 813d
00000300: 6214 c4bb 3fb9 aa3d e301 243d 5e28 4a3d
00000310: 7fde afbc 390d 0abc 69e3 86bb 59a8 723d
00000320: 3080 173d e9ae 7e3b c6a6 fd3c 722f f23b
00000330: 5271 01bc c816 8c3d bbaf 24bd 17e5 2bbd
00000340: 8eeb 28bb 75f0 853c 778c 4abd 816b 80bd
00000350: 8ca0 8cbb 31b7 d73c ac4b 233d 7b01 8dbd
00000360: 82bc 1aba f84f 8b3d 190d 34bd 0bb1 73bc
00000370: 2995 893d 4cd1 0cbd 2655 4cbd c5e3 c03c
00000380: 3d61 ab3c f227 023a 0b35 16bc da17 c23c
00000390: 55e3 a3bd 17b1 be3c d819 03bc 5fd7 a73c
000003a0: b460 5d3d 8db0 053d c3d4 563d deed 2c3d
000003b0: 87c6 a5bd 1dfc 26bd e87e 023d d670 94bc
000003c0: e357 153d dfe9 b0bc 5f47 8dbd 290f 98bd
000003d0: 702a 2b3c 8d42 243d 22e2 003d 8b80 9b3b
000003e0: 6253 1fbd 06fd 613d 9c83 adbd c6f6 633d
000003f0: 2f89 903d cdae 9f3d 9c9d 85bc 4454 24bd

transformer_encoder.layers.0.linear2.bias f4 [36]
0.059315346 -0.049308628 0.037014987 -0.0026219876 -0.03973251 0.088618785 -0.024646437 0.086624466
-0.05368386 -0.02867323 0.00422726 0.06378855 -0.007226913 0.020958425 -0.05278419 -0.03469499
0.029659105 -0.0068662604 -0.039362974 0.05241246 0.07644836 0.06771035 0.014377733 0.07289893
-0.0034582063 0.0019605379 0.06452896 -0.014085851 -0.03962455 0.00509629 -0.016432034 -0.020791093
-0.057102874 0.012476904 0.01872075 -0.030955527
00000000: a6f4 723d d8f7 49bd 079d 173d a7d5 2bbb
00000010: 8ebe 22bd c47d b53d 53e7 c9bc 2b68 b13d
00000020: 9be3 5bbd 1fe4 eabc d484 8a3b 92a3 823d
00000030: bdcf ecbb 01b1 ab3c 3c34 58bd 551c 0ebd
00000040: a7f7 f23c 5efe e0bb 123b 21bd 73ae 563d
00000050: f590 9c3d b9ab 8a3d 9590 6b3c 094c 953d
00000060: 13a3 62bb 5e7c 003b c227 843d 57c8 66bc
00000070: 5a4d 22bd c7fe a63b 799c 86bc 1552 aabc
00000080: b4e4 69bd ee6b 4c3c 425c 993c 7296 fdbc

transformer_encoder.layers.0.norm1.weight f4 [36]
0.99901706 0.99916726 1.0008976 1.0008799 1.0010961 1.0009407 0.99891657 0.9990863
1.0010535 1.0010576 0.9989136 1.0009291 0.9989814 1.0009181 1.0001525 0.9989527
1.0003306 0.99939597 1.0007977 0.9991411 1.0007145 1.0004689 1.0007427 0.9990951
1.0010866 0.9990142 1.0010844 1.0010967 1.0007645 0.9991231 1.0008088 0.9989116
1.000817 1.0009961 0.99892217 1.0008036
00000000: 95bf 7f3f 6dc9 7f3f 6a1d 803f d51c 803f
00000010: eb23 803f d31e 803f ffb8 7f3f 1fc4 7f3f
00000020: 8522 803f a822 803f cdb8 7f3f 721e 803f
00000030: 3fbd 7f3f 161e 803f ff04 803f 5dbb 7f3f
00000040: d50a 803f 6ad8 7f3f 241a 803f b6c7 7f3f
00000050: 6a17 803f 5d0f 803f 5618 803f b2c4 7f3f
00000060: 9b23 803f 65bf 7f3f 8923 803f f023 803f
00000070: 0d19 803f 88c6 7f3f 811a 803f acb8 7f3f
00000080: c51a 803f a420 803f 5db9 7f3f 551a 803f

transformer_encoder.layers.0.norm1.bias f4 [36]
0.00018189091 -0.00058835186 -0.00086092815 0.0008322354 -0.0010068459 -2.811737e-05 -0.0004613491 7.252514e-05
-0.0010030118 0.0006441752 0.0005211511 0.00021181448 -0.0007370407 0.0009104958 -0.00036794087 -0.00020996918
-0.00055232603 0.0006189229 -0.0008609086 -0.00076017133 -0.0006823271 -6.9519483e-06 -0.00014873955 -0.0006251123
-0.00018114055 -0.00044635558 0.0010927204 0.0010929612 -0.00026108563 -0.00026921296 -8.539247e-05 0.00017061456
-0.000875647 0.0009967581 -0.00074978947 0.00091183186
00000000: f8b9 3e39 a03b 1aba e9af 61ba 5f2a 5a3a
00000010: 24f8 83ba 98dd ebb7 3ae1 f1b9 a318 9838
00000020: 7e77 83ba dedd 283a dc9d 083a 841a 5e39
00000030: f735 41ba 57ae 6e3a 30e8 c0b9 2c2b 5cb9
00000040: f9c9 10ba 363f 223a 99ae 61ba 3c46 47ba
00000050: 32de 32ba c844 e9b6 f8f6 1bb9 94de 23ba
00000060: 8cf0 3db9 d504 eab9 9d39 8f3a b141 8f3a
00000070: 52e2 88b9 2725 8db9 bc14 b3b8 ffe6 3239
00000080: ad8b 65ba a7a5 823a 858d 44ba 0008 6f3a

transformer_encoder.layers.0.norm2.weight f4 [36]
0.9989742 0.99901426 1.0006363 1.0009311 1.0010914 1.0010102 0.99892503 0.9992692
1.0010712 1.0010687 0.99891275 1.0009692 0.9989587 1.0009573 1.0009735 0.9989738
1.0003449 0.99893767 1.0005764 1.0010791 1.0003773 1.0010402 1.0007942 0.99904746
1.0010855 0.9991193 1.00109 1.0010961 1.0007879 0.99924743 1.0008364 0.99890447
0.9989279 1.0010048 0.9989314 1.0009636
00000000: c6bc 7f3f 66bf 7f3f da14 803f 831e 803f
00000010: c323 803f 1a21 803f 8db9 7f3f 1bd0 7f3f
00000020: 1a23 803f 0523 803f bfb8 7f3f c21f 803f
00000030: c2bb 7f3f 5e1f 803f e61f 803f bfbc 7f3f
00000040: 4d0b 803f 61ba 7f3f e312 803f 5c23 803f
00000050: 5d0c 803f 1622 803f 061a 803f 93c1 7f3f
00000060: 9223 803f 48c6 7f3f b823 803f eb23 803f
00000070: d119 803f aece 7f3f 681b 803f 34b8 7f3f
00000080: bdb9 7f3f ed20 803f f8b9 7f3f 931f 803f

transformer_encoder.layers.0.norm2.bias f4 [36]
0.0001272791 -0.00027246348 -0.00060811685 0.000884115 -0.0009948909 0.0009034845 -6.378893e-05 0.00037224754
-0.0010668435 0.0004720697 0.00074386573 0.00017211286 -0.0005263525 0.0009569152 -0.00040575396 -0.00021253535
-0.0005072926 0.0003954473 -0.0007719435 -0.0007588619 -0.00050498283 0.0005623024 3.6540736e-05 -3.3451524e-05
-9.019724e-05 -0.00012976737 0.0010861771 0.0010928952 -0.0004030281 9.8613746e-05 -0.00034809427 9.915288e-05
-0.00044545502 0.0009999565 -0.00023253608 0.0009649267
00000000: 3976 0539 6ed9 8eb9 086a 1fba f4c3 673a
00000010: 0067 82ba d2d7 6c3a 6cc6 85b8 382a c339
00000020: 54d5 8bba 1f80 f739 fcff 423a 3279 3439
00000030: ebfa 09ba 7ed9 7a3a 60bb d4b9 06dc 5eb9
00000040: d5fb 04ba 0a54 cf39 405c 4aba 5cee 46ba
00000050: d360 04ba 7a67 133a 5143 1938 4d4e 0cb8
00000060: 4628 bdb8 2a12 08b9 0e5e 8e3a 7a3f 8f3a
00000070: 844d d3b9 dace ce38 6c80 b6b9 4cf0 cf38
00000080: f68b e9b9 f910 833a eed4 73b9 22f3 7c3a

transformer_encoder.layers.1.self_attn.in_proj_weight f4 [108, 36]
-0.10261226 -0.06151437 -0.027933272 0.0517517 -0.12658542 0.13424683 0.053015288 0.07677198
0.12275684 0.076666616 0.077143095 0.1184208 0.1971427 0.0023295672 -0.11660132 -0.17039573
-0.1532278 0.06164246 -0.1521881 0.00070501433 -0.16526023 -0.1129117 -0.17277777 0.1568078
0.19414932 0.16552389 0.12772627 -0.079261154 -0.1829451 -0.011408297 -0.11691558 0.007806502
0.0061799777 0.021952877 0.07378466 0.06886608 0.08310777 -0.188047 -0.16915108 -0.09501763
0.15644199 0.13704075 -0.15643379 -0.0718516 0.101377405 0.18510331 -0.17928213 -0.107523315
0.02212382 -0.014215676 -0.12813745 0.17639531 -0.06401707 -0.17352636 -0.12824242 -0.027100043
-0.0373936 -0.12539588 -0.14271206 0.1702618 -0.084155254 -0.1349966 0.019656524 -0.11925793
0.074516825 -0.03169934 0.15859665 1.747145e-05 0.12900443 0.041430257 -0.18820062 0.1960974
0.0037334883 -0.15486833 0.036341246 0.14363854 0.15391736 -0.07257156 -0.16839512 -0.01562719
0.065061346 -0.16703731 0.079830244 0.14299427 -0.094382815 0.20204018 -0.20064315 0.08187744
-0.04287102 0.049794436 0.041807912 -0.16457127 -0.13857393 -0.11966624 0.04552274 -0.117300466
0.13317673 0.13242929 0.12926817 -0.06497055 -0.046338152 -0.15201001 -0.060639556 0.08471417
-0.09137721 -0.17115657 0.17965999 -0.045064196 -0.005447053 -0.07773274 0.14339502 -0.00021749278
-0.0021716915 -0.10364755 -0.16762029 0.09471774 -0.11975562 0.073515356 -0.11440254 -0.04174915
0.18539062 -0.18473308 0.020848112 0.07259511 0.15799427 -0.008120598 0.18582483 -0.041298833
-0.07218237 0.06237305 0.14727503 -0.0042696036 0.15204403 -0.05703173 0.032831553 0.17219785
0.053472176 -0.20339368 -0.18333001 -0.1169439 0.18291147 -0.096851446 0.058938865 -0.16940856
0.09975071 -0.044455934 0.009472324 0.07728785 -0.12154282 -0.11327875 -0.08426439 0.03221847
-0.17801446 0.027660541 -0.11439612 -0.065145366 -0.16290043 -0.13594557 -0.062454153 -0.20238566
0.02234231 -0.12912299 0.08752237 0.14563677 -0.13869615 0.10010428 -0.040174577 -0.18772332
0.10166245 0.17173216 -0.033270046 0.009844285 -0.14674428 -0.09931198 -0.0414186 0.12620443
0.11428654 0.1901048 0.15988342 0.16914698 -0.19182333 -0.092105836 0.07770841 -0.110303685
0.008710783 0.12936658 -0.042543758 0.16551998 -0.123768404 -0.1257196 -0.17349964 -0.009480281
0.14716226 -0.15231371 -0.17311506 0.022115204 -0.1821522 0.12619048 0.12533914 0.080178864
-0.18722983 0.18406625 -0.13381143 0.19188169 -0.071942955 0.14061312 0.20213623 -0.13847542
0.07791403 0.08400706 0.18403247 -0.08489467 -0.13388664 -0.09009579 -0.06594572 -0.06569737
-0.14355743 0.10940556 0.11674529 -0.099395804 -0.1692048 -0.14399983 0.032679398 -0.11220654
-0.13021053 -0.049297106 -0.04637475 -0.09352562 -0.17117324 -0.13321766 -0.16025692 0.11204703
-0.19713691 -0.14143783 -0.11104143 0.027391948 -0.1821658 0.14107762 0.16259247 -0.05741897
-0.12564892 -0.16562481 0.13607559 0.015480386 -0.009458308 -0.193159 0.19216655 -0.14134926
0.078533925 -0.19763426 -0.06905243 -0.19782113 -0.15409426 -0.13059899 0.16013937 -0.1599871
00000000: 6026 d2bd 7ef6 7bbd 51d4 e4bc 97f9 533d
00000010: 9c9f 01be 0078 093e 8f26 593d a13a 9d3d
00000020: f067 fb3d 6303 9d3d 33fd 9d3d 9b86 f23d
00000030: c7df 493e a7ab 183b accc eebd 387c 2ebe
00000040: c0e7 1cbe ce7c 7c3d 33d7 1bbe b6d0 383a
00000050: fa39 29be 403e e7bd a8ec 30be 3992 203e
00000060: 14cf 463e 187f 293e adca 023e ac53 a2bd
00000070: f655 3bbe dee9 3abc 7071 efbd afcd ff3b
00000080: 6981 ca3b 85d6 b33c 691c 973d a909 8d3d
00000090: 6834 aa3d 658f 40be f135 2dbe 9a98 c2bd
000000a0: 5432 203e 6954 0c3e 2e30 20be ef26 93bd
000000b0: f59e cf3d b98b 3d3e bc95 37be 2f35 dcbd
000000c0: 033d b53c dee8 68bc 7736 03be f9a0 343e
000000d0: 621b 83bd e5b0 31be fb51 03be e900 debc
000000e0: 082a 19bd c767 00be 1c23 12be 1c59 2e3e
000000f0: 9759 acbd 8c3c 0abe b806 a13c 803d f4bd
00000100: 479c 983d 2bd7 01bd 2967 223e a78f 9237
00000110: bd19 043e c6b2 293d aab7 40be c2cd 483e
00000120: 8aad 743b ce95 1ebe 8fda 143d fb15 133e
00000130: 839c 1d3e 66a0 94bd c56f 2cbe 9804 80bc
00000140: e23e 853d d40b 2bbe 0a7e a33d 176d 123e
00000150: c74b c1bd 9fe3 4e3e 6675 4dbe 5caf a73d
00000160: 8699 2fbd 40f5 4b3d c63e 2b3d 5f85 28be
00000170: 53e6 0dbe 9313 f5bd 0d76 3a3d 3a3b f0bd
00000180: 7b5f 083e 8b9b 073e e05e 043e 480f 85bd
00000190: 13cd 3dbd 83a8 1bbe 2f61 78bd 9f7e ad3d
000001a0: fa23 bbbd ab43 2fbe caf8 373e 3c95 38bd
000001b0: 317d b2bb 5832 9fbd 25d6 123e c60e 64b9
000001c0: f052 0ebb 2b45 d4bd a7a4 2bbe 60fb c13d
000001d0: 6f42 f5bd 388f 963d e14b eabd 2801 2bbd
000001e0: 0ad7 3d3e ab2a 3dbe a9c9 aa3c bfac 943d
000001f0: 40c9 213e 420c 05bc dd48 3e3e f728 29bd
00000200: 5ad4 93bd e27a 7f3d 44cf 163e 08e8 8bbb
00000210: 6eb1 1b3e 1a9a 69bd 617a 063d a254 303e
00000220: a405 5b3d 6f46 50be ddba 3bbe 4980 efbd
00000230: 254d 3b3e 0d5a c6bd e169 713d 7079 2dbe
00000240: 1a4a cc3d 6d17 36bd ce31 1b3c 1849 9e3d
00000250: 71eb f8bd b0fe e7bd cf92 acbd 84f7 033d
00000260: 6c49 36be 5c98 e23c 8348 eabd ef6a 85bd
00000270: 5fcf 26be 5135 0bbe edcf 7fbd 303e 4fbe
00000280: 3807 b73c d138 04be ee3e b33d ce21 153e
00000290: 5d06 0ebe 7903 cd3d 198e 24bd 8b3a 40be
000002a0: 6734 d03d 8eda 2f3e 2c46 08bd ed49 213c
000002b0: 2244 16be 1464 cbbd 8da6 29bd bc3b 013e
000002c0: 100f ea3d d5aa 423e 7bb8 233e de34 2d3e
000002d0: 566d 44be fca1 bcbd 9625 9f3d e6e6 e1bd
000002e0: acb7 0e3c ac78 043e 5d42 2ebd 127e 293e
000002f0: 4a7a fdbd a4bc 00be e4a9 31be 2e53 1bbc
00000300: b4b1 163e 20f8 1bbe 1345 31be f22a b53c
00000310: 1b86 3abe 1438 013e e758 003e d134 a43d
00000320: 2db9 3fbe dd7b 3c3e dd05 09be a27c 443e
00000330: d456 93bd e3fc 0f3e cdfc 4e3e 80cc 0dbe
00000340: 6491 9f3d e50b ac3d 0273 3c3e 42dd adbd
00000350: 9419 09be 2484 b8bd 8d0e 87bd 588c 86bd
00000360: b800 13be 0610 e03d 2818 ef3d 0790 cbbd
00000370: 0644 2dbe b174 13be d5da 053d 8bcc e5bd
00000380: e955 05be c3eb 49bd 73f3 3dbd 5c8a bfbd
00000390: 0a48 2fbe 366a 08be 641a 24be ea78 e53d
000003a0: 42de 49be 14d5 10be b069 e3bd 1465 e03c
000003b0: ac89 3abe a776 103e a47e 263e 2730 6bbd
000003c0: 1caa 00be 8d99 29be 6657 0b3e 72a1 7d3c
000003d0: 05f7 1abc 79cb 45be 4fc7 443e dcbd 10be
000003e0: 65d6 a03d a360 4abe 5c6b 8dbd 9f91 4abe
000003f0: e3ca 1dbe bebb 05be 93fb 233e a9d3 23be

transformer_encoder.layers.1.self_attn.in_proj_bias f4 [108]
0.0 0.0 0.0 0.0 0.0 0.0 0.0 0.0
0.0 0.0 0.0 0.0 0.0 0.0 0.0 0.0
0.0 0.0 0.0 0.0 0.0 0.0 0.0 0.0
0.0 0.0 0.0 0.0 0.0 0.0 0.0 0.0
0.0 0.0 0.0 0.0 0.0 0.0 0.0 0.0
0.0 0.0 0.0 0.0 0.0 0.0 0.0 0.0
0.0 0.0 0.0 0.0 0.0 0.0 0.0 0.0
0.0 0.0 0.0 0.0 0.0 0.0 0.0 0.0
0.0 0.0 0.0 0.0 0.0 0.0 0.0 0.0
0.0003137471 0.00089536514 -0.00018231999 -0.0008491212 0.00022115618 -0.00066166755 -0.0006565106 0.0010473123
0.0010568447 0.00060872966 -0.0009833132 0.00011626691 -0.0010950076 0.00024188706 0.00018126646 -0.0010360315
-0.0009535652 -0.000865342 0.00052008545 4.6585938e-05 0.0010760947 0.00087125937 7.663925e-05 -0.0007426825
0.0004129144 -0.0005876821 -0.0005567155 0.00021379674 0.0009633551 -0.0007042282 0.000119239805 -0.0008717823
-0.00042775503 -0.00013745199 0.00032714297 -0.0008686942
00000000: 0000 0000 0000 0000 0000 0000 0000 0000
00000010: 0000 0000 0000 0000 0000 0000 0000 0000
00000020: 0000 0000 0000 0000 0000 0000 0000 0000
00000030: 0000 0000 0000 0000 0000 0000 0000 0000
00000040: 0000 0000 0000 0000 0000 0000 0000 0000
00000050: 0000 0000 0000 0000 0000 0000 0000 0000
00000060: 0000 0000 0000 0000 0000 0000 0000 0000
00000070: 0000 0000 0000 0000 0000 0000 0000 0000
00000080: 0000 0000 0000 0000 0000 0000 0000 0000
00000090: 0000 0000 0000 0000 0000 0000 0000 0000
000000a0: 0000 0000 0000 0000 0000 0000 0000 0000
000000b0: 0000 0000 0000 0000 0000 0000 0000 0000
000000c0: 0000 0000 0000 0000 0000 0000 0000 0000
000000d0: 0000 0000 0000 0000 0000 0000 0000 0000
000000e0: 0000 0000 0000 0000 0000 0000 0000 0000
000000f0: 0000 0000 0000 0000 0000 0000 0000 0000
00000100: 0000 0000 0000 0000 0000 0000 0000 0000
00000110: 0000 0000 0000 0000 0000 0000 0000 0000
00000120: 6c7e a439 f0b6 6a3a 262d 3fb9 8f97 5eba
00000130: 29e6 6739 c273 2dba ae19 2cba f845 893a
00000140: d385 8a3a 2893 1f3a 84e2 80ba 52d4 f338
00000150: 5c86 8fba 10a3 7d39 5812 3e39 73cb 87ba
00000160: adf8 79ba 1ed8 62ba 5856 083a 4565 4338
00000170: bf0b 8d3a 3a65 643a 62b9 a038 94b0 42ba
00000180: 6f7c d839 ae0e 1aba 8bf0 11ba a02e 6039
00000190: ab89 7c3a f49b 38ba 6210 fa38 5288 64ba
000001a0: 4f44 e0b9 fd20 10b9 6384 ab39 15b9 63ba
