pipeline/PPO/ppo_model.pth (torch, 150510 bytes, 30 tensors)

0.weight f4 [64, 22]
0	0xbd5cbf00	-0.05389309
1	0x3d5ba25e	0.053621642
2	0x3e573405	0.21015938
3	0xbe09e0fb	-0.1346473
4	0xbcc142a6	-0.02359135
5	0x3e39bd39	0.18138589
6	0x3cdb4447	0.026765956
7	0x3ca90274	0.020631053
8	0xbe1868a3	-0.14883666
9	0xbe137384	-0.14399534
10	0xbca5f687	-0.020259155
11	0xbd41d60b	-0.047323268
12	0xbd3fb372	-0.04680199
13	0xbe375961	-0.17905189
14	0xbcab5e18	-0.02091889
15	0x3e07a32f	0.13245843
16	0x3c68fab8	0.014219932
17	0xbd7d892f	-0.061898407
18	0x3d7d2e77	0.06181189
19	0xbe37c18a	-0.17944923
20	0x3ac3a309	0.0014925908
21	0x3ca5a143	0.020218497
22	0xbd542a30	-0.051798046
23	0x3dc76f01	0.09737969
24	0xbe26c388	-0.16285527
25	0xba4d7791	-0.0007837946
26	0xbdf0cc8b	-0.117577635
27	0xbcbb911d	-0.022896344
28	0x3e34fc17	0.1767429
29	0x3e1ab16f	0.15106748
30	0x3df3f13d	0.11911247
31	0x3e271912	0.16318157
32	0x3c81a5aa	0.015826065
33	0xbe2a0a76	-0.16605553
34	0xbe0621fd	-0.13098903
35	0xbe103f53	-0.14086656
36	0x3e43398c	0.19064921
37	0xbe34c55c	-0.17653412
38	0x3e09143e	0.13386628
39	0xbc4d7d8b	-0.012542139
40	0x3c0e5f82	0.008689763
41	0x3e4a0081	0.19726755
42	0x3df39acc	0.118947595
43	0x3d3b94d5	0.045796234
44	0xbe14dde1	-0.14537765
45	0xbe57a2c2	-0.21058181
46	0x3d3420c6	0.043976568
47	0xbdafaab2	-0.085774794
48	0xbe4c2dec	-0.19939393
49	0xbc875e44	-0.016524442
50	0x3e572a74	0.21012288
51	0x3d44fd68	0.04809323
52	0xbcb9dcbc	-0.022688262
53	0xbdcbccfc	-0.09951207
54	0xbc1d9867	-0.009618855
55	0x3d9efe3f	0.07763337
56	0x3e0fbdea	0.1403729
57	0x3e46b177	0.19403635
58	0xbe1ab1d4	-0.15106899
59	0xbd3a8ad3	-0.04554255
60	0x3dd8a86f	0.10579001
61	0x3ce03ce9	0.027372794
62	0xbd2804f2	-0.04102034
63	0xbe22c85a	-0.1589674
64	0xbe3633fc	-0.17793268
65	0xbe1f479a	-0.15554658
66	0xbe4b943a	-0.19880763
67	0xbe1650a9	-0.14679207
68	0x3d2b19ed	0.04177277
69	0xbe5c3f44	-0.21508509
70	0x3e30af31	0.1725433
71	0x3d74d9e3	0.059778105
72	0xbe4e4e55	-0.20147069
73	0xbd1dd8b6	-0.03853675
74	0xbd4e5e6a	-0.05038301
75	0xbdf9da6a	-0.12199862
76	0xbb206480	-0.0024473965
77	0x3d5ee66b	0.054418962
78	0xbe1736ab	-0.14766948
79	0xbca86c65	-0.020559499
80	0x3e01e762	0.12685922
81	0x3ddb2bae	0.107016906
82	0xbe0977e3	-0.1342464
83	0x3e0b56bd	0.13607307
84	0x3e4feae2	0.20304444
85	0xbe0cbfa3	-0.13744979
86	0x3de87bf7	0.113517694
87	0xbca0cfb3	-0.019630289
88	0x3d8f4b73	0.06996813
89	0xbde2fa98	-0.11082953
90	0x3e1d12ec	0.1533925
91	0x3d13ace1	0.036053542
92	0x3d58ae53	0.052900624
93	0x3e0d3057	0.13787971
94	0x3e0699da	0.13144627
95	0xbe36748d	-0.17817898
96	0xbdb3125e	-0.08743738
97	0xbda7d23e	-0.081943974
98	0x3dd857b3	0.10563602
99	0x3e2513c5	0.16120823
100	0x3db1e302	0.086858764
101	0xbe010f11	-0.12603404
102	0x3e49f513	0.19722395
103	0xbd08ca86	-0.033396266
104	0x3e2ccbf3	0.16874675
105	0x3dd0f8af	0.10203683
106	0xbe16f5fd	-0.14742275
107	0x3c02c9c9	0.00798268
108	0xbe095fb4	-0.13415414
109	0xbdcb1527	-0.09916144
110	0xbdf43af4	-0.11925307
111	0x3e4cef42	0.20013145
112	0x3e2ae362	0.16688302
113	0xbc31c18d	-0.010849369
114	0x3d8afd6b	0.06786617
115	0xbdfb9ea5	-0.122861184
116	0x3cf42155	0.02980105
117	0xbdc71603	-0.09720995
118	0x3ce57026	0.028007578
119	0xbe52d962	-0.20590737
120	0x3e1cceee	0.15313312
121	0xbd0c122b	-0.034197014
122	0x3cfd2c2d	0.030904854
123	0xbe574707	-0.21023189
124	0xbdd891f9	-0.10574717
125	0x3e2e948a	0.1704885
126	0x3e19a57d	0.15004535
127	0x3d1e1867	0.03859749
128	0x3d950f6f	0.07278334
129	0x3e047ad8	0.12937486
130	0xbc5e7e79	-0.013579958
131	0x3e0b510d	0.13605137
132	0x3e03b583	0.1286221
133	0x3d093b88	0.03350404
134	0x3e313a54	0.17307407
135	0x3dd40e4f	0.10354292
136	0x3d81f041	0.06344653
137	0xbe170664	-0.14748532
138	0xbc27f13c	-0.010250386
139	0x3d89dd5e	0.067316756
140	0xbe22f1d4	-0.15912563
141	0xbe1740f8	-0.14770877
142	0x3e2597d4	0.16171199
143	0xbe363386	-0.17793092
144	0xbe49aae1	-0.19694091
145	0xbe06ce9b	-0.13164751
146	0x3e10149d	0.14070363
147	0x3dcf2ee7	0.10116368
148	0xbd5573db	-0.05211244
149	0x3dc4896b	0.09596523
150	0x3dc9480b	0.09828194
151	0x3da20ebb	0.07912966
152	0xbde4b430	-0.111671805
153	0xbe524316	-0.20533404
154	0x3d8d1988	0.06889635
155	0xbd8077bf	-0.0627284
156	0x3d97acd5	0.07406012
157	0xbd9388c8	-0.07203823
158	0x3dc1ce31	0.09463156
159	0xbe45d649	-0.19320025
160	0xbdd7bddc	-0.1053426
161	0xbe1b4d67	-0.15166245
162	0x3db58291	0.08862794
163	0xbe38d6a6	-0.18050632
164	0x3e0ade7b	0.13561432
165	0xbd9b2e71	-0.07577217
166	0x3e178d24	0.14799935
167	0xbe4dfbee	-0.20115635
168	0x3e42ff64	0.19042736
169	0x3e18af20	0.14910555
170	0x3e0ac1e1	0.13550521
171	0xbd4a7021	-0.04942334
172	0x3d3f6794	0.04672964
173	0xbe24f776	-0.16110024
174	0x3cc842ec	0.024445973
175	0xbe17de23	-0.14830832
176	0x3dc56aba	0.09639497
177	0x3ce3788e	0.027767446
178	0xbd1c69cc	-0.038186833
179	0xbe49d5a4	-0.19710404
180	0x3e558241	0.20850469
181	0xbe4d1c4c	-0.20030326
182	0xbd564886	-0.052315257
183	0x3e21b0e0	0.15790129
184	0xbe14e968	-0.14542162
185	0x3dca4611	0.09876645
186	0xbd9b4ba2	-0.07582785
187	0xbe2bd082	-0.16778758
188	0x3e294dff	0.1653366
189	0x3d19366a	0.03740541
190	0x3e526725	0.20547159
191	0x3d2a6484	0.041599765
192	0xbc0d0066	-0.008606052
193	0x3de7caea	0.11318
194	0x3e350366	0.17677078
195	0xbc86caf8	-0.016454205
196	0xbe32eb62	-0.17472604
197	0xbe31ae54	-0.17351657
198	0xbe10b4ac	-0.14131421
199	0xbe12fb93	-0.1435378
200	0xbb944f70	-0.0045260713
201	0xbe1becf8	-0.15227115
202	0x3c061e33	0.008185911
203	0xbdd49f87	-0.1038199
204	0xbe28210d	-0.16418858
205	0x3d78c783	0.060737144
206	0xbdaa03bb	-0.08301493
207	0xbe23a3d4	-0.15980464
208	0xbe21ea04	-0.15811926
209	0x3e19582c	0.14975041
210	0xbdb680d8	-0.08911294
211	0xbe4703df	-0.1943507
212	0x3d44e41c	0.048069105
213	0xbe5a7b69	-0.2133614
214	0xbe0f577f	-0.13998221
215	0x3d22d8a7	0.039757397
216	0x3db9c7aa	0.09071286
217	0x3e32a5b3	0.17446022
218	0xbd1e7285	-0.038683433
219	0x3e4ab569	0.19795765
220	0x3e4bd027	0.19903623
221	0xbe27788d	-0.1635458
222	0x3db980c0	0.0905776
223	0xbd674c53	-0.056469273
224	0x3e1b059b	0.15138857
225	0xbddec319	-0.10877056
226	0x3b8c08d6	0.0042735143
227	0x3e063430	0.13105845
228	0xbdeab110	-0.11459553
229	0xbe365dd8	-0.17809236
230	0x3e15ff06	0.14648065
231	0xbd5d6b64	-0.054057494
232	0x3e07ed2e	0.1327407
233	0xbd802fa8	-0.0625909
234	0xbd8919e0	-0.066943884
235	0xbcff4573	-0.031161046
236	0xbdd3370a	-0.10313232
237	0x3d871169	0.065951176
238	0x3d382989	0.044961486
239	0x3d4df12d	0.05027883
240	0x3df8fad4	0.12157217
241	0xbdef1212	-0.116733685
242	0x3e51318c	0.20429057
243	0xbcf7baba	-0.030240405
244	0xbe2a2ee1	-0.16619445
245	0x3e267689	0.16256155
246	0x3b935d82	0.004497231
247	0x3a8ce217	0.0010748532
248	0xbd9ba3d7	-0.07599609
249	0xbe0fd22c	-0.14045018
250	0xbdc0cf4f	-0.09414541
251	0x3e1c8f1b	0.15288965
252	0xbe3e8b91	-0.18607928
253	0x3d9cd53a	0.07657857
254	0x3dc9a51c	0.09845945
255	0xbe365f87	-0.17809878

0.bias f4 [64]
0	0xbe259723	-0.16170935
1	0xbdf03349	-0.11728532
2	0x3df186ff	0.117933266
3	0xbd06a5f3	-0.032873105
4	0x3ddc794c	0.10765323
5	0x3dc87274	0.09787455
6	0x3dab6a32	0.083698645
7	0x3d761a06	0.06008341
8	0x3e29a9b4	0.16568643
9	0x3e07af1f	0.13250397
10	0xbd6d1108	-0.05787757
11	0xbcd35355	-0.025796572
12	0xbe4eb11a	-0.20184746
13	0xbdebf998	-0.115222156
14	0xbe0dc153	-0.13843279
15	0xbe1ed4a0	-0.15510798
16	0x3e3b6aaf	0.18302415
17	0xbe336fd7	-0.17523132
18	0xbe2e7988	-0.17038548
19	0xbe440e21	-0.19146015
20	0x3cca740d	0.02471354
21	0x3d83e212	0.06439604
22	0x3e46b707	0.19405757
23	0xbdebed50	-0.11519873
24	0x3e28b701	0.1647606
25	0xbd1afb30	-0.037837207
26	0xbe225c26	-0.15855464
27	0x3e2d18a2	0.16903928
28	0x3c93a5db	0.018023422
29	0xbcaf2727	-0.021380974
30	0x3e10ce18	0.14141119
31	0x3d99ba05	0.075061835
32	0x3d0ba657	0.03409418
33	0x3e47e295	0.19520028
34	0x3cf2537d	0.029580826
35	0x3de28637	0.11060756
36	0x3d420f37	0.04737779
37	0x3e0dc9b4	0.13846475
38	0x3de08282	0.109623924
39	0xbe47faf3	-0.19529323
40	0x3e38eb97	0.1805862
41	0xbd89898c	-0.06715688
42	0xbdca4b7c	-0.09877679
43	0x3d77708b	0.060410064
44	0x3dca6059	0.09881658
45	0x3e4a9f44	0.19787318
46	0x3ca4d604	0.020121582
47	0x3e419565	0.18904646
48	0xbddb084f	-0.10694944
49	0xbe1a3312	-0.15058544
50	0xbd8003d1	-0.06250728
51	0xbd67ed0f	-0.05662256
52	0x3e512357	0.20423637
53	0xbd8e23ee	-0.06940447
54	0xbdead422	-0.114662424
55	0x3dcf5a7a	0.10124679
56	0xbdb5c466	-0.08875351
57	0x3e347542	0.17622855
58	0xbe0ef3f6	-0.13960251
59	0x3dfd3231	0.12363089
60	0x3de18985	0.11012558
61	0xbca8740e	-0.020563152
62	0x3e4352fd	0.19074626
63	0x3dafc749	0.085829325

2.weight f4 [64, 64]
0	0xbcadddf7	-0.021224005
1	0x3c9effb2	0.019409034
2	0xbc9b5cd3	-0.01896516
3	0x3caf3042	0.021385316
4	0xbc9d8585	-0.019228706
5	0x3deba106	0.11505322
6	0x3b8b54cf	0.0042520533
7	0x3c272cc4	0.010203544
8	0xbe0012d6	-0.12507185
9	0xbd0cf562	-0.034413703
10	0x3d980db7	0.07424491
11	0x3b9e1666	0.0048244474
12	0xbddac60d	-0.106823064
13	0x3d2ec227	0.042665627
14	0xbde948b3	-0.113908194
15	0xbce804f9	-0.028322684
16	0x3dc4483c	0.0958409
17	0x3d7fe781	0.06247664
18	0x3d0b90dd	0.0340737
19	0x3d27d232	0.040971942
20	0xbdb7ddaf	-0.0897783
21	0xbd55852d	-0.05212896
22	0xbbf19fc8	-0.0073737837
23	0x3d2e3215	0.04252823
24	0x3d2d9413	0.042377543
25	0x3caea973	0.021321034
26	0x3d852559	0.06501264
27	0xbdc186a0	-0.09449506
28	0x3dc9a322	0.09845568
29	0xbd9b5d15	-0.07586113
30	0xbd668c86	-0.056286357
31	0xbd3e52b3	-0.046465587
32	0xbd80fc76	-0.06298153
33	0x3da49e8d	0.08038054
34	0x3c8cc92e	0.017185774
35	0xbdec3ad4	-0.11534658
36	0x3dcbba0c	0.09947595
37	0x3db64b49	0.08901078
38	0x3dd919ea	0.10600646
39	0x3cd46605	0.025927553
40	0x3dde4637	0.10853236
41	0x3945c2ee	0.00018860001
42	0x3dcb02bb	0.0991263
43	0x3dbc3a1a	0.091907695
44	0x3dd715f8	0.10502237
45	0xbdadab89	-0.08479983
46	0xbdf34965	-0.11879233
47	0x3d3bc27a	0.045839764
48	0x3df44595	0.11927334
49	0xbd050fe0	-0.032485843
50	0x3cedacd9	0.029013084
51	0x3da579e8	0.080798924
52	0x3d36d2ce	0.044634633
53	0x3d20dc54	0.03927262
54	0x3d48582a	0.048912205
55	0x3b0b9fdc	0.0021305
56	0x3d4a83fc	0.049442276
57	0x3d479c22	0.048732884
58	0xbd4af168	-0.04954663
59	0x3c2b5408	0.010457046
60	0x3c13702c	0.008998912
61	0x3ddc1e36	0.1074795
62	0x3c9f9af7	0.019483073
63	0x3d7c75e7	0.061635878
64	0xbd3c2a15	-0.04593857
65	0xbda1cfdf	-0.079009764
66	0xbd88eb6d	-0.06685529
67	0x3df16569	0.117869206
68	0xbdced512	-0.10099234
69	0xbd863e87	-0.06554895
70	0xbde989a0	-0.11403203
71	0x3ca949dd	0.020665104
72	0xbd5357d0	-0.051597416
73	0xbc873cff	-0.016508577
74	0x3d6faeba	0.05851624
75	0xb9a0a586	-0.00030640903
76	0x3e03907f	0.1284809
77	0x3c9e7d6d	0.019346917
78	0xbc7665fa	-0.015038962
79	0x39b7213f	0.0003492925
80	0xbdba6fba	-0.091033414
81	0x3df7896d	0.12086759
82	0x3c43132c	0.011906426
83	0xbc1c1561	-0.0095265815
84	0xbcafbf9a	-0.021453667
85	0xbce6c1ea	-0.028168637
86	0x3cfece17	0.03110413
87	0xbd0c6bc7	-0.034282472
88	0x3d6b8e8f	0.057509
89	0xbd653585	-0.055959243
90	0xbde4a67d	-0.111645676
91	0x3d6a6ed2	0.057234593
92	0x3d9b0d2a	0.0757087
93	0x3e01c45a	0.12672558
94	0xbdc2b366	-0.09506874
95	0x3d8545f5	0.06507484
96	0x3cec15f9	0.028819071
97	0xbcd82c18	-0.026388213
98	0x3de0e158	0.10980481
99	0xbdcc4b88	-0.09975344
100	0xbc337939	-0.010954195
101	0x3d97276f	0.07380568
102	0xbdd6504c	-0.10464534
103	0xbdaa837b	-0.08325859
104	0x3ccb6978	0.024830565
105	0x3d95f0d2	0.073213235
106	0xbdf8c4c6	-0.121469066
107	0xbcb0bc8d	-0.021574283
108	0x3c9872b1	0.018609377
109	0x3dc5c0eb	0.09655937
110	0x3daa026c	0.08301243
111	0xbde53638	-0.11191982
112	0xbd9ab825	-0.07554654
113	0x3d9ca8f0	0.0764941
114	0xbdbae12c	-0.091249794
115	0xbda42aa8	-0.080159485
116	0xbdab1a16	-0.08354585
117	0xbc900083	-0.017578369
118	0xbd6616ba	-0.056174017
119	0x3c489420	0.012242347
120	0x3db7cc23	0.08974483
121	0xbc9bf6c8	-0.019038573
122	0x3d9ba553	0.075998925
123	0xbdd43832	-0.10362281
124	0xbded0673	-0.11573496
125	0xbccaaebd	-0.024741525
126	0x3d71eabf	0.059061762
127	0x3d0c21d6	0.034211956
128	0xbde3f61c	-0.11130926
129	0x3ca1bd66	0.019743633
130	0xbdd7923f	-0.10525941
131	0x3d4844b6	0.048893653
132	0xbc1f87ec	-0.009736996
133	0x3c3452ec	0.011006098
134	0xbb41945c	-0.0029537892
135	0xbd1609a2	-0.03663028
136	0xbd1428bc	-0.03617166
137	0x3d866c71	0.06563652
138	0x3d9b8849	0.07594354
139	0x3d342ab3	0.043986034
140	0xbdabcc7c	-0.08388612
141	0x3d91e238	0.07123226
142	0xbd016955	-0.031594593
143	0x3da2707f	0.07931613
144	0x3ccd5871	0.025066586
145	0xbcd04862	-0.02542514
146	0xbcb1a33e	-0.021684285
147	0xbd34671d	-0.04404365
148	0x3d382778	0.044959515
149	0x3c0e705b	0.00869378
150	0xbb794b42	-0.0038039242
151	0x3c0d0da9	0.008609214
152	0x3d5cc01f	0.05389416
153	0x3d9cc12d	0.07654033
154	0xbd33ed34	-0.043927386
155	0xbd46b54c	-0.048512742
156	0x3d43c060	0.047790885
157	0x3c9ee813	0.019397771
158	0xbccc5e65	-0.024947355
159	0x3da1af13	0.07894721
160	0xbd86bf0f	-0.0657941
161	0x3dd33572	0.10312928
162	0xbd9adcb5	-0.07561628
163	0x3ccd3673	0.025050377
164	0x3d49a7b5	0.049232204
165	0x3db56966	0.08857994
166	0x3cd9c4f1	0.026583167
167	0xbdba09f9	-0.090839334
168	0x3da04861	0.07826305
169	0x3dd732b4	0.10507718
170	0xbd86a2dc	-0.06574032
171	0x3c3e11a6	0.011600887
172	0xbc6bf3db	-0.014401401
173	0xbd8805f0	-0.066417575
174	0x3d194a7d	0.037424553
175	0x3dbed72e	0.09318386
176	0xbdf34cac	-0.118798584
177	0x3db784ac	0.08960852
178	0xbd7f4db7	-0.062329974
179	0x3d761b54	0.060084656
180	0x3b4d55c9	0.003133165
181	0x3d793d98	0.060849756
182	0x3d9372bb	0.071996175
183	0xbdaf0da0	-0.08547521
184	0x3dc5dc5c	0.09661171
185	0xbdabc181	-0.08386517
186	0x3df0ef0a	0.11764343
187	0xbdae6fb9	-0.08517403
188	0xbd9287bd	-0.07154796
189	0xbd2e5ba3	-0.04256786
190	0xbcaca3b7	-0.02107416
191	0xbd281302	-0.041033752
192	0x3c68cea7	0.014209426
193	0xbd77e128	-0.06051746
194	0xbd0c3a04	-0.034235016
195	0x3d55521b	0.052080255
196	0x3da3e8de	0.080034
197	0x3c5c4018	0.0134430155
198	0x3d906202	0.070499435
199	0x3dde67c3	0.10859635
200	0x3db22a2f	0.08699452
201	0xbda95102	-0.08267404
202	0xbda41cbc	-0.08013293
203	0xbd268d7a	-0.040662266
204	0xbd9491d3	-0.07254376
205	0x3c973e51	0.018462332
206	0xbc310b34	-0.010805894
207	0xbd55a581	-0.05215979
208	0x3de7629a	0.11298104
209	0x3d9f1283	0.07767203
210	0xbde214fd	-0.110391594
211	0xbc24d803	-0.010061267
212	0x3db5e89b	0.088822566
213	0x3da4a5c1	0.080394275
214	0xbdd14f6d	-0.102202274
215	0xbcca5dbb	-0.024702897
216	0xbc3ae464	-0.011406992
217	0xbdd0ebb8	-0.1020121
218	0xbdb2fe63	-0.08739927
219	0xbca9fd56	-0.020750683
220	0xbbc736b6	-0.00607952
221	0xbd43b978	-0.0477843
222	0x3d0ce52f	0.034398254
223	0x3dc81937	0.09770434
224	0x3dad43ee	0.08460222
225	0xbd6842c0	-0.056704283
226	0xbd6e48e9	-0.058175
227	0xbcb1389f	-0.021633444
228	0x3d8225f1	0.06354893
229	0x3a51ad79	0.0007998567
230	0x3d3aec60	0.04563558
231	0x3c4e989c	0.012609627
232	0x3dbf4220	0.09338784
233	0x3d0e4081	0.034729484
234	0xbdeaa59f	-0.11457371
235	0xbbe7ccaa	-0.0070739584
236	0xbd002fe5	-0.031295676
237	0x3bd07212	0.0063612545
238	0xbdb42b31	-0.087973006
239	0x3d9b4399	0.075812526
240	0xbc84137d	-0.016122574
241	0xbd4314f2	-0.047627397
242	0x3dd676a2	0.10471846
243	0xbde6d27b	-0.11270615
244	0x3da70ecf	0.081571214
245	0xbdfbd50b	-0.12296494
246	0x3d33e5a5	0.043920178
247	0xbc56bfc7	-0.013107247
248	0xbcc9185f	-0.024547754
249	0x3cd5b593	0.026087558
250	0xbc42a5d6	-0.011880359
251	0xbd9930d6	-0.07480018
252	0xbdf094b9	-0.117471166
253	0xbe04f834	-0.12985307
254	0x3d77e33a	0.060519435
255	0xbdd59f1e	-0.1043074

2.bias f4 [64]
0	0xbdeec232	-0.116581336
1	0xbd2166aa	-0.03940455
2	0xbd99b189	-0.07504565
3	0xbd6406d7	-0.055670585
4	0xbd437556	-0.047719322
5	0xbd9f2de5	-0.077724256
6	0xbca29df1	-0.019850703
7	0x3dc48061	0.09594799
8	0x3d23ef21	0.040022973
9	0xbdebe188	-0.11517626
10	0xbd56b4c2	-0.052418478
11	0x3d978f83	0.074004196
12	0x3daf2668	0.08552247
13	0x3d94c726	0.07264547
14	0x3de7fd96	0.113276646
15	0x3c69da62	0.014273258
16	0x3df12339	0.11774296
17	0x3ca6a842	0.020343903
18	0x3ce4b35d	0.027917558
19	0x3df0cc67	0.11757737
20	0xbd9ac149	-0.075563975
21	0xbbad5ca3	-0.005290584
22	0x3d97514e	0.073885545
23	0xbd915784	-0.070967704
24	0xbde7f726	-0.11326437
25	0xbde190e2	-0.11013962
26	0x3ddcd366	0.107825086
27	0x3da41e31	0.08013571
28	0x3de8fcc6	0.11376338
29	0x3d82cfa6	0.06387262
30	0xbdaf42b6	-0.08557646
31	0xbde765ed	-0.11298738
32	0x3d42f11b	0.047593217
33	0x3df7bb3b	0.12096258
34	0xbd1c2d95	-0.038129408
35	0xbc65da96	-0.014029166
36	0x3dca0a08	0.098651946
37	0x3d207aa8	0.039179474
38	0xbd5c6990	-0.05381161
39	0xbc1906b9	-0.009339982
40	0xbd7ad849	-0.06124142
41	0xbdbd6540	-0.092478275
42	0x3d88a6bb	0.06672426
43	0x3c83c03c	0.016082875
44	0x3d400bd8	0.046886295
45	0x3d1e4d69	0.038648043
46	0xbd2272a5	-0.039660115
47	0x3d4a75bd	0.04942869
48	0x3ce79627	0.02826984
49	0x3d8a73a4	0.06760338
50	0x3c4dfe00	0.012572765
51	0xbdcdffc5	-0.1005855
52	0x3d0549b9	0.03254101
53	0x3d980457	0.07422703
54	0xbb4c9753	-0.0031218126
55	0x3de85737	0.1134476
56	0x3dbe197a	0.09282203
57	0x3c112a6d	0.008860213
58	0xbd983dff	-0.074337
59	0x3db3a4dc	0.08771679
60	0x3de38f88	0.11111361
61	0x3b9e9c7f	0.004840433
62	0x3dca9c8f	0.098931424
63	0x3c11b0fc	0.008892294

4.weight f4 [1, 64]
0	0xbda8200d	-0.08209238
1	0x3d8791b5	0.06619588
2	0xbc8eeedf	-0.017447887
3	0xbc1fcaab	-0.00975291
4	0xbd014d98	-0.03156814
5	0xbc881a32	-0.016614053
6	0x3d9ee959	0.07759351
7	0x3d07dc25	0.03316893
8	0xbd7d947b	-0.06190918
9	0xbcf85161	-0.030312242
10	0x3daf5048	0.08560234
11	0xbdc988a5	-0.09840516
12	0xbcb94c77	-0.02261947
13	0x3da0bd51	0.07848609
14	0x3dcfecca	0.10152586
15	0x3d0f2bfe	0.034954064
16	0x3d53d1c1	0.05171371
17	0xbc76412e	-0.0150301885
18	0xbdb3a0e9	-0.087709256
19	0xbcc5e1f1	-0.024155589
20	0x3cadf7aa	0.02123626
21	0x3c5a2c08	0.013316162
22	0x3dc064fe	0.09394263
23	0x3dc76fac	0.097380966
24	0x3db87fb8	0.090087354
25	0x3de5411a	0.11194058
26	0xbd8bc6c7	-0.06825023
27	0x3dacec09	0.08443458
28	0x3db77881	0.08958531
29	0x3c1633a3	0.009167585
30	0x3d8a1fb4	0.06744328
31	0x3cd5067d	0.02600407
32	0xbd568642	-0.052374132
33	0xbddebc74	-0.10875788
34	0x3da8cbca	0.08241995
35	0x3d095adf	0.033533927
36	0x3d9c3768	0.076277554
37	0xbd97ec67	-0.07418137
38	0xbc4037dd	-0.011732069
39	0xbba09016	-0.004899989
40	0x3cfdad64	0.030966468
41	0xbc7bddc6	-0.015372699
42	0xbcbf8d65	-0.023382852
43	0x3c37371f	0.0111825755
44	0x3cff43fa	0.031160343
45	0x3df26a5a	0.11836691
46	0x3b807f7e	0.0039214483
47	0x3dc2273d	0.0948014
48	0x3ca14f17	0.019691033
49	0xbd3ab43a	-0.045582034
50	0xbcc24570	-0.023714751
51	0xbd97e353	-0.074164055
52	0xbd85727c	-0.06515977
53	0x3d8a2692	0.06745638
54	0x3d8d4b5d	0.0689914
55	0xbdd07602	-0.10178758
56	0x3c3e002f	0.011596723
57	0x3dba9970	0.09111297
58	0xbc03ce9d	-0.008044866
59	0xbdb32596	-0.08747403
60	0x3c2bc7b4	0.010484625
61	0x3d7d76fd	0.061881054
62	0x3db25a00	0.087085724
63	0x3d190d72	0.037366338

0.weight f4 [64, 22]
0	0x3e16d6cc	0.14730376
1	0xbe1eb7b3	-0.15499763
2	0xbd6fa3c3	-0.058505785
3	0xbdee58c5	-0.11638025
4	0xbd7979fc	-0.06090735
5	0xbda3c49f	-0.07996487
6	0x3d8a0e8a	0.06741054
7	0x3d390da7	0.045179036
8	0x3e170232	0.14746931
9	0xbda8b17d	-0.08236978
10	0x3cfba4f0	0.030718297
11	0x3e29bce9	0.1657597
12	0xbdbe0c76	-0.092797205
13	0xbe29b9f7	-0.16574846
14	0x3e08059e	0.13283393
15	0xbd76a365	-0.06021442
16	0x3cfcbd60	0.03085202
17	0xbc4d78be	-0.012540994
18	0xbd01832e	-0.031619243
19	0xbdd1ee9f	-0.102505915
20	0x3e040816	0.1289371
21	0xbe1ecf17	-0.15508686
22	0x3df1db00	0.11809349
23	0x3caf4361	0.021394433
24	0xbd22e825	-0.03977217
25	0x3d396076	0.045258008
26	0x3ccab0bc	0.024742477
27	0xbd8a5a9e	-0.06755565
28	0xbe51ee8f	-0.20501159
29	0x3def3a94	0.11681095
30	0xbdafc806	-0.08583073
31	0xbdd8e650	-0.105908036
32	0x3d5ddb06	0.054163955
33	0x3c542ba3	0.012949857
34	0x3ddd9726	0.10819845
35	0x3d951751	0.07279838
36	0xbdc81389	-0.09769351
37	0x3dd27640	0.10276461
38	0x3e2b687a	0.16739073
39	0x3ba593ff	0.005053043
40	0x3d4f3239	0.050585005
41	0x3e3e0529	0.18556656
42	0x3e509a76	0.20371422
43	0x3d2f57e1	0.042808417
44	0x3dd5e61c	0.104442805
45	0xbdccd3f5	-0.10001365
46	0xbe0f63f3	-0.14002971
47	0x3da524c5	0.08063654
48	0x3e0d7e73	0.13817768
49	0xbb80d1fd	-0.0039312826
50	0x3e199c9d	0.1500115
51	0x3dd582b0	0.10425317
52	0xbc9de620	-0.019274771
53	0xbe424c29	-0.18974365
54	0x3e405333	0.18781738
55	0xbde8125d	-0.113316275
56	0x3c92bfc4	0.017913707
57	0xbe3d7087	-0.18499957
58	0x3d44fc1d	0.048091996
59	0xbdcea28e	-0.100895986
60	0x3db89b85	0.09014038
61	0xbbaa4598	-0.0051962845
62	0xbd513da6	-0.051084183
63	0xbe54b178	-0.20770824
64	0xbd6c68fc	-0.05771731
65	0x3dd65198	0.104647815
66	0x3ddd99dd	0.10820363
67	0xbe49b385	-0.19697388
68	0xbe283c17	-0.16429172
69	0x3e5557ad	0.20834227
70	0xbde21caa	-0.110406235
71	0xbe1d351c	-0.15352291
72	0x3e4ac54d	0.19801827
73	0xbdd775c6	-0.105205104
74	0xbe1962f4	-0.14979154
75	0xbd9d44d8	-0.076791465
76	0xbe164d36	-0.14677891
77	0xbdb77b76	-0.08959095
78	0x3e12cf08	0.14336789
79	0xbe06be0e	-0.13158438
80	0xbdf5c092	-0.119996205
81	0x3e344391	0.176039
82	0x3cdfe629	0.027331429
83	0x3dee6bf5	0.11641685
84	0x3e1f954f	0.155843
85	0xbd002e8d	-0.031294394
86	0xbe213745	-0.1574374
87	0x3e26348d	0.16230984
88	0xbc088e1d	-0.008334664
89	0xbe0c6ad4	-0.13712627
90	0xb9c46ec3	-0.00037466557
91	0x3cd9e205	0.026597032
92	0xbd2553e9	-0.040363226
93	0xbc55ea8f	-0.013056411
94	0xbe2ab86a	-0.16671911
95	0x3c1ff694	0.009763379
96	0x3dbbc0dd	0.09167645
97	0xbdb6e3ad	-0.089301445
98	0xbdcb7827	-0.099350266
99	0xbe08577c	-0.13314623
100	0xbdd4efc6	-0.10397296
101	0xbe08f0d8	-0.13373125
102	0x3dc0f17c	0.094210595
103	0x3e23c843	0.15994363
104	0x3e61b6f6	0.2204245
105	0xbc38aef6	-0.011272183
106	0xbe167d5a	-0.14696255
107	0xbd8dace9	-0.069177456
108	0xbe541dc8	-0.20714486
109	0xbbc19ca4	-0.0059085656
110	0x3e528ecc	0.20562285
111	0x3e4f8db8	0.20268905
112	0x3d8aab78	0.06770986
113	0xbe3d655c	-0.18495697
114	0xbe111786	-0.1416913
115	0xbe1cd5f0	-0.15315986
116	0x3d97bd7e	0.0740919
117	0xbc5f2a9a	-0.013620997
118	0xbe4dbf1e	-0.20092437
119	0xbd6639f5	-0.056207616
120	0xbe0ffbd5	-0.1406091
121	0x3dd2b0c9	0.10287625
122	0xbe1afc50	-0.15135312
123	0xbe47342c	-0.19453496
124	0x3e13c9d0	0.14432454
125	0x3d4abeaa	0.049498238
126	0x3e2461dd	0.16052957
127	0xbd47f871	-0.048820917
128	0x3dcfea4e	0.10152112
129	0xbdb65699	-0.08903236
130	0xbe2a9678	-0.16658962
131	0x3dd2e1bd	0.102969624
132	0xbc026175	-0.007957806
133	0xbe44ba51	-0.19211699
134	0xbe4cc530	-0.19997096
135	0x3d820609	0.06348807
136	0xbe2f6cd0	-0.17131352
137	0xbe0f9394	-0.1402114
138	0x3e03e04a	0.12878528
139	0xbd2a05d1	-0.041509453
140	0xbd568101	-0.05236912
141	0x3e05e699	0.13076247
142	0x3e27e9df	0.16397808
143	0x3da8b62a	0.0823787
144	0xbd05dd2b	-0.032681625
145	0xbe346ac1	-0.17618848
146	0x3d302822	0.043007024
147	0xbe1a051f	-0.15041016
148	0xbd8c5757	-0.06852596
149	0x3cd2bed1	0.025725754
150	0x3db2cc4a	0.08730371
151	0xbe0c4545	-0.13698299
152	0xbe2d3a31	-0.1691673
153	0x3e1db682	0.15401652
154	0xbe400429	-0.18751587
155	0x3e2dd39b	0.16975252
156	0xbe622518	-0.22084463
157	0xbde7e96c	-0.113238186
158	0xbdd954c7	-0.10611873
159	0x3e2a77ee	0.16647312
160	0x3d3fbede	0.046812885
161	0x3dc1a3a1	0.09455038
162	0x3debc1b7	0.115115575
163	0x3d9aa800	0.07551575
164	0x3d7d35b9	0.061818812
165	0x3e41e0e9	0.18933453
166	0x3e635a23	0.22202353
167	0xbe2c6567	-0.16835557
168	0x3e3aa426	0.1822668
169	0xbde964ee	-0.11396204
170	0x3df983e1	0.12183357
171	0x3e3e6edc	0.18596977
172	0xbe3b3465	-0.18281706
173	0xbe3b9056	-0.18316779
174	0x3d0d1c02	0.03445054
175	0x3e424086	0.18969926
176	0xbdbea423	-0.0930865
177	0x3e01ae5e	0.12664172
178	0xbdbee139	-0.093203016
179	0x3e0fb56b	0.14034049
180	0x3b91b4dc	0.004446609
181	0xbe122fd0	-0.14276052
182	0xbda7e4a6	-0.08197908
183	0x3e45374a	0.19259372
184	0xbe52e00a	-0.20593277
185	0x3e4a90bc	0.19781774
186	0xbdb2a30c	-0.08722505
187	0x3e0e2d4f	0.13884471
188	0x3c763d1c	0.015029218
189	0xbd9f04a5	-0.07764558
190	0x3e45cda8	0.19316733
191	0x3d803820	0.06260705
192	0xbe2d9e41	-0.169549
193	0x3e5538f0	0.20822501
194	0x3e1d25c6	0.1534644
195	0x3deac936	0.11464159
196	0x3dcffd3e	0.10155724
197	0x3e33d592	0.1756194
198	0x3e1e666c	0.15468758
199	0x3e3c2614	0.183739
200	0xbe199023	-0.1499639
201	0xbd90266f	-0.070385806
202	0x3dd44a87	0.103657775
203	0x3d7b4aee	0.061350755
204	0x3ddfc965	0.10927085
205	0xbd2e50d2	-0.042557545
206	0xbdaabdd9	-0.08336992
207	0x3d601d7f	0.05471563
208	0xbd0c7a3d	-0.034296263
209	0xbe497657	-0.1967405
210	0x3e4d3377	0.20039164
211	0xbdb530f8	-0.08847231
212	0x3d928441	0.07154132
213	0x3e2d3fd8	0.16918886
214	0x3da22334	0.07916871
215	0x3d4b99f5	0.04970737
216	0x3e415075	0.18878348
217	0x3cc4a124	0.02400262
218	0xbe467098	-0.19378889
219	0x3e09d742	0.1346102
220	0xbe2ca4fb	-0.1685981
221	0xbcf72df1	-0.030173274
222	0x3db57b56	0.08861415
223	0xbae71818	-0.0017631082
224	0xbe36bb1d	-0.17844816
225	0x3d1d1316	0.03834828
226	0x3e227f55	0.15868886
227	0xbdd22d0a	-0.10262497
228	0x3d7b1e4b	0.061308187
229	0xbcb0fffa	-0.021606434
230	0x3dac4705	0.084119834
231	0xbdbbe961	-0.09175373
232	0xbe4b6c38	-0.19865501
233	0xbe47022e	-0.19434425
234	0xbe571ead	-0.21007796
235	0x3d04375f	0.03227937
236	0xbe0c6a53	-0.13712434
237	0x3ce89ea3	0.028395956
238	0x3dcba96c	0.09944424
239	0x3e14d95c	0.14536041
240	0x3e45fdae	0.19335052
241	0x3e42599f	0.189795
242	0x3b5f0073	0.0034027367
243	0xbe01035d	-0.12598939
244	0x3e203af0	0.15647483
245	0xbe2f21a6	-0.1710268
246	0x3d0d0816	0.03443154
247	0x3e33b81e	0.17550704
248	0x3d186086	0.037201427
249	0x3d488e08	0.048963577
250	0x3cf40e82	0.029792074
251	0xbd6a582e	-0.057213
252	0xbe01a12f	-0.12659143
253	0xbe089d32	-0.13341215
254	0xbe5728d5	-0.2101167
255	0x3d936ad7	0.071981125

0.bias f4 [64]
0	0xbd335319	-0.04378042
1	0xbdef23ce	-0.11676751
2	0xbdd4cded	-0.1039084
3	0xbccd65b0	-0.025072902
4	0x3dbfc408	0.09363562
5	0xbd283970	-0.0410704
6	0xbdcafa1d	-0.099109866
7	0xbd96f357	-0.07370632
8	0x3d89bfb7	0.0672602
9	0x3e0502a1	0.12989284
10	0xbe256743	-0.16152672
11	0xbd87796e	-0.06614958
12	0x3d57f3ed	0.05272286
13	0xbe434cce	-0.19072267
14	0x3e647a00	0.22312164
15	0xbdacb60d	-0.08433161
16	0x3e283122	0.16424993
17	0x3e2728b4	0.16324121
18	0x3b4f4a50	0.0031629987
19	0x3dff051d	0.12452147
20	0x3c00f0fb	0.007869954
21	0x3e08d490	0.13362336
22	0x3df2b0e8	0.118501484
23	0xbc2aadad	-0.010417384
24	0x3e298ebd	0.16558357
25	0xbe5ae718	-0.21377218
26	0xbdd372e7	-0.1032465
27	0x3e113749	0.14181246
28	0x3e3d8116	0.18506274
29	0xbd03ddf0	-0.032194078
30	0xbdd0bf98	-0.101927936
31	0x3e362a6c	0.1778962
32	0x3db0ad64	0.08626822
33	0x3d9a7199	0.07541198
34	0x3cdf25f6	0.02723978
35	0x3e206a43	0.15665536
36	0xbdddfe64	-0.10839537
37	0xbd72f824	-0.059318677
38	0x3e2df6e8	0.16988719
39	0xbc3c7cd0	-0.011504367
40	0xbdeef76e	-0.11668287
41	0xbccdcc8e	-0.025121953
42	0xbdf9abd2	-0.12190975
43	0xbdb89262	-0.09012295
44	0xbe4d157e	-0.2002773
45	0x3c285ec9	0.010276505
46	0xbe40f399	-0.18842925
47	0x3dee9c56	0.116509125
48	0x3e46df16	0.19421038
49	0xbd0d237b	-0.034457665
50	0xbe31b66c	-0.17354745
51	0xbd415402	-0.047199257
52	0x3e34300e	0.17596456
53	0x3e25a2f6	0.16175446
54	0xbcd42ab9	-0.025899278
55	0x3e503bd9	0.2033533
56	0x3e2d3699	0.16915359
57	0x3b37b1c0	0.0028029531
58	0x3d13bb9b	0.036067586
59	0xbc966791	-0.018359931
60	0x3e3f3263	0.18671565
61	0x3e4a4205	0.19751747
62	0xbd2da9bb	-0.042398196
63	0x3de816de	0.113324866

2.weight f4 [64, 64]
0	0x3db80ce8	0.08986837
1	0xbd462032	-0.048370548
2	0x3da0ee5e	0.07857965
3	0xbdc5c6cd	-0.09657059
4	0x3cd9ad24	0.026571818
5	0xbcebb5b6	-0.02877317
6	0xbdbd4fcc	-0.09243736
7	0xbd15129d	-0.036394704
8	0xbc47f4ef	-0.012204393
9	0xbd8db9ca	-0.06920202
10	0xbdc583da	-0.09644289
11	0x3d7d2fbd	0.061813105
12	0xbd8d550f	-0.06900989
13	0xbcfcee9b	-0.030875495
14	0xbd6e2efc	-0.058150277
15	0x3d191b4f	0.03737956
16	0x3d0a192b	0.03371541
17	0xbd8d248f	-0.068917386
18	0xbd2f8450	-0.042850792
19	0x3cdfaaf6	0.0273032
20	0x3db0a6e4	0.08625582
21	0x3dbbae62	0.0916412
22	0xbd8a5d11	-0.06756032
23	0xbc90c7cb	-0.017673394
24	0x3d5f1d52	0.05447132
25	0x3cbbfab9	0.022946702
26	0x3deb5c54	0.114922196
27	0xbcabb88f	-0.020962028
28	0x3db67f72	0.08911027
29	0xbe0763cc	-0.13221663
30	0xbc672bd0	-0.014109567
31	0xbc9471a9	-0.018120604
32	0x3ba81840	0.005129844
33	0xbd331f20	-0.043730855
34	0x3d0da173	0.034577798
35	0x3da4c597	0.080455
36	0x3c06200b	0.008186351
37	0x3d1c74f4	0.038197473
38	0x3d055767	0.032554056
39	0xbde4813a	-0.111574605
40	0xbb2068eb	-0.0024476598
41	0xbb2bbd0a	-0.0026205205
42	0x3c7248f7	0.014787904
43	0xbd264e39	-0.040601943
44	0x3de716be	0.112836346
45	0xbd8cf1e5	-0.06882075
46	0x3d8526ca	0.06501539
47	0xbca606a4	-0.020266838
48	0xbd418a8b	-0.047251265
49	0xbddc90af	-0.10769784
50	0x3c050e53	0.008121091
51	0xbd0dd66f	-0.034628328
52	0x3c8a64e1	0.016893806
53	0x3d7e3ec5	0.06207158
54	0xbb29a409	-0.0025885126
55	0xbddefb1e	-0.108877406
56	0xbd2aa6d8	-0.04166302
57	0xbd09306b	-0.03349344
58	0x3dcd9782	0.100386634
59	0xbd9bd9a3	-0.0760987
60	0xbd90c83d	-0.070694424
61	0x3d5d3738	0.05400774
62	0xbdaa71c5	-0.08322481
63	0xbd0734e8	-0.03300944
64	0x3dbaa14d	0.09112797
65	0x3d99a609	0.07502372
66	0xbe089747	-0.13338958
67	0x3d336351	0.043795887
68	0x3d865cb0	0.065606475
69	0xbdd6cecf	-0.10488664
70	0xbdf14689	-0.11781032
71	0xbd87667b	-0.066113435
72	0xbd60c0d6	-0.054871403
73	0x3d37d81c	0.044883832
74	0xbde74a0b	-0.112934195
75	0xbc7b4a0d	-0.015337479
76	0x3dd1ae65	0.10238341
77	0xbc398d6a	-0.01132522
78	0xbdb9d3ea	-0.090736225
79	0x3c290592	0.0103162695
80	0xbdae0735	-0.084974684
81	0x3e0bcda1	0.1365266
82	0xbcb1cd81	-0.021704437
83	0xbdeacc65	-0.114647664
84	0x3d2e05c9	0.042485986
85	0x3df363ed	0.11884294
86	0xbdde1264	-0.108433515
87	0x3b77d7ea	0.0037817904
88	0xbc7ed216	-0.015553018
89	0x3db3231b	0.0874693
90	0x3d4bb495	0.049732763
91	0x3ba58f37	0.005052473
92	0x3df79b0b	0.12090119
93	0x3dceb510	0.10093129
94	0x3bb83b1b	0.0056222803
95	0xbd76ea76	-0.060282193
96	0x3ca2b76e	0.019862857
97	0x3e083f9c	0.13305515
98	0xbb180073	-0.0023193627
99	0x3c04238a	0.008065114
100	0x3d907c31	0.07054938
101	0xbdb6eb45	-0.08931593
102	0xbdd17105	-0.10226635
103	0x3d9fc489	0.07801158
104	0x3dd89162	0.105746046
105	0x3d293093	0.04130609
106	0x3daa707c	0.08322236
107	0xbd3e8350	-0.046511948
108	0xbdc48670	-0.095959544
109	0x3c225007	0.009906775
110	0x3d70d9a1	0.058801297
111	0x3dce846e	0.10083853
112	0x3ddbc574	0.107310206
113	0xbdac0170	-0.08398712
114	0xbcf6b5d1	-0.030115994
115	0xbd90f196	-0.07077329
116	0x3d81bd83	0.063349746
117	0xbcea5f56	-0.028609913
118	0xbdf471d5	-0.11935774
119	0x3e064c5e	0.1311507
120	0xbd586dd8	-0.05283913
121	0xbdea1de2	-0.11431481
122	0x3ddc5173	0.10757723
123	0xbb357e44	-0.0027693668
124	0x3ddbcbd1	0.10732234
125	0x3cdcc691	0.026950153
126	0x3d2186bf	0.039435145
127	0x3d5b9d1d	0.05361663
128	0xbddce147	-0.10785156
129	0x3ce070aa	0.027397472
130	0xbddf9343	-0.1091676
131	0x3d55f2a8	0.05223337
132	0xbceabc9a	-0.028654385
133	0x3d095d34	0.03353615
134	0xbd07b923	-0.033135545
135	0x3cb65704	0.02225829
136	0x3d362b8a	0.044475116
137	0xbcf8142c	-0.030283056
138	0x3c6eea93	0.014582294
139	0x3de4d999	0.11174316
140	0xbcd76808	-0.026294723
141	0xbdbcc57d	-0.092173554
142	0x3cab770e	0.020930793
143	0x3d44ae63	0.04801787
144	0x3d2bd5c1	0.0419519
145	0xbd3b991f	-0.045800325
146	0x3daa7731	0.08323515
147	0xbd913d8e	-0.07091819
148	0x3db0f964	0.086413175
149	0xbd905b70	-0.0704869
150	0xbc7c3399	-0.015393161
151	0x3d169c74	0.0367703
152	0xbd734ece	-0.059401326
153	0xbde26c29	-0.11055786
154	0x3d71c26a	0.0590233
155	0x3dfa6cf2	0.12227811
156	0xbca5f1ee	-0.020256963
157	0x3dd5bc95	0.1043636
158	0xbdfe32df	-0.12412047
159	0x3d9d4612	0.076793805
160	0x3d99e6dd	0.07514737
161	0x3d5a18c9	0.053246293
162	0xbdf90eb5	-0.12161008
163	0xbdb352cc	-0.087560266
164	0x3d5983e5	0.0531043
165	0xbd8da4aa	-0.06916173
166	0xbdc4f46f	-0.096169345
167	0x3dbf6e6e	0.09347235
168	0xbdb8bf61	-0.09020878
169	0x3ded2433	0.1157917
170	0xbdf96ba7	-0.12178736
171	0x399b1aec	0.00029583962
172	0xbd82113c	-0.063509434
173	0xbd85516a	-0.06509669
174	0x3e0a7d5d	0.13524385
175	0x3df27a1b	0.11839696
176	0x3d11f02b	0.035629433
177	0x3dc10293	0.09424319
178	0xbbcedf1e	-0.0063132187
179	0xbd2b1926	-0.04177203
180	0xbde3cd35	-0.111231245
181	0xbdc9bb0b	-0.09850129
182	0x3dd16d8b	0.10225972
183	0xbd5905a4	-0.052983895
184	0x3cd78118	0.026306674
185	0x3e014ced	0.12627001
186	0x3b205d7b	0.0024469781
187	0x3d2d7ca2	0.042355187
188	0xbdbb3aaf	-0.091420524
189	0xbd046ff5	-0.032333333
190	0x3c22a082	0.009925963
191	0x3c949b1f	0.018140374
192	0x3dece731	0.11567534
193	0xbccfceef	-0.025367228
194	0x3db233c9	0.087012835
195	0xbd3ddad7	-0.04635128
196	0xbd3ae66d	-0.045629907
197	0xbcf448d1	-0.029819878
198	0xbd119238	-0.035539836
199	0x3c85bb2e	0.016324606
200	0xbdb49c59	-0.088188834
201	0x3cf7d704	0.030253895
202	0x3dcc6e80	0.09982014
203	0xbc0b18d4	-0.008489806
204	0x3ca8c200	0.020600319
205	0x3d92c89f	0.07167172
206	0xbd133e28	-0.03594795
207	0xbdccb4a7	-0.09995394
208	0x3cfa8f87	0.030586017
209	0x3d6e3ca5	0.058163304
210	0xbd8cc1ea	-0.06872924
211	0x3dba4ad3	0.09096303
212	0x3de337ed	0.11094651
213	0xbb86ddd4	-0.0041157994
214	0xbd973f6b	-0.07385143
215	0x3c9adce7	0.018904163
216	0xbde5e773	-0.11225786
217	0x3bfe712b	0.0077649555
218	0x3d85125b	0.06497642
219	0xbd98fd16	-0.07470147
220	0xbd9136ea	-0.07090552
221	0x3ca1bf94	0.019744672
222	0xbd400349	-0.046878133
223	0xbd86ce37	-0.06582301
224	0x3c802854	0.01564423
225	0x3d9a8972	0.07545747
226	0xbb7b41c1	-0.0038338753
227	0x3df0d2fe	0.117589936
228	0x3dfa68a4	0.1222699
229	0xbd677117	-0.056504335
230	0x3c28f824	0.010313068
231	0xbd22273b	-0.039588194
232	0xbd8b8128	-0.06811744
233	0x3cbd753b	0.023127189
234	0x3e062d63	0.13103251
235	0xbdcad8f3	-0.09904661
236	0x3d77ba76	0.060480557
237	0xbde5d37f	-0.1122198
238	0xbdd98fc4	-0.10623124
239	0x3d812e95	0.06307713
240	0xbdec6703	-0.115430854
241	0xbda76265	-0.08173064
242	0xbdb70069	-0.08935625
243	0xbdae8c29	-0.08522827
244	0x3cab64c0	0.020922065
245	0x3d9ceb44	0.07662061
246	0xbd9b3605	-0.07578663
247	0x3dff5ffc	0.124694794
248	0xbd76aedd	-0.060225356
249	0xbd1310cf	-0.0359047
250	0xbd88e850	-0.06684935
251	0x3ce4bb1f	0.027921258
252	0xbda38317	-0.07983988
253	0x3e00d6db	0.12581961
254	0xbd99a266	-0.07501678
255	0x3c65ef64	0.014034126

2.bias f4 [64]
0	0xbdb704b9	-0.08936448
1	0x3d1d8def	0.038465437
2	0xb89a8091	-7.3672396e-05
3	0xbdc84aad	-0.09779868
4	0x3dd83a33	0.105579756
5	0x3dfd1d60	0.123591185
6	0x3d981b62	0.07427098
7	0xbdd33748	-0.103132784
8	0x3d770646	0.060308717
9	0x3cc3d0d1	0.023903282
10	0xbca86871	-0.020557614
11	0xbda734b7	-0.081643514
12	0xbb3b3dbc	-0.0028570732
13	0x3d857652	0.065167084
14	0x3dea2141	0.11432124
15	0x3de1ee51	0.11031783
16	0xbdd86336	-0.10565798
17	0x3d7de8bb	0.061989527
18	0x3c8135c0	0.0157727
19	0x3d938489	0.072030134
20	0x3e07227f	0.13196753
21	0x3d13eba3	0.036113393
22	0x3d10d36f	0.03535789
23	0x3d21496d	0.039376665
24	0xbdc45c20	-0.09587884
25	0x3d2d8806	0.04236605
26	0xbc85131c	-0.016244464
27	0x3db679c3	0.08909943
28	0x3d16de9a	0.036833383
29	0xbdd3d58f	-0.103434674
30	0xbdf2f1d7	-0.118625335
31	0xbd6df6ea	-0.058096804
32	0x3cc3ffc6	0.023925673
33	0x3d69c133	0.057069015
34	0x3cd17c06	0.025571834
35	0xbdc013a6	-0.09378748
36	0x3c9dcde8	0.019263223
37	0xbdcc4a53	-0.09975114
38	0x3d096bdc	0.03355013
39	0xbdb151c6	-0.08658175
40	0xbc9cde4c	-0.019148968
41	0xbbd2451d	-0.0064169304
42	0x3dffdd1d	0.12493346
43	0xbbcc39ca	-0.006232475
44	0x3d1680bf	0.036743876
45	0x3ca2c224	0.019867964
46	0x3ce5400e	0.027984645
47	0x3e09cd6c	0.13457268
48	0x3bf87b22	0.007583038
49	0x3dbff6db	0.09373256
50	0xbd98458c	-0.0743514
51	0xbcd7d857	-0.026348276
52	0x3d8c6e68	0.06856996
53	0xbdc8c249	-0.09802682
54	0xbdad6e97	-0.08468359
55	0xbdf379d4	-0.11888471
56	0xbdb0a1bf	-0.086246006
57	0x3ccaa265	0.024735639
58	0x3d89fbfe	0.06737517
59	0x3be6b4c1	0.0070405905
60	0xbc4eb6b9	-0.012616807
61	0x3de5201c	0.11187765
62	0xbdbbac26	-0.09163694
63	0x3d815fc0	0.06317091

4.weight f4 [1, 64]
0	0xbd85e7f3	-0.065383814
1	0x3da7f316	0.08200662
2	0xbdd67855	-0.1047217
3	0x3d929568	0.07157403
4	0xbdb8a41a	-0.09015675
5	0x3cd2b2c3	0.025720006
6	0xbcabec4a	-0.020986695
7	0xbde4c174	-0.11169711
8	0xbdab059f	-0.083506815
9	0x3db95eaa	0.09051259
10	0xbccf5de8	-0.025313333
11	0x3cf630ca	0.030052561
12	0xbdf44349	-0.11926896
13	0xbc4edc7e	-0.012625812
14	0x3d2a39d7	0.041559067
15	0xbd9c667a	-0.07636733
16	0x3dc0fee7	0.09423619
17	0xbda13b6f	-0.07872664
18	0xbdc4631a	-0.095892146
19	0x3e021c8f	0.12706207
20	0x3ca030e2	0.01955456
21	0x3ccfae9a	0.025351811
22	0xbd2cc9de	-0.042184703
23	0xbdc969c1	-0.09834624
24	0x3cc90cf1	0.024542304
25	0x3af448c1	0.0018637405
26	0x3defa9ca	0.117023066
27	0xbdc314b8	-0.09525436
28	0xbd318d20	-0.043347478
29	0xbd9b2b8d	-0.07576666
30	0xbce07a2f	-0.027402012
31	0xbdcf2f23	-0.101164125
32	0x3d75cef4	0.06001182
33	0x3dbde76a	0.09272654
34	0xbdaa472d	-0.08314357
35	0x3d8e5b6a	0.069510296
36	0x3de84980	0.11342144
37	0x3d75e151	0.06002933
38	0xbcc28a2a	-0.023747522
39	0xbd2cf2b7	-0.04222366
40	0x3df8faf8	0.121572435
41	0xbda32170	-0.07965362
42	0x3d097d5f	0.03356683
43	0xbdbab6b8	-0.09116882
44	0xbdc5fd7e	-0.096674904
45	0x3dbcb396	0.09213941
46	0x3db90596	0.090342686
47	0x3df079dc	0.11741993
48	0x3d2552b5	0.04036208
49	0x3d3290ce	0.043595128
50	0x3d69c724	0.05707468
51	0xbdebebbb	-0.115195714
52	0xbd8881dc	-0.06665394
53	0x3dc59eb6	0.09649412
54	0xbdb9fb1f	-0.09081101
55	0xbd330baa	-0.043712296
56	0xbdcc4562	-0.09974171
57	0x3d9afead	0.07568107
58	0xbd34bd25	-0.044125695
59	0xbd65e3c5	-0.05612542
60	0x3dd758da	0.10514994
61	0xbd742b4c	-0.059611604
62	0xbdddafd5	-0.10824553
63	0xbd623442	-0.05522562

exp_avg f4 [64, 22]
0	0xb82991ef	-4.042865e-05
1	0x38f00017	0.000114441085
2	0x37f1d5c9	2.882899e-05
3	0x38370dbe	4.36434e-05
4	0xb9baffde	-0.0003566732
5	0xb82dbf87	-4.1424788e-05
6	0xb8590544	-5.1741736e-05
7	0xb9db7261	-0.00041856154
8	0xb8305370	-4.2039377e-05
9	0x39951c96	0.00028440793
10	0x3867834b	5.5196968e-05
11	0x3989fadb	0.00026317578
12	0xb9c9a0a5	-0.00038457397
13	0xba1a30c6	-0.00058819016
14	0x3ace6f23	0.0015749674
15	0x3b61e318	0.0034467634
16	0x3a649a4f	0.00087205035
17	0x387eced7	6.0750954e-05
18	0xbbc65f38	-0.0060538314
19	0xbbb37071	-0.0054760505
20	0x398e4af4	0.00027140195
21	0x38f0a629	0.000114750415
22	0xb6a9af92	-5.0570316e-06
23	0x37736d93	1.4509441e-05
24	0x365e9911	3.3169674e-06
25	0x36c81b5b	5.963649e-06
26	0xb830e540	-4.2175176e-05
27	0xb6a5de3d	-4.943255e-06
28	0xb6edc292	-7.0858014e-06
29	0xb857962e	-5.139986e-05
30	0xb6d680dc	-6.392698e-06
31	0x3806b8f8	3.2120355e-05
32	0x36cc42bc	6.0874427e-06
33	0x38053775	3.176132e-05
34	0xb831ca1c	-4.2388318e-05
35	0xb8a3eeac	-7.816902e-05
36	0x394a3d07	0.00019286956
37	0x39de8fe2	0.0004245034
38	0x38eddd8d	0.00011342308
39	0x35b89706	1.3753022e-06
40	0xba46cbfd	-0.0007583497
41	0xba2e976f	-0.00066601386
42	0x37bc481d	2.2444927e-05
43	0x36caa9da	6.0398424e-06
44	0x3975cc4f	0.00023441132
45	0xba2cab5e	-0.0006586815
46	0xb9379b1d	-0.00017510024
47	0xb9855095	-0.00025427775
48	0x3b07a8a3	0.002069988
49	0x39829d9c	0.0002491296
50	0x39994ed0	0.00029241154
51	0x3b1d5951	0.0024009536
52	0x393b052f	0.00017835641
53	0xbada2322	-0.001664255
54	0xb9afa578	-0.00033501885
55	0xbac562e2	-0.0015059377
56	0x3b152108	0.0022755284
57	0x3b5bb0f7	0.0033522227
58	0xbc16be41	-0.0092006335
59	0xbca234ab	-0.019800505
60	0xbba4543a	-0.0050149234
61	0xb974e14c	-0.00023353583
62	0x3d0f4326	0.034976147
63	0x3d010eb0	0.031508148
64	0xbae9427d	-0.0017796304
65	0xba44c7ac	-0.000750656
66	0xb996d830	-0.00028771302
67	0x3a70e4dd	0.0009189377
68	0x3966c351	0.0002200727
69	0x39c557a5	0.00037640068
70	0xbb2eda07	-0.0026680247
71	0xb9a6a6e1	-0.00031786322
72	0xb9d24c45	-0.00040111147
73	0xbb5e9be4	-0.003396743
74	0xba1a3e0a	-0.00058838783
75	0x3b0b08cb	0.0021214958
76	0x39ec5d35	0.00045082872
77	0x3b2477e0	0.0025095865
78	0x38f49dbf	0.00011664209
79	0xbbc2e922	-0.0059482018
80	0x3c5950bf	0.01326388
81	0x3cbf5f69	0.023360925
82	0x3c116c9c	0.008875992
83	0x3abbb8ae	0.0014322007
84	0xbd32a81c	-0.043617353
85	0xbd5ddd64	-0.054166213
86	0xbb0c79a7	-0.0021434815
87	0xba5b4753	-0.0008364815
88	0x37fdbc04	3.0247502e-05
89	0xb98339a3	-0.0002502921
90	0x37c4743e	2.341915e-05
91	0xb922245c	-0.00015463069
92	0x39a64fb5	0.00031721374
93	0x378c689e	1.6738017e-05
94	0x390a1d4e	0.00013171622
95	0x3a8910c6	0.0010457269
96	0x3a5eec78	0.00085038645
97	0xb98f2f46	-0.00027310307
98	0xb7efde9d	-2.8594683e-05
99	0xba4d5811	-0.00078332523
100	0xba7db5bd	-0.0009678265
101	0x3aba2604	0.0014202003
102	0xba80fbde	-0.0009840687
103	0xbbaa8b82	-0.005204619
104	0xb9ba11de	-0.00035489997
105	0x3a352c77	0.0006911228
106	0x3b91a30b	0.004444485
107	0x3d39b3bd	0.045337427
108	0x3b667614	0.0035165595
109	0x3ac697bb	0.001515142
110	0x39a66732	0.00031738874
111	0xba77e5b7	-0.00094565324
112	0xb972286a	-0.00023093974
113	0xb9c38520	-0.00037292484
114	0x3b3b68b3	0.002859634
115	0x39b1acc6	0.00033888797
116	0x39df7a38	0.00042624935
117	0x3b64372c	0.0034822924
118	0x39fae46c	0.00047853903
119	0xbb168524	-0.0022967542
120	0xb9f1e043	-0.0004613419
121	0xbb19727d	-0.0023414188
122	0x3af9cfef	0.0019059161
123	0x3bad5647	0.005289826
124	0xbc593ee4	-0.013259623
125	0xbcdb06ab	-0.026736578
126	0xbc00f7d7	-0.00787159
127	0xba610fef	-0.0008585443
128	0x3d44385f	0.047905322
129	0x3d49d634	0.049276546
130	0xb9baff14	-0.00035666733
131	0xb9a71313	-0.00031866934
132	0x37440d08	1.1685544e-05
133	0xb853da9c	-5.0509916e-05
134	0xb70a9f98	-8.262599e-06
135	0xb7c720c5	-2.3737908e-05
136	0x3900dda0	0.00012289593
137	0x3760aac1	1.3391197e-05
138	0x37b2dea1	2.1322923e-05
139	0x394d3689	0.0001957064
140	0x38a23f16	7.7365126e-05
141	0xb8ceec0f	-9.866815e-05
142	0xb7b846c8	-2.196747e-05
143	0xb9358b46	-0.00017313389
144	0xb9871713	-0.00025766398
145	0x39dbe931	0.00041944676
146	0xba33e880	-0.00068629533
147	0xba7e7141	-0.0009706207
148	0xba0bca01	-0.000533253
149	0xb82c2554	-4.104276e-05
150	0x3aebc94b	0.0017989067
151	0x3ba5ae29	0.005056162
152	0x3a051372	0.0005076445
153	0x39750321	0.00023366186
154	0x38b4aa04	8.614737e-05
155	0xb983da91	-0.00025149112
156	0xb8476acd	-4.7544763e-05
157	0xb8dfde14	-0.00010674834
158	0x3a35333a	0.00069122354
159	0x38ac1834	8.206107e-05
160	0x390b58ad	0.00013289107
161	0x3a6a5d96	0.0008940337
162	0x38ec68fa	0.0001127291
163	0xba0af5c2	-0.0005300903
164	0xb8c256f2	-9.266836e-05
165	0xba0c6e3b	-0.0005357002
166	0x3a5c9270	0.0008414155
167	0x3ab0feb9	0.0013503648
168	0xbb4e8323	-0.003151127
169	0xbbf4c74b	-0.0074700466
170	0xbaf984f0	-0.0019036811
171	0xb8f87674	-0.00011847625
172	0x3c561a0d	0.013067734
173	0x3c31f36b	0.010861258
174	0xba0ea6bd	-0.0005441716
175	0xb8d36d79	-0.00010081655
176	0x37bfdd1a	2.2871933e-05
177	0xb903c5e3	-0.00012566852
178	0xb6f38425	-7.257348e-06
179	0xb88a8f8f	-6.607093e-05
180	0x397f4804	0.00024345523
181	0x37b2bacb	2.1306236e-05
182	0x3870051a	5.722521e-05
183	0x3a034398	0.00050073257
184	0x399b83cb	0.00029662097
185	0xb949c0e6	-0.00019240714
186	0xb8195a0d	-3.656191e-05
187	0xb9dad703	-0.00041740396
188	0xba24ff5b	-0.00062941544
189	0x3a6e6ec6	0.0009095486
190	0xba9b756f	-0.001186056
191	0xbb203d27	-0.0024450512
192	0xba6fb14a	-0.00091435446
193	0xb88eb0d0	-6.8040215e-05
194	0x3b66115f	0.0035105569
195	0x3c87c4c6	0.016573321
196	0x3accb15c	0.0015616822
197	0x3a2d4460	0.0006609615
198	0xb7ed5b5e	-2.8295148e-05
199	0x38b388c4	8.56086e-05
200	0x374cbe9a	1.2203725e-05
201	0x3831f3bd	4.2427087e-05
202	0xb9501ed2	-0.00019847907
203	0xb7e0c5e5	-2.6795033e-05
204	0xb85ae5bb	-5.2189203e-05
205	0xb9972cd6	-0.0002883437
206	0xb80aae7f	-3.3064276e-05
207	0x3915f5f5	0.00014301373
208	0x37c9acca	2.4041528e-05
209	0x392f0deb	0.00016694485
210	0xb9777572	-0.00023599507
211	0xba006718	-0.00048981747
212	0x3a847613	0.001010599
213	0x3b1be3e5	0.0023786959
214	0x3a2f3d94	0.0006684896
215	0xb7c28fcd	-2.3193565e-05
216	0xbb8cf8cf	-0.0043021212
217	0xbb609c63	-0.0034272901
218	0x390ad10e	0.00013238585
219	0xb7d787ad	-2.5693176e-05
220	0xb8b20c43	-8.489985e-05
221	0x39a2660e	0.00030975085
222	0x38033371	3.1280742e-05
223	0x39174420	0.0001442586
224	0xba3ebe02	-0.0007276238
225	0xb8aeddf7	-8.338311e-05
226	0xb937dc8b	-0.00017534399
227	0xba98e3d9	-0.0011664584
228	0xb9db464c	-0.0004182331
229	0x3a19920b	0.0005858249
230	0x38c5b98a	9.428251e-05
231	0x3a5ae4c8	0.0008350131
232	0x388b6925	6.647621e-05
233	0xbaf4cef2	-0.0018677397
234	0x3b741461	0.0037243592
235	0x3bfd3fd3	0.0077285557
236	0x3b15c416	0.0022852472
237	0x3937aaad	0.00017515822
238	0xbc5738cb	-0.013136099
239	0xbcc32ed8	-0.023826048
240	0xbaa15fc1	-0.0012311862
241	0xba0589f9	-0.0005094107
242	0x38592a31	5.1776125e-05
243	0xb9196fc7	-0.00014632857
244	0xb823d193	-3.905741e-05
245	0xb869ce72	-5.5743796e-05
246	0x39f2512b	0.00046218312
247	0x3865efa0	5.4821023e-05
248	0x3885b93e	6.376438e-05
249	0x3a0c6057	0.0005354932
250	0x383a4349	4.440852e-05
251	0xb9c2de93	-0.00037168394
252	0xb89cfcce	-7.485748e-05
253	0xb9b1cdaa	-0.00033913302
254	0x39fb914f	0.00047982714
255	0x3a4446ac	0.00074873376
