pipeline/Ankle_Controllers/agent_real_360.pth (torch, 854822 bytes, 27 tensors)

transformer_encoder.layers.0.self_attn.in_proj_weight f4 [108, 36]
00000000: fb12 8ebd 4d72 e73b dda8 76bd 9ae1 043e
00000010: 3ceb c2bd c109 b93d 997e 453e af65 6b3d
00000020: 0aca eabd 277a 173e 43ba 89bc 2745 abbc
00000030: ae6c 863c 2100 22be 3b08 a43d ec8d 223d
00000040: 66f2 cdbd fdf8 d8bd 0101 a53d fb84 f93c
00000050: 66ac ba3d ebbe 323b e1c0 1f3e 8779 afbd
00000060: 2657 28bd f83d d53d e4b6 d4bd 9d3d 3e3e
00000070: 241a 00be 008d bfbc f125 6dbd 987c 763d
00000080: a48b 093e e0d5 23be 9491 d7bb fe2f 1e3e
00000090: 14f9 bc3d 4fc6 08bd 7ba2 1ebe 6924 643c
000000a0: b2fd ef3b f34a 27be 1d6d ea3d 056c 96bc
000000b0: 6c34 a0bc d6fd 0fbe c772 4abe 348c bdbd
000000c0: 721a 0c3e a2f7 ac3b 8ff0 053e 1e45 13bc
000000d0: 87db 5e3d 8d91 573d d6f9 42be 6c94 6ebd
000000e0: 9516 bbbd f346 0cbc f567 1fbe 488f 89bd
000000f0: b896 053e af7b dc3d 1fef 33be febc 34be
00000100: e89b e73d ecad 2f3e 757d 47be c0a9 113e
00000110: 2e72 093e 8944 07be 012b 21bd c9be 153e
00000120: ad7f 4f3e a11a ccbd c72c d33d 2e26 94bd
00000130: f363 a2bd 173e 8a3d 9334 8ebc e69b 0a3d
00000140: e645 b73d cbe4 c13d 02f1 5fbd 1bcd 85bd
00000150: 57a4 a2bd a4de 27bd 23ca 633d 31b9 15be
00000160: fba3 9ebc 2f73 623d 5372 9fbd bbf7 5bbb
00000170: 29b3 de3d d3ca 113e 3c12 f9bd 4402 e1bd
00000180: 820e 4c3e a8b2 53bc 0965 473e cf9d b83d
00000190: 7afa e7bd cef1 30bd 7fe9 e7bd 4e75 0c3e
000001a0: 9db1 24be 3a89 453e 9baf 41be 04b7 b9bd
000001b0: 1d01 053e 7f9e f8bd 8cb3 d4bc 3ace f73d
000001c0: 50f0 29be f56e 0dbd f7c5 da3d 8b44 fd3d
000001d0: 6e5d be3d 3923 fc3d f16b f3bc ebe5 1cbc
000001e0: e6ce 15bd 47db 013d d1b9 203d cac6 3abe
000001f0: e79c 31be d7bc 4b3e 541b ff3c 1583 b83d
00000200: f8fe 0b3d 2981 343e 0f00 3bbe cebd 543d
00000210: bdc7 febc db5b eebc 8f41 9c3d 0728 0d3e
00000220: 1e1c 203e 8f8f bc3d 8662 063d 8b3f 463d
00000230: fc42 b03d 5759 4e3e b376 1b3e 6129 303e
00000240: acc9 53bd 6eb3 f5bd e1bc 07be 50e9 92bd
00000250: b897 3f3d 6497 07be 83a3 24be 8526 5e3d
00000260: 3597 9b3c ee78 9b3d a2c9 4abe 2978 2bbd
00000270: 190c 283e 94ac 20be b8b7 873d 0a6c 3bbe
00000280: deb3 b83d b69a aa3c 4b63 8dba c71f 373e
00000290: dc71 bcbd c4a6 413e 40eb 4a3d 9786 e63d
000002a0: ba85 1ebe 82a0 7a3d 9af3 593c daa9 413d
000002b0: d170 3e3e 9cb5 463e 6888 e0bd 5b1a 223e
000002c0: ad6c 903d 417c 0bbe bd31 36be 6b70 863d
000002d0: a7de 07bc 6a36 283d eddd 3bbe 3b58 cabc
000002e0: 2535 16be 8034 96bb dfe4 483e a07d 443e
000002f0: 4a90 853d 0f02 8cbd 25d9 423e 6f8e 20be
00000300: 92a4 8b3d 2e7b da3d cbf6 4fbe 51ff 8abd
00000310: 3eba 15be f792 4fbe dc40 233e 7de6 30be
00000320: c1be 003e 0b30 3cbe c0fe 1a3d 3876 09be
00000330: 8738 2a3e 8688 b6bd 9e38 d33d 2b11 86bd
00000340: 94f0 5d3d 1452 b4bd fa6a 08be a862 d23d
00000350: 7bc8 30be 5018 013d fba1 ca3d 389c 493e
00000360: 5614 17be a53c 943d 7d14 2e3c cad4 c8bd
00000370: 8173 44be 5324 1c3e a9a9 1f3e 0b3c 343e
00000380: 9797 1a3d 757f 34bd 3282 033d b3b7 193e
00000390: 97a3 e9bc 7d2c 1b3e f3aa 323e d7d1 b73d
000003a0: 2abc ffbd d0d1 aeba 3bbf 003e 24bd 263e
000003b0: f11d 32be 0137 103e a423 263d 346b ffbd
000003c0: 5bee febd ff90 9e3c 8985 2b3e 18ef 16be
000003d0: 3932 023e b6cd 393e a407 0ebd 1ee8 8dbd
000003e0: 6756 34bd 58a9 e93d 75f3 44be 78f7 483e
000003f0: 67f7 63bc 641d a63c 60cd 09bd a31c cf3d
-0.06937214 0.0070631863 -0.060219634 0.12976685 -0.09517524 0.090350635 0.19286574 0.05747002
-0.11464317 0.14792691 -0.01681245 -0.020906998 0.016409244 -0.15820362 0.08009382 0.03968613
-0.100559995 -0.10594366 0.08056832 0.030458918 0.09114914 0.002727444 0.15600921 -0.085681014
-0.041098736 0.1041221 -0.10386446 0.18578191 -0.12509972 -0.023382664 -0.057897512 0.060177416
0.13432175 -0.15999556 -0.0065786336 0.15447995 0.092271954 -0.033392247 -0.15491669 0.0139246965
0.007323944 -0.16337185 0.11446593 -0.018362055 -0.019556247 -0.14061674 -0.19770347 -0.09255257
0.13681963 0.0052785436 0.13080047 -0.008988647 0.054408576 0.052629042 -0.19040617 -0.058247015
-0.091351666 -0.0085618375 -0.15567 -0.06716782 0.13045776 0.10765778 -0.17571686 -0.1765022
0.11309034 0.1715619 -0.19481452 0.1422491 0.13422462 -0.13209738 -0.039347652 0.1462356
0.20263548 -0.099660166 0.10311275 -0.07233845 -0.0792922 0.06750124 -0.017359054 0.033840083
0.08948879 0.09467467 -0.054673202 -0.065332614 -0.079415016 -0.04098381 0.055612694 -0.14621426
-0.019365301 0.05528563 -0.077854775 -0.0033564407 0.10874016 0.14237528 -0.12161681 -0.1098676
0.1992741 -0.012921013 0.19472136 0.090144746 -0.113270715 -0.043199353 -0.11323833 0.13716623
-0.16083379 0.19290629 -0.18914644 -0.090681106 0.12988706 -0.12139606 -0.02596452 0.120998815
-0.16595578 -0.034529645 0.1068229 0.12366589 0.09295164 0.12311406 -0.029714556 -0.009576301
-0.036574267 0.03170326 0.03923971 -0.18239895 -0.1734501 0.19896255 0.03114096 0.09009377
0.034178704 0.17627396 -0.18261741 0.051938824 -0.031101102 -0.029096534 0.07629692 0.137848
0.15635726 0.09207069 0.032808803 0.048400443 0.08606526 0.20151268 0.15181999 0.17203285
-0.051706 -0.11997114 -0.13255645 -0.07173407 0.04677555 -0.13241345 -0.16078 0.054235954
0.018993 0.07591425 -0.1980348 -0.04186264 0.16410865 -0.15690833 0.066268384 -0.18302932
0.09018682 0.020825725 -0.0010787038 0.17883216 -0.092014045 0.18911272 0.049540758 0.1125614
-0.154807 0.06118823 0.013302708 0.047281124 0.18597724 0.19405216 -0.109635174 0.15830366
0.07051978 -0.13621618 -0.17792411 0.06564411 -0.008292831 0.04106752 -0.18346377 -0.024700275
-0.1466871 -0.004583895 0.19618557 0.19188547 0.065216616 -0.0683633 0.19028147 -0.15679334
0.06818499 0.10668026 -0.20308988 -0.06786979 -0.14621827 -0.20270906 0.1594271 -0.17275424
0.12572767 -0.18377702 0.037840605 -0.13424003 0.16623126 -0.089127585 0.10313533 -0.06546243
0.05418451 -0.08804718 -0.13322058 0.102727234 -0.17263977 0.031517327 0.098941766 0.19688499
-0.14753851 0.072381295 0.010625002 -0.09806211 -0.19184686 0.15248232 0.15592064 0.1760103
0.037742224 -0.044066865 0.032106586 0.15011482 -0.028520389 0.1515369 0.17448024 0.08975571
-0.12487061 -0.0013337675 0.12572949 0.16283089 -0.17394234 0.14083482 0.040561333 -0.12471619
-0.124478064 0.019356249 0.16750158 -0.14739645 0.12714471 0.18144879 -0.034675255 -0.069290385
-0.044027712 0.11409253 -0.19233496 0.19625652 -0.013913966 0.020277686 -0.033643126 0.10112884

transformer_encoder.layers.0.self_attn.in_proj_bias f4 [108]
00000000: 0000 0000 0000 0000 0000 0000 0000 0000
00000010: 0000 0000 0000 0000 0000 0000 0000 0000
00000020: 0000 0000 0000 0000 0000 0000 0000 0000
00000030: 0000 0000 0000 0000 0000 0000 0000 0000
00000040: 0000 0000 0000 0000 0000 0000 0000 0000
00000050: 0000 0000 0000 0000 0000 0000 0000 0000
00000060: 0000 0000 0000 0000 0000 0000 0000 0000
00000070: 0000 0000 0000 0000 0000 0000 0000 0000
00000080: 0000 0000 0000 0000 0000 0000 0000 0000
00000090: 0000 0000 0000 0000 0000 0000 0000 0000
000000a0: 0000 0000 0000 0000 0000 0000 0000 0000
000000b0: 0000 0000 0000 0000 0000 0000 0000 0000
000000c0: 0000 0000 0000 0000 0000 0000 0000 0000
000000d0: 0000 0000 0000 0000 0000 0000 0000 0000
000000e0: 0000 0000 0000 0000 0000 0000 0000 0000
000000f0: 0000 0000 0000 0000 0000 0000 0000 0000
00000100: 0000 0000 0000 0000 0000 0000 0000 0000
00000110: 0000 0000 0000 0000 0000 0000 0000 0000
00000120: a820 c2b9 e405 44bb 7188 9a3a 9574 afba
00000130: 6335 0f3b 4df2 473a 1dfd 203a 755d 84ba
00000140: fdb5 2bbb 7260 69bb 5feb df3a b5a8 c939
00000150: bc89 42bb c7fd 4fb9 4ef4 9bba cf0f 063a
00000160: dce9 a5ba 8eb7 d9b9 9078 a03a 301d 31b9
00000170: b0e6 57bb bc32 b7b9 c838 a3ba 3ca5 b1b9
00000180: 85a6 6abb c520 f539 7079 f5ba 4708 d4b8
00000190: 7365 973b f558 34ba dbfc 5bbb b7f1 a6b9
000001a0: 48b4 8a37 d0f3 c13a 34b5 a7ba 5091 bb38
0.0 0.0 0.0 0.0 0.0 0.0 0.0 0.0
0.0 0.0 0.0 0.0 0.0 0.0 0.0 0.0
0.0 0.0 0.0 0.0 0.0 0.0 0.0 0.0
0.0 0.0 0.0 0.0 0.0 0.0 0.0 0.0
0.0 0.0 0.0 0.0 0.0 0.0 0.0 0.0
0.0 0.0 0.0 0.0 0.0 0.0 0.0 0.0
0.0 0.0 0.0 0.0 0.0 0.0 0.0 0.0
0.0 0.0 0.0 0.0 0.0 0.0 0.0 0.0
0.0 0.0 0.0 0.0 0.0 0.0 0.0 0.0
-0.00037026894 -0.0029910738 0.001178993 -0.0013386185 0.002185189 0.0007627353 0.00061412324 -0.0010098653
-0.0026201003 -0.0035610464 0.0017083696 0.00038463404 -0.0029684147 -0.00019835598 -0.001189837 0.000511405
-0.0012658197 -0.00041526224 0.0012242962 -0.00016890909 -0.0032943897 -0.0003494228 -0.0012452835 -0.0003388318
-0.003580482 0.00046754457 -0.0018728208 -0.000101104895 0.004620248 -0.00068797107 -0.0033567462 -0.0003184208
1.6534832e-05 0.0014797393 -0.0012795092 8.9439214e-05

transformer_encoder.layers.0.self_attn.out_proj.weight f4 [36, 36]
00000000: b668 50bd d032 04bd 9830 593c a8f4 e5bd
00000010: 1ceb 92bd 78fd 31bd d4c7 8abd b6f1 003e
00000020: 4134 0b3e b713 77bd 67d3 15be 8564 dfbd
00000030: 42d1 1ebe ee14 4e3c c44a 51bd fd11 eabc
00000040: 23fa 2ebd b607 523d 232f 29be 05d9 653d
00000050: 5015 89bd 94af f4bd 9688 6ebd 03ea b3bd
00000060: d085 d23d 6376 a13d cce4 b8bd 6fbd fb3d
00000070: 4a88 8e3c 4605 273e ac5e 133e 213e 1dbe
00000080: 5410 17be 79ec 1ebe 5eff 24be 09c5 b13d
00000090: 46ea 13be 3d99 e5bd 2f9d c63d 205a b0bb
000000a0: c1a2 063d 19be 82bd e5c7 9cbd da8a 363d
000000b0: be8f 06be 566d e9bd a6b9 d43d fc4d 9bbd
000000c0: 049d 10bd 9bdc af3d 09b0 82bc 6e14 843d
000000d0: 0539 2b3e cf9d d4bc cabb f9bd d0d3 053e
000000e0: 3b73 503d 1845 f9bd edfb f63b 3c0e e63d
000000f0: 0812 3ebd e81f cdbc e94e 95bc 52d0 27be
00000100: 0930 c83c 1bd8 afbd fa00 e83d 97d3 8b3d
00000110: a0b9 e03d 2210 ea3d f8d8 9b3d 5be8 ab3d
00000120: 0ccd c23d da31 813d 22d3 3f39 0ad3 f5bd
00000130: 833f 0cbe e8fa 2a3e 051f 1c3d a0f6 14be
00000140: 98f5 18be e32d 543d 8d72 a13d e43d c8bc
00000150: 2dbf f63c afd3 a43d 2068 103e 7e3d 063e
00000160: e59c 21be a0b3 073e 03c1 593d b178 403c
00000170: 2bf6 f83d 4ce9 b93d f6fc 23be 65b2 e9bc
00000180: df58 adbc 091b 933c 68e3 9c3c a2af 983d
00000190: 18c6 583c 0507 24be 8a19 16be ceee 223e
000001a0: 83eb 27bd b3b7 92bc fc15 013e e858 b33d
000001b0: 133f 3bbd ecc7 043e 9dd1 623c 6ca1 293e
000001c0: f8c5 59bc 00b8 7e3d f3eb 973d c0ea d3bc
000001d0: 2113 cb3d 3285 17be 364d 203e 73b1 0f3e
000001e0: cd49 2d3d 80c2 10be b707 e4bd 1250 07be
000001f0: 7bb5 c7bd 0cce f63c f198 debd 5339 d23d
00000200: e88a 163e 15b2 413d 9da6 0abe 0e57 c1bd
00000210: c108 51bd be49 093e 9c18 a43b ae2c 85bd
00000220: e45d b53d 9a79 a7bd 674f 79bd df4a 953d
00000230: 51d3 6ebd 7e22 4cbd c9b5 5c3d 5c78 183e
00000240: f26c 1bbe 862a cc3d 8375 ea3d cca7 91bd
00000250: 2d83 c4bd cef3 9a3c 8d68 1a3d 7f8f 1a3d
00000260: 9d13 6abd 1846 dc3d ea82 41bd e032 e2bd
00000270: 7ef0 24bd 8cfc ddbd 95bd 92bd 2864 ccbd
00000280: f909 993d 953f 0bbe db49 0c3b 7df1 0dbe
00000290: d81b 19be d174 b03d 16aa 35bd 78f5 ce3d
000002a0: 2373 1fbe 69a7 023c 6091 38bd 4205 b7bd
000002b0: d3c2 18be d9dd b8ba eaa5 e5bd 3222 0b3d
000002c0: 5629 cbbd 2d11 5ebd 3a26 dcbd 75f5 2dbc
000002d0: 43ba e43d 7eb1 53bd 4f49 12be 3d08 d6bb
000002e0: a383 143e 4313 f6bd b636 1bbe 819c 02bd
000002f0: ebbb 003e 7ada ea3c 1432 dd3d abba 833d
00000300: 7b68 103e 401e f73c 20bb 9dbd 5070 87bc
00000310: 93a6 d73b fa42 22be 8591 e3bd 5395 953a
00000320: 3e42 19be 88bd 193e b585 6cba 4fda 94bd
00000330: 6bf4 0d3e d892 00bd 952d d6bc 9a4d 4d3c
00000340: c8b7 333d 6fef 0cbe 2223 febd ec26 1abe
00000350: e099 2abd 8723 f83d 2c8f 583d 887a 1a3d
00000360: f9de f13d a8a7 1b3e f837 103e cea3 eabc
00000370: b93f 8dbd 0b8a e3bd ee87 413d 92a1 f3bd
00000380: d9a4 1abe 77f3 a3bd 0ac0 8cbc 820f c53d
00000390: 4fe1 083e fc09 bb3b cf98 263e 8e8a e3bd
000003a0: 541a 33bc 7584 ef3d 78be 60bd d77c 9dbd
000003b0: 4318 113e 217f 923d 2655 d93d bc90 dd3d
000003c0: 5d52 1ebe 379d dd3d fa2f 11bd 11dd 9cbd
000003d0: 59f1 bc3d 47e3 c43d a39b 823c 4a4a 033b
000003e0: 7340 083e 5fba 183d e967 ca3a fa22 0ebd
000003f0: fb82 c1bd db2e 063d 5529 9dbd e6a1 063c
-0.05088111 -0.03227502 0.013256215 -0.11228305 -0.0717375 -0.043454617 -0.067763954 0.12592205
0.13594152 -0.060321536 -0.14631425 -0.109078445 -0.15509513 0.012578232 -0.051096693 -0.02857303
-0.042719018 0.051276885 -0.16521887 0.05611517 -0.06693518 -0.11947551 -0.058235727 -0.087848686
0.10279429 0.078839086 -0.090280145 0.12291991 0.017398972 0.16310605 0.14391583 -0.15355732
-0.14752322 -0.15519895 -0.1611304 0.086801596 -0.14444837 -0.112108685 0.09697949 -0.0053818375
0.032870058 -0.063839145 -0.07655314 0.044566013 -0.13140771 -0.11397807 0.10386972 -0.07583234
-0.03530599 0.08586999 -0.01595308 0.06449209 0.1672097 -0.025954155 -0.12194021 0.13069081
0.050891142 -0.12171382 0.007537356 0.11233184 -0.046403915 -0.025039628 -0.018226104 -0.16388062
0.024436967 -0.08586141 0.11328311 0.06827467 0.10972905 0.11428858 0.07609743 0.08393928
0.09511766 0.063083366 0.00018293833 -0.12003143 -0.13696103 0.16697276 0.03811552 -0.14547205
-0.14937437 0.051801573 0.07883177 -0.024443574 0.030120457 0.08048188 0.1410222 0.13109395
-0.15782507 0.13252115 0.053162586 0.011747525 0.12156328 0.09077701 -0.16014466 -0.028527448
-0.021160541 0.017957227 0.019151405 0.07455374 0.013230823 -0.16018303 -0.1465818 0.1591141
-0.040996086 -0.01790986 0.12606043 0.08757192 -0.04571445 0.12966889 0.013843921 0.16565484
-0.013291828 0.062187195 0.074180506 -0.025868773 0.09915758 -0.14796904 0.15654454 0.14032535
0.04230671 -0.14136696 -0.11134284 -0.13214138 -0.097514115 0.030127548 -0.10869015 0.1026484
0.14701426 0.047288973 -0.1354012 -0.094404325 -0.05103374 0.13407037 0.0050078165 -0.065026626
0.08855799 -0.081774905 -0.06086674 0.07289671 -0.058306996 -0.04983758 0.0538843 0.14889663
-0.15178278 0.09969048 0.11448195 -0.07112083 -0.09595332 0.018915083 0.037697364 0.037734505
-0.05714761 0.10755557 -0.04724399 -0.1104486 -0.040268414 -0.10839185 -0.07165066 -0.09980041
0.07472605 -0.13598473 0.0021406326 -0.13861652 -0.14952028 0.08616031 -0.04435166 0.10105413
-0.15571265 0.007974484 -0.045060515 -0.0893655 -0.1491807 -0.0014104202 -0.11213286 0.033968158
-0.099199936 -0.0542156 -0.10749479 -0.010617604 0.11168339 -0.05168294 -0.14285778 -0.006531744
0.1450334 -0.12015393 -0.1515759 -0.031887535 0.12571685 0.02866863 0.10800567 0.064320885
0.14102356 0.030165792 -0.07701707 -0.016533047 0.0065811365 -0.15845862 -0.1111174 0.00114123
-0.14966676 0.15013707 -0.00090226094 -0.072682016 0.1386277 -0.03139004 -0.026144782 0.012530709
0.04387644 -0.13763212 -0.12409045 -0.1505391 -0.041650653 0.12116151 0.052870914 0.03771451
0.11810107 0.15200675 0.1408385 -0.028642561 -0.0689692 -0.11110314 0.047248773 -0.118960515
-0.15101947 -0.080054216 -0.017181415 0.096220985 0.13367198 0.0057079773 0.1626923 -0.111104116
-0.01093157 0.11695186 -0.054869145 -0.07689827 0.14169411 0.07153154 0.10611944 0.108186215
-0.15461107 0.10821002 -0.035446145 -0.076593526 0.09225721 0.09613662 0.015943354 0.0020033293
0.13305835 0.037287112 0.0015442345 -0.034701325 -0.09448811 0.03275953 -0.07673899 0.0082173105

transformer_encoder.layers.0.self_attn.out_proj.bias f4 [36]
00000000: 0e5c 42ba 1ab5 25ba c97a 2fbb 1c06 9839
00000010: 5a08 ca39 4171 6a3b d3a1 91ba 9683 f73a
00000020: 7ae3 1fb9 40e4 f3b9 d09b f0ba 732d cc3a
00000030: 7b14 08b8 4e1a 913a 5de6 09ba 7bf5 c2ba
00000040: c657 95ba 1147 f8b9 8025 c83a 434d 3639
00000050: c653 98b9 1639 df3a 7e58 8e3a 1ba1 a43a
00000060: 7f8d f7ba cc9b 063b 9c6f 21ba 6f6a acb9
00000070: c852 1239 a87b 4c3a 9456 8a39 83f8 7a3b
00000080: 309e 80bb 43d5 98ba b418 86b9 8e44 e339
-0.000741423 -0.0006321237 -0.0026776067 0.0002899625 0.00038534665 0.003577307 -0.001111085 0.001888382
-0.00015248163 -0.0004651863 -0.0018356983 0.001557751 -3.2444e-05 0.0011070461 -0.0005260462 -0.0014874184
-0.0011393956 -0.00047355195 0.0015269965 0.00017385655 -0.00029054115 0.0017030563 0.0010860113 0.001256022
-0.0018886774 0.002053964 -0.00061582937 -0.00032885696 0.00013954483 0.00078004086 0.00026385917 0.0038295097
-0.0039251074 -0.0011660237 -0.00025576877 0.0004334789

transformer_encoder.layers.0.linear1.weight f4 [128, 36]
00000000: ca86 3bbc 873a 493c a1c9 af3d eec2 1d3e
00000010: 17c2 ec3d ffee a8bd e7a6 383c 35b1 24bd
00000020: c06c 08be 7a4f 1c3e ef02 8c3d d30d 8cbc
00000030: 5b59 9a3c 5de6 f0bd 6cd6 dbbd 8dbe 6cbd
00000040: c0aa 1a3b 6482 16be a13d 18be 758b 50bb
00000050: 2375 f73d a894 c8bc ec0f dd3d 5fa1 23be
00000060: ebf9 d4bc 224e 0b3e 342b d1bd 08d4 973c
00000070: 979a 8bbd 4f6c 153e eb8a 96bd 9a4d 12be
00000080: 2e4a 2d3e b492 febd 2dc7 0b3e f7d3 23bd
00000090: ca91 e53c 0512 083e 31a0 7d3d 894c 103e
000000a0: 209a ed3d bc5f 5f3d 6397 1cbd 3f6d 02be
000000b0: f672 9f39 99b9 bbbd 6ff2 273e e4c9 643d
000000c0: 8770 62bc 0d2a d03d 5fca d1bd 6ddd 84bd
000000d0: 35a3 a53d c32d c13a 26ef 623d 0ca4 d83d
000000e0: d667 583d eb49 25be adb1 063e fc28 acbd
000000f0: 7906 b13d 0ed0 06be 85d7 dcbd 3530 98bd
00000100: 241a fb3c d40b 043e 50c3 b33c a5b7 16be
00000110: 1fc2 023d d710 883d 9739 bf3d 5db2 543d
00000120: ef5d 17be 6eea 0d3e 2eaf 31bd ec24 edbd
00000130: d984 2dbe 9e06 5d3d 2fe0 d8bd df84 d0bd
00000140: 462f 36bc 3822 92bd 0451 e8bc edcc cdbd
00000150: ea13 793a efd2 f63d d764 83bd 3aec dd3b
00000160: fb2a c23d 95c3 c03c eb29 de3d 97e1 b9bd
00000170: 41ff bc3c 2fe0 063d 10da 50bd 072e 1dbe
00000180: 9c23 1cbb 0880 2d3d 91df 663b 5aac f73c
00000190: ae8f e4bd ebde ec3d 0aac 1b3e d908 21be
000001a0: d2d2 7abd 0b0f 20be dd2d d23d 86ac 1a3e
000001b0: 869d edbc 44cb 093e ae10 dfbc 3c83 b53d
000001c0: acad 093e 27af 823d 6509 823d acd5 093e
000001d0: b853 133e 87d7 f03c 12b6 20be c1dc 09be
000001e0: 2958 59bc 4264 853d 034d 02be 08b4 0c3e
000001f0: f55a 973d 3ecf 8abd e1e8 14bd 379e 46bd
00000200: 4acf 133c 468d f8bd f328 dfbd 4d0a fcbd
00000210: 09c5 e23d c6a2 dfbd 6c9f aabd 484a f53d
00000220: 6816 4e3d 1e36 143b 1781 f23d d47a cabd
00000230: 2b8d 00be f37c 373d 827d 693d 5c85 873c
00000240: 7486 d93d d207 233e fdf6 053e d6be ccbd
00000250: 520e 573d 0cef 01be e632 7b3c 04ad a43d
00000260: 5af5 a7bd 35d4 1cbe 43b3 143e 4894 073e
00000270: a1c4 00be 32da 6dbd 0d86 ffbd 0c59 1f3e
00000280: 348d 333c e696 0b3c 6fdc aabc 997d dfbd
00000290: 3cbe 123e 652d 72bd 496f 0fbe 57c1 1dbd
000002a0: ea73 8abd 8528 f23d 9e9d 113e 18bb 43ba
000002b0: 2010 363d a2cb bdbd cb8f e33c 7ba7 943d
000002c0: 8137 963d c288 003e c456 103e f575 07be
000002d0: 92df 14be 478f 013e 2259 21be 6879 b73d
000002e0: f028 6abd 8505 bdbd e954 06be 516f cfbc
000002f0: b1c3 ae3d 0f12 da3d 9698 183e 10db 42bd
00000300: ba4b 45bd 2bda c13d 4615 55bd 2dd7 fd3d
00000310: 3833 d93d 84f7 b8bd e518 08be 631a 13be
00000320: 72c3 17be b321 143e e8bf b73d 6a32 0dbe
00000330: 8701 5c3d 2b38 2cbd 331d fbbd d4f1 ebbd
00000340: 8ae2 c63d 160f dd3c bea9 8e3c 2648 0abe
00000350: c1a6 38bd 3a1f 12be 1808 08be b238 c7bd
00000360: c0dc 943d 3364 12be bd47 d1bd 3242 17bd
00000370: 9309 3c3d 1668 7bbc d211 9dbd d636 07bd
00000380: 08f3 d2bc a8e9 243d 73a5 d5bd b4dd 11be
00000390: 21f4 66bd 5699 063e e28d bd3d d9f1 36bd
000003a0: c204 b13d 094c 183e 7caf 733d 406d b83d
000003b0: ae9b 153e b5c9 753c 973a 99bd 0f4d 5a3d
000003c0: 1f38 7b3d c446 37bd 200e 0f3d 8d29 8cbd
000003d0: fea7 32bd 4c82 ea3b 7ae8 0f3e bc9c 9e3c
000003e0: 6c1e cf3d 5ede 84bc 2b98 10bd 17fc 8b3c
000003f0: 8b13 953c 00d2 0e3d 9d8d 09be ef88 103e
-0.01144571 0.01228202 0.085833795 0.15406391 0.11560457 -0.0824871 0.011270261 -0.04020806
-0.13322735 0.15264693 0.06836497 -0.017096436 0.018841436 -0.11762688 -0.10734257 -0.05779891
0.002360031 -0.14698178 -0.1486726 -0.0031821404 0.12082889 -0.024484947 0.107940525 -0.15979527
-0.025998076 0.13604024 -0.102133185 0.018533722 -0.06816595 0.14592098 -0.07350715 -0.14287415
0.16922829 -0.12430325 0.13650198 -0.039997067 0.02802362 0.13288124 0.06192035 0.14091696
0.11601663 0.05453466 -0.03823031 -0.12736987 0.00030412496 -0.09166259 0.16401075 0.0558566
-0.013820774 0.101642706 -0.10243677 -0.06487546 0.0808777 0.001473837 0.05540385 0.105781645
0.0528334 -0.16141479 0.13153715 -0.08406255 0.08643813 -0.13165304 -0.107832946 -0.0743107
0.030652113 0.12895137 0.021943718 -0.14718492 0.03192341 0.06643837 0.09337156 0.051927913
-0.14781927 0.13858959 -0.043379955 -0.11579308 -0.16945209 0.05396139 -0.105896346 -0.10181593
-0.011119669 -0.07135433 -0.028358944 -0.10048852 0.00095015636 0.12051951 -0.06415718 0.006772545
0.09480854 0.02353076 0.10847839 -0.09076231 0.023070933 0.032928642 -0.05098921 -0.1534959
-0.0023824936 0.04235843 0.003522847 0.03023355 -0.11160217 0.11565956 0.15202346 -0.15726031
-0.06123621 -0.15630738 0.10262654 0.15104875 -0.029005777 0.13456446 -0.027229633 0.088629216
0.13445157 0.06381064 0.06349448 0.13460416 0.14387405 0.029399646 -0.15694454 -0.13463117
-0.013265648 0.06513263 -0.1272469 0.13740551 0.073903956 -0.067778096 -0.036354903 -0.04849073
0.0090215895 -0.12136321 -0.10896482 -0.12306652 0.11072738 -0.109197184 -0.083311886 0.11977059
0.050314337 0.0022615264 0.11841028 -0.09886709 -0.12553851 0.044796895 0.05700446 0.016543083
0.10621348 0.15920952 0.130825 -0.099973366 0.05250389 -0.12688845 0.015331959 0.080408126
-0.08201094 -0.15315326 0.14521508 0.13240159 -0.12575008 -0.058069415 -0.1247674 0.15561312
0.010958958 0.008519864 -0.020857064 -0.10912628 0.14330381 -0.059125323 -0.14007296 -0.03851446
-0.0676039 0.11824135 0.14220282 -0.0007466539 0.04444897 -0.092673555 0.027778527 0.07258507
0.07334805 0.12552169 0.14095598 -0.13228591 -0.1453841 0.12652312 -0.15756658 0.08958703
-0.057167947 -0.092295684 -0.13118328 -0.025321634 0.08533419 0.10647976 0.14901957 -0.047572196
-0.04816792 0.0946544 -0.05202224 0.12394557 0.10605472 -0.09031585 -0.13290747 -0.14365534
-0.1482065 0.1446598 0.0897215 -0.13788763 0.053712394 -0.042045753 -0.12261429 -0.115207344
0.09711178 0.026984733 0.017414924 -0.13504085 -0.045080904 -0.14269724 -0.13284338 -0.09727611
0.07268667 -0.14296035 -0.10218761 -0.036928363 0.04590757 -0.01534464 -0.076694146 -0.03301128
-0.025750652 0.040261894 -0.104319476 -0.1424473 -0.056385163 0.1314443 0.092555776 -0.044664238
0.086434856 0.14872755 0.059493527 0.09005213 0.14610168 0.015001704 -0.07481878 0.053296145
0.061332818 -0.04474522 0.03492558 -0.06843863 -0.04361724 0.007156646 0.14053527 0.019361846
0.101132244 -0.016219314 -0.03530137 0.01708798 0.018197795 0.03486824 -0.13432927 0.14114736

transformer_encoder.layers.0.linear1.bias f4 [128]
00000000: f7d0 ea3c 07e6 a33d 21b0 0fbe f79d 85bc
00000010: 1034 d4bd 60c4 dfbd 8223 aebd e1e4 063c
00000020: 0797 603d 14dc 16be 3fbb ecbd 3695 503d
00000030: 61ff 0b3e 7a8d 2ebd 6673 2a3e 0bf1 a43d
00000040: 0e56 afba e35c 043d 362e ee3d 8072 0abe
00000050: d36d edbd 3140 be3c d2c5 ae3d 54e4 d03d
00000060: 6069 1ebe 7162 eabd 4ef0 b23d 3d7c 16be
00000070: 1ba4 1cbe 7b63 243d 3d54 123e 8dca 9b3d
00000080: e0a7 e6bc 7148 0abd a255 093e 63af 78bd
00000090: feba a93c 0e65 ea3d b189 043e 09b6 1bbd
000000a0: fec9 bfbd 8e40 8dbc 777d 403d cb87 a73d
000000b0: c364 23be ab80 2abd eded f1bd f41f f1bd
000000c0: 1128 e3bc eab9 1bbd da33 d7bd 711d fb3d
000000d0: dc54 e03d de32 ebbd 0b37 5ebd 5f5b e9bd
000000e0: f66d 853c cf7f 0abe b388 a13d 5cff a6bd
000000f0: 7abf 0d3e b42f 123d 28cb c73c 5cbc 0fbe
00000100: 947f 9e3d cb81 253d d13b e53c d78f 0bbd
00000110: c7e6 e0bd 0b55 063e 5eb0 26bd 519e 0f3e
00000120: 42d9 f6bd f13f 16bd 9878 153d 7c15 df3d
00000130: a869 c03d cbbb f23d 31ce f53d 61fd 463d
00000140: 222a ba3d 77be 24be 002b d6bd e5f0 aebd
00000150: d0d6 303c 0b5a bc3d 6c83 9c3d ad66 f5bd
00000160: 1c26 80bd 2179 e3bd 87a2 c73d 2db9 093e
00000170: 1f00 b7bd 617b af3d b4e9 593d 33d7 9c3d
00000180: 01cb 00bd 782b 13bb ca42 6dbd fc7b 183c
00000190: de4c e4bd c99f 803d b617 0ebe 8423 d7bd
000001a0: d6d3 19bd 1dfe 8e3d 3c9a 353d 5719 fcbd
000001b0: e265 67bd 8ec9 06be 017c e4bd 984f 1bbe
000001c0: 08d9 65bd 5b35 e0bd c32a 17bb a7e7 e7bd
000001d0: b3e9 e8bd 2548 bb3d 2433 8c3c 1cd4 c3bd
000001e0: 949d a6bc aa98 553a e2a0 9f3d 6f75 09bd
000001f0: 02fe 4e3d 86e5 0a3e 7963 53bd f80f bbbd
0.028664095 0.080028586 -0.14032032 -0.016310675 -0.10361493 -0.109261274 -0.08502866 0.00823328
0.05483153 -0.1473239 -0.11559152 0.05092355 0.13671638 -0.04261539 0.16645584 0.08053788
-0.0013377087 0.032315146 0.11629908 -0.13520241 -0.11593213 0.023223968 0.08533825 0.101998
-0.15469885 -0.114445575 0.08737241 -0.1469583 -0.15296976 0.040133934 0.14289947 0.07606993
-0.02815622 -0.03376049 0.13411573 -0.060714137 0.020719048 0.11445056 0.1294315 -0.0380154
-0.09364699 -0.017242696 0.046994653 0.08180197 -0.15956406 -0.041626614 -0.11812959 -0.11773673
-0.027729066 -0.0380191 -0.10507937 0.12261475 0.10953686 -0.114843115 -0.05425171 -0.11394381
0.016287785 -0.13525318 0.078874014 -0.08154175 0.13842574 0.035690024 0.024388865 -0.14036697
0.07739177 0.040406983 0.027982624 -0.034072723 -0.10981517 0.13118379 -0.04069554 0.14025237
-0.120531574 -0.036682073 0.03649196 0.1089277 0.09395152 0.11852225 0.120022185 0.048581485
0.090900674 -0.16088282 -0.1045742 -0.08542041 0.010793403 0.09196862 0.07642254 -0.119824745
-0.06257269 -0.11107088 0.097477965 0.13449545 -0.0893557 0.085684545 0.053201392 0.076582335
-0.0314436 -0.002245633 -0.057925023 0.009306904 -0.11147474 0.062804766 -0.13876233 -0.10504821
-0.037555538 0.06982062 0.044336542 -0.12309521 -0.056493647 -0.13162825 -0.11156464 -0.15167081
-0.05611518 -0.10947677 -0.002306626 -0.11323481 -0.113726996 0.0914462 0.01711423 -0.09561941
-0.020338811 0.0008148054 0.07794358 -0.03355926 0.05053521 0.13564119 -0.051608536 -0.09133905

transformer_encoder.layers.0.linear2.weight f4 [36, 128]
00000000: adef b2bd e1cb 003c 3331 3f3b 9fb8 243d
00000010: 2674 8cbd fddf 5dbd b79d 2dbc 754f 363d
00000020: d257 603c ef67 9c3d 797a b23d 5c7b d43c
00000030: 86e6 eebb b13e 40ba 907d a93b ecbd 8c3b
00000040: da91 0ebd aece 69bd e991 dbbc a506 443d
00000050: d234 5abd 6f1d adbc 4544 ae3d fa4b f8bc
00000060: 216a 48bd 31b4 28bd d03b 9a3d 26ec 59bd
00000070: 1899 c43b 31fb 7fbc eab5 bbbd aa8a b03b
00000080: 9c7a 81bd b315 ac3d 915e 973d 3df6 37bc
00000090: 5649 b2bc 5c55 febc b0ec eebc a749 dcbb
000000a0: 9a26 93bd 500d 8c3d f64c 743d 6268 2c3d
000000b0: c9ae 8a3d 6015 a83c a52b 913d d7ab 8a3d
000000c0: 483d acbd c703 b7bc 073e 8b3d 0950 0a3b
000000d0: 89db 7fba bfb1 94bd 1950 41bd 44ff dfbc
000000e0: b375 74bd aba8 793d 4f31 75bd 1802 543d
000000f0: 27fa 4abd 5c80 8e3c 27e6 963d 05a1 843d
00000100: 3c1c 98bd 7f7a 77bc a1df 60bd 501d 753d
00000110: d3fb 303c 6149 563d 8f05 39bd 95a9 23bd
00000120: f0d3 143d 5d06 2e3d 1e60 97bc 4d95 af3c
00000130: eba0 b13d ddfc 6dbd e1ce bbbd 3403 ad3c
00000140: 3699 6bbc 73a2 54bc f44e 25bd d483 a0bd
00000150: 7762 8bbd a974 9f3d 3293 97bd bd97 1e3d
00000160: 9b4e 0a3d ee2d 64bc a033 a23d fc4b 613d
00000170: 18bd af3d 0138 96bd 621a 6c3c 5bc3 46bd
00000180: cb1a 9ebd cded 7c3d 67ed 9bbd aa88 45bc
00000190: 7021 303c c65e adbc 8929 0c3d 1def 7d3c
000001a0: cbf9 20bd ed99 8f3d 6a28 ba3d ef86 88bd
000001b0: 1d55 90bd b27c 66bd a135 9cbd d32f 81bd
000001c0: 7bfc 3c3d 2255 68bd a009 aabd 852c 713d
000001d0: dd89 09bd 5c63 94bd 6e55 74bd 2a37 8e3c
000001e0: 92c6 9fbd f283 33b9 0d67 92bd 058b 84bd
000001f0: f5a6 203d 6f06 063d 7456 8abd 225b 6b3d
00000200: 3223 dabc eb7d 163c 054f 3a3d 1b27 9abb
00000210: d360 563d acbf 26bd 0743 8bbd c5aa f93c
00000220: 8a59 be3b cfe6 b9bc aae6 213d 048d ac3d
00000230: 60cc e93b d2d5 463d 4f0b b33d 4365 9f3d
00000240: 7963 55bd e95c 89bd 2194 72bd 2a11 be3c
00000250: 573a 7c3d 5cf4 8cbc 8d7f a63d 5265 a23d
00000260: f3e6 58bc 6201 19bd 5f49 883d 5677 c43a
00000270: dbcd 663d 9d1a b83d 8d4d a4bd 6d16 92bd
00000280: d063 35bc b482 1e3d 10fd 04bd 73c5 2c3d
00000290: 27d9 c2bb 57e2 19bd 0252 9ebd 6d24 243d
000002a0: 1065 b23d 6121 a83d 32d1 99bd 4462 623c
000002b0: fe64 713b 8d23 90bd 172b 9f3a 4909 56bd
000002c0: 6825 bb3c ad4f 313d 5b1b b4bb cc06 97bd
000002d0: 7c41 b33d ed14 963d 25a6 77bd 8a5d 4c3d
000002e0: 7c8c 093d 4277 2bbd 4327 143b b284 bd3d
000002f0: 464c 4dbd 3c96 563d 2314 a4bd 5539 8c3d
00000300: 0c6c 7c3c 1d8d 92bd 4062 083d cc39 f03a
00000310: 44ef 563c 2ac7 893b a3a9 a9bc e5bd 603d
00000320: 1a4a 04bc 6550 3a3d c5bc c0bc f0b3 5e3d
00000330: 24fa 373d 4b58 52bb 072c 4abd 8335 9b3d
00000340: 3b24 943d b0d8 ebbc dd75 48bd 6d95 6cbd
00000350: 06fd 3cbd c61a b3bd 065c 93bd abd2 2f3d
00000360: 0264 2abd e736 2fbd b161 b23d 44d6 70bd
00000370: 5000 673d 3555 b23d 3aad 4e3d 7f0e 603d
00000380: 7b02 5f3d fc13 a3bc 1c9b e5ba 4913 0e3d
00000390: b9d1 8dbd a7cc a3bd dff8 18bd 96e5 703d
000003a0: 482a abbc 78d2 beb9 4916 6d3d e8f3 88bc
000003b0: 1dee ce3c 58c9 803d a003 0a3b e8fb 1e3d
000003c0: 58db 013d bd60 cfbc 053d 913c 943b 743c
000003d0: 6e8d af3c 07d1 733d 20ef 58bd 49d5 c8bc
000003e0: 7a72 a03a 9846 96bd e991 a1ba 5379 0dbd
000003f0: 5954 153a da8a 9ebd 8a1a 99bb 9dba 753d
-0.08737121 0.0078611085 0.0029173612 0.04021513 -0.06858091 -0.05416869 -0.010596684 0.04450937
0.013692813 0.07637011 0.08714766 0.025937729 -0.007290664 -0.00073335605 0.005172439 0.0042951014
-0.034807064 -0.05708187 -0.026802974 0.0478579 -0.05327303 -0.0211322 0.08509115 -0.030309666
-0.048929337 -0.04118747 0.075309396 -0.053203724 0.0059996955 -0.015623854 -0.09165557 0.005387624
-0.06322214 0.08402576 0.07391084 -0.011228141 -0.021763485 -0.031046562 -0.029165596 -0.006722647
-0.07185097 0.06838477 0.05964371 0.042091735 0.06771619 0.020518005 0.07088403 0.06771057
-0.08410126 -0.022340668 0.0679894 0.0021104834 -0.00097601913 -0.07260465 -0.047195528 -0.0273434
-0.05968256 0.06095187 -0.059861477 0.05175981 -0.04955497 0.01739519 0.07368117 0.064760245
-0.0742726 -0.015104889 -0.05490077 0.059842408 0.010802227 0.052316073 -0.045171317 -0.039956648
0.03633493 0.042486537 -0.01847845 0.021433497 0.08673271 -0.058102477 -0.091703184 0.021119691
-0.01437979 -0.012978184 -0.0403585 -0.07837644 -0.0680589 0.07785923 -0.07401122 0.038718928
0.03376637 -0.013926966 0.07920003 0.055004105 0.08580989 -0.07334901 0.014410587 -0.04852615
-0.07719954 0.061750222 -0.0761364 -0.012056509 0.01075016 -0.021163356 0.0342193 0.015498904
-0.03930072 0.07011781 0.090897396 -0.066663615 -0.07047484 -0.056271262 -0.076274164 -0.0630795
0.04613922 -0.056721814 -0.08302617 0.058880348 -0.033578742 -0.07245514 -0.059651785 0.017360289
-0.07801546 -0.00017119924 -0.071485616 -0.06471828 0.039221723 0.03272098 -0.06754771 0.057459958
-0.02662811 0.009185295 0.045485515 -0.0047043688 0.052338433 -0.040710136 -0.06799894 0.030476937
0.0058090137 -0.022693066 0.03952662 0.08425334 0.007134959 0.04854376 0.08742391 0.07782986
-0.052096818 -0.06707174 -0.059223298 0.023201544 0.061579075 -0.017206363 0.08129797 0.079294816
-0.013238656 -0.037354834 0.066546194 0.0014989178 0.056348663 0.08989451 -0.08022604 -0.07133184
-0.01107116 0.038698867 -0.0324679 0.04218049 -0.0059462967 -0.03756937 -0.077304855 0.0400738
0.087106824 0.082094915 -0.07510604 0.013817374 0.0036833878 -0.07038031 0.0012143579 -0.05225495
0.022844985 0.043288875 -0.005496425 -0.07374343 0.087527245 0.0732821 -0.060461182 0.049893893
0.033581242 -0.04186178 0.002260641 0.09253825 -0.05012157 0.05238937 -0.08011653 0.06846873
0.01540662 -0.071558215 0.033296824 0.0018327772 0.013118569 0.0042046504 -0.020710772 0.054868598
-0.008074308 0.045486826 -0.023527512 0.05437082 0.044916287 -0.0032096084 -0.049358394 0.07578566
0.07233473 -0.028789848 -0.04894053 -0.05775969 -0.04613974 -0.08745341 -0.071952865 0.042925518
-0.04159928 -0.04277697 0.087100394 -0.05879809 0.056396782 0.08707658 0.05045817 0.054701325
0.054445725 -0.01990699 -0.001751754 0.03468636 -0.06924767 -0.07998019 -0.037346717 0.0588127
-0.020894185 -0.00036396435 0.05788258 -0.016717866 0.025260026 0.06288403 0.002105929 0.038814455
0.031703323 -0.025314683 0.017729292 0.014906783 0.021429744 0.059525516 -0.052962422 -0.024515765
0.0012241148 -0.073376834 -0.001232681 -0.034539532 0.00056964677 -0.077413276 -0.004672353 0.05999242

transformer_encoder.layers.0.linear2.bias f4 [36]
00000000: ac00 d33c 7188 5cbd 3e80 b6bd 853b b4bc
00000010: 40f8 543d bdfc 88bd 0819 47bd 36e6 abbc
00000020: 82ea 1abd ff81 833d 3b80 19bc ce9a 7e3c
00000030: 2ff0 aa3d 582b 893d 12bf 3bbb 2b39 04bb
00000040: 786e 81ba d16a 8f3d d1ab ad3d bf03 e4bc
00000050: 4ad7 7dbd 8923 f4bb 3749 a6bd 980d 7cbd
00000060: ed66 433d ee6c f5bc acf5 ea3c 0c70 8abd
00000070: 8ac3 aa3d f205 1b3d c602 7fbd ea83 e03c
00000080: 1bb4 613d 7fd9 1dbd d4d2 983d be08 2d3d
0.025757156 -0.05384106 -0.08911179 -0.022001037 0.051994562 -0.06688831 -0.048607856 -0.020983797
-0.0378213 0.06421279 -0.009368951 0.015539838 0.08346593 0.0669772 -0.0028647822 -0.0020175676
-0.0009874841 0.070027955 0.08480037 -0.027833818 -0.061972894 -0.007450525 -0.081194334 -0.0615364
0.04770558 -0.029959168 0.028681599 -0.067596525 0.08338077 0.037847467 -0.062258504 0.027406652
0.055103403 -0.0385375 0.07462087 0.042244665

transformer_encoder.layers.0.norm1.weight f4 [36]
00000000: 9923 803f d552 803f 2869 803f a5bf 7f3f
00000010: bc46 7f3f 2680 803f 0a74 803f dd2c 803f
00000020: aa48 7f3f 3f9f 803f 7168 803f eb2e 803f
00000030: a054 803f e23d 803f 4b25 803f 0872 7f3f
00000040: 8104 803f bc4e 803f cd45 7f3f d8fe 7f3f
00000050: 2c8d 7f3f afe3 7f3f 3359 7f3f 1d2f 803f
00000060: 296c 803f d72a 7f3f d892 7f3f dc44 7f3f
00000070: 3125 803f d2fb 7f3f 892e 803f 327b 803f
00000080: 4a8d 803f 103b 803f b19f 7f3f 1fee 7f3f
1.0010864 1.0025278 1.0032091 0.999018 0.9971731 1.0039108 1.0035412 1.0013691
0.9972025 1.0048598 1.0031873 1.0014318 1.0025826 1.0018885 1.0011381 0.9978337
1.0001374 1.0024028 0.9971588 0.99998236 0.99824786 0.9995679 0.9974548 1.0014378
1.0033008 0.99674743 0.9983344 0.99714446 1.001135 0.9999362 1.0014201 1.0037596
1.0043118 1.0018024 0.99853045 0.9997272

transformer_encoder.layers.0.norm1.bias f4 [36]
00000000: ac79 2cba f4f5 53ba 0a1d 3cbb fe41 c839
00000010: 2b70 593a 845b 793b c90c 8dba 9834 233b
00000020: 4196 c6b9 7d2b 68ba a2e8 f3ba 9fae fe3a
00000030: f1cf 0039 51b2 c93a 2f60 5aba 2863 a6ba
00000040: 2611 beba 40c8 0dba 9c22 083b aac3 3f3a
00000050: b7de c2ba 60a0 143b 7d61 ab3a bf1d e63a
00000060: 44d4 c9ba 63fd 043b 50b9 23ba 5867 1eba
00000070: 1626 a738 3d30 a63a 67e0 e839 a0b5 7e3b
00000080: 718d 90bb fc12 58ba 9cf0 a2b9 d12c 5a3a
-0.000657941 -0.0008085661 -0.0028703832 0.0003819614 0.00082946074 0.0038048932 -0.0010761257 0.0024903174
-0.0003787745 -0.0008856578 -0.0018608759 0.0019430703 0.00012284495 0.0015388225 -0.00083303725 -0.0012694346
-0.001450096 -0.0005408563 0.0020772582 0.0007315228 -0.00148674 0.0022678599 0.0013075318 0.0017556472
-0.0015398343 0.0020292632 -0.000624557 -0.0006042621 7.9702746e-05 0.0012679171 0.0004441768 0.003886558
-0.0044113924 -0.0008242575 -0.00031078316 0.0008322718

transformer_encoder.layers.0.norm2.weight f4 [36]
00000000: 2e2f 803f 9347 803f 1d42 803f 0b9c 7f3f
00000010: 7855 7f3f df7d 803f df79 803f c790 803f
00000020: da32 7f3f 7cae 803f 3598 803f a705 803f
00000030: d147 803f 1037 803f 3d28 803f d107 803f
00000040: 58f0 7f3f 6f39 803f 442e 7f3f c819 803f
00000050: 6721 7f3f f6e5 7f3f 4990 7f3f 7431 803f
00000060: 5372 803f 8130 7f3f c8b4 7f3f 9829 7f3f
00000070: 76fb 7f3f f967 803f 5b9d 7f3f b793 803f
00000080: 2567 803f 746c 803f edc8 7f3f 9ed8 7f3f
1.0014398 1.0021843 1.0020176 0.9984748 0.9973979 1.0038413 1.0037192 1.0044183
0.9968697 1.0053248 1.004645 1.0001725 1.0021917 1.0016804 1.001228 1.0002385
0.9997611 1.0017527 0.9967997 1.0007868 0.9966034 0.9996027 0.99829537 1.0015092
1.0034889 0.99683386 0.99885225 0.9967284 0.99993074 1.003173 0.9984948 1.0045079
1.0031477 1.0033097 0.99915963 0.99939907

transformer_encoder.layers.0.norm2.bias f4 [36]
00000000: eac9 d3b9 b86c 8738 f22a deba 692e f239
00000010: 394e 2a3a b604 363b de22 6fba 5d93 963b
00000020: 75fc 12ba e7fc deb8 d3f2 44bb b2fd ad3a
00000030: a12a 03b8 70f4 c33a 905c 8cba 0bb9 743a
00000040: a876 7eba c928 29b9 8e62 ca3a 9dc6 d13a
00000050: fe9e 8fba 385c 0f3b 3978 c739 d934 d43a
00000060: 27b9 3aba 9542 d03a ccee 97b9 b118 f2b9
00000070: 2e74 cb38 a89f 203b bb17 013a 2217 883b
00000080: 5dc6 44bb 0c5c 8aba edc3 82b9 91f5 773a
-0.00040395494 6.457552e-05 -0.0016950055 0.00046192415 0.00064966414 0.0027773804 -0.0009122322 0.004595204
-0.0005607077 -0.00010632892 -0.003005196 0.001327446 -3.1272535e-05 0.0014950167 -0.0010708738 0.0009335435
-0.0009707012 -0.0001613229 0.0015440749 0.0016004626 -0.0010957418 0.0021875035 0.0003804581 0.0016190066
-0.0007122927 0.0015888984 -0.00028978882 -0.00046176233 9.7014345e-05 0.0024509225 0.00049244956 0.0041531483
-0.003002546 -0.0010555997 -0.00024941508 0.00094588945

transformer_encoder.layers.1.self_attn.in_proj_weight f4 [108, 36]
00000000: fb12 8ebd 4d72 e73b dda8 76bd 9ae1 043e
00000010: 3ceb c2bd c109 b93d 997e 453e af65 6b3d
00000020: 0aca eabd 277a 173e 43ba 89bc 2745 abbc
00000030: ae6c 863c 2100 22be 3b08 a43d ec8d 223d
00000040: 66f2 cdbd fdf8 d8bd 0101 a53d fb84 f93c
00000050: 66ac ba3d ebbe 323b e1c0 1f3e 8779 afbd
00000060: 2657 28bd f83d d53d e4b6 d4bd 9d3d 3e3e
00000070: 241a 00be 008d bfbc f125 6dbd 987c 763d
00000080: a48b 093e e0d5 23be 9491 d7bb fe2f 1e3e
00000090: 14f9 bc3d 4fc6 08bd 7ba2 1ebe 6924 643c
000000a0: b2fd ef3b f34a 27be 1d6d ea3d 056c 96bc
000000b0: 6c34 a0bc d6fd 0fbe c772 4abe 348c bdbd
000000c0: 721a 0c3e a2f7 ac3b 8ff0 053e 1e45 13bc
000000d0: 87db 5e3d 8d91 573d d6f9 42be 6c94 6ebd
000000e0: 9516 bbbd f346 0cbc f567 1fbe 488f 89bd
000000f0: b896 053e af7b dc3d 1fef 33be febc 34be
00000100: e89b e73d ecad 2f3e 757d 47be c0a9 113e
00000110: 2e72 093e 8944 07be 012b 21bd c9be 153e
00000120: ad7f 4f3e a11a ccbd c72c d33d 2e26 94bd
00000130: f363 a2bd 173e 8a3d 9334 8ebc e69b 0a3d
00000140: e645 b73d cbe4 c13d 02f1 5fbd 1bcd 85bd
00000150: 57a4 a2bd a4de 27bd 23ca 633d 31b9 15be
00000160: fba3 9ebc 2f73 623d 5372 9fbd bbf7 5bbb
00000170: 29b3 de3d d3ca 113e 3c12 f9bd 4402 e1bd
00000180: 820e 4c3e a8b2 53bc 0965 473e cf9d b83d
00000190: 7afa e7bd cef1 30bd 7fe9 e7bd 4e75 0c3e
000001a0: 9db1 24be 3a89 453e 9baf 41be 04b7 b9bd
000001b0: 1d01 053e 7f9e f8bd 8cb3 d4bc 3ace f73d
000001c0: 50f0 29be f56e 0dbd f7c5 da3d 8b44 fd3d
000001d0: 6e5d be3d 3923 fc3d f16b f3bc ebe5 1cbc
000001e0: e6ce 15bd 47db 013d d1b9 203d cac6 3abe
000001f0: e79c 31be d7bc 4b3e 541b ff3c 1583 b83d
00000200: f8fe 0b3d 2981 343e 0f00 3bbe cebd 543d
00000210: bdc7 febc db5b eebc 8f41 9c3d 0728 0d3e
00000220: 1e1c 203e 8f8f bc3d 8662 063d 8b3f 463d
00000230: fc42 b03d 5759 4e3e b376 1b3e 6129 303e
00000240: acc9 53bd 6eb3 f5bd e1bc 07be 50e9 92bd
00000250: b897 3f3d 6497 07be 83a3 24be 8526 5e3d
00000260: 3597 9b3c ee78 9b3d a2c9 4abe 2978 2bbd
00000270: 190c 283e 94ac 20be b8b7 873d 0a6c 3bbe
00000280: deb3 b83d b69a aa3c 4b63 8dba c71f 373e
00000290: dc71 bcbd c4a6 413e 40eb 4a3d 9786 e63d
000002a0: ba85 1ebe 82a0 7a3d 9af3 593c daa9 413d
000002b0: d170 3e3e 9cb5 463e 6888 e0bd 5b1a 223e
000002c0: ad6c 903d 417c 0bbe bd31 36be 6b70 863d
000002d0: a7de 07bc 6a36 283d eddd 3bbe 3b58 cabc
000002e0: 2535 16be 8034 96bb dfe4 483e a07d 443e
000002f0: 4a90 853d 0f02 8cbd 25d9 423e 6f8e 20be
00000300: 92a4 8b3d 2e7b da3d cbf6 4fbe 51ff 8abd
00000310: 3eba 15be f792 4fbe dc40 233e 7de6 30be
00000320: c1be 003e 0b30 3cbe c0fe 1a3d 3876 09be
00000330: 8738 2a3e 8688 b6bd 9e38 d33d 2b11 86bd
00000340: 94f0 5d3d 1452 b4bd fa6a 08be a862 d23d
00000350: 7bc8 30be 5018 013d fba1 ca3d 389c 493e
00000360: 5614 17be a53c 943d 7d14 2e3c cad4 c8bd
00000370: 8173 44be 5324 1c3e a9a9 1f3e 0b3c 343e
00000380: 9797 1a3d 757f 34bd 3282 033d b3b7 193e
00000390: 97a3 e9bc 7d2c 1b3e f3aa 323e d7d1 b73d
000003a0: 2abc ffbd d0d1 aeba 3bbf 003e 24bd 263e
000003b0: f11d 32be 0137 103e a423 263d 346b ffbd
000003c0: 5bee febd ff90 9e3c 8985 2b3e 18ef 16be
000003d0: 3932 023e b6cd 393e a407 0ebd 1ee8 8dbd
000003e0: 6756 34bd 58a9 e93d 75f3 44be 78f7 483e
000003f0: 67f7 63bc 641d a63c 60cd 09bd a31c cf3d
-0.06937214 0.0070631863 -0.060219634 0.12976685 -0.09517524 0.090350635 0.19286574 0.05747002
-0.11464317 0.14792691 -0.01681245 -0.020906998 0.016409244 -0.15820362 0.08009382 0.03968613
-0.100559995 -0.10594366 0.08056832 0.030458918 0.09114914 0.002727444 0.15600921 -0.085681014
-0.041098736 0.1041221 -0.10386446 0.18578191 -0.12509972 -0.023382664 -0.057897512 0.060177416
0.13432175 -0.15999556 -0.0065786336 0.15447995 0.092271954 -0.033392247 -0.15491669 0.0139246965
0.007323944 -0.16337185 0.11446593 -0.018362055 -0.019556247 -0.14061674 -0.19770347 -0.09255257
0.13681963 0.0052785436 0.13080047 -0.008988647 0.054408576 0.052629042 -0.19040617 -0.058247015
-0.091351666 -0.0085618375 -0.15567 -0.06716782 0.13045776 0.10765778 -0.17571686 -0.1765022
0.11309034 0.1715619 -0.19481452 0.1422491 0.13422462 -0.13209738 -0.039347652 0.1462356
0.20263548 -0.099660166 0.10311275 -0.07233845 -0.0792922 0.06750124 -0.017359054 0.033840083
0.08948879 0.09467467 -0.054673202 -0.065332614 -0.079415016 -0.04098381 0.055612694 -0.14621426
-0.019365301 0.05528563 -0.077854775 -0.0033564407 0.10874016 0.14237528 -0.12161681 -0.1098676
0.1992741 -0.012921013 0.19472136 0.090144746 -0.113270715 -0.043199353 -0.11323833 0.13716623
-0.16083379 0.19290629 -0.18914644 -0.090681106 0.12988706 -0.12139606 -0.02596452 0.120998815
-0.16595578 -0.034529645 0.1068229 0.12366589 0.09295164 0.12311406 -0.029714556 -0.009576301
-0.036574267 0.03170326 0.03923971 -0.18239895 -0.1734501 0.19896255 0.03114096 0.09009377
0.034178704 0.17627396 -0.18261741 0.051938824 -0.031101102 -0.029096534 0.07629692 0.137848
0.15635726 0.09207069 0.032808803 0.048400443 0.08606526 0.20151268 0.15181999 0.17203285
-0.051706 -0.11997114 -0.13255645 -0.07173407 0.04677555 -0.13241345 -0.16078 0.054235954
0.018993 0.07591425 -0.1980348 -0.04186264 0.16410865 -0.15690833 0.066268384 -0.18302932
0.09018682 0.020825725 -0.0010787038 0.17883216 -0.092014045 0.18911272 0.049540758 0.1125614
-0.154807 0.06118823 0.013302708 0.047281124 0.18597724 0.19405216 -0.109635174 0.15830366
0.07051978 -0.13621618 -0.17792411 0.06564411 -0.008292831 0.04106752 -0.18346377 -0.024700275
-0.1466871 -0.004583895 0.19618557 0.19188547 0.065216616 -0.0683633 0.19028147 -0.15679334
0.06818499 0.10668026 -0.20308988 -0.06786979 -0.14621827 -0.20270906 0.1594271 -0.17275424
0.12572767 -0.18377702 0.037840605 -0.13424003 0.16623126 -0.089127585 0.10313533 -0.06546243
0.05418451 -0.08804718 -0.13322058 0.102727234 -0.17263977 0.031517327 0.098941766 0.19688499
-0.14753851 0.072381295 0.010625002 -0.09806211 -0.19184686 0.15248232 0.15592064 0.1760103
0.037742224 -0.044066865 0.032106586 0.15011482 -0.028520389 0.1515369 0.17448024 0.08975571
-0.12487061 -0.0013337675 0.12572949 0.16283089 -0.17394234 0.14083482 0.040561333 -0.12471619
-0.124478064 0.019356249 0.16750158 -0.14739645 0.12714471 0.18144879 -0.034675255 -0.069290385
-0.044027712 0.11409253 -0.19233496 0.19625652 -0.013913966 0.020277686 -0.033643126 0.10112884

transformer_encoder.layers.1.self_attn.in_proj_bias f4 [108]
00000000: 0000 0000 0000 0000 0000 0000 0000 0000
00000010: 0000 0000 0000 0000 0000 0000 0000 0000
00000020: 0000 0000 0000 0000 0000 0000 0000 0000
00000030: 0000 0000 0000 0000 0000 0000 0000 0000
00000040: 0000 0000 0000 0000 0000 0000 0000 0000
00000050: 0000 0000 0000 0000 0000 0000 0000 0000
00000060: 0000 0000 0000 0000 0000 0000 0000 0000
00000070: 0000 0000 0000 0000 0000 0000 0000 0000
00000080: 0000 0000 0000 0000 0000 0000 0000 0000
00000090: 0000 0000 0000 0000 0000 0000 0000 0000
000000a0: 0000 0000 0000 0000 0000 0000 0000 0000
000000b0: 0000 0000 0000 0000 0000 0000 0000 0000
000000c0: 0000 0000 0000 0000 0000 0000 0000 0000
000000d0: 0000 0000 0000 0000 0000 0000 0000 0000
000000e0: 0000 0000 0000 0000 0000 0000 0000 0000
000000f0: 0000 0000 0000 0000 0000 0000 0000 0000
00000100: 0000 0000 0000 0000 0000 0000 0000 0000
00000110: 0000 0000 0000 0000 0000 0000 0000 0000
00000120: bbb3 a937 4e0f 27b9 475d eb3a d731 5eb9
00000130: 27b1 993b bed3 7fb8 0b0f 2dba 8a1e 833a
00000140: 524b 09ba f865 88ba 9d3a 8539 c53b 32b7
00000150: 6b9d 87ba feab f638 fa63 b3ba 2f7c 92b6
00000160: 82b7 2bbb fd46 b53a 70d6 823b a235 42b9
00000170: dc37 9bbb d311 563a 7e80 10bb c275 7639
00000180: 70f3 a6bb 920a f33a b04d c6b8 a574 643a
00000190: 458c 643b 9cfa 77ba c876 29bb 0a74 523a
000001a0: 64a0 f73a ee9f 813b bf13 f1ba 9567 67b9
0.0 0.0 0.0 0.0 0.0 0.0 0.0 0.0
0.0 0.0 0.0 0.0 0.0 0.0 0.0 0.0
0.0 0.0 0.0 0.0 0.0 0.0 0.0 0.0
0.0 0.0 0.0 0.0 0.0 0.0 0.0 0.0
0.0 0.0 0.0 0.0 0.0 0.0 0.0 0.0
0.0 0.0 0.0 0.0 0.0 0.0 0.0 0.0
0.0 0.0 0.0 0.0 0.0 0.0 0.0 0.0
0.0 0.0 0.0 0.0 0.0 0.0 0.0 0.0
0.0 0.0 0.0 0.0 0.0 0.0 0.0 0.0
2.0230063e-05 -0.00015932063 0.0017956876 -0.00021190137 0.0046903077 -6.0993938e-05 -0.0006601668 0.0010003608
-0.0005237359 -0.0010406366 0.00025411407 -1.0623543e-05 -0.0010346597 0.0001176223 -0.0013686412 -4.365596e-06
-0.0026201908 0.001383036 0.003992848 -0.00018521262 -0.0047368836 0.0008166108 -0.0022049244 0.00023504256
-0.005094938 0.0018542579 -9.455846e-05 0.0008714891 0.0034873646 -0.0009459646 -0.0025858153 0.00080281554
0.0018892405 0.0039558327 -0.0018392726 -0.00022068464
