pipeline/Ankle_Controllers/agent_real_180.pth (torch, 854822 bytes, 27 tensors)

transformer_encoder.layers.0.self_attn.in_proj_weight f4 [108, 36]
0	0x3de6cc97	0.11269491
1	0xbd92b839	-0.07164044
2	0x3dd07c30	0.10179937
3	0xbd0c5f3e	-0.034270518
4	0x3e1036d3	0.14083414
5	0xbdebfdd9	-0.11523027
6	0x3d8e4ca9	0.069482155
7	0xbc0700df	-0.008239954
8	0x3b097354	0.0020973282
9	0x3d82ef23	0.06393268
10	0x3e0c8f22	0.13726476
11	0x3c29ed69	0.010371544
12	0x3e14ddf7	0.14537798
13	0x3e3dd4a4	0.18538147
14	0xbdd696d6	-0.104779884
15	0xbe410935	-0.18851168
16	0xbcccabd0	-0.02498427
17	0xbdc33432	-0.0953144
18	0x3e31096b	0.17288749
19	0x3e1524f7	0.14564882
20	0x3df22509	0.1182347
21	0x3d417ff5	0.04724117
22	0x3e1abcdd	0.15111108
23	0xbe2709b0	-0.16312289
24	0xbe0c82d7	-0.13721786
25	0xbe3084ef	-0.1723821
26	0xbe163850	-0.14669919
27	0xbe3604d9	-0.17775287
28	0xbdf7a0a2	-0.12091185
29	0x3d8b55a6	0.068034455
30	0xbe351a15	-0.17685731
31	0x3d64c5fa	0.055852868
32	0x3e4ddaf8	0.20103061
33	0xbe4bbedb	-0.19897024
34	0x3dd9fd32	0.10643996
35	0x3dc904c5	0.09815363
36	0x3e2155a0	0.1575532
37	0xbd5857a1	-0.052817944
38	0xbdf1a210	-0.11798489
39	0x3e3e6fc5	0.18597324
40	0x3e26abf0	0.16276526
41	0xbdb34842	-0.087540165
42	0xbe1916f7	-0.14950167
43	0x3cfd7a8f	0.03094223
44	0xbe084583	-0.13307767
45	0x3e0dd9de	0.13852641
46	0x3db18e33	0.086697005
47	0xbdc70c8c	-0.0971919
48	0xbdcc1004	-0.09963992
49	0xbd8868f3	-0.066606425
50	0xbccdcf8f	-0.025123386
51	0x399839c0	0.00029034726
52	0xbdfe01f5	-0.12402717
53	0xbd7421e4	-0.059602633
54	0xbe4df1f9	-0.20111836
55	0xbe2c1fb7	-0.16808973
56	0xbd7e2a0e	-0.062051825
57	0x3d2df5f2	0.04247088
58	0xbcd2d627	-0.025736881
59	0x3db81cfe	0.08989905
60	0x3ded4f57	0.115873985
61	0x3cdc5f7a	0.026900996
62	0xbd952b3a	-0.072836354
63	0xbd9c09f9	-0.0761909
64	0xbe0576d5	-0.13033612
65	0xbd48f5cb	-0.04906253
66	0x3da84502	0.08216287
67	0xbdb23a88	-0.0870257
68	0xbd9d7dc3	-0.07690003
69	0x3db856f4	0.0900096
70	0x3e25b25a	0.16181317
71	0x3cfd1281	0.030892612
72	0xbe4af111	-0.19818522
73	0xbe087ea4	-0.1332956
74	0xbbba6515	-0.0056883194
75	0xbded90a6	-0.11599855
76	0xbd9d8ff4	-0.076934725
77	0xbdf8f61e	-0.12156318
78	0x3daba961	0.08381916
79	0x3d8e3124	0.069429666
80	0x3e492cff	0.19646071
81	0xbd7931e0	-0.06083858
82	0x3e405bf3	0.18785076
83	0xbdd5ec4e	-0.10445462
84	0xbd92ba05	-0.07164387
85	0x3e0ddfc2	0.13854888
86	0x3e37e71d	0.17959256
87	0x3d357c57	0.044308033
88	0xbe415f37	-0.18883978
89	0xbe456f2b	-0.19280688
90	0xbdb0ec0d	-0.08638773
91	0x3a6cc571	0.00090321066
92	0xbc983c9c	-0.018583588
93	0x3de05383	0.109534286
94	0x3e2188a5	0.15774782
95	0x3c24b9e8	0.010054089
96	0x3e08e52d	0.13368674
97	0x3e2f92b4	0.17145807
98	0xbe46c9cc	-0.19412917
99	0xbe056e6b	-0.13030402
100	0x3e1e1011	0.15435816
101	0x3e1ec557	0.15504967
102	0xbd56292c	-0.05228536
103	0x3e1da9d5	0.15396817
104	0xbd661d08	-0.05618003
105	0x3e05b52d	0.13057394
106	0xbda6c82d	-0.08143649
107	0xbe1624e2	-0.14662507
108	0x3e2ab833	0.16671829
109	0x3debc494	0.11512104
110	0x3e1a848e	0.15089628
111	0xbc70974d	-0.01468451
112	0xbcb7e6af	-0.022448866
113	0x3e4a8024	0.19775444
114	0x3d06e65d	0.032934535
115	0xbd37af5e	-0.044844978
116	0x3e3d9916	0.18515429
117	0xbc87f781	-0.016597511
118	0xbe24d729	-0.16097702
119	0xbe141c4e	-0.14463922
120	0xbdfcadcc	-0.123378366
121	0x3e21585a	0.1575636
122	0xbbcfef7f	-0.006345689
123	0x3d4e7075	0.050400216
124	0xbdf6e31a	-0.12055035
125	0xbe412de4	-0.18865162
126	0xbdc4c8cb	-0.09608611
127	0x3e0f91b4	0.14020425
128	0x3e03b29d	0.12861104
129	0x3cc18720	0.023624003
130	0x3e13168f	0.14364074
131	0x3dcc7a15	0.09984223
132	0x3e3e892b	0.18607013
133	0x3d080a91	0.033213202
134	0x3e339b70	0.17539763
135	0x3da3f817	0.08006304
136	0xbdbe1e8c	-0.0928317
137	0x3d616fcb	0.055038255
138	0xbe21fbad	-0.15818663
139	0x3d724866	0.059151076
140	0xbd05ab9a	-0.032634355
141	0xbd90e75e	-0.0707538
142	0xbda4ca2f	-0.08046376
143	0x3dd68f8d	0.10476599
144	0x3d410a75	0.047129113
145	0x3dbd9662	0.09257199
146	0xbd009fa6	-0.031402253
147	0xbe2fb1ae	-0.17157623
148	0xbdd0194e	-0.101610765
149	0x3e13f4e5	0.14448889
150	0x3e4b17a9	0.19833244
151	0xbd9a926c	-0.07547459
152	0x3e276fa4	0.16351181
153	0x3da0569d	0.0782902
154	0xbe50a3f9	-0.2037505
155	0xbd81999d	-0.063281275
156	0x3e4d5795	0.20052941
157	0xbd881d9a	-0.06646271
158	0xbd153fdb	-0.03643785
159	0xbe189da8	-0.14903891
160	0x3d5458d7	0.051842537
161	0x3e161121	0.14654972
162	0x3d36d0ab	0.044632595
163	0xbd93e4dc	-0.07221386
164	0x3cd6be42	0.026213769
165	0xbb01ad1f	-0.0019787026
166	0x3d8ea1de	0.069644675
167	0xbe18996a	-0.14902273
168	0xbdfa6ce4	-0.122278005
169	0x3d098797	0.033576574
170	0x3ce74987	0.028233303
171	0xbd6d38ed	-0.057915617
172	0x3e10dd2b	0.14146869
173	0x3da7c83a	0.08192487
174	0x3db50ead	0.0884069
175	0xbe009cb7	-0.12559782
176	0x3848732e	4.7790985e-05
177	0x3d896d48	0.06710297
178	0x3d0545a4	0.032537118
179	0x3df92a94	0.12166324
180	0xbbb2bf54	-0.005454937
181	0x3e3be9db	0.18350928
182	0x3db62ec2	0.08895637
183	0x3c595b1f	0.013266354
184	0x3de15df2	0.11004247
185	0xbe3345ef	-0.17507146
186	0xbd58c396	-0.0529209
187	0x3e3bef01	0.18352892
188	0x3d00a5a5	0.03140797
189	0xbe43122d	-0.19049902
190	0x3de8aca1	0.11361051
191	0x3c026d4d	0.00796063
192	0x3e2e0342	0.1699343
193	0x3d8dd447	0.06925254
194	0x3d774a4d	0.060373593
195	0xbe3eed8b	-0.18645303
196	0x3e493ea9	0.19652809
197	0x3e426012	0.1898196
198	0xbe197eb7	-0.14989744
199	0xbd2def0e	-0.04246431
200	0x3e0e25da	0.13881627
201	0x3e482bb6	0.19547924
202	0xbd52b46b	-0.05144159
203	0x3e275ba2	0.16343549
204	0x3da478ad	0.080308296
205	0x3e04aec0	0.12957287
206	0x3e3e1b79	0.18565167
207	0x3daab011	0.08334363
208	0xbdded5f0	-0.10880649
209	0xbe50aeff	-0.20379256
210	0x3d71dd70	0.05904907
211	0xbd9b6cb9	-0.075890966
212	0x3d54ca83	0.051950943
213	0xbdbe7d87	-0.09301286
214	0xbdd1b061	-0.1023872
215	0xbe2e9ec5	-0.17052753
216	0xbd7c1881	-0.061546806
217	0xbe35a9fd	-0.17740627
218	0xbe030821	-0.1279607
219	0x3dc1dd62	0.094660535
220	0xbdac679c	-0.084181994
221	0x3e1c0080	0.15234566
222	0x3b27c217	0.0025597864
223	0x3e315bab	0.17320125
224	0xbdf2fe91	-0.11864961
225	0xbd0217ed	-0.0317611
226	0xbd4b4ed6	-0.04963573
227	0x3e2880e6	0.16455421
228	0xbe16451f	-0.14674805
229	0xbe157aee	-0.14597675
230	0x3d05e643	0.032690298
231	0x3e3f6506	0.18690881
232	0xbe339f69	-0.17541279
233	0xbc1bfdee	-0.009520991
234	0x3d83812a	0.064211205
235	0xbe170051	-0.14746214
236	0xbd741e99	-0.059599493
237	0xbd60f87b	-0.05492447
238	0x3d33d593	0.043904852
239	0xbd336c7a	-0.043804623
240	0x3d4e1c62	0.050320037
241	0xbb91cbe6	-0.0044493554
242	0x3e0d8eaa	0.13823953
243	0xbde06f9a	-0.10958786
244	0x3e38abbc	0.18034261
245	0xbe09ae28	-0.13445342
246	0xbcc3623a	-0.023850549
247	0xbe2f4336	-0.17115483
248	0x3e2042c3	0.15650468
249	0xbd962ae8	-0.073324025
250	0x3d1855e5	0.03719129
251	0x3c936122	0.017990652
252	0x3e4d689f	0.20059441
253	0x3e03792c	0.12839192
254	0xbe13484c	-0.14383048
255	0xbde21689	-0.110394545

transformer_encoder.layers.0.self_attn.in_proj_bias f4 [108]
0	0x00000000	0.0
1	0x00000000	0.0
2	0x00000000	0.0
3	0x00000000	0.0
4	0x00000000	0.0
5	0x00000000	0.0
6	0x00000000	0.0
7	0x00000000	0.0
8	0x00000000	0.0
9	0x00000000	0.0
10	0x00000000	0.0
11	0x00000000	0.0
12	0x00000000	0.0
13	0x00000000	0.0
14	0x00000000	0.0
15	0x00000000	0.0
16	0x00000000	0.0
17	0x00000000	0.0
18	0x00000000	0.0
19	0x00000000	0.0
20	0x00000000	0.0
21	0x00000000	0.0
22	0x00000000	0.0
23	0x00000000	0.0
24	0x00000000	0.0
25	0x00000000	0.0
26	0x00000000	0.0
27	0x00000000	0.0
28	0x00000000	0.0
29	0x00000000	0.0
30	0x00000000	0.0
31	0x00000000	0.0
32	0x00000000	0.0
33	0x00000000	0.0
34	0x00000000	0.0
35	0x00000000	0.0
36	0x00000000	0.0
37	0x00000000	0.0
38	0x00000000	0.0
39	0x00000000	0.0
40	0x00000000	0.0
41	0x00000000	0.0
42	0x00000000	0.0
43	0x00000000	0.0
44	0x00000000	0.0
45	0x00000000	0.0
46	0x00000000	0.0
47	0x00000000	0.0
48	0x00000000	0.0
49	0x00000000	0.0
50	0x00000000	0.0
51	0x00000000	0.0
52	0x00000000	0.0
53	0x00000000	0.0
54	0x00000000	0.0
55	0x00000000	0.0
56	0x00000000	0.0
57	0x00000000	0.0
58	0x00000000	0.0
59	0x00000000	0.0
60	0x00000000	0.0
61	0x00000000	0.0
62	0x00000000	0.0
63	0x00000000	0.0
64	0x00000000	0.0
65	0x00000000	0.0
66	0x00000000	0.0
67	0x00000000	0.0
68	0x00000000	0.0
69	0x00000000	0.0
70	0x00000000	0.0
71	0x00000000	0.0
72	0x3a8548de	0.0010168811
73	0xbb337944	-0.0027385512
74	0x3a5750a1	0.0008213614
75	0x3acebf37	0.0015773539
76	0xba0d66e9	-0.0005394058
77	0xbb29cacb	-0.0025908228
78	0x3a80ea1f	0.0009835399
79	0x3aa1cb59	0.0012343928
80	0xba55e7e9	-0.00081598625
81	0x3b27451b	0.0025523368
82	0xbac8b038	-0.0015311306
83	0x3ae5e1a7	0.0017538563
84	0x3aab57ef	0.0013072471
85	0xbb12abe5	-0.002238029
86	0xbb973716	-0.004614721
87	0xbb11d25e	-0.0022250633
88	0xbb3f36bb	-0.002917691
89	0xbadc386c	-0.0016801483
90	0x3ac4e004	0.0015020375
91	0x3ab64784	0.0013906811
92	0x36ce4976	6.1478304e-06
93	0x3b7f4752	0.0038952422
94	0x39f06a90	0.00045855762
95	0xbb0d2460	-0.0021536574
96	0x386a7fd0	5.5908982e-05
97	0xbb6a86ae	-0.0035785842
98	0xba7b656e	-0.00095900043
99	0xbaba7598	-0.001422572
100	0x38b3b898	8.5697684e-05
101	0x3a8b1993	0.001061248
102	0x3ad77aa3	0.0016439747
103	0xba2c98dc	-0.0006584057
104	0x3a9136d0	0.0011078957
105	0xbb1ad310	-0.0023624338
106	0x3a76ab1c	0.00094096526
107	0x3b5965d1	0.003317226

transformer_encoder.layers.0.self_attn.out_proj.weight f4 [36, 36]
0	0x3cf63bd0	0.030057818
1	0x3dede37a	0.11615653
2	0x3c180cfa	0.009280438
3	0x3de7dd16	0.11321466
4	0x3c34065e	0.010987846
5	0x3de5c0d8	0.11218423
6	0x3d584903	0.052804004
7	0xbdd895ea	-0.10575469
8	0xbd68b4d5	-0.05681308
9	0xbdb9094a	-0.09034975
10	0xbdfa0799	-0.122084804
11	0x3d4fffe7	0.050781157
12	0x3d77413e	0.060364954
13	0x3e1c4084	0.15258986
14	0x3ddcc5f1	0.10779942
15	0x3dd0faea	0.10204108
16	0x3dd6084c	0.10450801
17	0x3c92ec9b	0.017935088
18	0xbd585f78	-0.05282542
19	0x3dabc3f2	0.08386983
20	0x3d1481fa	0.036256768
21	0xbd8c0f5d	-0.06838868
22	0x3e0c53fc	0.13703912
23	0xbe0b72a2	-0.13617948
24	0x3cd2d502	0.025736336
25	0x3e22b6e3	0.15890078
26	0xbd9037b0	-0.070418715
27	0x3e1cee4a	0.15325275
28	0x3df42305	0.11920742
29	0x3dfa76c9	0.12229688
30	0xbe02d66a	-0.12777105
31	0xbbf64ad3	-0.007516244
32	0x3bd799af	0.0065796
33	0x3dadc250	0.08484328
34	0x3d9a755c	0.07541916
35	0x3db990a8	0.09060794
36	0xbb3cb5de	-0.0028794925
37	0xbe15774a	-0.14596286
38	0x3d00c9c3	0.031442415
39	0xbd881f6c	-0.06646618
40	0xbd1eb51d	-0.03874694
41	0x3d73d029	0.05952469
42	0xbad370dc	-0.0016131657
43	0x3d5d7e8d	0.054075766
44	0x3ddc1ffc	0.10748288
45	0x3e227a86	0.15867051
46	0xbcc52cf6	-0.02406929
47	0x3dd36c0f	0.10323345
48	0xbe1780f6	-0.14795288
49	0xbe121f52	-0.1426976
50	0xbdd7e6ad	-0.10542045
51	0x3e21c071	0.15796067
52	0xbcdaa000	-0.026687622
53	0x3d9be48c	0.07611951
54	0xbe163ebe	-0.14672372
55	0xbe0b76da	-0.13619557
56	0xbc591de9	-0.01325176
57	0xbdc62c1d	-0.09676383
58	0x3e2849a9	0.16434349
59	0x3d9635c4	0.07334474
60	0x3dd94c65	0.10610274
61	0xbe202d25	-0.15642221
62	0xbd06fb44	-0.03295447
63	0xbdf4a819	-0.119461246
64	0xbdcfd14d	-0.10147343
65	0x3e2c982a	0.16854921
66	0x3dd3b00c	0.10336313
67	0x3e1f2467	0.1554123
68	0x3dcbf056	0.0995795
69	0xbdb35ed9	-0.08758325
70	0x3df99e9b	0.12188455
71	0x3e145f99	0.14489593
72	0x3d8d09d4	0.0688664
73	0xbda08e4b	-0.0783964
74	0x3cd08ec5	0.025458703
75	0x3e03570c	0.12826174
76	0x3e06d6eb	0.13167922
77	0x3e214f19	0.1575283
78	0x3e0df959	0.1386465
79	0x3e062d86	0.13103303
80	0xbe008fa6	-0.12554798
81	0xbddee046	-0.108826205
82	0x3cb5af94	0.022178449
83	0xbde30a86	-0.110859916
84	0xbe023235	-0.12714465
85	0x3d260726	0.04053416
86	0xbd5bb58c	-0.053639933
87	0x3d440288	0.047853976
88	0xbd525e2c	-0.05135934
89	0x3d25bcfb	0.04046343
90	0x3decccc4	0.115624934
91	0xbdc94510	-0.09827626
92	0xbe0177ac	-0.12643307
93	0xbe208ccd	-0.15678711
94	0x3dbef732	0.093244925
95	0x3d44b7a7	0.048026707
96	0x3c27cb5d	0.010241357
97	0x3cf4b8ae	0.029873218
98	0xbdde433c	-0.10852668
99	0x3de8536c	0.113440365
100	0xbd65f7c1	-0.05614448
101	0x3e283af7	0.16428743
102	0x3d9d0262	0.0766647
103	0xbe12d0d5	-0.14337476
104	0xbc1966c0	-0.009362876
105	0xbd5c6463	-0.053806674
106	0xbd4c72fc	-0.049914345
107	0xbdd052a3	-0.10172012
108	0xbdfb1e3f	-0.12261628
109	0xbddf9548	-0.10917145
110	0x3de14fb4	0.1100153
111	0xbdd94264	-0.10608366
112	0x3d8d40b6	0.06897108
113	0xbda00704	-0.07813838
114	0x3deee7cf	0.11665308
115	0xbd809171	-0.06277741
116	0xbdccb9b5	-0.09996358
117	0x3e2337ea	0.15939298
118	0xbda08f63	-0.07839849
119	0xbd9afeb9	-0.07568116
120	0xbd3e7fa3	-0.046508443
121	0xbd7a1b0a	-0.061060943
122	0xbd890744	-0.06690839
123	0xbc87d90f	-0.016582994
124	0x3e1ecf1c	0.15508693
125	0xbd2a7f55	-0.04162534
126	0x3e049db9	0.12950791
127	0x3cc48f56	0.02399413
128	0xbc34d3b8	-0.011036806
129	0x3e28dbf4	0.16490155
130	0xbd0ceaa8	-0.034403473
131	0xbcba3483	-0.022730118
132	0xbd957a1f	-0.072986834
133	0xbd034a65	-0.03205337
134	0x3d23ee17	0.040021982
135	0x3da384d7	0.079843216
136	0x3e111d60	0.14171362
137	0x3da65e3b	0.08123442
138	0x3de3cf9f	0.11123585
139	0x3d3a94d7	0.0455521
140	0xbddd0897	-0.10792654
141	0xbdab1e5b	-0.08355399
142	0x3cab01d2	0.020874891
143	0xbc1a0013	-0.009399432
144	0xbd9eed49	-0.07760102
145	0xbd5265d2	-0.051366635
146	0x3e142c33	0.14469986
147	0x3d22022f	0.039552864
148	0xbdbf68fa	-0.093461946
149	0x3b75ce31	0.0037506933
150	0xbdda319d	-0.10653994
151	0x3e08c3b8	0.13355911
152	0x3dbb3a91	0.0914203
153	0xbcf462a2	-0.029832188
154	0xbd900dec	-0.070339054
155	0xbdb2350b	-0.087015234
156	0xbe04abfd	-0.12956233
157	0xbddfdb1c	-0.10930464
158	0x3e10281f	0.14077805
159	0xbdcaf92a	-0.099108055
160	0x3d9d4096	0.076783344
161	0xbe194071	-0.14965989
162	0x3dd4ef84	0.103972465
163	0x3db3ba1e	0.087757334
164	0x3d06c33a	0.032901026
165	0xbe0104f5	-0.12599547
166	0x3c3f6e19	0.011683964
167	0xbd5bb75d	-0.053641666
168	0x3d191dcd	0.037381936
169	0xbd1636be	-0.0366733
170	0xbe07dea9	-0.13268532
171	0xbe0e84cc	-0.13917845
172	0xbd0bf953	-0.03417332
173	0xbe07aeb0	-0.13250232
174	0x3df1e544	0.11811307
175	0xbd2f1084	-0.04274036
176	0x3e1d9df7	0.1539229
177	0xbe0c6ccb	-0.13713376
178	0x3ca447e9	0.02005382
179	0x3d2c3530	0.04204291
180	0x3da0d126	0.07852392
181	0x3d57b35d	0.05266129
182	0xbdb1c73d	-0.0868058
183	0x3e0eb2c7	0.13935386
184	0xbe0e8b5a	-0.13920346
185	0xbb1d5c87	-0.002401145
186	0xbcf0ab9c	-0.029378705
187	0x3d31e9b7	0.04343578
188	0xbe065241	-0.13117315
189	0xbde3c932	-0.11122359
190	0xbcce2b2d	-0.025167072
191	0x3deda7fc	0.11604306
192	0x3d14502f	0.03620928
193	0x3def350c	0.1168004
194	0xbdb999c5	-0.09062532
195	0x3cef0fb4	0.029182293
196	0xbe0b00ac	-0.13574475
197	0xbd2ce552	-0.042210884
198	0xbd6fe236	-0.05856534
199	0x3d4205ef	0.04736894
200	0xbd541bdb	-0.051784378
201	0xbc0dc066	-0.008651828
202	0xbd74a2f5	-0.05972572
203	0x3dd6c340	0.1048646
204	0x3bb146e4	0.005410062
205	0xbe244235	-0.16040881
206	0xbcd36403	-0.025804525
207	0xbcbdb739	-0.023158656
208	0xbd6c5d92	-0.057706423
209	0xbe1b5321	-0.1516843
210	0x3e22457f	0.15846823
211	0x3dfbe7ee	0.123000965
212	0xbd8b6fce	-0.068084344
213	0x3d9a1677	0.07523816
214	0xbe0abd49	-0.13548769
215	0x3e083899	0.1330284
216	0xbd890cdc	-0.06691906
217	0x3d758dcc	0.05994968
218	0x3de2abac	0.110679
219	0xbcd77372	-0.026300166
220	0xbdae7a09	-0.0851937
221	0xbbda8cf3	-0.0066696345
222	0xbe24a4ea	-0.16078535
223	0xbda13a7e	-0.078724846
224	0x3e0f207c	0.13977236
225	0x3e0ea25f	0.13929127
226	0x3e2578d5	0.16159375
227	0xbc99bb9e	-0.01876622
228	0x3dcea8fb	0.10090824
229	0x3e1b64c0	0.15175152
230	0x3d73f07c	0.059555516
231	0x3db66e2f	0.089077346
232	0x3df4fbbc	0.11962077
233	0x3ceb4d07	0.028723253
234	0xbe1d9dfb	-0.15392296
235	0xbd9977e1	-0.07493568
236	0x3dfc17dc	0.12309238
237	0x3d1d21c5	0.038362283
238	0xbe1e673a	-0.15469065
239	0x3e134e6e	0.14385387
240	0x3d051973	0.032494973
241	0xbdf23220	-0.11825967
242	0xbdcfd4e9	-0.10148031
243	0xbcb796a6	-0.022410702
244	0x3de658cb	0.11247405
245	0x3db6b47b	0.08921143
246	0xbd121577	-0.035665
247	0xbdc10c6c	-0.094261974
248	0xbe031715	-0.12801774
249	0x3e01ec85	0.12687881
250	0x3e067584	0.13130766
251	0x3d9254d6	0.071450874
252	0xbcae4610	-0.021273643
253	0x3d35550a	0.044270553
254	0x3d805b4c	0.062674135
255	0x3dd60964	0.1045101

transformer_encoder.layers.0.self_attn.out_proj.bias f4 [36]
0	0xbb049286	-0.0020228936
1	0x3b3052fa	0.0026904927
2	0x3a7dfa0d	0.00096884446
3	0x3ae0aa36	0.001714057
4	0x3ab2d2f0	0.0013643187
5	0x3b0de090	0.0021648742
6	0xbad0e3ec	-0.0015937067
7	0x3acd8307	0.0015679308
8	0xbb07d851	-0.00207283
9	0xb9008e42	-0.00012260026
10	0xbb3627f6	-0.0027794815
11	0xbaa8d7f7	-0.0012881745
12	0xbb5a8364	-0.0033342475
13	0xba95853a	-0.0011407502
14	0xb999b2de	-0.000293157
15	0xb95b3cc7	-0.00020908109
16	0xbb235761	-0.0024923908
17	0x3b297f37	0.002586318
18	0x3a3753ff	0.00069934124
19	0xba781870	-0.00094640907
20	0x3a986c8c	0.0011629029
21	0x3b1a1264	0.0023509497
22	0x3a7998df	0.0009521376
23	0x3b02e742	0.0019974266
24	0x382a252c	4.0565777e-05
25	0x3b1549c1	0.0022779556
26	0x3ab72aa7	0.0013974503
27	0xbaac07e3	-0.0013124909
28	0xba1c770b	-0.00059686665
29	0xbabf0d7d	-0.0014576163
30	0x3b062993	0.0020471558
31	0x3b1cc928	0.002392361
32	0xbae164b0	-0.0017196145
33	0xbb06c33e	-0.002056315
34	0x3af5fd9f	0.0018767602
35	0xbab6acd6	-0.0013937007

transformer_encoder.layers.0.linear1.weight f4 [128, 36]
0	0xbe123d4c	-0.14281195
1	0x3da16949	0.0788141
2	0x3e108c5a	0.1411604
3	0x3dfd353c	0.12363669
4	0x3e244745	0.16042812
5	0xbb2ea091	-0.0026645998
6	0x3deb51aa	0.114901856
7	0xbd38153d	-0.04494213
8	0x3d757308	0.059924155
9	0xbdb42ed3	-0.087979935
10	0x3d274a39	0.04084227
11	0xbba03eb8	-0.004890289
12	0x3e16d9ae	0.14731476
13	0xbd78dfae	-0.060760193
14	0x3e1b913f	0.15192126
15	0xbd86ddfa	-0.065853074
16	0xbe1f46ce	-0.15554354
17	0x3da95131	0.08267439
18	0xbdb377f9	-0.08763117
19	0xbe044230	-0.12915874
20	0xbba16936	-0.004925872
21	0x3c5dc478	0.013535611
22	0x3d3e2ce9	0.04642955
23	0xbd682293	-0.056673598
24	0xbe0a5901	-0.13510515
25	0xbd5cc6e9	-0.053900633
26	0x3d4eb9ce	0.050470166
27	0x3d8e1f95	0.069396175
28	0x3e2b00d3	0.16699533
29	0x3cec0fb6	0.028816085
30	0x3d9bc560	0.07606006
31	0xbda8e276	-0.08246319
32	0xbd920cf7	-0.07131379
33	0xbc05159f	-0.008122831
34	0x3df51aa0	0.11967969
35	0x3d40b714	0.047049597
36	0xbe06cecf	-0.13164829
37	0x3d7f6f72	0.062362142
38	0xbd601a6a	-0.05471269
39	0x3d99441e	0.074836954
40	0x3d9596ad	0.0730413
41	0x3e015842	0.12631324
42	0xbdeb839f	-0.11499714
43	0xbd4f1d88	-0.050565273
44	0xbdbcb373	-0.09213915
45	0x3d30e365	0.04318561
46	0x3da822c1	0.08209754
47	0xbdd652cf	-0.10465013
48	0xbdf5d0f2	-0.12002744
49	0x3c8284fe	0.015932556
50	0xbdf31f14	-0.11871162
51	0x3d800f98	0.06252974
52	0x3dff042c	0.124519676
53	0x3dd77e1f	0.105221026
54	0x3c25de9b	0.010123874
55	0x3d063483	0.032764923
56	0xbe0d1099	-0.13775863
57	0x3d1ce598	0.038304895
58	0x3cf66738	0.030078515
59	0x3dacf9a5	0.084460534
60	0x3e00db02	0.12583545
61	0xbdd5faaf	-0.10448205
62	0x3c81858a	0.015810747
63	0xbdc3463d	-0.09534881
64	0xbdd04f49	-0.101713724
65	0x3d36ed1a	0.04465971
66	0x3dc6cf24	0.09707478
67	0xbe0766cc	-0.13222808
68	0x3e242888	0.16031086
69	0x3e24345f	0.16035603
70	0xbe1aab03	-0.15104298
71	0xbdfff947	-0.12498718
72	0x3b8113a7	0.0039391103
73	0x3e083411	0.13301112
74	0x3e0fea48	0.14054215
75	0xbdbf6a83	-0.093464874
76	0x3dd7fd43	0.10546353
77	0x3d6e5629	0.058187637
78	0xbd815c72	-0.06316461
79	0x3de00006	0.109375045
80	0xbdb3056b	-0.08741268
81	0x3c8eeadf	0.01744598
82	0xbc68071f	-0.014161854
83	0x3c8f096a	0.017460544
84	0x3c663b30	0.014052197
85	0x3d6f2330	0.058383167
86	0xbe1b5bbb	-0.15171711
87	0xbda9b1c5	-0.0828586
88	0x3de1a50e	0.1101781
89	0x3ad26990	0.0016053189
90	0x3e2193b2	0.15778998
91	0x3d906e98	0.07052344
92	0x3daefde9	0.08544523
93	0x3e226d7d	0.15862079
94	0x3db824c0	0.089913845
95	0xbd3052f1	-0.04304785
96	0x3e0561a6	0.13025531
97	0x3de35549	0.11100251
98	0x3d505efe	0.05087184
99	0x3d019586	0.031636737
100	0xbe09f3e7	-0.13471948
101	0x3d07456d	0.033025194
102	0xbe09b7f5	-0.1344908
103	0x3c954323	0.01822049
104	0xbb7c82de	-0.0038530151
105	0xbdc8cc4d	-0.09804592
106	0x3c2122d5	0.009834965
107	0xbdd4cedf	-0.1039102
108	0x3e020076	0.12695488
109	0x3d7f33b4	0.062305167
110	0x3e193e25	0.14965113
111	0xbe038b12	-0.1284602
112	0xbcbf8f8a	-0.023383874
113	0xbd0a1d30	-0.03371924
114	0xbe234ffe	-0.15948483
115	0x3c8dc678	0.017306551
116	0x3cff140a	0.031137485
117	0x3dfbc7d4	0.122939736
118	0xbe118a93	-0.14213018
119	0x3dbac0d7	0.091188125
120	0xbdb9ca4e	-0.0907179
121	0x3dc3e97b	0.09566017
122	0xbd3eb347	-0.04655769
123	0xbc3b7425	-0.011441265
124	0x3dadb530	0.084818244
125	0x3c85e2e8	0.016343549
126	0xbc325c2e	-0.010886235
127	0x3b5a5be8	0.003331894
128	0x3dfa57fd	0.12223814
129	0x3d3f6921	0.046731118
130	0x3d4d912d	0.05018728
131	0x3cd29fcf	0.025710968
132	0xbd5e83e0	-0.054324985
133	0xbd8fd658	-0.07023305
134	0xbde9509c	-0.11392328
135	0xbd8b12a1	-0.067906626
136	0x3de3f7d0	0.11131251
137	0x3e14e887	0.14541827
138	0x3dc9c41c	0.09851858
139	0x3e1619e3	0.14658312
140	0xbe043e6d	-0.12914439
141	0x3e093cda	0.1340212
142	0xbdfbd72b	-0.122968994
143	0x3e23af14	0.15984756
144	0xbdd19e05	-0.10235218
145	0x3c0b35b4	0.008496691
146	0x3c8fea8b	0.017567893
147	0xba9354ce	-0.0011240484
148	0x3e037c08	0.12840283
149	0xbe27fad3	-0.16404276
150	0x3e21a9db	0.15787451
151	0xbdfe3bf8	-0.12413782
152	0x3d13e119	0.03610334
153	0x3dbe3e20	0.09289193
154	0xbd27d623	-0.0409757
155	0xbdbf6523	-0.09345462
156	0x3e06e584	0.13173491
157	0x3cff0f76	0.031135302
158	0x3c66be4d	0.014083457
159	0x3d33e155	0.043916065
160	0x3de765de	0.112987265
161	0x3d2bf46f	0.041981157
162	0x3de01794	0.10941997
163	0xbc90a0fc	-0.017654888
164	0xbd53ec73	-0.051739167
165	0x3e1f452b	0.15553729
166	0xbccee425	-0.025255272
167	0x3e1595bc	0.146079
168	0xbd4a8403	-0.049442302
169	0xbb884497	-0.004158567
170	0x3df2cc80	0.118554115
171	0xbe08d2e6	-0.13361701
172	0xbd59b6a8	-0.05315271
173	0xbd8026d7	-0.06257408
174	0x3c098e66	0.008395767
175	0xbd7bd843	-0.06148554
176	0x3e0110db	0.12604086
177	0xbd84ec26	-0.06490354
178	0xbd769526	-0.060200833
179	0x3d867d94	0.06566921
180	0xbc7f7e3d	-0.015594062
181	0x3da3b222	0.079929605
182	0x3e1011a0	0.14069223
183	0x3da69754	0.08134332
184	0xbe13df8c	-0.14440745
185	0xbd0caac1	-0.03434253
186	0x3d90c987	0.07069688
187	0x3de7076c	0.112807125
188	0xbe19d2b8	-0.15021789
189	0x3ccfb127	0.025353028
190	0x3d1fdde7	0.039029982
191	0x3e229cf7	0.1588019
192	0xbe179bcb	-0.14805524
193	0xbccdec7b	-0.025137177
194	0x3da03cf6	0.078241274
195	0xbdf96a44	-0.12178472
196	0xbe137f17	-0.1440395
197	0x3da06864	0.07832411
198	0x3d6396e3	0.05556382
199	0xbd8e7005	-0.0695496
200	0x3bd30a3f	0.0064404304
201	0x3cac4afa	0.021031845
202	0x3de3c4bc	0.111215085
203	0x3d8c6885	0.06855873
204	0x3d84a05b	0.06475898
205	0xbbac4250	-0.0052569285
206	0x3d9979d8	0.07493943
207	0x3d15a317	0.036532488
208	0x3d8e313a	0.06942983
209	0x3dfd645c	0.12372658
210	0xbca3d560	-0.019999206
211	0xbc76a531	-0.015054033
212	0xbe0d80a3	-0.13818602
213	0xbd35e704	-0.044409767
214	0xbddf0ec4	-0.10891488
215	0x3e1efd82	0.15526393
216	0xbe183eb3	-0.14867668
217	0xbdb999bb	-0.09062525
218	0x3e146b24	0.14493996
219	0xbc3d87ba	-0.011568004
220	0x3dee25c7	0.11628299
221	0x3d0d7068	0.034531027
222	0xbd51f172	-0.05125565
223	0xbd6a76db	-0.057242256
224	0x3dcf80ee	0.10132013
225	0xbe192c12	-0.14958218
226	0xbe29100d	-0.16510029
227	0xbde1a2d3	-0.110173844
228	0xbdac0648	-0.083996356
229	0x3c95f01f	0.018302975
230	0x3dd1a995	0.10237423
231	0xbdf49bd1	-0.11943782
232	0x3e0e0c7e	0.13871953
233	0x3df8005b	0.12109443
234	0x3de2eef6	0.110807344
235	0x3e033069	0.12811436
236	0xbdc5c641	-0.096569546
237	0xbe16ba71	-0.14719559
238	0xbdcddb14	-0.100515515
239	0x3d796070	0.060882986
240	0x3c9ef792	0.01940516
241	0x3d8af4b1	0.067849524
242	0x3e00f1eb	0.12592284
243	0x3e241193	0.16022329
244	0x3e2017e1	0.15634109
245	0xbe19082d	-0.14944525
246	0xbcd87634	-0.026423551
247	0x3d99a4b7	0.0750212
248	0x3a689f9b	0.0008873881
249	0xbcf70141	-0.030151965
250	0x3d317832	0.043327518
251	0xbce5432d	-0.027986133
252	0xbe094fbb	-0.13409321
253	0xbd74a376	-0.0597262
254	0xbde48dd2	-0.111598626
255	0x3e1addd1	0.15123679

transformer_encoder.layers.0.linear1.bias f4 [128]
0	0xbe243597	-0.16036068
1	0x3d1a3ae1	0.037653808
2	0xbba1fc5e	-0.0049434146
3	0x3e183d8f	0.14867233
4	0x3da1dd98	0.07903594
5	0x3e1d33b2	0.15351751
6	0xbd9c697f	-0.07637309
7	0x3d6b8615	0.057500917
8	0xbcd1464d	-0.025546217
9	0x3cb6fd8e	0.022337701
10	0xbe014288	-0.12623036
11	0xbcdeba04	-0.027188309
12	0xbd16a433	-0.036777686
13	0x3e00d757	0.12582146
14	0xbe188474	-0.14894277
15	0xbe16d670	-0.14730239
16	0xbe0ed369	-0.13947834
17	0x3d932fe2	0.07186867
18	0x3d7889b1	0.060678188
19	0x3d4610ba	0.048355795
20	0x3d8fd585	0.070231475
21	0x3dd36323	0.10321643
22	0xbdb85f0a	-0.09002502
23	0x3d041013	0.032241892
24	0xbe21b642	-0.15792182
25	0xbdfbb7e8	-0.12290937
26	0xbde77715	-0.1130201
27	0x3ce7f129	0.028313236
28	0x3d476275	0.04867788
29	0xbdf6ab3c	-0.12044379
30	0x3d83c05f	0.06433176
31	0xbd2824c4	-0.041050687
32	0x3d7fafec	0.06242363
33	0x3e090dc3	0.13384156
34	0x3da6a3e1	0.08136726
35	0xbe1e381c	-0.15451092
36	0xbd19294a	-0.037392892
37	0x3dff4f17	0.12466257
38	0xbdbc5aca	-0.09197004
39	0xbd7a6bd6	-0.061137997
40	0x3dc5ba30	0.09654653
41	0x3dfa41e9	0.122196026
42	0xbd850f28	-0.064970315
43	0xbbbc00fd	-0.0057374225
44	0x3c941776	0.018077593
45	0x3db4ab9c	0.088217944
46	0xbd5357d8	-0.051597446
47	0x3e0d05ad	0.13771696
48	0xbdaf5780	-0.08561611
49	0xbd963671	-0.073346026
50	0x3b91615c	0.004436655
51	0x3dfcfa5c	0.1235244
52	0x3e0827dc	0.13296455
53	0xbd81ddbe	-0.06341122
54	0x3c9a62da	0.018845964
55	0x3cdecca2	0.027197186
56	0x3e29b3ff	0.1657257
57	0x3d9ac75c	0.07557556
58	0x3caa9703	0.020823961
59	0x3dabce0d	0.083889104
60	0xbe2c80f9	-0.16846074
61	0x3bf83f6d	0.0075759203
62	0xbd8b9604	-0.068157226
63	0xbe20e233	-0.15711288
64	0xbd301117	-0.04298505
65	0xbd1f189c	-0.03884183
66	0xbe21f759	-0.15817012
67	0x3d4cf88f	0.05004173
68	0xbd8b74bd	-0.068093754
69	0xbd5ef8b1	-0.05443639
70	0xbe0a8da8	-0.135306
71	0x3d0374c4	0.03209378
72	0x3e0425f9	0.1290511
73	0x3d30c20f	0.04315382
74	0x3d93eb2a	0.07222588
75	0xbdc5396c	-0.09630093
76	0xbe238d04	-0.15971762
77	0xbd4f0e01	-0.050550465
78	0x3ddb7a5e	0.10716699
79	0x3d22d7ee	0.039756708
80	0xbe19d80c	-0.15023822
81	0x3e1a882d	0.1509101
82	0xbdb4685a	-0.08808966
83	0x3cf1613a	0.029465307
84	0x3da2496f	0.079241626
85	0x3daa6cd4	0.083215386
86	0xbd77bf92	-0.06048543
87	0x3d8a57cb	0.067550264
88	0xbdce61f2	-0.10077275
89	0xbd441442	-0.04787088
90	0xbd901d2b	-0.07036813
91	0xbca0eba8	-0.01964362
92	0xbc741041	-0.014896453
93	0x3dac2c78	0.08406919
94	0x3d162ddf	0.03666484
95	0x3df51c6d	0.119683124
96	0xbe290680	-0.16506386
97	0xbdeebe6b	-0.11657413
98	0x3d2fd707	0.042929675
99	0x3cb30712	0.021853957
100	0x3bad423e	0.0052874377
101	0x3dc6ca5b	0.09706565
102	0xbd247887	-0.040154006
103	0x3e02506f	0.12725995
104	0xbce78f8e	-0.028266694
105	0xbe174236	-0.14771351
106	0x3d338e27	0.04383674
107	0x3d5563af	0.05209702
108	0x3c9fe4a0	0.019518197
109	0xbdab5d63	-0.083674215
110	0x3d0dfbd2	0.034663983
111	0x3cd5994f	0.02607408
112	0xbdae35e9	-0.08506376
113	0x3d89193d	0.06694267
114	0xbd8778f8	-0.0661487
115	0x3c4ceabe	0.012507139
116	0xbe0d8ccb	-0.1382324
117	0x3d8b60f2	0.068056
118	0xbccf709d	-0.025322253
119	0xbd0b66f6	-0.034033738
120	0xbce18e14	-0.027533568
121	0x3c464bf3	0.012103069
122	0xbd9c74f2	-0.07639493
123	0x3e100795	0.14065392
124	0xbca0ee74	-0.019644953
125	0x3d243361	0.04008806
126	0xbd9cbf3e	-0.07653664
127	0x3dae67fd	0.08515928

transformer_encoder.layers.0.linear2.weight f4 [36, 128]
0	0x3d9940bd	0.07483051
1	0x3cabac1b	0.02095609
2	0xbd1ee745	-0.038794775
3	0x3dafcab0	0.085835814
4	0xbd97a5bd	-0.07404659
5	0xbb43d430	-0.0029881112
6	0x3d987ee5	0.07446078
7	0x3d4ff853	0.05077393
8	0x3d55051d	0.05200683
9	0x3d0bf13a	0.0341656
10	0x3d399f1b	0.04531775
11	0x3d35ea09	0.044412646
12	0xbdb107ff	-0.08644103
13	0xbd35a154	-0.044343308
14	0x3d9b1b20	0.07573533
15	0xbd96d993	-0.07365718
16	0x3c3c1d41	0.011481584
17	0x3d936a0c	0.07197961
18	0x3ce68843	0.028141147
19	0x3c99ea80	0.018788576
20	0xbcfb5b96	-0.03068332
21	0x3d8e0f64	0.06936529
22	0x3d8736c4	0.066022426
23	0x3bbcf968	0.005767036
24	0xbd3ed7d4	-0.04659255
25	0x3d66b183	0.056321632
26	0xbd2716c1	-0.040793184
27	0xbdafc923	-0.08583286
28	0xbc219144	-0.009861294
29	0xbd7e67b6	-0.062110625
30	0x3d484465	0.04889335
31	0x3d0b8371	0.0340609
32	0xbcc98b3a	-0.024602521
33	0xbd752658	-0.05985102
34	0xbd9d98c7	-0.076951556
35	0x3d4f84b5	0.05066367
36	0xbd48399e	-0.048883073
37	0x3da8d652	0.08244003
38	0x3cac8145	0.021057734
39	0x3cd111eb	0.02552124
40	0xbd90dbb3	-0.07073154
41	0xbccfc2ae	-0.025361385
42	0xbcb7423a	-0.022370446
43	0x3d9b8d92	0.07595362
44	0xbccabfa2	-0.02474958
45	0xbc309d87	-0.010779745
46	0xbca9fbbd	-0.020749921
47	0xbd897c6c	-0.06713185
48	0x3d54db13	0.051966738
49	0x3d2f7d37	0.042844024
50	0x3a20b561	0.0006130543
51	0x39f1f22e	0.0004614754
52	0x3c73bf18	0.014877103
53	0xbc2bb877	-0.010480992
54	0xbd6c4819	-0.057685945
55	0x3ced346e	0.028955664
56	0xbd8d6071	-0.0690316
57	0xbbe6898c	-0.00703544
58	0xbd70a328	-0.058749348
59	0xbd9bca8f	-0.07606994
60	0xbcef2151	-0.029190691
61	0xbd8be2e5	-0.06830386
62	0x3d974cc1	0.073876865
63	0x3c93a6b3	0.018023824
64	0xbbc68920	-0.006058827
65	0x3c677614	0.014127273
66	0xbd6deca0	-0.05808699
67	0xbd4c4c20	-0.049877286
68	0x3a3708c1	0.00069822004
69	0x3d3c5100	0.045975685
70	0x3d79314a	0.06083802
71	0x3c974366	0.018464755
72	0x3cec4a13	0.028843915
73	0x3db10b0c	0.08644685
74	0xbd8c0764	-0.06837347
75	0xbc11f80b	-0.008909236
76	0xbd604a14	-0.054758146
77	0xbd272a14	-0.040811613
78	0xbd2b5e9b	-0.04183827
79	0xbd1922ef	-0.03738683
80	0xbd063583	-0.032765877
81	0xbd3ff829	-0.046867523
82	0x3d87e894	0.06636158
83	0x3cea91b9	0.02863394
84	0xbd96ee7b	-0.07369705
85	0xbc4e88d9	-0.012605869
86	0xbc7551bc	-0.0149731
87	0xbd4554dd	-0.048176635
88	0x3d8ca526	0.06867437
89	0xbd72550c	-0.05916314
90	0x3d6ffad7	0.05858883
91	0x3ca09e95	0.019606868
92	0xbd8e5dff	-0.06951522
93	0x3dab5aba	0.08366914
94	0xbdb5e5fd	-0.088817574
95	0xbd4021a6	-0.04690709
96	0x3d8159e7	0.06315976
97	0x3d754614	0.059881285
98	0xbda5cf46	-0.08096175
99	0xbca24d8e	-0.019812372
100	0x3d6e5f6b	0.058196466
101	0x3c3856cc	0.011251163
102	0xbc9747b3	-0.018466806
103	0x3bc07ac8	0.0058740117
104	0x3d593ee3	0.05303849
105	0x3d95f2c5	0.07321695
106	0x3c9f073f	0.019412635
107	0xbd22ddd3	-0.03976233
108	0xbda54b85	-0.08071045
109	0x3da5c4f6	0.08094208
110	0xbd3705fb	-0.044683438
111	0xbdaf55d4	-0.08561292
112	0xbc83f12a	-0.016106207
113	0x3d921275	0.07132427
114	0x3da51e25	0.0806239
115	0x3da53d74	0.08068362
116	0xbced829c	-0.028992943
117	0xbd004328	-0.031314045
118	0xba4e097d	-0.000785969
119	0x3d477d71	0.048703615
120	0xbd41e454	-0.04733689
121	0x3d3c5d59	0.04598746
122	0xbd986602	-0.074413314
123	0xbdaef64d	-0.08543072
124	0x3c71c27b	0.01475584
125	0xbc31676c	-0.01082788
126	0xbcc3f199	-0.023918914
127	0x3d5896c5	0.05287816
128	0x3d8cc5b4	0.068736464
129	0x3b462d51	0.0030239413
130	0xbd738fdd	-0.05946337
131	0xbdae881e	-0.08522056
132	0x3d124bd8	0.03571686
133	0xbd341979	-0.043969605
134	0xbda6bd41	-0.08141566
135	0x3c963634	0.018336393
136	0xbb837ed0	-0.00401292
137	0xbd18f8ee	-0.037346773
138	0x3bf001c2	0.0073244283
139	0x3c5f571c	0.013631608
140	0x3d3d13a7	0.04616132
141	0xbda819ba	-0.08208032
142	0xbda106cc	-0.078626245
143	0x3d9dc78e	0.07704078
144	0xbd644a9c	-0.055735216
145	0x3d7db97b	0.061944466
146	0xbda6d35f	-0.081457846
147	0x3d2545c4	0.040349737
148	0x3d697093	0.056992125
149	0xbc630304	-0.013855699
150	0xbc879ef3	-0.016555285
151	0xbd98083c	-0.074234456
152	0x3c431b8b	0.011908422
153	0x3d1fb689	0.03899244
154	0x3da21f2f	0.07916104
155	0x3da5d870	0.08097923
156	0xbda18cee	-0.07888208
157	0x3ce55f71	0.027999612
158	0x3dbb9cfb	0.09160801
159	0xbd8f0d67	-0.06984978
160	0x3c204439	0.009781891
161	0x3d939e22	0.07207896
162	0x3bbe0cd8	0.005799871
163	0xbd0fee36	-0.035139285
164	0x3d94d836	0.072678015
165	0x3d566749	0.052344594
166	0xbcd91762	-0.026500408
167	0xbcc94b00	-0.024571896
168	0x3d80f070	0.0629586
169	0x3d45d32b	0.04829709
170	0xbd233cbc	-0.039852843
171	0xbb56fffa	-0.0032806383
172	0xbcc2121e	-0.02369028
173	0x3cee8bee	0.029119458
174	0x3c174086	0.009231692
175	0x3d46c5dd	0.04852854
176	0x3ca29d69	0.01985045
177	0x3d3795d8	0.044820637
178	0x3bb5f947	0.005553398
179	0x3da1b485	0.078957595
180	0x3d5f29fd	0.054483403
181	0xbd903ea2	-0.07043196
182	0xbd8b65d6	-0.06806533
183	0x3d333fd3	0.04376204
184	0xbb71be08	-0.003688695
185	0x3da1342b	0.078712784
186	0xbd30013d	-0.04296993
187	0x3d537c53	0.051632237
188	0x3d8f708a	0.07003887
189	0x3ccde354	0.025132813
190	0x3c696736	0.014245799
191	0xbd388e1e	-0.04505741
192	0x3d141e9b	0.036162
193	0x3d2de964	0.042458907
194	0xbdad71e1	-0.08468986
195	0x3c89c424	0.01681716
196	0x3d962a68	0.07332307
197	0x3c81c634	0.01584158
198	0xbd9e5add	-0.077321745
199	0xbcda2044	-0.026626714
200	0x3d024d9f	0.031812306
201	0xbd8e0ea2	-0.06936385
202	0xbd93a5a9	-0.072093315
203	0xbc901bfb	-0.017591467
204	0x3d555947	0.052087095
205	0xbcd4960b	-0.025950452
206	0xbd97fb89	-0.074210234
207	0xbd9c3af0	-0.07628429
208	0x3c9749da	0.018467832
209	0xbd2ef88d	-0.042717505
210	0xbc9b7ae9	-0.018979507
211	0x3cd4b96c	0.025967322
212	0xbd89d7c2	-0.06730606
213	0xbb8f144a	-0.0043664323
214	0x3d7a939b	0.061175924
215	0xbd6951c4	-0.056962743
216	0x3d611b16	0.05495747
217	0x38bdd7f7	9.052449e-05
218	0xba4848f5	-0.0007640266
219	0x3b9d5076	0.0048008515
220	0x3b42c48e	0.0029719207
221	0x3d854a61	0.06508327
222	0xbdb2bda5	-0.08727578
223	0x3da6dfcc	0.081481546
224	0x3da217dc	0.07914707
225	0xbd07cd02	-0.033154495
226	0xbcbf10bf	-0.023323415
227	0xbd9957db	-0.0748746
228	0x3ba5b6a0	0.005057171
229	0xbcb11273	-0.021615243
230	0x3d90147c	0.07035157
231	0xbd52d63a	-0.051473834
232	0xbd8258ec	-0.06364617
233	0xbd8dfcfa	-0.06933017
234	0xb8f53038	-0.00011691492
235	0xbd566744	-0.052344576
236	0x3d28432d	0.04107969
237	0x3d7539b7	0.059869494
238	0xbbb41dfe	-0.0054967394
239	0xbd961acb	-0.07329329
240	0xbcabf088	-0.020988718
241	0x3da5849d	0.080819346
242	0x3d3892c2	0.045061834
243	0x3d133a43	0.035944235
244	0xbd410d21	-0.04713166
245	0xbd2df422	-0.04246915
246	0x3dbcc951	0.092180856
247	0xbb676985	-0.0035310697
248	0x3d657c24	0.056026593
249	0xbb11c5e5	-0.0022243198
250	0xbd17ac37	-0.03702947
251	0xbbb5e79c	-0.0055512916
252	0x3d94c72d	0.07264552
253	0x3d58ad83	0.05289985
254	0x3da9bdb6	0.082881376
255	0x3c92a8a5	0.017902682

transformer_encoder.layers.0.linear2.bias f4 [36]
0	0x3ce50aac	0.02795919
1	0x3b36045a	0.002777359
2	0xbd0b69ed	-0.034036566
3	0x3da9f5ba	0.08298822
4	0x3d97e212	0.07416166
5	0x3d6195f4	0.055074647
6	0x3d9175a9	0.0710252
7	0xbcf3083f	-0.029667018
8	0x388892f5	6.512358e-05
9	0x3d72d219	0.059282396
10	0x3d610269	0.05493394
11	0xbd27d35b	-0.04097305
12	0xbd820ba9	-0.0634988
13	0x3c60bcc3	0.013716879
14	0x3d63fcb8	0.055660933
15	0xbdb13853	-0.08653321
16	0xbd7aa0f3	-0.06118865
17	0x3ca1c1ee	0.019745793
18	0x3d0f5d68	0.03500119
19	0xbd7b31e5	-0.06132688
20	0x3d069100	0.032853127
21	0x3c9e8c2a	0.019353945
22	0xbca2225a	-0.01979177
23	0x3d6be1f4	0.057588533
24	0xbc38d9b3	-0.011282372
25	0xbd887748	-0.06663376
26	0x3da4ef98	0.080535114
27	0x3cc1d17d	0.023659462
28	0x3c82da0c	0.015973113
29	0x3d87df9c	0.06634447
30	0x3cae17b4	0.021251537
31	0x3929be2f	0.00016187945
32	0xbc1bbf69	-0.009506085
33	0x3daff966	0.08592491
34	0xbd8c2190	-0.06842339
35	0xbccae0ef	-0.02476546

transformer_encoder.layers.0.norm1.weight f4 [36]
0	0x3f803873	1.0017227
1	0x3f809d32	1.0047972
2	0x3f800956	1.0002849
3	0x3f80247c	1.0011134
4	0x3f7fcef1	0.9992514
5	0x3f801a74	1.0008073
6	0x3f803adf	1.0017966
7	0x3f7fdb0e	0.99943626
8	0x3f8097cc	1.0046325
9	0x3f80aafc	1.005218
10	0x3f805755	1.0026652
11	0x3f7fb83c	0.99890494
12	0x3f807596	1.0035884
13	0x3f7ffe2c	0.9999721
14	0x3f7faed0	0.9987612
15	0x3f80089d	1.0002629
16	0x3f80424a	1.002023
17	0x3f801a24	1.0007977
18	0x3f7f30bf	0.99683756
19	0x3f806143	1.0029682
20	0x3f80bb1d	1.0057102
21	0x3f7fc579	0.99910694
22	0x3f7f21fd	0.99661237
23	0x3f80148f	1.0006274
24	0x3f8042f5	1.0020434
25	0x3f80a20e	1.0049455
26	0x3f7fa3ca	0.998593
27	0x3f7f253a	0.9966618
28	0x3f7f35ef	0.9969167
29	0x3f7ed65c	0.99545836
30	0x3f7f330a	0.99687254
31	0x3f804c74	1.0023332
32	0x3f807943	1.0037006
33	0x3f7f1981	0.9964829
34	0x3f7fa331	0.99858385
35	0x3f7efbf5	0.99603206

transformer_encoder.layers.0.norm1.bias f4 [36]
0	0xbab95d2d	-0.0014142148
1	0x3b636969	0.003470028
2	0x39a50362	0.00031473773
3	0x3ad07c64	0.0015906212
4	0x3a47f01e	0.0007627028
5	0x3ad87651	0.0016514753
6	0xba482db5	-0.00076362054
7	0x3aa6f537	0.0012737875
8	0xba960ad0	-0.0011447314
9	0x3a8d3e44	0.0010776003
10	0xbb3179a8	-0.002708057
11	0xba255cec	-0.0006308097
12	0xbb59a028	-0.0033207033
13	0xba3dd192	-0.0007241006
14	0x3a25ac4c	0.0006319925
15	0xba469255	-0.0007574906
16	0xbb15dd52	-0.0022867513
17	0x3b1217b0	0.002229195
18	0x398b8e99	0.0002661839
19	0xb8d8f7ee	-0.00010345863
20	0x3a08bbf7	0.0005215997
21	0x3b0b6afb	0.0021273482
22	0x3a05eed7	0.0005109137
23	0x3ad3d5d1	0.0016161745
24	0xb9c71cc3	-0.00037977667
25	0x3ae50b0d	0.0017474607
26	0x3a32270e	0.0006795981
27	0xba87790d	-0.0010335759
28	0x3923e45e	0.00015629965
29	0xbab2847c	-0.0013619806
30	0x3adc33b4	0.0016800077
31	0x3b124f89	0.0022325239
32	0xbb0e86ce	-0.002174783
33	0xbaee2238	-0.0018168157
34	0x3ac051c2	0.0014672803
35	0xba9628c8	-0.0011456246

transformer_encoder.layers.0.norm2.weight f4 [36]
0	0x3f803c85	1.0018469
1	0x3f804344	1.0020528
2	0x3f7ff2c2	0.99979794
3	0x3f803284	1.0015416
4	0x3f7fc40b	0.9990851
5	0x3f802aac	1.0013022
6	0x3f807859	1.0036727
7	0x3f7fb2d4	0.99882245
8	0x3f8088b1	1.0041715
9	0x3f80a49b	1.0050234
10	0x3f80527b	1.0025171
11	0x3f7fd283	0.9993059
12	0x3f8073af	1.0035304
13	0x3f7fbecd	0.99900514
14	0x3f7fec3f	0.9996986
15	0x3f802957	1.0012616
16	0x3f8056ea	1.0026524
17	0x3f801c01	1.0008546
18	0x3f7f3253	0.99686164
19	0x3f8098f1	1.0046674
20	0x3f80cc3b	1.0062326
21	0x3f7f4379	0.9971233
22	0x3f7effb4	0.9960892
23	0x3f801c13	1.0008568
24	0x3f803565	1.0016295
25	0x3f8086be	1.004112
26	0x3f7ffab4	0.9999192
27	0x3f7f4fdc	0.9973123
28	0x3f7f5969	0.99745804
29	0x3f7ee0c6	0.9956173
30	0x3f7f2432	0.99664605
31	0x3f80470d	1.0021683
32	0x3f805e81	1.002884
33	0x3f7f0cc1	0.99628836
34	0x3f801824	1.0007367
35	0x3f7f20ab	0.9965922

transformer_encoder.layers.0.norm2.bias f4 [36]
0	0xbac35c90	-0.0014904905
1	0x3acc9ea0	0.0015611239
2	0x3a3f3d08	0.0007295166
3	0x3ae034a3	0.0017105531
4	0x3a4df575	0.00078567053
5	0x3b013b86	0.0019719317
6	0xba3748c1	-0.0006991737
7	0x3ace55a3	0.0015742074
8	0xbabc8f5a	-0.0014385984
9	0x3ac0d889	0.001471297
10	0xbb2c8f36	-0.0026330478
11	0xb990f0bf	-0.0002764519
12	0xbb5a8f95	-0.0033349742
13	0xba2d6e3c	-0.00066158525
14	0x3b0fde00	0.002195239
15	0x3a30ab14	0.000673936
16	0xbb2d1b5c	-0.0026414013
17	0x3b1223f1	0.0022299255
18	0xb94cb83f	-0.00019523593
19	0x3a886e39	0.0010408825
20	0x39d1d90c	0.000400253
21	0x3b140497	0.0022585744
22	0x3a0b96c5	0.00053248956
23	0x3aed1500	0.0018087924
24	0xb95ca652	-0.00021042794
25	0x3aee7ed8	0.0018195761
26	0xba5dbe3d	-0.00084588287
27	0xba819b8e	-0.0009888278
28	0xb99cfa02	-0.0002994091
29	0xbaace54f	-0.0013190898
30	0x3ac08564	0.0014688191
31	0x3b07af37	0.0020703801
32	0xbb365196	-0.0027819625
33	0xbae47b3b	-0.0017431745
34	0x3aab0ce9	0.0013050112
35	0xba6b90f9	-0.0008986141

transformer_encoder.layers.1.self_attn.in_proj_weight f4 [108, 36]
0	0x3de6cc97	0.11269491
1	0xbd92b839	-0.07164044
2	0x3dd07c30	0.10179937
3	0xbd0c5f3e	-0.034270518
4	0x3e1036d3	0.14083414
5	0xbdebfdd9	-0.11523027
6	0x3d8e4ca9	0.069482155
7	0xbc0700df	-0.008239954
8	0x3b097354	0.0020973282
9	0x3d82ef23	0.06393268
10	0x3e0c8f22	0.13726476
11	0x3c29ed69	0.010371544
12	0x3e14ddf7	0.14537798
13	0x3e3dd4a4	0.18538147
14	0xbdd696d6	-0.104779884
15	0xbe410935	-0.18851168
16	0xbcccabd0	-0.02498427
17	0xbdc33432	-0.0953144
18	0x3e31096b	0.17288749
19	0x3e1524f7	0.14564882
20	0x3df22509	0.1182347
21	0x3d417ff5	0.04724117
22	0x3e1abcdd	0.15111108
23	0xbe2709b0	-0.16312289
24	0xbe0c82d7	-0.13721786
25	0xbe3084ef	-0.1723821
26	0xbe163850	-0.14669919
27	0xbe3604d9	-0.17775287
28	0xbdf7a0a2	-0.12091185
29	0x3d8b55a6	0.068034455
30	0xbe351a15	-0.17685731
31	0x3d64c5fa	0.055852868
32	0x3e4ddaf8	0.20103061
33	0xbe4bbedb	-0.19897024
34	0x3dd9fd32	0.10643996
35	0x3dc904c5	0.09815363
36	0x3e2155a0	0.1575532
37	0xbd5857a1	-0.052817944
38	0xbdf1a210	-0.11798489
39	0x3e3e6fc5	0.18597324
40	0x3e26abf0	0.16276526
41	0xbdb34842	-0.087540165
42	0xbe1916f7	-0.14950167
43	0x3cfd7a8f	0.03094223
44	0xbe084583	-0.13307767
45	0x3e0dd9de	0.13852641
46	0x3db18e33	0.086697005
47	0xbdc70c8c	-0.0971919
48	0xbdcc1004	-0.09963992
49	0xbd8868f3	-0.066606425
50	0xbccdcf8f	-0.025123386
51	0x399839c0	0.00029034726
52	0xbdfe01f5	-0.12402717
53	0xbd7421e4	-0.059602633
54	0xbe4df1f9	-0.20111836
55	0xbe2c1fb7	-0.16808973
56	0xbd7e2a0e	-0.062051825
57	0x3d2df5f2	0.04247088
58	0xbcd2d627	-0.025736881
59	0x3db81cfe	0.08989905
60	0x3ded4f57	0.115873985
61	0x3cdc5f7a	0.026900996
62	0xbd952b3a	-0.072836354
63	0xbd9c09f9	-0.0761909
64	0xbe0576d5	-0.13033612
65	0xbd48f5cb	-0.04906253
66	0x3da84502	0.08216287
67	0xbdb23a88	-0.0870257
68	0xbd9d7dc3	-0.07690003
69	0x3db856f4	0.0900096
70	0x3e25b25a	0.16181317
71	0x3cfd1281	0.030892612
72	0xbe4af111	-0.19818522
73	0xbe087ea4	-0.1332956
74	0xbbba6515	-0.0056883194
75	0xbded90a6	-0.11599855
76	0xbd9d8ff4	-0.076934725
77	0xbdf8f61e	-0.12156318
78	0x3daba961	0.08381916
79	0x3d8e3124	0.069429666
80	0x3e492cff	0.19646071
81	0xbd7931e0	-0.06083858
82	0x3e405bf3	0.18785076
83	0xbdd5ec4e	-0.10445462
84	0xbd92ba05	-0.07164387
85	0x3e0ddfc2	0.13854888
86	0x3e37e71d	0.17959256
87	0x3d357c57	0.044308033
88	0xbe415f37	-0.18883978
89	0xbe456f2b	-0.19280688
90	0xbdb0ec0d	-0.08638773
91	0x3a6cc571	0.00090321066
92	0xbc983c9c	-0.018583588
93	0x3de05383	0.109534286
94	0x3e2188a5	0.15774782
95	0x3c24b9e8	0.010054089
96	0x3e08e52d	0.13368674
97	0x3e2f92b4	0.17145807
98	0xbe46c9cc	-0.19412917
99	0xbe056e6b	-0.13030402
100	0x3e1e1011	0.15435816
101	0x3e1ec557	0.15504967
102	0xbd56292c	-0.05228536
103	0x3e1da9d5	0.15396817
104	0xbd661d08	-0.05618003
105	0x3e05b52d	0.13057394
106	0xbda6c82d	-0.08143649
107	0xbe1624e2	-0.14662507
108	0x3e2ab833	0.16671829
109	0x3debc494	0.11512104
110	0x3e1a848e	0.15089628
111	0xbc70974d	-0.01468451
112	0xbcb7e6af	-0.022448866
113	0x3e4a8024	0.19775444
114	0x3d06e65d	0.032934535
115	0xbd37af5e	-0.044844978
116	0x3e3d9916	0.18515429
117	0xbc87f781	-0.016597511
118	0xbe24d729	-0.16097702
119	0xbe141c4e	-0.14463922
120	0xbdfcadcc	-0.123378366
121	0x3e21585a	0.1575636
122	0xbbcfef7f	-0.006345689
123	0x3d4e7075	0.050400216
124	0xbdf6e31a	-0.12055035
125	0xbe412de4	-0.18865162
126	0xbdc4c8cb	-0.09608611
127	0x3e0f91b4	0.14020425
128	0x3e03b29d	0.12861104
129	0x3cc18720	0.023624003
130	0x3e13168f	0.14364074
131	0x3dcc7a15	0.09984223
132	0x3e3e892b	0.18607013
133	0x3d080a91	0.033213202
134	0x3e339b70	0.17539763
135	0x3da3f817	0.08006304
136	0xbdbe1e8c	-0.0928317
137	0x3d616fcb	0.055038255
138	0xbe21fbad	-0.15818663
139	0x3d724866	0.059151076
140	0xbd05ab9a	-0.032634355
141	0xbd90e75e	-0.0707538
142	0xbda4ca2f	-0.08046376
143	0x3dd68f8d	0.10476599
144	0x3d410a75	0.047129113
145	0x3dbd9662	0.09257199
146	0xbd009fa6	-0.031402253
147	0xbe2fb1ae	-0.17157623
148	0xbdd0194e	-0.101610765
149	0x3e13f4e5	0.14448889
150	0x3e4b17a9	0.19833244
151	0xbd9a926c	-0.07547459
152	0x3e276fa4	0.16351181
153	0x3da0569d	0.0782902
154	0xbe50a3f9	-0.2037505
155	0xbd81999d	-0.063281275
156	0x3e4d5795	0.20052941
157	0xbd881d9a	-0.06646271
158	0xbd153fdb	-0.03643785
159	0xbe189da8	-0.14903891
160	0x3d5458d7	0.051842537
161	0x3e161121	0.14654972
162	0x3d36d0ab	0.044632595
163	0xbd93e4dc	-0.07221386
164	0x3cd6be42	0.026213769
165	0xbb01ad1f	-0.0019787026
166	0x3d8ea1de	0.069644675
167	0xbe18996a	-0.14902273
168	0xbdfa6ce4	-0.122278005
169	0x3d098797	0.033576574
170	0x3ce74987	0.028233303
171	0xbd6d38ed	-0.057915617
172	0x3e10dd2b	0.14146869
173	0x3da7c83a	0.08192487
174	0x3db50ead	0.0884069
175	0xbe009cb7	-0.12559782
176	0x3848732e	4.7790985e-05
177	0x3d896d48	0.06710297
178	0x3d0545a4	0.032537118
179	0x3df92a94	0.12166324
180	0xbbb2bf54	-0.005454937
181	0x3e3be9db	0.18350928
182	0x3db62ec2	0.08895637
183	0x3c595b1f	0.013266354
184	0x3de15df2	0.11004247
185	0xbe3345ef	-0.17507146
186	0xbd58c396	-0.0529209
187	0x3e3bef01	0.18352892
188	0x3d00a5a5	0.03140797
189	0xbe43122d	-0.19049902
190	0x3de8aca1	0.11361051
191	0x3c026d4d	0.00796063
192	0x3e2e0342	0.1699343
193	0x3d8dd447	0.06925254
194	0x3d774a4d	0.060373593
195	0xbe3eed8b	-0.18645303
196	0x3e493ea9	0.19652809
197	0x3e426012	0.1898196
198	0xbe197eb7	-0.14989744
199	0xbd2def0e	-0.04246431
200	0x3e0e25da	0.13881627
201	0x3e482bb6	0.19547924
202	0xbd52b46b	-0.05144159
203	0x3e275ba2	0.16343549
204	0x3da478ad	0.080308296
205	0x3e04aec0	0.12957287
206	0x3e3e1b79	0.18565167
207	0x3daab011	0.08334363
208	0xbdded5f0	-0.10880649
209	0xbe50aeff	-0.20379256
210	0x3d71dd70	0.05904907
211	0xbd9b6cb9	-0.075890966
212	0x3d54ca83	0.051950943
213	0xbdbe7d87	-0.09301286
214	0xbdd1b061	-0.1023872
215	0xbe2e9ec5	-0.17052753
216	0xbd7c1881	-0.061546806
217	0xbe35a9fd	-0.17740627
218	0xbe030821	-0.1279607
219	0x3dc1dd62	0.094660535
220	0xbdac679c	-0.084181994
221	0x3e1c0080	0.15234566
222	0x3b27c217	0.0025597864
223	0x3e315bab	0.17320125
224	0xbdf2fe91	-0.11864961
225	0xbd0217ed	-0.0317611
226	0xbd4b4ed6	-0.04963573
227	0x3e2880e6	0.16455421
228	0xbe16451f	-0.14674805
229	0xbe157aee	-0.14597675
230	0x3d05e643	0.032690298
231	0x3e3f6506	0.18690881
232	0xbe339f69	-0.17541279
233	0xbc1bfdee	-0.009520991
234	0x3d83812a	0.064211205
235	0xbe170051	-0.14746214
236	0xbd741e99	-0.059599493
237	0xbd60f87b	-0.05492447
238	0x3d33d593	0.043904852
239	0xbd336c7a	-0.043804623
240	0x3d4e1c62	0.050320037
241	0xbb91cbe6	-0.0044493554
242	0x3e0d8eaa	0.13823953
243	0xbde06f9a	-0.10958786
244	0x3e38abbc	0.18034261
245	0xbe09ae28	-0.13445342
246	0xbcc3623a	-0.023850549
247	0xbe2f4336	-0.17115483
248	0x3e2042c3	0.15650468
249	0xbd962ae8	-0.073324025
250	0x3d1855e5	0.03719129
251	0x3c936122	0.017990652
252	0x3e4d689f	0.20059441
253	0x3e03792c	0.12839192
254	0xbe13484c	-0.14383048
255	0xbde21689	-0.110394545

transformer_encoder.layers.1.self_attn.in_proj_bias f4 [108]
0	0x00000000	0.0
1	0x00000000	0.0
2	0x00000000	0.0
3	0x00000000	0.0
4	0x00000000	0.0
5	0x00000000	0.0
6	0x00000000	0.0
7	0x00000000	0.0
8	0x00000000	0.0
9	0x00000000	0.0
10	0x00000000	0.0
11	0x00000000	0.0
12	0x00000000	0.0
13	0x00000000	0.0
14	0x00000000	0.0
15	0x00000000	0.0
16	0x00000000	0.0
17	0x00000000	0.0
18	0x00000000	0.0
19	0x00000000	0.0
20	0x00000000	0.0
21	0x00000000	0.0
22	0x00000000	0.0
23	0x00000000	0.0
24	0x00000000	0.0
25	0x00000000	0.0
26	0x00000000	0.0
27	0x00000000	0.0
28	0x00000000	0.0
29	0x00000000	0.0
30	0x00000000	0.0
31	0x00000000	0.0
32	0x00000000	0.0
33	0x00000000	0.0
34	0x00000000	0.0
35	0x00000000	0.0
36	0x00000000	0.0
37	0x00000000	0.0
38	0x00000000	0.0
39	0x00000000	0.0
40	0x00000000	0.0
41	0x00000000	0.0
42	0x00000000	0.0
43	0x00000000	0.0
44	0x00000000	0.0
45	0x00000000	0.0
46	0x00000000	0.0
47	0x00000000	0.0
48	0x00000000	0.0
49	0x00000000	0.0
50	0x00000000	0.0
51	0x00000000	0.0
52	0x00000000	0.0
53	0x00000000	0.0
54	0x00000000	0.0
55	0x00000000	0.0
56	0x00000000	0.0
57	0x00000000	0.0
58	0x00000000	0.0
59	0x00000000	0.0
60	0x00000000	0.0
61	0x00000000	0.0
62	0x00000000	0.0
63	0x00000000	0.0
64	0x00000000	0.0
65	0x00000000	0.0
66	0x00000000	0.0
67	0x00000000	0.0
68	0x00000000	0.0
69	0x00000000	0.0
70	0x00000000	0.0
71	0x00000000	0.0
72	0x3a886813	0.0010406993
73	0xbb58618d	-0.003301713
74	0x3ace602f	0.0015745218
75	0x3b03b39d	0.0020096072
76	0x3a26320d	0.00063398556
77	0xbb496ce0	-0.003073506
78	0x3ad562d6	0.0016280066
79	0x3ad5f54b	0.0016323713
80	0xbbad4f95	-0.005289028
81	0x3a7e50b8	0.0009701359
82	0xb8f23ab0	-0.000115503906
83	0x39a4ac3b	0.0003140884
84	0x399ddd84	0.00030110416
85	0xba7e1265	-0.0009692072
86	0xb993b661	-0.00028173908
87	0xbb134958	-0.0022474136
88	0xbaf5fa79	-0.0018766663
89	0x36b0c19a	5.267747e-06
90	0x3a99f2a6	0.0011745289
91	0x3b076240	0.0020657927
92	0x395d3889	0.00021097263
93	0x3b92776e	0.0044698035
94	0xb992b61a	-0.00027982966
95	0xbb06085c	-0.002045176
96	0x3b746aa5	0.003729501
97	0xbb143403	-0.002261401
98	0xba2273be	-0.00061970565
99	0xbad86d8e	-0.0016512142
100	0x3a9ccd0f	0.0011962968
101	0x3ac5d015	0.001509192
102	0x3b0830f3	0.002078113
103	0xbaa1299a	-0.0012295723
104	0x3aea714f	0.0017886552
105	0xbb2196c7	-0.002465652
106	0x3acc4f19	0.0015587538
107	0x3b25455d	0.0025218346
