pipeline/Ankle_Controllers/agent_real_270.pth (torch, 854822 bytes, 27 tensors)

transformer_encoder.layers.0.self_attn.in_proj_weight f4 [108, 36]
-0.021463748 0.15225358 -0.15438649 0.17485826 0.0991669 0.15159239 0.16116142 0.09293042
-0.09476702 -0.17573813 0.19642758 0.16861829 0.13766982 -0.11253913 -0.07959749 0.012498365
-0.10172219 -0.03122131 -0.108700596 -0.15747027 -0.093490526 0.011055704 0.20011377 -0.04028291
-0.014197646 -0.20349298 -0.10723713 0.12566593 -0.15555951 0.0013753048 0.200336 0.008605248
0.045375153 0.09444642 -0.093863584 0.050071105 -0.014858422 0.042377245 0.16037329 -0.11882948
-0.1488021 -0.088449016 0.034735166 0.0052779107 -0.12623422 0.008621844 -0.16491748 0.17629091
-0.2002301 0.001800849 -0.10257432 -0.19937953 -0.06695279 -0.18080027 0.15786484 0.050583594
0.0331055 0.13969333 0.13215417 0.09106952 -0.10141376 -0.12715134 -0.039029613 -0.027528264
0.10047164 -0.020245224 0.069115154 0.1817177 0.055474628 0.11617392 -0.14060122 0.093234666
-0.14503561 0.020615872 0.1950467 0.041287176 0.04584204 0.07123616 0.1334735 0.107259005
-0.18898982 0.16994645 0.0930909 -0.16735005 -0.17400953 -0.1696187 0.027715145 -0.1982783
0.028329397 0.08971358 0.029041078 -0.1026919 -0.10708906 -0.14950247 -0.17063995 0.07376368
-0.05039294 0.054018047 -0.19280288 -0.086807095 -0.15635829 -0.15894751 0.12740086 -0.12238736
-0.10138763 0.080218844 -0.19030854 0.05386611 -0.11307508 -0.15291405 -0.0016325829 -0.087672
0.20330462 -0.12692755 -0.024371747 -0.06544104 0.0077565694 0.19324328 0.1887077 0.03887867
0.18206738 -0.027487967 0.17359163 -0.14785829 -0.03336397 0.07215682 -0.050778456 0.11792713
0.053506996 -0.052539594 0.022055248 -0.021309596 -0.17182216 0.06616577 -0.062034257 0.07454119
-0.07204664 0.11906576 -0.16158898 -0.17099836 -0.10738975 0.10523915 -0.1795305 0.12501414
0.14041504 -0.1525011 0.10702166 0.08202308 -0.07272625 -0.15271269 -0.077831216 -0.023756426
0.010372907 0.18583515 0.005758254 -0.025129225 -0.08645192 -0.13704748 -0.13082173 -0.101814754
0.19951297 -0.18828595 -0.15321992 0.09082762 -0.040080212 -0.010948028 -0.11417461 -0.047643304
-0.14302689 0.0027101187 0.14570826 -0.15107642 0.17258234 -0.012803531 0.16345903 -0.1418207
0.0237866 -0.012474786 0.18478715 0.13590036 -0.12160786 -0.045858953 -0.022280503 -0.13737608
0.09136833 0.049169574 -0.16023791 -0.09687094 -0.094753094 0.1279409 -0.10179492 -0.16428986
-0.027353745 -0.1583467 0.053240396 0.010941021 0.04454813 0.1179583 -0.05026704 -0.061364647
-0.18169439 0.13108712 -0.1563402 0.011756631 0.11887845 -0.04706682 0.09080679 0.11475153
-0.1423317 0.1139515 0.02254423 -0.122492135 0.15276256 0.01651176 -0.1012872 -0.023516351
-0.10623899 0.06774031 0.060516357 -0.14450172 -0.04122705 -0.07154471 -0.04790146 -0.1685497
0.087152116 -0.18703352 -0.088884786 0.13199122 0.103463516 0.14572221 -0.1510562 -0.0137406625
-0.19225062 -0.018393543 0.04249139 -0.073840626 0.16757157 0.111636356 0.12456151 0.09429716
-0.11871488 0.120603934 -0.10402209 -0.12646434 0.13668452 -0.1634624 0.017032813 -0.019413507
0.04545363 -0.16912434 -0.005087623 -0.11804105 0.010262189 0.13139656 -0.18626444 0.075855434
00000000: bed4 afbc 5de8 1b3e 7e17 1ebe 0b0e 333e
00000010: 0418 cb3d 093b 1b3e 8007 253e 4e52 be3d
00000020: 3615 c2bd b2f4 33be 5024 493e 46aa 2c3e
00000030: 51f9 0c3e ea7a e6bd 0204 a3bd f1c5 4c3c
00000040: b953 d0bd d5c3 ffbc 6b9e debd e33f 21be
00000050: f677 bfbd fc22 353c a0ea 4c3e b1ff 24bd
00000060: 3e9d 68bc 7760 50be 249f dbbd 92ae 003e
00000070: fe4a 1fbe 9243 b43a e124 4d3e 07fd 0c3c
00000080: 4cdb 393d 206d c13d 8d3b c0bd 5c17 4d3d
00000090: bd70 73bc c393 2d3d e538 243e df5c f3bd
000000a0: 945f 18be c224 b5bd 7646 0e3d 53f2 ac3b
000000b0: 8b43 01be a342 0d3c 21e0 28be 9b85 343e
000000c0: 1f09 4dbe 770a ec3a 7c12 d2bd 262a 4cbe
000000d0: 8b1e 89bd b523 39be 52a7 213e be30 4f3d
000000e0: a299 073d c50b 0f3e 6c53 073e a882 ba3d
000000f0: 04b2 cfbd f633 02be 84dd 1fbd f482 e1bc
00000100: 13c4 cd3d 50d9 a5bc 3f8c 8d3d 3414 3a3e
00000110: 5d39 633d 98ec ed3d c4f9 0fbe d1f1 be3d
00000120: 3784 14be 9ee2 a83c 52ba 473e be1c 293d
00000130: ddc4 3b3d 44e4 913d 47ad 083e 9caa db3d
00000140: 8c86 41be 7106 2e3e 71a6 be3d d05d 2bbe
00000150: 8e2f 32be 86b0 2dbe df0a e33c 7709 4bbe
00000160: 0d13 e83c c1bb b73d 8ee7 ed3c 2250 d2bd
00000170: 8251 dbbd 2d17 19be 3dbc 2ebe 6a11 973d
00000180: d468 4ebd 0742 5d3d 1e6e 45be ebc7 b1bd
00000190: 631c 20be 23c3 22be 5f75 023e 39a6 fabd
000001a0: 51a4 cfbd c749 a43d 3ee0 42be b6a2 5c3d
000001b0: e893 e7bd 8095 1cbe 64fc d5ba 618d b3bd
000001c0: 162f 503e 4cf9 01be 42a7 c7bc f405 86bd
000001d0: d22a fe3b 91e1 453e 973c 413e 3e3f 1f3d
000001e0: df6f 3a3e 722e e1bc 01c2 313e 2a68 17be
000001f0: a9a8 08bd f4c6 933d 12fd 4fbd c783 f13d
00000200: 272a 5b3d c233 57bd 35ad b43c 7691 aebc
00000210: 26f2 2fbe eb81 873d a217 7ebd 0da9 983d
00000220: 308d 93bd c0d8 f33d 9577 25be 321a 2fbe
00000230: 28ef dbbd a087 d73d d8d6 37be b503 003e
00000240: f6c8 0f3e 4029 1cbe 2c2e db3d b7fb a73d
00000250: 80f1 94bd b760 1cbe f965 9fbd d69c c2bc
00000260: 20f3 293c 924b 3e3e bcaf bc3b cedb cdbc
00000270: b40d b1bd 2d56 0cbe 22f6 05be 4184 d0bd
00000280: 214d 4c3e 08ce 40be afe5 1cbe d503 ba3d
00000290: 262b 24bd 5c5f 33bc 61d4 e9bd a025 43bd
000002a0: a475 12be 3f9c 313b 8c34 153e c7b3 1abe
000002b0: 6db9 303e e7c5 51bc ce61 273e 7239 11be
000002c0: 1edc c23c 0b63 4cbc d838 3d3e 7729 0b3e
000002d0: 8b0d f9bd 99d6 3bbd 9a85 b6bc 51ac 0cbe
000002e0: 521f bb3d 0966 493d 6815 24be 4564 c6bd
000002f0: e90d c2bd f002 033e db79 d0bd 9a3b 28be
00000300: f614 e0bc a325 22be 9a12 5a3d f841 333c
00000310: 1a78 363d 1f94 f13d d0e4 4dbd 7f59 7bbd
00000320: 180e 3abe b43b 063e a517 20be e29e 403c
00000330: 8b76 f33d 23c9 40bd e9f8 b93d da02 eb3d
00000340: 67bf 11be 675f e93d adae b83c 28dd fabd
00000350: ca6d 1c3e ac43 873c aa6f cfbd 5da5 c0bc
00000360: d493 d9bd 6fbb 8a3d 00e0 773d 42f8 13be
00000370: b2dd 28bd 0886 92bd 5234 44bd 4b98 2cbe
00000380: cf7c b23d b785 3fbe 3a09 b6bd b528 073e
00000390: aee4 d33d 3438 153e 7aae 1abe 8420 61bc
000003a0: 59dd 44be 0eae 96bc 740b 2e3d c139 97bd
000003b0: e297 2b3e 9aa1 e43d 1b1a ff3d df1e c13d
000003c0: c920 f3bd 32ff f63d 8909 d5bd de7f 01be
000003d0: 07f7 0b3e b062 27be 6688 8b3c 1309 9fbc
000003e0: 962d 3a3d ee2e 2dbe 13b6 a6bb 82bf f1bd
000003f0: be22 283c d28c 063e 1bbc 3ebe 185a 9b3d

transformer_encoder.layers.0.self_attn.in_proj_bias f4 [108]
0.0 0.0 0.0 0.0 0.0 0.0 0.0 0.0
0.0 0.0 0.0 0.0 0.0 0.0 0.0 0.0
0.0 0.0 0.0 0.0 0.0 0.0 0.0 0.0
0.0 0.0 0.0 0.0 0.0 0.0 0.0 0.0
0.0 0.0 0.0 0.0 0.0 0.0 0.0 0.0
0.0 0.0 0.0 0.0 0.0 0.0 0.0 0.0
0.0 0.0 0.0 0.0 0.0 0.0 0.0 0.0
0.0 0.0 0.0 0.0 0.0 0.0 0.0 0.0
0.0 0.0 0.0 0.0 0.0 0.0 0.0 0.0
0.0014004549 0.0009089646 -0.0013972518 -0.00041290274 -0.0015025912 0.0015969226 -0.0015682955 -0.0014968144
-0.0014247037 0.0023596236 -0.0020247605 0.0016757061 -0.0005329211 0.0010484366 -0.0022916123 -0.0021490667
0.001786487 0.003463303 -0.0026194002 -0.002364165 -0.0023069195 -0.002742265 -0.0014853405 -0.0059647835
-0.0023318816 0.0032997355 -0.0007600128 0.002385465 -0.0023256666 0.0009928517 0.0029260886 -0.0017429312
-0.0027831737 -0.0036474555 -0.0025164804 -0.0019674753
00000000: 0000 0000 0000 0000 0000 0000 0000 0000
00000010: 0000 0000 0000 0000 0000 0000 0000 0000
00000020: 0000 0000 0000 0000 0000 0000 0000 0000
00000030: 0000 0000 0000 0000 0000 0000 0000 0000
00000040: 0000 0000 0000 0000 0000 0000 0000 0000
00000050: 0000 0000 0000 0000 0000 0000 0000 0000
00000060: 0000 0000 0000 0000 0000 0000 0000 0000
00000070: 0000 0000 0000 0000 0000 0000 0000 0000
00000080: 0000 0000 0000 0000 0000 0000 0000 0000
00000090: 0000 0000 0000 0000 0000 0000 0000 0000
000000a0: 0000 0000 0000 0000 0000 0000 0000 0000
000000b0: 0000 0000 0000 0000 0000 0000 0000 0000
000000c0: 0000 0000 0000 0000 0000 0000 0000 0000
000000d0: 0000 0000 0000 0000 0000 0000 0000 0000
000000e0: 0000 0000 0000 0000 0000 0000 0000 0000
000000f0: 0000 0000 0000 0000 0000 0000 0000 0000
00000100: 0000 0000 0000 0000 0000 0000 0000 0000
00000110: 0000 0000 0000 0000 0000 0000 0000 0000
00000120: 788f b73a 9547 6e3a fe23 b7ba de7a d8b9
00000130: 98f2 c4ba d54f d13a 448f cdba c230 c4ba
00000140: 20bd baba eaa3 1a3b d8b1 04bb 5ea3 db3a
00000150: bbb3 0bba b26b 893a e02e 16bb 5bd7 0cbb
00000160: 8e28 ea3a 95f8 623b 3eaa 2bbb 1bf0 1abb
00000170: b02f 17bb 92b7 33bb c2af c2ba 3b74 c3bb
00000180: 7bd2 18bb 6040 583b 983b 47ba 7655 1c3b
00000190: 366a 18bb 9322 823a 9fc3 3f3b 1173 e4ba
000001a0: e865 36bb 260a 6fbb 89eb 24bb c2f0 00bb

transformer_encoder.layers.0.self_attn.out_proj.weight f4 [36, 36]
0.004384243 -0.059491035 -0.031059433 0.087707214 0.11312049 0.09576124 0.115756586 0.076525725
0.02457605 -0.11334873 0.109441005 -0.14955807 -0.06596162 -0.14467877 -0.06917475 0.019356377
0.055368852 -0.030784875 -0.06853677 -0.08643663 -0.031042378 -0.021613795 -0.11205333 -0.040000655
-0.07221168 -0.0260258 0.05923262 0.079857215 0.043989178 0.10674883 0.124973714 0.08920474
-0.014092353 0.050837312 -0.10407871 -0.14959072 0.06770427 0.055505227 -0.07222309 0.086509004
-0.03540211 -0.12171349 0.17245992 -0.01916394 -0.07332549 0.06572656 0.16097386 0.08619919
0.04577043 -0.15136169 -0.03263347 -0.011826121 -0.07147668 -0.036369313 0.1258297 0.112812355
0.07594643 -0.14040554 0.0054222024 -0.06661599 0.052913025 0.058553327 0.09124015 -0.10422662
-0.1462028 0.00340818 0.00042353486 0.1264813 -0.088011436 0.059326176 -0.085514806 0.05071373
0.01294571 0.11037688 0.06653617 0.07573797 -0.04831584 -0.04253654 -0.050402444 -0.011740998
0.01021762 -0.055333294 -0.15652658 0.13647713 0.107681476 0.14621802 0.0001395287 0.08248714
0.11910449 -0.08416627 0.09244931 -0.051081497 0.020178823 0.049993455 -0.095910855 -0.06467546
-0.073501304 -0.050383996 0.119756274 0.14952758 -0.11922388 0.15969487 -0.15221696 0.053475123
-0.05534615 -0.123722605 0.081064105 -0.121916555 -0.065890834 -0.16208294 0.076121636 -0.030934913
-0.060366932 -0.123654746 -0.1394129 0.108605936 0.015669683 -0.07527432 0.15488504 -0.09478645
0.07194015 0.050626148 0.07966688 0.04042223 0.030680943 0.16273001 0.09631192 0.13869676
0.0713277 -0.11366078 -0.06792815 0.14743029 -0.06896526 -0.05293492 -0.016304433 0.12646645
0.008013975 -0.04074029 -0.15004642 0.06712596 -0.057529952 -0.035937432 -0.083795175 0.096366875
-0.10118816 -0.101420216 0.03778299 0.10321694 0.07653017 0.11954277 -0.06225549 0.06969399
-0.13760562 0.09949516 -0.15005773 0.14352846 0.1468124 0.14917928 0.105244935 -0.067257024
0.16307528 -0.12446194 0.005439811 0.068401486 -0.06255184 -0.030338762 0.0036290253 0.103405125
-0.11123178 0.019930545 -0.092137285 -0.03645657 0.024441369 -0.028529778 -0.12596999 -0.09070726
0.12981567 -0.14030504 -0.0027140079 0.124269 0.13034765 -0.02264392 -0.10634855 -0.12115085
0.0015776334 0.116044536 -0.010894994 -0.024179954 0.10571165 0.15020695 0.08074731 -0.10307054
-0.016700972 0.04392281 -0.07960015 0.028724845 0.11702418 0.12912552 -0.13798128 0.037251484
0.13011813 -0.02491053 -0.13781714 -0.12217631 0.13675022 -0.054027177 0.017980868 0.15865731
0.06933215 0.016702611 0.025953244 0.113719456 0.06753643 -0.016404074 0.06658476 0.02922274
-0.10803938 -0.06547017 0.08060884 0.027871147 -0.013669567 0.12682292 -0.112164006 -0.09590581
0.05256262 0.017496418 0.1578094 0.12349852 -0.110781245 0.04439326 0.1281608 -0.06933074
-0.01597293 0.15727319 -0.14863068 0.026672283 -0.013670839 -0.071416415 0.007006476 -0.02821469
0.026338238 0.061604753 0.040145412 -0.12954795 -0.067491055 0.16007638 0.0991463 -0.1510849
-0.087246485 0.084985115 0.056478787 -0.069653116 0.064955294 -0.16048728 -0.12770183 -0.007929588
00000000: b2a9 8f3b dfac 73bd 5a70 febc d79f b33d
00000010: b7ab e73d 781e c43d ca11 ed3d 85b9 9c3d
00000020: b653 c93c 6123 e8bd 9b22 e03d c025 19be
00000030: e316 87bd ac26 14be 7eab 8dbd 4491 9e3c
00000040: 73ca 623d 9030 fcbc 025d 8cbd b005 b1bd
00000050: 964c febc 6a0f b1bc 377c e5bd bad7 23bd
00000060: b8e3 93bd 0f34 d5bc e79d 723d 2e8c a33d
00000070: ff2d 343d 219f da3d 38f2 ff3d fab0 b63d
00000080: 9de3 66bc c93a 503d 3827 d5bd 4f2e 19be
00000090: 89a8 8a3d 7359 633d b3e9 93bd a22b b13d
000000a0: ce01 11bd ec44 f9bd 5599 303e b2fd 9cbc
000000b0: ad2b 96bd a69b 863d 55d6 243e 3389 b03d
000000c0: c679 3b3d 8ffe 1abe acaa 05bd 59c2 41bc
000000d0: 5e62 92bd fdf7 14bd 80d9 003e 2a0a e73d
000000e0: cd89 9b3d 78c6 0fbe bbac b13b f76d 88bd
000000f0: 54bb 583d 9dd5 6f3d 1edc ba3d c474 d5bd
00000100: 30b6 15be c65b 5f3b e30d de39 5084 013e
00000110: 573f b4bd 0100 733d 6322 afbd 33b9 4f3d
00000120: 3e1a 543c 460d e23d 1e44 883d 821c 9b3d
00000130: d5e6 45bd cc3a 2ebd cb72 4ebd 515d 40bc
00000140: ce67 273c 2aa5 62bd 8148 20be a9c0 0b3e
00000150: 1b88 dc3d 2dba 153e 734e 1239 05ef a83d
00000160: 0eed f33d 5e5f acbd 1056 bd3d d53a 51bd
00000170: 0f4e a53c f0c5 4c3d e96c c4bd 9174 84bd
00000180: da87 96bd 735f 4ebd c742 f53d c21d 193e
00000190: a62b f4bd 0d87 233e c3de 1bbe bb08 5b3d
000001a0: a5b2 62bd 4762 fdbd f004 a63d 63af f9bd
000001b0: c6f1 86bd 12f9 25be a9e5 9b3d 376b fdbc
000001c0: 5143 77bd b33e fdbd 41c2 0ebe ca6c de3d
000001d0: b55d 803c 6c29 9abd 2f9a 1e3e 661f c2bd
000001e0: 5b55 933d 5d5d 4f3d 6428 a33d c891 253d
000001f0: 9a56 fb3c b2a2 263e 2f3f c53d 8606 0e3e
00000200: 4214 923d fcc6 e8bd ea1d 8bbd f7f7 163e
00000210: a93d 8dbd 49d2 58bd e090 85bc 6c80 013e
00000220: 0c4d 033c 4adf 26bd c5a5 19be 5679 893d
00000230: 87a4 6bbd 2133 13bd ce9c abbd ff5b c53d
00000240: bd3b cfbd 67b5 cfbd 56c2 1a3d 6763 d33d
00000250: dabb 9c3d d7d2 f43d 9dff 7ebd b9bb 8e3d
00000260: 7de8 0cbe 1ec4 cb3d bca8 19be 20f9 123e
00000270: fd55 163e 74c2 183e a88a d73d 0dbe 89bd
00000280: 35fd 263e e7e5 febd 7140 b23b 1416 8c3d
00000290: 2e1b 80bd ff88 f8bc f1d4 6d3b 11c6 d33d
000002a0: 7dcd e3bd 6245 a33c 79b2 bcbd 7c53 15bd
000002b0: 4439 c83c 48b7 e9bc 47fe 00be bac4 b9bd
000002c0: 66ee 043e 20ac 0fbe 7fdd 31bb bf80 fe3d
000002d0: db79 053e be7f b9bc 45cd d9bd f01d f8bd
000002e0: 98c8 ce3a c2a8 ed3d eb80 32bc 0a15 c6bc
000002f0: 597f d83d dacf 193e d85e a53d a616 d3bd
00000300: 7ad0 88bc 68e8 333d 6705 a3bd 5e50 eb3c
00000310: 60aa ef3d 7b39 043e f74a 0dbe 0395 183d
00000320: b03d 053e 2b11 ccbc f01f 0dbe 9337 fabd
00000330: 4008 0c3e 9a4b 5dbd 9d4c 933c 1077 223e
00000340: 04fe 8d3d ead3 883c e69b d43c bfe5 e83d
00000350: 8a50 8a3d d661 86bc 975d 883d 8764 ef3c
00000360: c043 ddbd 3915 86bd 3f16 a53d 0852 e43c
00000370: 52f6 5fbc dedd 013e 3eb6 e5bd 446a c4bd
00000380: e74b 573d a654 8f3c ca98 213e cbec fc3d
00000390: 47e1 e2bd b5d5 353d 963c 033e 46fd 8dbd
000003a0: a9d9 82bc 390c 213e a432 18be d57f da3c
000003b0: a8fb 5fbc c542 92bd 9596 e53b 7e22 e7bc
000003c0: 4ac3 d73c 4455 7c3d 846f 243d 38a8 04be
000003d0: c038 8abd 10eb 233e 370d cb3d 00b6 1abe
000003e0: 49ae b2bd ad0c ae3d 4d56 673d 4ba6 8ebd
000003f0: 4807 853d c756 24be 45c4 02be 1aeb 01bc

transformer_encoder.layers.0.self_attn.out_proj.bias f4 [36]
-0.0019303429 0.004705266 0.0019479198 -0.0020127855 0.0012504093 0.0024142342 0.0019049491 0.0022131517
-0.0018786999 0.004732691 0.0013730437 -0.0018211761 -0.0011698006 0.0034513415 -0.0020211975 0.0029237017
-0.0025438839 -0.0010073953 -0.0024430503 0.0029488325 -0.002238062 -0.0020304986 -0.0023715117 0.0028634428
-0.0023271455 -0.00239727 0.0017878213 0.0011893614 0.0016728059 0.00071985245 -0.002810971 -0.0018908798
0.001931061 0.0019840475 -0.0017758132 0.0023433138
00000000: 8f03 fdba a22e 9a3b 5851 ff3a f0e8 03bb
00000010: c6e4 a33a 2138 1e3b 7caf f93a 860a 113b
00000020: b53e f6ba b114 9b3b b4f7 b33a 88b4 eeba
00000030: ff53 99ba e72f 623b 1176 04bb 939b 3f3b
00000040: 4ab7 26bb 940a 84ba 951b 20bb 3341 413b
00000050: 73ac 12bb 1d12 05bb 5d6b 1bbb 99a8 3b3b
00000060: 0683 18bb 841b 1dbb 5455 ea3a 59e4 9b3a
00000070: 0d42 db3a 7bb4 3c3a 4538 38bb 66d7 f7ba
00000080: a81b fd3a cb06 023b 67c2 e8ba 4892 193b

transformer_encoder.layers.0.linear1.weight f4 [128, 36]
-0.012959772 0.070595026 -0.14686976 0.066079415 0.048342865 0.13240163 0.10261211 0.021823145
-0.14966159 0.13760321 0.00035758616 0.117181085 -0.12839392 0.021723768 0.11849326 0.07829654
0.12931518 0.13900967 -0.08857341 -0.08015202 -0.13290681 -0.12165947 0.15388873 0.073123984
-0.14660107 -0.055920653 0.11743546 -0.06253684 -0.157892 0.0075973705 -0.119435996 -0.06551409
0.109166496 -0.047358446 -0.14143811 -0.058994792 0.16410495 -0.070415325 -0.018108577 -0.0012837905
-0.033188332 -0.108059004 0.13619936 0.16224512 0.039406694 -0.11794041 -0.08366987 -0.1610219
0.16351448 -0.15812062 0.055736534 -0.13781664 0.119856745 -0.10995684 0.12585245 -0.14151861
-0.15343589 -0.16635726 0.14705238 0.16792944 0.017299255 -0.08317067 0.043969885 -0.11164232
0.013000546 -0.14712642 0.0051374007 -0.16328414 -0.12096153 0.08377112 0.16713582 -0.017759642
0.09997636 -0.11541499 0.10435788 0.010095897 -0.15231472 -0.0729787 0.10675124 -0.09866353
-0.08528092 -0.163125 -0.14571962 -0.052404277 0.014640556 0.07745871 0.012673936 0.16435342
0.00091130775 0.08235609 0.13008258 0.15019317 0.0698929 -0.08268144 0.09433631 0.09498909
-0.038356133 -0.07973143 -0.010167397 0.14012568 0.101620644 0.15563193 0.0055012633 0.008135369
0.09246976 0.12740679 -0.13175221 0.097139895 0.033064313 -0.1443169 0.011456871 -0.10981429
-0.085192315 -0.09425615 -0.033229265 -0.16672231 0.022173388 -0.04038591 0.1590358 -0.045042165
-0.12993325 0.07403956 -0.025834588 0.11292768 -0.074955165 -0.118547395 0.043312635 0.12892722
-0.0808076 0.018617008 0.15737335 0.11352908 0.12653361 -0.1284794 -0.033588197 0.050714567
-0.14683613 -0.10523435 0.08838264 0.047105536 0.019303914 0.0288819 -0.085507736 0.007758448
-0.15568964 -0.057351526 0.014064621 0.064815 -0.094125286 0.00035981732 -0.019134022 0.15638909
0.08323389 -0.12895115 -0.11118357 0.09709397 -0.08057636 -0.12238398 -0.07143272 -0.06918203
-0.034332566 -0.1446141 0.028515086 -0.013135563 0.030840442 0.12090297 -0.03325741 -0.1653025
0.13398162 -0.07774558 -0.10037946 -0.13536341 0.12314244 -0.06197777 0.09977487 -0.14488591
0.009463424 -0.012992003 0.14882757 0.009171635 -0.05447894 0.09130606 0.071292154 -0.1445961
0.096829526 0.082536414 -0.034524295 -0.06978528 0.11335073 0.0954504 0.030729167 0.16949284
-0.008468796 0.061883956 -0.1476999 0.16842064 -0.16675851 0.05008056 0.048154935 0.0069087534
0.13206655 -0.01811072 0.071808845 -0.06787762 0.0868244 0.12433841 0.08721137 0.021024978
0.07975848 0.1568368 0.09586961 -0.106119655 -0.07182438 -0.043854497 0.0812028 0.14699958
-0.10404056 0.077999756 -0.085693814 0.08725446 -0.09853353 -0.10519336 0.03931948 0.030912215
0.041749276 0.120077565 -0.035919465 -0.11819295 0.0625088 -0.064623125 -0.002013473 -0.11676487
-0.14615081 -0.16189586 -0.04528249 -0.05834789 0.045120526 0.1316759 -0.07010782 -0.13193294
-0.08311724 0.08374505 0.061304312 0.14870818 -0.14173633 -0.09216972 -0.15474352 0.06920673
0.13471301 -0.13810743 -0.08561537 -0.06441518 0.0791742 -0.0019405073 0.16618776 -0.06935045
00000000: 3955 54bc 2094 903d 0765 16be a554 873d
00000010: 2b03 463d 4b94 073e 4c26 d23d 74c6 b23c
00000020: e340 19be dbe7 0c3e 677a bb39 a3fc ef3d
00000030: b279 03be 0bf6 b13c 98ac f23d f059 a03d
00000040: 336b 043e 8d58 0e3e fa65 b5bd be26 a4bd
00000050: b918 08be 9a28 f9bd 0295 1d3e 07c2 953d
00000060: 971e 16be 0e0d 65bd 0182 f03d 5113 80bd
00000070: 71ae 21be 5df3 f83b dc9a f4bd 402c 86bd
00000080: af92 df3d eefa 41bd 27d5 10be 86a4 71bd
00000090: 210b 283e e935 90bd 7058 94bc dc44 a8ba
000000a0: 7df0 07bd 0a4e ddbd d877 0b3e 9623 263e
000000b0: ea68 213d be8a f1bd 1c5b abbd ede2 24be
000000c0: 5770 273e 5fea 21be fe4b 643d ce1f 0dbe
000000d0: 7477 f53d 0d31 e1bd 77df 003e 41ea 10be
000000e0: 4c1e 1dbe 8f59 2abe e694 163e b2f5 2b3e
000000f0: 2bb7 8d3c 6255 aabd c419 343d bba4 e4bd
00000100: 3e00 553c 4fa8 16be a457 a83b f533 27be
00000110: aeba f7bd 3190 ab3d a725 2b3e ab7c 91bc
00000120: 68c0 cc3d b25e ecbd 96b9 d53d 4369 253c
00000130: 64f8 1bbe db75 95bd 65a0 da3d 1b10 cabd
00000140: c3a7 aebd 3d0a 27be 8637 15be dea5 56bd
00000150: f1de 6f3c aca2 9e3d 57a6 4f3c 434c 283e
00000160: d4e4 6e3a 4faa a83d 5e34 053e 3dcc 193e
00000170: 0224 8f3d e354 a9bd 6533 c13d a489 c23d
00000180: 521b 1dbd 3b4a a3bd 2795 26bc 1b7d 0f3e
00000190: 7c1e d03d fa5d 1f3e f143 b43b 364a 053c
000001a0: c960 bd3d ed76 023e 0dea 06be 48f1 c63d
000001b0: 726e 073d cfc7 13be 9ab5 3b3c 51e6 e0bd
000001c0: 4f79 aebd 5e09 c1bd 691b 08bd 41b9 2abe
000001d0: f7a4 b53c b26b 25bd 48da 223e 227e 38bd
000001e0: 390d 05be 0ea2 973d 0fa3 d3bc a146 e73d
000001f0: 1882 99bd fac8 f2bd 9768 313d 7f05 043e
00000200: 747e a5bd b282 983c 7b26 213e ef81 e83d
00000210: 0792 013e 1b90 03be c793 09bd 14ba 4f3d
00000220: 365c 16be 1b85 d7bd f501 b53d bcf1 403d
00000230: 3e23 9e3c bc99 ec3c ae1e afbd 943a fe3b
00000240: 1b6d 1fbe 6fe9 6abd 4c6f 663c babd 843d
00000250: c2c4 c0bd dda5 bc39 f4be 9cbc 7624 203e
00000260: 8876 aa3d c50b 04be 36b4 e3bd 34d9 c63d
00000270: 3805 a5bd 74a4 fabd 514b 92bd 4faf 8dbd
00000280: 4ea0 0cbd b815 14be 7898 e93c 8b36 57bc
00000290: 18a5 fc3c fa9b f73d ec38 08bd 0f45 29be
000002a0: 7a32 093e 1339 9fbd bf93 cdbd b59c 0abe
000002b0: 1b32 fc3d 67dc 7dbd c456 cc3d f95c 14be
000002c0: 7a0c 1b3c 69dc 54bc 4166 183e a044 163c
000002d0: 4f25 5fbd acfe ba3d 9f01 923d 0011 14be
000002e0: 8f4e c63d da08 a93d 5969 0dbd 96eb 8ebd
000002f0: 6d24 e83d 807b c33d bcbb fb3c 888f 2d3e
00000300: b4c0 0abc 087a 7d3d a53e 17be 7676 2c3e
00000310: bec2 2abe 4621 4d3d 1c3e 453d d362 e23b
00000320: 743c 073e ef5c 94bc 8410 933d 6c03 8bbd
00000330: fed0 b13d 23a5 fe3d e09b b23d 933c ac3c
00000340: 6a58 a33d d399 203e 4957 c43d 4355 d9bd
00000350: a918 93bd c6a0 33bd a74d a63d 0f87 163e
00000360: 3813 d5bd 56be 9f3d 3d80 afbd 77b2 b23d
00000370: f3cb c9bd 9e6f d7bd 770d 213d 9d3b fd3c
00000380: 4a01 2b3d 3aeb f53d 4a20 13bd 250f f2bd
00000390: 9d04 803d 2159 84bd 79f4 03bb 6c22 efbd
000003a0: 8fa8 15be 07c8 25be 227a 39bd 32fe 6ebd
000003b0: 4dd0 383d 0cd6 063e b094 8fbd 6e19 07be
000003c0: 5f39 aabd 8682 ab3d 3b1a 7b3d f546 183e
000003d0: 5423 11be 7ac3 bcbd 1675 1ebe 42bc 8d3d
000003e0: 35f2 093e 096c 0dbe 1c57 afbd 1bec 83bd
000003f0: 1526 a23d 9f58 feba 202d 2a3e 9c07 8ebd

transformer_encoder.layers.0.linear1.bias f4 [128]
0.09296364 -0.008029146 0.15202099 -0.05433392 -0.09970268 -0.073233545 0.13318755 -0.12215253
-0.0499034 0.08484773 0.019980084 -0.11698249 0.05399329 0.14051697 -0.1340789 0.038357206
-0.024865068 0.021575905 -0.101724684 -0.045748558 0.05673503 -0.05229803 -0.016896464 -0.16501692
-0.06535851 -0.098673366 0.022990616 0.10552444 0.06265468 0.07749394 -0.06377789 -0.0025823186
-0.020263892 -0.06571072 -0.038927738 0.06103859 0.078983456 -0.12998578 -0.12108511 -0.12033667
-0.015146483 0.030441834 0.03587251 -0.029616563 -0.13911974 0.011851623 -0.092409216 -0.06695132
0.09483669 0.11471147 0.015068214 -0.05941577 0.12906644 0.046828344 -0.07114705 -0.04749534
-0.12636977 -0.08528929 0.11919852 -0.008749807 -0.13608232 0.090307266 0.14522429 -0.0045630476
-0.15746613 0.15037245 -0.018192358 -0.027932648 -0.049645443 0.06647927 0.03797298 0.12765758
0.055078268 0.0798738 -0.12714522 0.09496662 -0.11454906 -0.13458015 0.0320669 0.162139
0.022495326 0.06040112 -0.034127206 -0.16251276 -0.11418781 0.08739019 -0.08148208 -0.16294324
-0.059994567 0.06172643 -0.06538059 -0.061428774 0.11343005 -0.09300082 -0.09324298 0.07473859
-0.15972365 0.15123811 0.0043643005 -0.031072 -0.091248654 0.015516159 -0.0785317 0.15859984
0.010019541 0.023407197 -0.1363296 -0.042644072 -0.15946844 0.13138424 -0.114983425 -0.09888993
-0.07439082 -0.0633873 -0.12238705 -0.03419848 -0.078878306 -0.08247146 -0.08856291 -0.14864942
0.057174616 0.1512098 0.1264518 -0.12785083 0.10286873 -0.05939994 0.0070020915 0.025806643
00000000: b963 be3d ae8c 03bc 64ab 1b3e 3f8d 5ebd
00000010: eb30 ccbd 78fb 95bd 5162 083e 1b2b fabd
00000020: 8267 4cbd a6c4 ad3d 46ad a33c 8494 efbd
00000030: 1128 5d3d aee3 0f3e fb4b 09be 721c 1d3d
00000040: d4b1 cbbc f4bf b03c 0855 d0bd d762 3bbd
00000050: fe62 683d 7636 56bd 746a 8abc 32fa 28be
00000060: afda 85bd 4315 cabd d156 bc3c 331d d83d
00000070: 1951 803d 25b5 9e3d fb9d 82bd 1e3c 29bb
00000080: 7600 a6bc 5893 86bd b172 1fbd 9a03 7a3d
00000090: 14c2 a13d fe1a 05be 78fb f7bd 1273 f6bd
000000a0: f428 78bc 2761 f93c 0eef 123d 6f9e f2bc
000000b0: 6875 0ebe 4f2d 423c 0b41 bdbd c61d 89bd
000000c0: bd39 c23d d9ed ea3d ace0 763c f35d 73bd
000000d0: fe29 043e 14cf 3f3d 8bb5 91bd 798a 42bd
000000e0: 1467 01be 27ac aebd 5b1e f43d 5a5b 0fbc
000000f0: 2a59 0bbe 04f3 b83d adb5 143e 9e85 95bb
00000100: cd3e 21be 3cfb 193e 2408 95bc 02d3 e4bc
00000110: 0559 4bbd 4926 883d 8e89 1b3d abb8 023e
00000120: c099 613d e094 a33d 5b32 02be dc7d c23d
00000130: b398 eabd 61cf 09be 9558 033d c407 263e
00000140: 1e48 b83c 2a67 773d f8c8 0bbd bf69 26be
00000150: 4cdb e9bd a1f9 b23d 14e0 a6bd 98da 26be
00000160: ddbc 75bd dad4 7c3d 42e6 85bd bd9c 7bbd
00000170: 044e e83d 3777 bebd 2df6 bebd 8c10 993d
00000180: 998e 23be 2ade 1a3e 6802 8f3b b58a febc
00000190: 93e0 babd 7d37 7e3c 3ad5 a0bd ff67 223e
000001a0: 0029 243c 73c0 bf3c fd99 0bbe 8dab 2ebd
000001b0: b24b 23be 9789 063e 6e7c ebbd ce86 cabd
000001c0: 375a 98bd 33d1 81bd 10a6 fabd b513 0cbd
000001d0: f38a a1bd cce6 a8bd 7960 b5bd 8e37 18be
000001e0: ee2f 6a3d bed6 1a3e 957c 013e 54eb 02be
000001f0: d7ac d23d 5a4d 73bd cd71 e53b 7468 d33c

transformer_encoder.layers.0.linear2.weight f4 [36, 128]
-0.03792439 -0.016423035 -0.037407152 0.04505676 -0.067255214 -0.012334012 0.05016546 -0.016895866
-0.055203464 0.046895634 -0.08609418 0.061492953 0.06467683 -0.06931895 0.010316302 0.06904619
0.0347777 -0.02235012 0.00397237 0.016779752 0.07680048 0.066590354 0.028069645 0.026337262
0.049937528 -0.018426618 -0.004722221 0.020831056 -0.011710556 0.009625252 0.013139181 0.06641563
0.045214053 0.070072114 0.024484301 -0.063990615 -0.002774073 0.064071186 -0.07262978 0.02653312
-0.036773134 -0.021894421 -0.024148831 -0.081798695 0.08017706 0.012828925 -0.07503506 -0.02086477
-0.078216575 0.070170924 0.052121323 -0.070731476 0.05551921 0.018667836 -0.0103878435 0.054544497
0.032456484 -0.017522298 0.033147253 -0.018422462 0.048800748 0.032906692 -0.020472843 0.044448204
-0.03065576 0.077740826 -0.032088626 0.08397718 0.0016016993 -0.030061949 -0.05064055 -0.038037363
0.020080747 0.010791412 0.08637416 -0.030105285 -0.036611125 -0.015774518 0.00337375 0.048619527
-0.0039313543 0.040839776 0.05338355 0.08512282 0.05892364 -0.06106342 0.059859287 -0.035553094
-0.025971506 0.05744509 0.04202826 0.06482917 0.0067602885 -0.026176477 -0.04853085 -0.07350289
-0.076547906 0.058034666 -0.01567101 -0.02376489 0.06988225 0.060737025 -0.07528136 0.0030800044
0.068455525 -0.054531794 -0.01920454 -0.026999954 -0.0697452 -0.0072737145 -0.034941133 0.06437238
0.049213275 0.044020258 -0.0034236833 0.026962208 -0.075708866 -0.050433554 -0.0832334 -0.016852818
0.06648374 -0.016595017 0.016194422 0.0054680225 0.06466444 0.031081388 0.037070878 0.03678306
0.014060067 0.05450928 0.017663354 -0.07531766 -0.033404574 0.023998007 0.091670774 -0.062409557
0.07446195 -0.07641476 -0.08321288 0.037589625 0.07119956 -0.023475235 0.08783843 -0.07395423
0.051321376 -0.036682427 -0.05929436 0.08628704 0.06673527 0.04583981 0.08442178 -0.06577469
0.021967294 -0.008882949 0.0076966495 -0.08568658 0.011282212 0.031193413 0.035561185 0.058552735
0.030688012 0.012108833 -0.04849749 0.052432645 -0.0057216925 -0.07933782 0.047823906 0.016374085
0.038057107 -0.047780436 -0.010447681 0.028764773 -0.035563763 0.067334704 -0.0009614038 -0.063024275
-0.037760418 0.007869033 -0.06312592 0.034904234 0.038240343 -0.008325729 -0.07055063 0.052401062
-0.039038472 0.061101682 -0.04426948 -0.0034511115 0.052387394 -0.075184375 0.017936915 -0.016167494
-0.046669155 -0.05986946 -0.008907198 -0.07737269 -0.024969459 -0.0031946672 -0.017035041 0.028919723
-0.08618953 0.0128296185 -0.06421636 0.06295124 0.06748648 0.058407977 -0.082917705 -0.047409285
-0.047050994 0.06425422 0.0029049087 -0.00013237567 -0.014184939 -0.009872103 -0.03928374 -0.029226234
0.035930518 0.04070698 0.08971103 0.048351552 0.0061035627 0.0003693113 0.057325743 0.08900129
-0.0051605073 0.06449021 -0.016939547 -0.0009638577 0.012514452 0.018313723 0.06756985 0.0047402945
-0.030454408 -0.0125177195 -0.05146422 0.080991425 0.04559166 0.06720699 -0.061901104 0.019589966
0.06005107 -0.04016578 0.052163493 -0.014687256 0.020519564 -0.07436468 0.0712388 -0.07911093
-0.013286128 0.08136983 0.02863959 0.062669426 0.049505856 0.013057597 -0.040139966 0.01681604
00000000: 9b56 1bbd 9a89 86bc 3e38 19bd 708d 383d
00000010: 1abd 89bd 9914 4abc 4c7a 4d3d 3369 8abc
00000020: 071d 62bd a315 403d 2552 b0bd 09e0 7b3d
00000030: 4975 843d 18f7 8dbd b505 293c 1768 8d3d
00000040: 1073 0e3d 9917 b7bc a82a 823b b175 893c
00000050: 9249 9d3d 8660 883d 50f2 e53c 3ec1 d73c
00000060: 4b8b 4c3d 6bf3 96bc dcbc 9abb e4a5 aa3c
00000070: a2dd 3fbc 3cb3 1d3c b845 573c eb04 883d
00000080: 5f32 393d f881 8f3d 4d93 c83c 830d 83bd
00000090: 39cd 35bb c137 833d ecbe 94bd fc5b d93c
000000a0: 6d9f 16bd ee5b b3bc c5d3 c5bc 1386 a7bd
000000b0: df33 a43d 6930 523c fbab 99bd 98ec aabc
000000c0: 0330 a0bd c6b5 8f3d 2b7d 553d aadb 90bd
000000d0: 1c68 633d 4aed 983c c631 2abc 0d6a 5f3d
000000e0: 17f1 043d ec8a 8fbc 6ac5 073d b4ea 96bc
000000f0: 4be3 473d 2bc9 063d aab6 a7bc 520f 363d
00000100: ca21 fbbc 9536 9f3d 5d6f 03bd 3afc ab3d
00000110: 1cf0 d13a 7a44 f6bc 776c 4fbd 11cd 1bbd
00000120: 6180 a43c 76ce 303c f0e4 b03d 5c9f f6bc
00000130: 8cf5 15bd 9039 81bc 221a 5d3b 4525 473d
00000140: 97d2 80bb 9c47 273d b6a8 5a3d e054 ae3d
00000150: ea59 713d a31d 7abd 032f 753d 1fa0 11bd
00000160: 32c2 d4bc 8b4b 6b3d d325 2c3d 28c5 843d
00000170: 6985 dd3b 0d70 d6bc 49c8 46bd af88 96bd
00000180: 26c5 9cbd c2b5 6d3d 7d60 80bc 96ae c2bc
00000190: 6d1e 8f3d 63c7 783d 1d2d 9abd e6d9 493b
000001a0: 6932 8c3d bb5c 5fbd d752 9dbc 022f ddbc
000001b0: 92d6 8ebd 5758 eebb 6f1e 0fbd abd5 833d
000001c0: dc93 493d 964e 343d e05f 60bb d9df dc3c
000001d0: 400d 9bbd 6a93 4ebd 4676 aabd ec0e 8abc
000001e0: a128 883d 46f2 87bc 2aaa 843c 192d b33b
000001f0: ca6e 843d 659e fe3c a2d7 173d d5a9 163d
00000200: 325c 663c 1f45 5f3d bdb2 903c 2540 9abd
00000210: 3cd3 08bd 7897 c43c e3bd bb3d 2aa1 7fbd
00000220: 827f 983d 577f 9cbd 846b aabd 94f7 193d
00000230: 13d1 913d 234f c0bc a3e4 b33d 5175 97bd
00000240: 5d36 523d 5040 16bd a5de 72bd 42b7 b03d
00000250: 80ac 883d 86c2 3b3d 54e5 ac3d e1b4 86bd
00000260: c1f4 b33c ca89 11bc 2d34 fc3b 727c afbd
00000270: 07d9 383c 5489 ff3c 9ba8 113d fed4 6f3d
00000280: 6d65 fb3c 2064 463c 4ea5 46bd 9dc3 563d
00000290: 097d bbbb de7b a2bd 00e3 433d f222 863c
000002a0: c5e1 1b3d 6bb5 43bd c02c 2bbc 1aa4 eb3c
000002b0: 4fab 11bd c7e6 893d b806 7cba df12 81bd
000002c0: abaa 1abd 1eed 003c 2a48 81bd bef7 0e3d
000002d0: e8a1 1c3d a368 08bc d97c 90bd 7fa2 563d
000002e0: cee6 1fbd c245 7a3d ea53 35bd 0b2c 62bb
000002f0: 2a94 563d 44fa 99bd 70f0 923c b171 84bc
00000300: 2828 3fbd ae39 75bd 7fef 11bc 9375 9ebd
00000310: c08c ccbc 9f5d 51bb 128d 8bbc 0ee9 ec3c
00000320: 2384 b0bd 5233 523c de83 83bd 94ec 803d
00000330: 5a36 8a3d 343d 6f3d c2d0 a9bd 3d30 42bd
00000340: 8bb8 40bd b797 833d 4860 3e3b 53ce 0ab9
00000350: f267 68bc 9abe 21bc fde7 20bd db6b efbc
00000360: e12b 133d 5dbc 263d 6bba b73d 470c 463d
00000370: 6500 c83b 20a0 c139 66ce 6a3d 4f46 b63d
00000380: 7919 a9bb 7113 843d cec4 8abc 65ab 7cba
00000390: 6b09 4d3c a906 963c 1062 8a3d 7954 9b3b
000003a0: 867b f9bc 1f17 4dbc 25cc 52bd d5de a53d
000003b0: 52be 3a3d d2a3 893d 038c 7dbd 237b a03c
000003c0: 1cf8 753d df84 24bd 63a9 553d d1a2 70bc
000003d0: a518 a83c 824c 98bd a6e5 913d e904 a2bd
000003e0: 0fae 59bc 3aa5 a63d 939d ea3c d458 803d
000003f0: a7c6 4a3d 88ef 553c ce69 24bd cbc1 893c

transformer_encoder.layers.0.linear2.bias f4 [36]
0.047840625 -0.0668443 0.034535907 0.026802305 -0.06460975 -0.059247386 0.0029407446 -0.021047432
-0.08202665 -0.0580827 0.0029769873 -0.038797345 -0.022862364 0.034232937 0.078227684 -0.05869056
-0.07845542 -0.014307613 -0.085525505 -0.05748461 0.056874357 -0.04028535 0.00832972 -0.02797677
0.0628479 -0.056739215 -0.045472924 -0.02948203 0.074358456 0.039074846 0.05740884 -0.07389253
-0.0015007185 -0.0623056 0.05304141 0.018010322
00000000: 88f4 433d aae5 88bd 8675 0d3d 8290 db3c
00000010: 1e52 84bd 63ad 72bd 82b9 403b aa6b acbc
00000020: 97fd a7bd 20e8 6dbd 8f19 433b f7e9 1ebd
00000030: da49 bbbc d637 0c3d d635 a03d 8365 70bd
00000040: 3cad a0bd 7a6a 6abc ff27 afbd fb74 6bbd
00000050: 16f5 683d 4002 25bd 6179 083c 8a2f e5bc
00000060: 66b6 803d 6167 68bd d141 3abd 4c84 f1bc
00000070: 3f49 983d f20c 203d 8825 6b3d f754 97bd
00000080: c2b3 c4ba 2834 7fbd f341 593d 628a 933c

transformer_encoder.layers.0.norm1.weight f4 [36]
1.0006856 1.0058894 0.9987504 0.9978282 0.99805677 0.9994785 1.0000063 0.99982554
1.0034894 1.0084407 0.99866486 0.9956697 1.0020062 1.0038606 0.99743515 1.0043632
1.0054603 0.99950486 0.9990742 1.0032603 1.0009931 0.99834186 1.004608 1.0017
1.0041616 0.997018 0.99721414 1.00792 0.9980246 1.0034239 1.0039278 0.9980567
0.9980792 1.0019535 1.0034937 1.0015342
00000000: 7716 803f fcc0 803f 1bae 7f3f ab71 7f3f
00000010: a680 7f3f d3dd 7f3f 3500 803f 91f4 7f3f
00000020: 5772 803f 9614 813f 80a8 7f3f 36e4 7e3f
00000030: bd41 803f 817e 803f e957 7f3f f98e 803f
00000040: ecb2 803f 8ddf 7f3f 54c3 7f3f d56a 803f
00000050: 8b20 803f 5593 7f3f ff96 803f b537 803f
00000060: 5e88 803f 923c 7f3f 6d49 7f3f 8603 813f
00000070: 8a7e 7f3f 3270 803f b580 803f a580 7f3f
00000080: 1e82 7f3f 0340 803f 7b72 803f 4632 803f

transformer_encoder.layers.0.norm1.bias f4 [36]
-0.0021985257 0.0062079444 0.0020130177 -0.0022267085 0.0013107192 0.0025108757 0.0022975833 0.0021994892
-0.002199511 0.0046331594 0.0015203718 -0.002285687 -0.0014621228 0.0034869146 -0.0022495333 0.0029646321
-0.0033786292 -0.0012274204 -0.00265952 0.003231197 -0.0026517469 -0.002519198 -0.0025663832 0.002996148
-0.0024242958 -0.002622572 0.0017650708 0.00160161 0.0017090146 0.0008560308 -0.0029298938 -0.0020770016
0.0022599418 0.0023530598 -0.0020828007 0.002521483
00000000: 2415 10bb 036c cb3b d5ec 033b f8ed 11bb
00000010: 70cc ab3a 818d 243b 0d93 163b 4e25 103b
00000020: ac25 10bb c2d1 973b 3647 c73a 77cb 15bb
00000030: b3a4 bfba b884 643b e86c 13bb 464a 423b
00000040: fe6b 5dbb 65e1 a0ba 574b 2ebb 7dc2 533b
00000050: eec8 2dbb 2119 25bb c430 28bb 065b 443b
00000060: efe0 1ebb 75df 2bbb f359 e73a 1ded d13a
00000070: 0401 e03a 4167 603a 7603 40bb 4e1e 08bb
00000080: 881b 143b cb35 1a3b 997f 08bb 773f 253b

transformer_encoder.layers.0.norm2.weight f4 [36]
0.99922067 1.0036006 0.9987723 0.9980724 0.9975103 0.9995776 1.0002215 0.99920887
1.0035986 1.0081292 0.99818534 0.99548024 1.0066817 1.0029947 0.9976217 1.0042876
1.0070143 0.9994026 0.9984505 1.0031598 1.0004973 0.9994153 1.0015676 1.0023142
1.0051885 0.99615747 0.99719113 1.007609 0.99782956 1.0037001 1.003457 0.9989082
0.99791133 1.0018979 1.0024058 1.0015535
00000000: edcc 7f3f fc75 803f 8baf 7f3f ac81 7f3f
00000010: d65c 7f3f 51e4 7f3f 4207 803f 27cc 7f3f
00000020: eb75 803f 610a 813f 1389 7f3f cbd7 7e3f
00000030: f2da 803f 2162 803f 2364 7f3f 7f8c 803f
00000040: d8e5 803f d9d8 7f3f 749a 7f3f 8a67 803f
00000050: 4c10 803f aed9 7f3f 5e33 803f d54b 803f
00000060: 04aa 803f 2d04 7f3f eb47 7f3f 55f9 803f
00000070: c271 7f3f 3f79 803f 4771 803f 73b8 7f3f
00000080: 1e77 7f3f 313e 803f d54e 803f e832 803f

transformer_encoder.layers.0.norm2.bias f4 [36]
-0.0021081537 0.003148347 0.0019286239 -0.0021465984 0.0017974899 0.0023284408 0.0021476184 0.0022244733
-0.0021218744 0.001513911 0.0018513434 -0.0021903461 0.0050418875 0.003033459 -0.0023658585 0.003701943
-0.0047370656 -0.0016633783 -0.0025882993 0.0030792006 -0.002483808 -0.0023688006 0.0019495813 0.0030912317
-0.0025706117 -0.0024498515 0.0016944513 0.0014661629 0.0018244785 0.0013792993 -0.0027844007 -0.0017428539
0.0020902583 0.0024506121 -0.002003748 0.0024277621
00000000: f328 0abb 7f54 4e3b e1c9 fc3a f2ad 0cbb
00000010: c199 eb3a c198 183b 0fbf 0c3b 78c8 113b
00000020: 250f 0bbb 6c6e c63a c7a8 f23a e98b 0fbb
00000030: 6b36 a53b ffcc 463b 850c 1bbb 4c9c 723b
00000040: 6339 9bbb b705 daba 75a0 29bb 6acc 493b
00000050: 62c7 22bb e13d 1bbb 1889 ff3a 4396 4a3b
00000060: b577 28bb b08d 20bb 5a18 de3a 432c c03a
00000070: 5723 ef3a 9bc9 b43a 7e7a 36bb 7970 e4ba
00000080: b7fc 083b 739a 203b 5051 03bb 171b 1f3b

transformer_encoder.layers.1.self_attn.in_proj_weight f4 [108, 36]
-0.021463748 0.15225358 -0.15438649 0.17485826 0.0991669 0.15159239 0.16116142 0.09293042
-0.09476702 -0.17573813 0.19642758 0.16861829 0.13766982 -0.11253913 -0.07959749 0.012498365
-0.10172219 -0.03122131 -0.108700596 -0.15747027 -0.093490526 0.011055704 0.20011377 -0.04028291
-0.014197646 -0.20349298 -0.10723713 0.12566593 -0.15555951 0.0013753048 0.200336 0.008605248
0.045375153 0.09444642 -0.093863584 0.050071105 -0.014858422 0.042377245 0.16037329 -0.11882948
-0.1488021 -0.088449016 0.034735166 0.0052779107 -0.12623422 0.008621844 -0.16491748 0.17629091
-0.2002301 0.001800849 -0.10257432 -0.19937953 -0.06695279 -0.18080027 0.15786484 0.050583594
0.0331055 0.13969333 0.13215417 0.09106952 -0.10141376 -0.12715134 -0.039029613 -0.027528264
0.10047164 -0.020245224 0.069115154 0.1817177 0.055474628 0.11617392 -0.14060122 0.093234666
-0.14503561 0.020615872 0.1950467 0.041287176 0.04584204 0.07123616 0.1334735 0.107259005
-0.18898982 0.16994645 0.0930909 -0.16735005 -0.17400953 -0.1696187 0.027715145 -0.1982783
0.028329397 0.08971358 0.029041078 -0.1026919 -0.10708906 -0.14950247 -0.17063995 0.07376368
-0.05039294 0.054018047 -0.19280288 -0.086807095 -0.15635829 -0.15894751 0.12740086 -0.12238736
-0.10138763 0.080218844 -0.19030854 0.05386611 -0.11307508 -0.15291405 -0.0016325829 -0.087672
0.20330462 -0.12692755 -0.024371747 -0.06544104 0.0077565694 0.19324328 0.1887077 0.03887867
0.18206738 -0.027487967 0.17359163 -0.14785829 -0.03336397 0.07215682 -0.050778456 0.11792713
0.053506996 -0.052539594 0.022055248 -0.021309596 -0.17182216 0.06616577 -0.062034257 0.07454119
-0.07204664 0.11906576 -0.16158898 -0.17099836 -0.10738975 0.10523915 -0.1795305 0.12501414
0.14041504 -0.1525011 0.10702166 0.08202308 -0.07272625 -0.15271269 -0.077831216 -0.023756426
0.010372907 0.18583515 0.005758254 -0.025129225 -0.08645192 -0.13704748 -0.13082173 -0.101814754
0.19951297 -0.18828595 -0.15321992 0.09082762 -0.040080212 -0.010948028 -0.11417461 -0.047643304
-0.14302689 0.0027101187 0.14570826 -0.15107642 0.17258234 -0.012803531 0.16345903 -0.1418207
0.0237866 -0.012474786 0.18478715 0.13590036 -0.12160786 -0.045858953 -0.022280503 -0.13737608
0.09136833 0.049169574 -0.16023791 -0.09687094 -0.094753094 0.1279409 -0.10179492 -0.16428986
-0.027353745 -0.1583467 0.053240396 0.010941021 0.04454813 0.1179583 -0.05026704 -0.061364647
-0.18169439 0.13108712 -0.1563402 0.011756631 0.11887845 -0.04706682 0.09080679 0.11475153
-0.1423317 0.1139515 0.02254423 -0.122492135 0.15276256 0.01651176 -0.1012872 -0.023516351
-0.10623899 0.06774031 0.060516357 -0.14450172 -0.04122705 -0.07154471 -0.04790146 -0.1685497
0.087152116 -0.18703352 -0.088884786 0.13199122 0.103463516 0.14572221 -0.1510562 -0.0137406625
-0.19225062 -0.018393543 0.04249139 -0.073840626 0.16757157 0.111636356 0.12456151 0.09429716
-0.11871488 0.120603934 -0.10402209 -0.12646434 0.13668452 -0.1634624 0.017032813 -0.019413507
0.04545363 -0.16912434 -0.005087623 -0.11804105 0.010262189 0.13139656 -0.18626444 0.075855434
00000000: bed4 afbc 5de8 1b3e 7e17 1ebe 0b0e 333e
00000010: 0418 cb3d 093b 1b3e 8007 253e 4e52 be3d
00000020: 3615 c2bd b2f4 33be 5024 493e 46aa 2c3e
00000030: 51f9 0c3e ea7a e6bd 0204 a3bd f1c5 4c3c
00000040: b953 d0bd d5c3 ffbc 6b9e debd e33f 21be
00000050: f677 bfbd fc22 353c a0ea 4c3e b1ff 24bd
00000060: 3e9d 68bc 7760 50be 249f dbbd 92ae 003e
00000070: fe4a 1fbe 9243 b43a e124 4d3e 07fd 0c3c
00000080: 4cdb 393d 206d c13d 8d3b c0bd 5c17 4d3d
00000090: bd70 73bc c393 2d3d e538 243e df5c f3bd
000000a0: 945f 18be c224 b5bd 7646 0e3d 53f2 ac3b
000000b0: 8b43 01be a342 0d3c 21e0 28be 9b85 343e
000000c0: 1f09 4dbe 770a ec3a 7c12 d2bd 262a 4cbe
000000d0: 8b1e 89bd b523 39be 52a7 213e be30 4f3d
000000e0: a299 073d c50b 0f3e 6c53 073e a882 ba3d
000000f0: 04b2 cfbd f633 02be 84dd 1fbd f482 e1bc
00000100: 13c4 cd3d 50d9 a5bc 3f8c 8d3d 3414 3a3e
00000110: 5d39 633d 98ec ed3d c4f9 0fbe d1f1 be3d
00000120: 3784 14be 9ee2 a83c 52ba 473e be1c 293d
00000130: ddc4 3b3d 44e4 913d 47ad 083e 9caa db3d
00000140: 8c86 41be 7106 2e3e 71a6 be3d d05d 2bbe
00000150: 8e2f 32be 86b0 2dbe df0a e33c 7709 4bbe
00000160: 0d13 e83c c1bb b73d 8ee7 ed3c 2250 d2bd
00000170: 8251 dbbd 2d17 19be 3dbc 2ebe 6a11 973d
00000180: d468 4ebd 0742 5d3d 1e6e 45be ebc7 b1bd
00000190: 631c 20be 23c3 22be 5f75 023e 39a6 fabd
000001a0: 51a4 cfbd c749 a43d 3ee0 42be b6a2 5c3d
000001b0: e893 e7bd 8095 1cbe 64fc d5ba 618d b3bd
000001c0: 162f 503e 4cf9 01be 42a7 c7bc f405 86bd
000001d0: d22a fe3b 91e1 453e 973c 413e 3e3f 1f3d
000001e0: df6f 3a3e 722e e1bc 01c2 313e 2a68 17be
000001f0: a9a8 08bd f4c6 933d 12fd 4fbd c783 f13d
00000200: 272a 5b3d c233 57bd 35ad b43c 7691 aebc
00000210: 26f2 2fbe eb81 873d a217 7ebd 0da9 983d
00000220: 308d 93bd c0d8 f33d 9577 25be 321a 2fbe
00000230: 28ef dbbd a087 d73d d8d6 37be b503 003e
00000240: f6c8 0f3e 4029 1cbe 2c2e db3d b7fb a73d
00000250: 80f1 94bd b760 1cbe f965 9fbd d69c c2bc
00000260: 20f3 293c 924b 3e3e bcaf bc3b cedb cdbc
00000270: b40d b1bd 2d56 0cbe 22f6 05be 4184 d0bd
00000280: 214d 4c3e 08ce 40be afe5 1cbe d503 ba3d
00000290: 262b 24bd 5c5f 33bc 61d4 e9bd a025 43bd
000002a0: a475 12be 3f9c 313b 8c34 153e c7b3 1abe
000002b0: 6db9 303e e7c5 51bc ce61 273e 7239 11be
000002c0: 1edc c23c 0b63 4cbc d838 3d3e 7729 0b3e
000002d0: 8b0d f9bd 99d6 3bbd 9a85 b6bc 51ac 0cbe
000002e0: 521f bb3d 0966 493d 6815 24be 4564 c6bd
000002f0: e90d c2bd f002 033e db79 d0bd 9a3b 28be
00000300: f614 e0bc a325 22be 9a12 5a3d f841 333c
00000310: 1a78 363d 1f94 f13d d0e4 4dbd 7f59 7bbd
00000320: 180e 3abe b43b 063e a517 20be e29e 403c
00000330: 8b76 f33d 23c9 40bd e9f8 b93d da02 eb3d
00000340: 67bf 11be 675f e93d adae b83c 28dd fabd
00000350: ca6d 1c3e ac43 873c aa6f cfbd 5da5 c0bc
00000360: d493 d9bd 6fbb 8a3d 00e0 773d 42f8 13be
00000370: b2dd 28bd 0886 92bd 5234 44bd 4b98 2cbe
00000380: cf7c b23d b785 3fbe 3a09 b6bd b528 073e
00000390: aee4 d33d 3438 153e 7aae 1abe 8420 61bc
000003a0: 59dd 44be 0eae 96bc 740b 2e3d c139 97bd
000003b0: e297 2b3e 9aa1 e43d 1b1a ff3d df1e c13d
000003c0: c920 f3bd 32ff f63d 8909 d5bd de7f 01be
000003d0: 07f7 0b3e b062 27be 6688 8b3c 1309 9fbc
000003e0: 962d 3a3d ee2e 2dbe 13b6 a6bb 82bf f1bd
000003f0: be22 283c d28c 063e 1bbc 3ebe 185a 9b3d

transformer_encoder.layers.1.self_attn.in_proj_bias f4 [108]
0.0 0.0 0.0 0.0 0.0 0.0 0.0 0.0
0.0 0.0 0.0 0.0 0.0 0.0 0.0 0.0
0.0 0.0 0.0 0.0 0.0 0.0 0.0 0.0
0.0 0.0 0.0 0.0 0.0 0.0 0.0 0.0
0.0 0.0 0.0 0.0 0.0 0.0 0.0 0.0
0.0 0.0 0.0 0.0 0.0 0.0 0.0 0.0
0.0 0.0 0.0 0.0 0.0 0.0 0.0 0.0
0.0 0.0 0.0 0.0 0.0 0.0 0.0 0.0
0.0 0.0 0.0 0.0 0.0 0.0 0.0 0.0
0.0018301625 0.0016618513 -0.0017121653 -0.00089310313 -0.0018414946 0.0020909735 -0.0018827812 -0.0018190804
-0.0022618265 0.0023058082 -0.0022576745 0.0019812894 -0.00027436414 0.0017226358 -0.002288236 -0.002392871
0.0020996518 0.004873761 0.00040859304 -0.0022794 -0.0023466651 -0.0035091513 -0.0008113123 0.002012301
-0.002523699 -0.0011408372 -0.0023992013 0.0021176082 -0.0023903868 0.0015316729 0.002204058 -0.0023285088
-0.0030843136 -0.0032192117 -0.004824127 -0.0019987903
00000000: 0000 0000 0000 0000 0000 0000 0000 0000
00000010: 0000 0000 0000 0000 0000 0000 0000 0000
00000020: 0000 0000 0000 0000 0000 0000 0000 0000
00000030: 0000 0000 0000 0000 0000 0000 0000 0000
00000040: 0000 0000 0000 0000 0000 0000 0000 0000
00000050: 0000 0000 0000 0000 0000 0000 0000 0000
00000060: 0000 0000 0000 0000 0000 0000 0000 0000
00000070: 0000 0000 0000 0000 0000 0000 0000 0000
00000080: 0000 0000 0000 0000 0000 0000 0000 0000
00000090: 0000 0000 0000 0000 0000 0000 0000 0000
000000a0: 0000 0000 0000 0000 0000 0000 0000 0000
000000b0: 0000 0000 0000 0000 0000 0000 0000 0000
000000c0: 0000 0000 0000 0000 0000 0000 0000 0000
000000d0: 0000 0000 0000 0000 0000 0000 0000 0000
000000e0: 0000 0000 0000 0000 0000 0000 0000 0000
000000f0: 0000 0000 0000 0000 0000 0000 0000 0000
00000100: 0000 0000 0000 0000 0000 0000 0000 0000
00000110: 0000 0000 0000 0000 0000 0000 0000 0000
00000120: 10e2 ef3a 7ad2 d93a bc6a e0ba 231f 6aba
00000130: 4e5e f1ba b708 093b a7c7 f6ba 366e eeba
00000140: 273b 14bb 0b1d 173b 7ef5 13bb 85d8 013b
00000150: 88d8 8fb9 11ca e13a 3bf6 15bb b7d1 1cbb
00000160: 509a 093b 12b4 9f3b 6e38 d639 fc61 15bb
00000170: 82ca 19bb caf9 65bb 3fae 54ba cfe0 033b
00000180: a564 25bb 2588 95ba eb3b 1dbb 92c7 0a3b
00000190: 09a8 1cbb 6ac2 c83a f571 103b e599 18bb
000001a0: 3222 4abb 69f9 52bb b613 9ebb 23fe 02bb
