pipeline/Ankle_Controllers/base_model.pth (torch, 854921 bytes, 27 tensors)

transformer_encoder.layers.0.self_attn.in_proj_weight f4 [108, 36]
-0.0008768818 0.12307714 -0.048157543 -0.07981376 0.020816453 0.17368723 0.1234728 0.12910557
-0.009714783 -0.18511602 0.14893857 -0.11158246 -0.19361496 -0.12855908 0.19454354 0.045878444
0.20220405 -0.039142642 0.1305298 0.03729765 -0.08336162 -0.068274215 -0.035800166 -0.055229638
0.17195746 -0.041585483 -0.06830478 -0.12163796 0.02796814 -0.0069941278 0.069757655 -0.0013426492
0.18187319 -0.14131731 0.03926385 -0.19138514 0.18239342 0.1846121 -0.02449086 0.10116144
-0.19070579 -0.022005485 0.16704346 0.10538233 0.11345638 0.048996855 0.14145197 -0.026310932
-0.05503514 0.119956195 0.021389702 0.13697453 0.17411336 0.092415966 0.06094375 -0.07184701
0.03826384 -0.16583924 0.19468607 -0.006829098 -0.143406 0.059537005 -0.12489322 0.15445727
0.014953566 0.11055605 0.051781874 0.0023923477 0.045125592 -0.15844354 -0.19521688 -0.10559574
0.11769744 0.08653105 0.12547354 0.12406367 0.097186565 0.07072796 0.06520705 -0.09751695
-0.05930715 0.084523536 -0.15868816 -0.011984757 -0.08614865 -0.14392662 0.103699185 -0.10942335
0.16374634 0.19580743 0.07665917 -0.1357794 -0.055727597 -0.16192666 -0.0039483043 0.05285065
0.09242796 0.1597596 0.15050323 0.13960895 0.087702245 -0.19227757 0.07200841 -0.12168811
-0.07454705 0.18165787 0.08613048 -0.027131872 -0.087573886 0.0045185597 0.1677402 -0.081170015
0.072984934 0.06829655 0.16698799 -0.0122094285 -0.09041317 -0.10617556 0.002737348 -0.04075476
0.1663294 -0.13831061 0.11058841 0.19533147 -0.07448393 -0.14185053 0.14484423 -0.17737062
0.1725537 0.16523081 0.06475827 -0.06306237 0.04172946 -0.18863688 0.12443122 0.097559676
-0.03686169 0.066468254 -0.037788264 0.09616972 0.13975337 -0.064411275 -0.19675101 -0.049410693
0.030837182 0.18749744 0.15045641 0.18066595 0.14139254 0.19176164 -0.0871992 0.008225549
-0.08343197 -0.14240901 -0.11384538 -0.154759 0.1748649 -0.016455745 0.17456363 -0.11105163
-0.0394243 -0.10749596 0.026203962 -0.023624757 -0.0050360113 -0.16382276 0.037910637 -0.045947723
0.1422621 -0.14493395 0.16010486 -0.1394174 0.095584475 -0.07645063 -0.080798395 -0.09013973
-0.023914594 0.119165115 -0.0042928667 0.030707533 -0.083105065 0.12650259 -0.1883543 -0.13042308
0.112384275 0.08706072 -0.109586746 -0.023539227 0.16662864 -0.01354833 -0.06281962 -0.15647943
-0.062483136 0.00036524577 -0.030255027 -0.13740103 0.14109604 -0.20354849 -0.17315477 -0.15471964
-0.15980284 -0.112856515 0.06047197 0.072764985 -0.13912942 0.047892846 -0.007966251 -0.11797401
0.067320734 0.058722783 0.109160155 -0.124036126 0.01871331 0.050213188 0.1689229 -0.09376231
-0.18427823 -0.067043625 0.088013545 0.04213065 -0.031628385 0.20380025 -0.12919703 0.10745153
0.1921601 0.12391373 0.1629576 -0.11730762 -0.12279855 0.18793537 -0.108606525 0.12358895
-0.031155976 0.0925762 -0.19722736 0.09029223 0.13994916 -0.0701926 -0.004800877 -0.17739311
-0.06831235 0.037685454 -0.02800172 0.06489378 -0.19490047 -0.07371694 -0.16865115 0.11910003
0.114271045 0.011655598 0.17084761 -0.08881502 -0.092607394 -0.1074975 0.011821261 0.08773393
00000000: 8bde 65ba de0f fc3d d840 45bd 6675 a3bd
00000010: 4487 aa3c 11db 313e 4fdf fc3d 4034 043e
00000020: c12a 1fbc 0e8f 3dbe 5a83 183e 5885 e4bd
00000030: 0043 46be fea4 03be 6c36 473e 09eb 3b3d
00000040: 940e 4f3e 0954 20bd 9ba9 053e 6cc5 183d
00000050: 7fb9 aabd 5ad3 8bbd 32a3 12bd 7938 62bd
00000060: 9e15 303e 8a55 2abd 60e3 8bbd 531d f9bd
00000070: 711d e53c ff2e e5bb 1add 8e3d d5fb afba
00000080: f73c 3a3e 7cb5 10be 21d3 203d 77fa 43be
00000090: 57c5 3a3e f40a 3d3e 0ea1 c8bc bb2d cf3d
000000a0: 6148 43be d944 b4bc 710d 2b3e b1d2 d73d
000000b0: d25b e83d edb0 483d c9d8 103e 068a d7bc
000000c0: 876c 61bd 98ab f53d 7539 af3c 0d43 0c3e
000000d0: c64a 323e 9544 bd3d 27a0 793d 8624 93bd
000000e0: 8bba 1c3d c3d1 29be c95b 473e a0c6 dfbb
000000f0: 06d9 12be 13dd 733d 04c8 ffbd 0c2a 1e3e
00000100: cdff 743c 366b e23d 3b19 543d efc8 1c3b
00000110: 9dd5 383d 063f 22be efe6 47be 9442 d8bd
00000120: 5b0b f13d 3137 b13d 237c 003e 1815 fe3d
00000130: c009 c73d d2d9 903d 468b 853d f7b6 c7bd
00000140: 0eec 72bd ad1a ad3d 267f 22be b75b 44bc
00000150: b46e b0bd 8061 13be 3d60 d43d 5919 e0bd
00000160: 1fad 273e be81 483e 7cff 9c3d c109 0bbe
00000170: 9f42 64bd 1ad0 25be c760 81bb ec79 583d
00000180: df4a bd3d 0598 233e 851d 1a3e a6f5 0e3e
00000190: 3c9d b33d 69e4 44be 2579 933d 9e37 f9bd
000001a0: 20ac 98bd 8504 3a3e 2d65 b03d a943 debc
000001b0: f059 b3bd 6d10 943b 16c4 2b3e 773c a6bd
000001c0: 2079 953d 10df 8b3d e6fe 2a3e 0e0a 48bc
000001d0: 8a2a b9bd 9272 d9bd 1465 333b 77ee 26bd
000001e0: 4152 2a3e 4ca1 0dbe 2d7c e23d f904 483e
000001f0: 088b 98bd 4441 11be 0c52 143e a5a0 35be
00000200: ebb1 303e 4432 293e fc9f 843d d826 81bd
00000210: 83ec 2a3d 072a 41be ccd5 fe3d 5ecd c73d
00000220: 49fc 16bd 8220 883d dec7 1abd a1f4 c43d
00000230: 821b 0f3e 0fea 83bd 1979 49be de62 4abd
00000240: 429e fc3c 54ff 3f3e 3f11 1a3e 7f00 393e
00000250: 35c9 103e 2a5d 443e 7f95 b2bd 74c4 063c
00000260: 61de aabd abd3 11be c427 e9bd 2579 1ebe
00000270: c90f 333e 33ce 86bc cfc0 323e 096f e3bd
00000280: 607b 21bd d826 dcbd b1a9 d63c b588 c1bc
00000290: 2005 a5bb 27c1 27be 2f48 1b3d ae33 3cbd
000002a0: 28ad 113e 9169 14be 87f2 233e 6fc3 0ebe
000002b0: cbc1 c33d 2692 9cbd a179 a5bd 2e9b b8bd
000002c0: 8ae8 c3bc d70c f43d 2dab 8cbb 5d8e fb3c
000002d0: fd32 aabd e589 013e f3df 40be a18d 05be
000002e0: ba29 e63d e44c b23d 046f e0bd 56d5 c0bc
000002f0: b3a0 2a3e d1f9 5dbc 93a7 80bd 253c 20be
00000300: 51ee 7fbd 757e bf39 64d9 f7bc dbb2 0cbe
00000310: 7b7b 103e 046f 50be 7c4f 31be d36e 1ebe
00000320: 5ba3 23be 5121 e7bd 75b1 773d cf05 953d
00000330: f177 0ebe 4a2b 443d e184 02bc 5c9c f1bd
00000340: 74df 893d 4d87 703d 5c8f df3d a706 febd
00000350: a84c 993c 58ac 4d3d 20fa 2c3e 7406 c0bd
00000360: 6fb3 3cbe 2b4e 89bd 7240 b43d 3091 2c3d
00000370: c48c 01bd 03b1 503e 3a4c 04be 8c0f dc3d
00000380: 9ec5 443e 7bc6 fd3d 5bde 263e fa3e f0bd
00000390: ce7d fbbd 2172 403e 196d debd 341c fd3d
000003a0: d13a ffbc 9798 bd3d f8f5 49be 22eb b83d
000003b0: d54e 0f3e 23c1 8fbd ad50 9dbb 8aa6 35be
000003c0: 58e7 8bbd 105c 1a3d dd63 e5bc 08e7 843d
000003d0: fd93 47be e8f8 96bd e3b2 2cbe b7ea f33d
000003e0: f006 ea3d 1ff7 3e3c adf2 2e3e a6e4 b5bd
000003f0: f2a8 bdbd a627 dcbd f6ad 413c d9ad b33d

transformer_encoder.layers.0.self_attn.in_proj_bias f4 [108]
0.0 0.0 0.0 0.0 0.0 0.0 0.0 0.0
0.0 0.0 0.0 0.0 0.0 0.0 0.0 0.0
0.0 0.0 0.0 0.0 0.0 0.0 0.0 0.0
0.0 0.0 0.0 0.0 0.0 0.0 0.0 0.0
0.0 0.0 0.0 0.0 0.0 0.0 0.0 0.0
0.0 0.0 0.0 0.0 0.0 0.0 0.0 0.0
0.0 0.0 0.0 0.0 0.0 0.0 0.0 0.0
0.0 0.0 0.0 0.0 0.0 0.0 0.0 0.0
0.0 0.0 0.0 0.0 0.0 0.0 0.0 0.0
-0.008996865 0.0011036387 -0.0015250654 -0.00019168684 -0.0016598656 -0.00019900149 -0.0054222117 0.004986009
0.0009567619 -0.0065787514 -0.0048733144 0.012294889 0.003700388 -0.021408541 0.0050798166 -0.0017171082
-0.0061201467 -0.0035376393 0.00522302 0.015154606 0.004761092 -0.0031313782 0.0024251805 -0.0034457918
0.009467949 0.0016119326 0.001597578 0.0038444407 0.0033087076 0.005683899 0.0045822887 0.0027137192
-0.004574192 0.0030245713 0.014699658 0.0047020167
00000000: 0000 0000 0000 0000 0000 0000 0000 0000
00000010: 0000 0000 0000 0000 0000 0000 0000 0000
00000020: 0000 0000 0000 0000 0000 0000 0000 0000
00000030: 0000 0000 0000 0000 0000 0000 0000 0000
00000040: 0000 0000 0000 0000 0000 0000 0000 0000
00000050: 0000 0000 0000 0000 0000 0000 0000 0000
00000060: 0000 0000 0000 0000 0000 0000 0000 0000
00000070: 0000 0000 0000 0000 0000 0000 0000 0000
00000080: 0000 0000 0000 0000 0000 0000 0000 0000
00000090: 0000 0000 0000 0000 0000 0000 0000 0000
000000a0: 0000 0000 0000 0000 0000 0000 0000 0000
000000b0: 0000 0000 0000 0000 0000 0000 0000 0000
000000c0: 0000 0000 0000 0000 0000 0000 0000 0000
000000d0: 0000 0000 0000 0000 0000 0000 0000 0000
000000e0: 0000 0000 0000 0000 0000 0000 0000 0000
000000f0: 0000 0000 0000 0000 0000 0000 0000 0000
00000100: 0000 0000 0000 0000 0000 0000 0000 0000
00000110: 0000 0000 0000 0000 0000 0000 0000 0000
00000120: 9667 13bc f8a7 903a b4e4 c7ba 8bff 48b9
00000130: d98f d9ba 0eab 50b9 cfac b1bb ad61 a33b
00000140: 34cf 7a3a 9192 d7bb 53b0 9fbb 8170 493c
00000150: 3582 723b f760 afbc 9774 a63b 9710 e1ba
00000160: 838b c8bb bdd7 67bb de25 ab3b 064b 783c
00000170: ef02 9c3b cf37 4dbb c7ef 1e3b cbd2 61bb
00000180: 751f 1b3c 7c47 d33a d365 d13a 03f3 7b3b
00000190: e7d6 583b 0040 ba3b 0627 963b a7d8 313b
000001a0: 1be3 95bb e337 463b d6d6 703c 6013 9a3b

transformer_encoder.layers.0.self_attn.out_proj.weight f4 [36, 36]
-0.04272462 0.13471898 0.099192165 0.071322404 0.11195919 -0.08801336 -0.009338031 0.084942125
0.107596524 -0.12226825 -0.12626512 -0.12134539 0.1537472 -0.08813207 0.0022624503 -0.05626195
0.13415131 0.0772906 0.16236545 0.044122048 0.08823069 0.064745635 -0.057272334 0.0058605867
0.047916107 0.12590832 -0.13719302 -0.029082166 0.12330387 0.03118401 0.0031228166 -0.16936125
-0.028148845 0.043617494 -0.05180915 -0.16057906 0.006228509 -0.11960873 0.0041959626 0.105481304
-0.017749572 -0.1301756 -0.13330221 0.0692938 -0.062108696 -0.08380374 -0.11589272 -0.06609785
-0.030777091 -0.15656383 -0.047045484 0.051565543 0.044244274 -0.17217311 0.07073298 0.09720006
-0.089911334 -0.07131514 0.008373574 0.1394493 -0.078678526 -0.12758648 -0.12530293 -0.15724346
0.16198246 0.16545351 -0.14044552 -0.012768428 -0.03288979 -0.090060994 0.14932401 0.11104385
-0.062110104 0.013046911 -0.06476306 0.044179514 -0.13847776 -0.07736373 -0.14499767 -0.07374462
-0.1175431 -0.07988128 0.022020957 0.13824911 0.14806965 0.03207226 0.1404838 0.15383093
0.13793193 0.15230161 -0.11045254 0.043655604 -0.15835254 0.16379395 -0.017478922 -0.012589713
0.026295055 -0.014474806 0.085265145 0.1415697 0.0977216 0.041210745 -0.038898427 0.10558613
-0.14474694 0.104555644 0.064459756 -0.050530817 -0.010903253 0.14520481 -0.08637068 -0.07431091
-0.14541829 0.1524403 -0.14948837 0.1691027 0.06921753 -0.13484846 -0.1454722 0.10249575
0.10932769 0.055116273 -0.016264506 -0.0470476 -0.12673178 -0.021767436 -0.0014121626 0.08890399
0.15863939 -0.10793825 0.09968965 -0.06374653 0.026341228 0.08752508 0.12355835 0.082263276
0.029636204 0.14202581 0.12561071 0.026585631 0.16964409 -0.010373896 0.043524582 0.054095365
-0.05212155 0.054667786 0.117224805 0.118970096 0.020413065 0.09155195 -0.12232534 0.070997655
-0.13510595 0.13947071 -0.07667597 -0.013927422 0.122783 -0.06739513 0.028478406 -0.13862355
0.11311232 0.14699885 -0.045265276 -0.10842995 0.086370975 0.0928559 -0.10841192 0.010764835
-0.12543778 -0.11436493 -0.08999117 -0.06867573 -0.15356855 -0.037224285 -0.112783164 0.029710632
-0.046304286 0.050001446 -0.10915224 0.15683739 -0.07108962 -0.15515283 -0.020769723 -0.16283014
0.10951823 0.037053958 -0.09094617 -0.08791061 -0.10284189 -0.15692131 -0.049595818 -0.15656756
-0.055345263 -0.12379478 -0.061949335 -0.04888656 -0.019644242 0.051516145 -0.1246299 0.08761263
0.04725756 0.108849905 0.14630766 0.1404846 -0.10517898 0.041854296 -0.0044500814 -0.16854796
0.04878621 0.14350235 0.13900672 -0.01960128 0.023649551 -0.038123533 -0.10233105 -0.13014938
-0.11820686 0.09201025 0.10376126 0.02430943 0.007657091 -0.060493525 0.16516459 -0.044266388
0.051976085 -0.049520154 0.12116693 0.04531761 -0.1432459 -0.14977516 0.08717952 0.06753931
0.046981804 0.09306236 0.11984998 0.02507711 -0.05894904 -0.044583898 0.058987137 0.025514433
0.13367875 0.14137317 -0.13176076 -0.014635488 -0.023213904 -0.07355675 0.123060495 -0.04423365
0.09583051 0.122958325 0.095357016 -0.17411542 0.10467745 -0.15590194 0.06306747 0.1303448
00000000: 0300 2fbd c6f3 093e 4325 cb3d 7b11 923d
00000010: dc4a e53d 5940 b4bd 8afe 18bc 23f6 ad3d
00000020: 915b dc3d c767 fabd a54b 01be ef83 f8bd
00000030: e86f 1d3e 967e b4bd 9e45 143b ee72 66bd
00000040: f65e 093e 894a 9e3d 2143 263e 52b9 343d
00000050: 4bb2 b43d 5c99 843d 6596 6abd 2a0a c03b
00000060: ae43 443d 1cee 003e 547c 0cbe b93d eebc
00000070: bd86 fc3d 9c75 ff3c 2ba8 4c3b 096d 2dbe
00000080: 6898 e6bc 42a8 323d d535 54bd d66e 24be
00000090: 8518 cc3b 6cf5 f4bd 497e 893b 9506 d83d
000000a0: 8d67 91bc c14c 05be 6080 08be e8e9 8d3d
000000b0: b065 7ebd 4ca1 abbd 2a59 edbd 4f5e 87bd
000000c0: 3d20 fcbc 4552 20be c4b2 40bd 6436 533d
000000d0: 7c39 353d 264e 30be 74dc 903d d310 c73d
000000e0: 6f23 b8bd ac0d 92bd 5131 093c cccb 0e3e
000000f0: 3522 a1bd 08a6 02be 694f 00be 6e04 21be
00000100: bbde 253e a56c 293e f3d0 0fbe ab32 51bc
00000110: 72b7 06bd e671 b8bd 65e8 183e f56a e33d
00000120: 2a67 7ebd b6c2 553c 7fa2 84bd 94f5 343d
00000130: 1dcd 0dbe e070 9ebd 457a 14be 6b07 97bd
00000140: 70ba f0bd cc98 a3bd 4b65 b43c 2d91 0d3e
00000150: 929f 173e 345e 033d fcda 0f3e db85 1d3e
00000160: 073e 0d3e f4f4 1b3e f134 e2bd 38d0 323d
00000170: 2b27 22be 9ab9 273e f52f 8fbc 1545 4ebc
00000180: ba68 d73c bd27 6dbc 7e9f ae3d a6f7 103e
00000190: 4322 c83d 99cc 283d f553 1fbd 8a3d d83d
000001a0: 8b38 14be 4521 d63d 7a03 843d 67f9 4ebd
000001b0: 8fa3 32bc 92b0 143e 1ce3 b0bd 5230 98bd
000001c0: 88e8 14be 4f19 1c3e 7b13 19be 4229 2d3e
000001d0: ecc1 8d3d b715 0abe aaf6 14be 4be9 d13d
000001e0: 32e7 df3d 9ac1 613d 243d 85bc fcb4 40bd
000001f0: fac5 01be 9f51 b2bc 5018 b9ba 4c13 b63d
00000200: 5d72 223e bb0e ddbd 162a cc3d 8a8d 82bd
00000210: 8fc9 d73c 5940 b33d 290c fd3d a679 a83d
00000220: a0c7 f23c 376f 113e 18a0 003e 1cca d93c
00000230: 2eb7 2d3e 46f7 29bc d546 323d 1a93 5d3d
00000240: 687d 55bd 54eb 5f3d 8f13 f03d 98a6 f33d
00000250: 4d39 a73c 977f bb3d b585 fabd 3867 913d
00000260: 3759 0abe 69d1 0e3e 4a08 9dbd d82f 64bc
00000270: a775 fb3d 7506 8abd 8c4b e93c 55f3 0dbe
00000280: 6fa7 e73d de86 163e 1568 39bd 8610 debd
00000290: 44e3 b03d 3c2b be3d 1207 debd fe5e 303c
000002a0: c372 00be 2938 eabd 4a4d b8bd dca5 8cbd
000002b0: 1341 1dbe 7e78 18bd dcfa e6bd b663 f33c
000002c0: 90a9 3dbd 51ce 4c3d 368b dfbd fb99 203e
000002d0: 6f97 91bd 62e0 1ebe 4425 aabc f2bc 26be
000002e0: 184b e03d e4c5 173d fc41 babd 7a0a b4bd
000002f0: c59e d2bd fbaf 20be fc24 4bbd 3f53 20be
00000300: b7b1 62bd 1e88 fdbd 96be 7dbd 463d 48bd
00000310: f6ec a0bc 9802 533d f63d ffbd 406e b33d
00000320: 2591 413d b3ec de3d add1 153e 32db 0f3e
00000330: 1468 d7bd 696f 2b3d fdd1 91bb d697 2cbe
00000340: 0dd4 473d 48f2 123e c757 0e3e dd92 a0bc
00000350: b4bc c13c 6c27 1cbd f192 d1bd e145 05be
00000360: 7016 f2bd df6f bc3d c980 d43d 9224 c73c
00000370: 56e8 fa3b 0fc8 77bd e820 293e ac50 35bd
00000380: e0e4 543d a5d5 4abd 5e26 f83d f59e 393d
00000390: 0eaf 12be a95e 19be 2d8b b23d 0d52 8a3d
000003a0: fe6f 403d 7b97 be3d e873 f53d 836e cd3c
000003b0: 8c74 71bd 9b9d 36bd 7f9c 713d a503 d13c
000003c0: 15e3 083e 21c4 103e 4bec 06be b0c9 6fbc
000003d0: 162b bebc eca4 96bd 2407 fc3d 582e 35bd
000003e0: c942 c43d 93d1 fb3d 8a4a c33d 504b 32be
000003f0: 2261 d63d c2a4 1fbe 8529 813d 1b79 053e

transformer_encoder.layers.0.self_attn.out_proj.bias f4 [36]
0.002269651 0.004568694 0.0025717078 0.005406203 -0.013713572 -0.005626502 0.0037671132 0.0027418265
-0.0028502082 -0.0034153056 0.0029358207 -0.0026445368 -0.002477108 -0.0034491806 -9.1726506e-05 0.004744423
-0.0011801738 0.0015753399 -0.0043184184 -0.00091356493 0.0015277062 -0.004368986 0.0008577709 -0.0010300928
0.0015694813 -0.0011194245 0.0049024955 0.0100371605 0.000534085 -0.0020403906 -0.0056644683 -0.0036296046
-0.0030316743 0.0023492046 -0.003421167 -0.009694771
00000000: 6dbe 143b fcb4 953b 198a 283b 8526 b13b
00000010: e4ae 60bc 855e b8bb ace1 763b 37b0 333b
00000020: 8fca 3abb 52d3 5fbb e666 403b f74f 2dbb
00000030: fa56 22bb a60b 62bb 4b5d c0b8 1b77 9b3b
00000040: 10b0 9aba a37b ce3a 8581 8dbb 4e7c 6fba
00000050: 503d c83a b629 8fbb 08dc 603a 2e04 87ba
00000060: 0eb7 cd3a a7b9 92ba 1da5 a03b e772 243c
00000070: d601 0c3a 13b8 05bb 019d b9bb a9de 6dbb
00000080: 0eaf 46bb 1df5 193b a835 60bb d1d6 1ebc

transformer_encoder.layers.0.linear1.weight f4 [128, 36]
0.010364275 0.0717529 -0.096920185 0.12640432 -0.13674906 -0.10318585 0.06994972 0.019855823
-0.14209251 0.028218761 0.062828526 -0.0018719581 0.012358953 0.13681738 -0.03510709 -0.10563142
-0.05036907 0.07977122 0.070889056 0.027965305 -0.015333177 0.13868473 0.033451635 -0.14200541
0.0662416 -0.1376191 0.15761201 -0.13110128 0.13750659 -0.04393244 -0.09370957 -0.024782171
-0.017549925 0.03416267 0.04944688 0.04645235 -0.0429794 -0.03922362 -0.0027353198 -0.045095313
-0.06187963 -0.16081434 0.065616086 0.05070181 -0.06665513 0.1366857 -0.16701268 -0.08885997
0.048203286 -0.11038658 0.13838793 -0.15433851 -0.021136632 -0.08039605 -0.106805675 -0.11763737
0.08210507 -0.11266617 0.03680767 -0.025387686 0.07973687 -0.10536333 0.050069433 -0.0905675
0.090535946 -0.016691329 0.1048187 0.12558034 -0.05821456 0.12629947 -0.09918948 0.08403189
0.10380997 -0.10105254 -0.08564058 0.051147223 0.114493854 -0.09061078 -0.075894065 0.110578135
-0.026945703 0.10594011 0.08399959 0.010062727 0.12893094 0.15116997 0.07835522 0.11962502
-0.15589829 0.07911659 0.15757558 -0.04667831 0.016409077 -0.080991186 -0.05065674 -0.14771658
0.09573736 -0.048638787 -0.0062106606 0.012664215 0.08056091 0.15011992 0.1242606 -0.09159807
0.037376113 -0.064237334 0.0032301748 -0.10753847 -0.07864585 -0.09782996 -0.0032281568 0.0983514
0.0762677 -0.056724153 0.052300133 -0.112406835 -0.098860435 0.102956235 0.09730178 0.14719285
-0.14102198 -0.0010616567 -0.023344167 0.016224403 0.0699104 -0.00639818 0.16815507 -0.14430653
-0.033323918 0.03410797 -0.021434696 0.06058052 -0.09940445 -0.025171993 0.03640567 0.10486998
0.0036450222 -0.14869492 0.16918269 -0.05160816 0.053274967 0.16178353 0.1223197 0.08628167
-0.1420185 -0.0137935765 -0.057095695 -0.06994817 -0.0714378 -0.1000217 -0.05237212 0.11399053
0.15163289 -0.10016372 0.0553903 0.1619637 0.14181498 0.09044544 -0.0392206 -0.12867393
0.09094105 0.15547955 0.077102624 -0.032839827 -0.038988262 0.10774654 0.0022784707 0.07481964
0.16780788 -0.01483756 0.11035723 0.086995885 -0.1396426 0.09138214 0.0023040622 -0.004639814
-0.022179771 -0.1647483 -0.05926453 -0.11459622 0.13608775 0.13675438 -0.01963348 -0.07045781
-0.064802155 0.10767167 -0.11874103 -0.122689195 -0.09495686 -0.07202423 -0.07915046 -0.1065548
-0.117238596 0.103896044 0.08843701 -0.03213601 0.12780814 -0.12309799 0.051443797 0.07421915
-0.13290195 0.16125081 0.1617424 0.019050084 -0.13001342 0.05731936 -0.058756527 0.12692577
-0.0856407 0.13306016 0.168244 -0.023911925 0.028959153 0.0433719 0.10292332 0.041780733
0.11189928 -0.0017601101 0.025017733 0.08228156 0.023288984 -0.039886355 -0.11721169 -0.01714538
0.16627225 0.14854692 -0.12366344 -0.05089243 0.03791601 0.027738841 0.109766744 0.058256045
-0.026749104 0.00021212276 0.14323594 0.1529879 -0.030788856 -0.02432779 0.09153085 -0.036953665
0.09786272 -0.16054307 0.035713773 0.060392246 0.011909386 0.051818587 0.13285391 0.011865498
0.050847623 0.10209494 0.16412169 -0.0481165 -0.053017136 0.13031796 -0.115613565 -0.0501123
00000000: ecce 293c 2ff3 923d 177e c6bd 2270 013e
00000010: f207 0cbe 1a53 d3bd cc41 8f3d aea8 a23c
00000020: b380 11be 082b e73c 3eac 803d 7e5c f5ba
00000030: 357d 4a3c db19 0c3e 74cc 0fbd 4955 d8bd
00000040: cc4f 4ebd 185f a33d 482e 913d 7f17 e53c
00000050: 0138 7bbc 5f03 0e3e 9504 093d de69 11be
00000060: ada9 873d 05ec 0cbe 0b65 213e 6a3f 06be
00000070: 87ce 0c3e 81f2 33bd ceea bfbd fb03 cbbc
00000080: dcc4 8fbc 28ee 0b3d d088 4a3d d244 3e3d
00000090: 2b0b 30bd f2a8 20bd 0d43 33bb ddb5 38bd
000000a0: 7f75 7dbd 84ac 24be ba61 863d b3ac 4f3d
000000b0: 7c82 88bd 56f7 0b3e 5f05 2bbe 37fc b5bd
000000c0: cf70 453d 5c12 e2bd 91b5 0d3e ea0a 1ebe
000000d0: bb26 adbc afa6 a4bd efbc dabd ddeb f0bd
000000e0: b426 a83d 85bd e6bd a4c3 163d d6f9 cfbc
000000f0: 164d a33d bbc8 d7bd 9b15 4d3d 747b b9bd
00000100: e96a b93d 41bc 88bc 30ab d63d 2298 003e
00000110: 6472 6ebd a654 013e db23 cbbd e918 ac3d
00000120: 529a d43d a2f4 cebd 5464 afbd c07f 513d
00000130: c17b ea3d 2592 b9bd 596e 9bbd ca76 e23d
00000140: 3cbd dcbc 21f7 d83d fa07 ac3d 23de 243c
00000150: 7906 043e 4dcc 1a3e b478 a03d f6fd f43d
00000160: cda3 1fbe e107 a23d 7e5b 213e c131 3fbd
00000170: 546c 863c b5de a5bd 717d 4fbd 0443 17be
00000180: f311 c43d 7739 47bd cc82 cbbb 917d 4f3c
00000190: 1efd a43d 09b9 193e 577c fe3d c597 bbbd
000001a0: b217 193d dd8e 83bd 57b1 533b 213d dcbd
000001b0: 1311 a1bd 135b c8bd 7c8f 53bb 756c c93d
000001c0: 3d32 9c3d 9657 68bd aa38 563d 8e35 e6bd
000001d0: 5777 cabd b8da d23d 2846 c73d b9b9 163e
000001e0: 1168 10be 4a27 8bba 443c bfbc 0ae9 843c
000001f0: 2f2d 8f3d d3a7 d1bb d830 2c3e 17c5 13be
00000200: a97e 08bd ccb4 0b3d d197 afbc 4823 783d
00000210: 8f94 cbbd 7f35 cebc 1d1e 153d 12c6 d63d
00000220: 53e1 6e3b 7b43 18be 3a3e 2d3e 1463 53bd
00000230: da36 5a3d 95aa 253e c082 fa3d 72b4 b03d
00000240: 4c6d 11be 74fe 61bc 2ddd 69bd fc40 8fbd
00000250: fb4d 92bd 2dd8 ccbd 2684 56bd de73 e93d
00000260: a745 1b3e a322 cdbd f0e0 623d d0d9 253e
00000270: f237 113e 753b b93d c8a5 20bd 19c3 03be
00000280: 4d3f ba3d 0836 1f3e fbe7 9d3d 0e83 06bd
00000290: 28b2 1fbd 38aa dc3d 6552 153b 0a3b 993d
000002a0: d4d5 2b3e 3d19 73bc f902 e23d e62a b23d
000002b0: 78fe 0ebe 8f26 bb3d c0ff 163b 9509 98bb
000002c0: 5ab2 b5bc c7b3 28be 5dbf 72bd 6cb1 eabd
000002d0: 965a 0b3e 5709 0c3e 64d6 a0bc 2f4c 90bd
000002e0: feb6 84bd f782 dc3d 7f2e f3bd 7944 fbbd
000002f0: be78 c2bd 7181 93bd a319 a2bd 6739 dabd
00000300: ca1a f0bd 73c7 d43d 771e b53d 0ca1 03bd
00000310: 23e0 023e cd1a fcbd bbb6 523d 3600 983d
00000320: 7317 08be ef1e 253e cd9f 253e ec0e 9c3c
00000330: 3d22 05be b5c7 6a3d afaa 70bd d4f8 013e
00000340: 6464 afbd ec40 083e 2848 2c3e f1e2 c3bc
00000350: bf3b ed3c bca6 313d 76c9 d23d 4622 2b3d
00000360: 732b e53d 7fb3 e6ba fdf1 cc3c 3c83 a83d
00000370: 8ac8 be3c e05f 23bd af0c f0bd 7874 8cbc
00000380: 4643 2a3e af1c 183e 4243 fdbd 9574 50bd
00000390: d14d 1b3d 913c e33c 63cd e03d e49d 6e3d
000003a0: f020 dbbc 456d 5e39 71ac 123e dca8 1c3e
000003b0: e938 fcbc 134b c7bc 8774 bb3d ba5c 17bd
000003c0: 406c c83d 6765 24be 9b48 123d dc5d 773d
000003d0: 961f 433c ba3f 543d db0a 083e 8167 423c
000003e0: 9945 503d 2717 d13d 840f 283e cf15 45bd
000003f0: 7f28 59bd 1272 053e cec6 ecbd 8e42 4dbd

transformer_encoder.layers.0.linear1.bias f4 [128]
0.11521842 -0.0936441 -0.13724427 -0.15867269 -0.07886567 0.08006929 0.097645596 0.020893862
0.06595281 -0.15272205 0.031038586 0.048249822 0.040741786 0.022115042 -0.045094848 -0.0025780557
-0.02847251 0.022611167 0.004864328 -0.0024082786 -0.08307497 0.034736086 -0.078899324 -0.16463827
0.1574648 -0.15275343 0.018466271 -0.05509614 -0.14640677 -0.08255241 0.07354173 0.03876926
0.15642191 0.09616508 -0.013246095 -0.09446739 0.06043386 0.098837115 0.12911242 -0.08287084
0.052710954 -0.1331154 -0.12882884 -0.030124076 0.06118885 -0.09542061 -0.16915824 0.16221097
-0.005963395 0.07122472 -0.12352066 0.12039639 0.056158487 0.15187162 -0.07640111 0.042775854
0.049815714 -0.030436598 0.004418695 -0.049545422 0.15030712 0.0038300965 0.06828839 0.1247974
-0.12308884 -0.081976615 0.10774013 0.10216402 0.12184926 0.028198402 -0.04646808 0.019822113
0.14478795 0.06957252 0.11589405 -0.055374917 0.11736464 -0.032338887 -0.071011834 -0.042134274
-0.08352616 -0.115862094 0.10119144 0.08626434 0.16139972 0.041756358 0.080267064 0.122692525
-0.047608156 -0.07127845 0.019709695 -0.010327673 0.17654347 6.671578e-05 -0.052140262 -0.08967845
-0.08088265 0.10201992 0.1454623 0.039389364 0.057430234 -0.04104618 0.036109913 0.004569293
-0.064602 0.038744967 0.10089308 0.16852172 0.08377304 0.07997665 0.009582819 0.053405166
-0.038151555 -0.01746086 -0.03604274 0.048499066 -0.032478407 -0.0417851 -0.04294523 0.08114109
-0.12821536 0.14850956 -0.043759298 -0.1264817 0.1514323 0.00068980374 -0.14486162 0.12389654
00000000: a3f7 eb3d 7ac8 bfbd c389 0cbe 187b 22be
00000010: 5384 a1bd 5efb a33d 6afa c73d 9b29 ab3c
00000020: 4412 873d 2b63 1cbe a244 fe3c 9ba1 453d
00000030: dce0 263d 9b2a b53c 60b5 38bd 99f4 28bb
00000040: 2e3f e9bc 0e3b b93c f164 9f3b 36d4 1dbb
00000050: 3623 aabd 6d47 0e3d f895 a1bd ef96 28be
00000060: 743e 213e 656b 1cbe 9446 973c 7dac 61bd
00000070: a8eb 15be 3d11 a9bd 0c9d 963d 84cc 1e3d
00000080: 112d 203e 33f2 c43d 2606 59bc 1e78 c1bd
00000090: 7f89 773d 1d6b ca3d 0c36 043e 30b8 a9bd
000000a0: 71e7 573d 674f 08be b5eb 03be c4c6 f6bc
000000b0: 29a1 7a3d e16b c3bd d137 2dbe a21a 263e
000000c0: 9568 c3bb 44de 913d 66f8 fcbd 6292 f63d
000000d0: 7106 663d 3c84 1b3e 2f78 9cbd bc35 2f3d
000000e0: 900b 4c3d 2c56 f9bc b3ca 903b 24f0 4abd
000000f0: 1cea 193e 5b02 7b3b c9da 8b3d c795 ff3d
00000100: 0016 fcbd 5be3 a7bd dba6 dc3d 5f3b d13d
00000110: 1b8c f93d 5600 e73c 5055 3ebd fc61 a23c
00000120: 4b43 143e 0a7c 8e3d dc59 ed3d cfd0 62bd
00000130: df5c f03d c875 04bd a76e 91bd fd94 2cbd
00000140: c30f abbd 1b49 edbd 753d cf3d 5cab b03d
00000150: f845 253e b708 2b3d 0f63 a43d 3846 fb3d
00000160: c500 43bd 70fa 91bd 3a76 a13c 6635 29bc
00000170: d0c7 343e c3e9 8b38 0791 55bd 56a9 b7bd
00000180: cea5 a5bd d2ef d03d 12f4 143e be56 213d
00000190: f73b 6b3d 0a20 28bd fde7 133d 02ba 953b
000001a0: 0e4e 84bd 0bb3 1e3d 08a1 ce3d f590 2c3e
000001b0: 3391 ab3d ccca a33d 4201 1d3c 60bf 5a3d
000001c0: ce44 1cbd 140a 8fbc 8da1 13bd f5a6 463d
000001d0: 1408 05bd da26 2bbd 56e7 2fbd 4d2d a63d
000001e0: e34a 03be e412 183e f33c 33bd 6b84 01be
000001f0: 1211 1b3e f2d3 343a 9b56 14be 78bd fd3d

transformer_encoder.layers.0.linear2.weight f4 [36, 128]
0.002939153 0.042729653 -0.00962353 -0.010692726 0.03312458 0.048103638 0.06521271 0.06535832
-0.019332726 -0.04665425 -0.023414502 -0.028812794 0.012004099 -0.0379759 -0.06956099 -0.07807083
0.07871065 -0.0023734877 0.082391724 -0.05664421 0.09051771 0.047525994 0.045059983 0.09072685
-0.036171865 -0.049644634 0.03100711 -0.07735045 0.058944993 0.054495696 0.018612878 0.015754657
-0.048148133 0.015654223 -0.06294073 0.014810726 -0.05244516 -0.03751683 -0.037310515 0.036475334
-0.011479812 0.027637148 0.011814863 -0.044796944 0.055547856 0.0438617 -0.011289784 -0.046960026
0.023366546 0.001474972 0.018446837 0.023748945 -0.04562851 0.016002866 0.0285463 0.04791289
-0.0705942 0.047441762 -0.009892915 0.0777779 0.0026961549 0.06952651 0.051113732 -0.04540381
-0.10196117 0.019820953 0.06842409 -0.07127682 0.08425313 -0.061139453 0.008554925 -0.0064577726
-0.0018091464 0.08122471 -0.035364594 0.054364193 0.07696605 -0.056800667 0.027085088 -0.0051284353
-0.020156551 -0.07217816 -0.028433481 0.06829903 0.0761176 0.0543974 0.01642915 0.019020263
-0.0035651035 0.066227205 -0.011054335 0.024148632 -0.0154587375 -0.059175655 0.0034110204 0.06092113
-0.035327412 0.01995315 0.0488594 -0.056399707 -0.0534806 -0.017609876 -0.073470615 0.010454845
0.017084207 -0.02154459 0.05158917 0.049024608 -0.020376313 -0.05099193 -0.08014138 0.050763305
0.06305133 -0.07078876 -0.04094039 0.053241085 -0.027265714 0.05608153 0.0504803 -0.038386516
0.052876707 -0.058730762 -0.03100454 -0.011521985 -0.018443596 0.034267064 -0.032198105 0.05397369
-0.020795416 0.09290012 0.07425132 0.08885439 0.053462535 -0.03487058 0.013639305 -0.005875398
0.011823776 0.09328772 0.0014164756 0.046772573 0.02954444 -0.026639478 0.059004314 -0.07316552
-0.08090128 0.09482656 -0.023275487 -0.0017409893 -0.02275929 0.017805902 -0.06671411 -0.072117105
-0.044954076 0.01147598 -0.002887215 0.0021591175 -0.08127994 -0.08283158 0.048353687 0.02651546
0.071948454 -0.058498107 -0.061466828 0.0043966346 0.035416823 0.034972973 -0.071226425 0.043903586
-0.02214077 0.03690306 -0.0630958 -0.07262144 0.09055263 0.076657504 0.042141546 0.08393615
-0.024947722 0.08361116 0.009062286 -0.054124236 0.03179713 -0.018038178 0.07385276 -0.035626918
0.09223313 0.058067746 0.0068776445 0.004291841 -0.022198826 -0.028432349 0.08752996 0.04733167
0.043580722 -0.025827004 0.008940431 0.0013429472 0.051941495 0.08464021 0.0065500746 -0.0009830969
0.014154994 -0.029578086 -0.018194303 0.057100724 0.09070722 -0.006142722 0.08600091 0.030562509
0.044287868 -0.045865696 -0.036660135 0.038988747 0.055172265 -0.027540354 -0.036075167 -0.033604044
-0.083983526 -0.049213022 -0.043890417 0.030036388 0.034083437 0.015369397 0.044661455 0.06260544
-0.012982692 0.06774099 0.08738908 0.061580114 -0.012880206 0.08431967 0.06130732 -0.026630007
-0.05019257 9.611159e-05 -0.00059105526 -0.024450954 0.08185421 -0.05611469 -0.062148523 -0.046745326
-0.038472906 -0.053747907 -0.058759943 -0.07089013 0.03896442 -0.06460982 -0.029713012 0.058009062
-0.06819351 0.094088346 -0.0084303785 0.060724895 -0.07367838 0.028873097 -0.031700775 -0.048687402
00000000: ce9e 403b 4a05 2f3d 03ac 1dbc 8b30 2fbc
00000010: a4ad 073d 5208 453d 3e8e 853d 95da 853d
00000020: aa5f 9ebc 8718 3fbd c5cf bfbc cf08 ecbc
00000030: d7ac 443c 9e8c 1bbd fe75 8ebd 99e3 9fbd
00000040: 0d33 a13d 848c 1bbb febc a83d c203 68bd
00000050: 5961 b93d 9eaa 423d d190 383d 00cf b93d
00000060: f328 14bd 2c58 4bbd 9f02 fe3c ea69 9ebd
00000070: 4e70 713d e136 5f3d 097a 983c e90f 813c
00000080: fa36 45bd 493d 803c 12e7 80bd b0a8 723c
00000090: bcd0 56bd 3fab 19bd e9d2 18bd 2967 153d
000000a0: d215 3cbc 4d67 e23c 2193 413c 007d 37bd
000000b0: 2686 633d 53a8 333d c9f8 38bc 2859 40bd
000000c0: 336b bf3c d953 c13a d21d 973c 268d c23c
000000d0: f6e4 3abd 7118 833c eed9 e93c 4e40 443d
000000e0: b193 90bd 4b52 423d e515 22bc 054a 9f3d
000000f0: f9b1 303b ea63 8e3d a25c 513d 58f9 39bd
00000100: 05d1 d0bd 8d5f a23c ee21 8c3d 95f9 91bd
00000110: e88c ac3d 5d6d 7abd f529 0c3c b99b d3bb
00000120: e120 edba 2459 a63d 77da 10bd fdac 5e3d
00000130: 60a0 9d3d d1a7 68bd 8ce1 dd3c 6f0c a8bb
00000140: 5a1f a5bc 25d2 93bd 55ed e8bc 5de0 8b3d
00000150: 8be3 9b3d cfcf 5e3d 6d96 863c 62d0 9b3c
00000160: 83a4 69bb 21a2 873d 3e1d 35bc 5ad3 c53c
00000170: a546 7dbc 2c62 72bd 6d8b 5f3b 6f88 793d
00000180: 7ab3 10bd ca74 a33c cb20 483d 6103 67bd
00000190: 790e 5bbd 9642 90bc c377 96bd cc4a 2b3c
000001a0: 2ef4 8b3c 487e b0bc 2a4f 533d 07ce 483d
000001b0: 3aec a6bc eadc 50bd 2a21 a4bd 2fed 4f3d
000001c0: 0e21 813d b3f9 90bd 1cb1 27bd 5313 5a3d
000001d0: 595c dfbc bfb5 653d 6ec4 4e3d 2e3b 1dbd
000001e0: 3f95 583d ab8f 70bd 3cfd fdbc b5c6 3cbc
000001f0: 0617 97bc 9f5b 0c3d 29e2 03bd 8413 5d3d
00000200: 265b aabc 6b42 be3d 1311 983d 4af9 b53d
00000210: 88fb 5a3d 74d4 0ebd 6477 5f3c 6986 c0bb
00000220: 83b8 413c a20d bf3d 09a9 b93a 9994 3f3d
00000230: 2e07 f23c 093b dabc 82ae 713d ced7 95bd
00000240: 92af a5bd 6d34 c23d 3cac bebc e831 e4ba
00000250: b171 babc afdd 913c 68a1 88bd 22b2 93bd
00000260: c421 38bd c005 3c3c 6e37 3dbb fb7f 0d3b
00000270: 1976 a6bd 9aa3 a9bd 840e 463d f336 d93c
00000280: b659 933d b69b 6fbd a4c4 7bbd a511 903b
00000290: 3b11 113d d23f 0f3d 29df 91bd 3fd4 333d
000002a0: 8f60 b5bc aa27 173d 5f38 81bd 8dba 94bd
000002b0: a873 b93d 9cfe 9c3d 9d9c 2c3d b7e6 ab3d
000002c0: 2a5f ccbc 543c ab3d fb79 143c 60b1 5dbd
000002d0: b53d 023d cdc4 93bc 1e40 973d 88ed 11bd
000002e0: b9e4 bc3d 72d8 6d3d dd5d e13b 92a2 8c3b
000002f0: 50da b5bc f5ea e8bc e842 b33d dade 413d
00000300: b381 323d 2793 d3bc e37a 123c d505 b03a
00000310: 9bc0 543d d957 ad3d 02a2 d63b 42db 80ba
00000320: 59ea 673c be4d f2bc 380c 95bc 73e2 693d
00000330: b5c4 b93d e348 c9bb 3f21 b03d 3a5e fa3c
00000340: 3267 353d abdd 3bbd f028 16bd aab2 1f3d
00000350: 50fc 613d 4f9c e1bc 8ec3 13bd 65a4 09bd
00000360: 8eff abbd 9893 49bd 70c6 33bd df0e f63c
00000370: 139b 0b3d eccf 7b3c eeee 363d 4837 803d
00000380: 5bb5 54bc cabb 8a3d 0cf9 b23d 6e3b 7c3d
00000390: 8007 53bc cbaf ac3d 621d 7b3d 2c27 dabc
000003a0: b996 4dbd 848f c938 0cf1 1aba 5e4d c8bc
000003b0: 2ea3 a73d 84d8 65bd 738f 7ebd 0778 3fbd
000003c0: c495 1dbd c426 5cbd 44ae 70bd d82e 91bd
000003d0: 2899 1f3d 2752 84bd b468 f3bc e99a 6d3d
000003e0: 0aa9 8bbd 64b1 c03d 921f 0abc abba 783d
000003f0: b1e4 96bd 4687 ec3c acd8 01bd 716c 47bd

transformer_encoder.layers.0.linear2.bias f4 [36]
0.018928649 -0.01912748 -0.021960597 0.0024523113 0.014978172 -0.0055380715 0.01149748 -0.053070568
-0.01693 -0.06497548 -0.04417226 -0.08670153 0.05529299 -0.038472585 0.05635026 0.039754957
0.04387357 0.028212823 0.009238268 -0.08209438 -0.05825058 -0.07453809 -0.010729432 -0.04361956
0.05082251 0.051840812 0.043591082 -0.02419918 0.05846945 0.07970278 -0.028608039 -0.04100181
-0.021168943 0.02226139 -0.048977405 -0.05882307
00000000: 4110 9b3c 3cb1 9cbc b6e6 b3bc f5b6 203b
00000010: 0267 753c b678 b5bb ed5f 3c3c 8660 59bd
00000020: c9b0 8abc dd11 85bd f9ed 34bd 9290 b1bd
00000030: e77a 623d 6e95 1dbd 88cf 663d 18d6 223d
00000040: c6b4 333d 941e e73c 1b5c 173c 1921 a8bd
00000050: 2998 6ebd 6da7 98bd 80ca 2fbc 6caa 32bd
00000060: 442b 503d 0857 543d 908c 323d 5c3d c6bc
00000070: a97d 6f3d 363b a33d 685b eabc 84f1 27bd
00000080: 7e6a adbc 855d b63c 889c 48bd 76f0 70bd

transformer_encoder.layers.0.norm1.weight f4 [36]
0.9958319 1.0046778 0.99871767 1.0062703 1.027933 0.9992401 1.0006614 1.0032034
1.0024469 0.9990577 0.99717486 0.99768734 1.0032376 0.99815446 0.9825718 1.0094192
1.0024128 1.0025235 1.0027803 1.0019592 0.99582744 0.9943855 1.0057038 0.99882776
0.98904264 0.9978403 0.99681175 1.004155 0.99729633 0.9899513 1.0108148 0.9955327
0.9975077 1.0014646 1.0023531 1.0039666
00000000: d7ee 7e3f 4899 803f f6ab 7f3f 77cd 803f
00000010: 4f93 833f 33ce 7f3f ac15 803f f868 803f
00000020: 2e50 803f 3fc2 7f3f da46 7f3f 7068 7f3f
00000030: 176a 803f 0d87 7f3f d389 7b3f a634 813f
00000040: 104f 803f b152 803f 1b5b 803f 3340 803f
00000050: 8cee 7e3f 0c90 7e3f e7ba 803f 2db3 7f3f
00000060: e631 7d3f 7672 7f3f 0e2f 7f3f 2788 803f
00000070: d04e 7f3f 736d 7d3f 6162 813f 3bdb 7e3f
00000080: aa5c 7f3f fe2f 803f 1b4d 803f fa81 803f

transformer_encoder.layers.0.norm1.bias f4 [36]
0.002248127 0.0058471835 0.0020776272 0.0042557186 -0.022329617 -0.007432863 0.0025264479 0.0033678287
-0.0033236558 -0.0023487743 0.003059966 -0.0010139771 -0.0027603856 -0.0017299515 0.00088407483 0.0040307348
-0.0015354491 0.0026223157 -0.004626543 0.0009007126 0.0021679413 -0.0051349793 0.0006399591 -0.0011908069
0.0024508808 -0.00069803005 0.002557643 0.0022661882 0.0004680233 -0.0038441329 -0.003360751 -0.0025093067
-0.0019422921 0.0025516374 -0.0034329302 -0.009259171
00000000: 5055 133b bb99 bf3b cd28 083b 8e73 8b3b
00000010: 9aec b6bc 608f f3bb c392 253b cab6 5c3b
00000020: b1d1 59bb e5ed 19bb b689 483b 6de7 84ba
00000030: 96e7 34bb 8abf e2ba 42c1 673a 4114 843b
00000040: 1f41 c9ba 28db 2b3b 419a 97bb cd1d 6c3a
00000050: 0514 0e3b 5443 a8bb eec2 273a d914 9cba
00000060: f59e 203b 01fc 36ba 219e 273b 5484 143b
00000070: 0661 f539 d9ed 7bbb 0c40 5cbb 2e73 24bb
00000080: 8294 feba 5f39 273b 03fb 60bb c7b3 17bc

transformer_encoder.layers.0.norm2.weight f4 [36]
0.9968222 1.0085056 0.9990285 1.0057557 1.010787 1.0068161 1.000925 1.0030825
1.0030774 0.9984384 0.9961117 0.9976916 1.0025318 0.99926984 0.990194 1.0044616
1.0035242 1.0017947 1.0044744 1.0010582 0.99480766 0.9960259 1.0071318 0.99473566
0.9894186 0.9974405 0.99655795 1.0067962 0.994646 0.9934625 1.0092684 0.9945608
0.9929047 1.0012995 1.0011156 1.0045204
00000000: bd2f 7f3f b616 813f 55c0 7f3f 9abc 803f
00000010: 7861 813f 5adf 803f 4f1e 803f 0265 803f
00000020: d764 803f a999 7f3f 2d01 7f3f b768 7f3f
00000030: f652 803f 26d0 7f3f 5b7d 7d3f 3392 803f
00000040: 7b73 803f cf3a 803f 9e92 803f ad22 803f
00000050: b7ab 7e3f 8efb 7e3f b2e9 803f ffa6 7e3f
00000060: 8a4a 7d3f 4358 7f3f 6c1e 7f3f b3de 803f
00000070: 1fa1 7e3f 8f53 7e3f b52f 813f 899b 7e3f
00000080: 012f 7e3f 952a 803f 8e24 803f 2094 803f

transformer_encoder.layers.0.norm2.bias f4 [36]
0.0025573145 0.0077313874 0.0018762244 0.00483203 -0.009056803 -0.006262171 0.0014356914 0.0031827942
-0.0037419598 -0.002163791 0.0028127544 -0.0009737649 -0.0030117584 -0.0009251211 0.003425609 0.0041531
-0.0015558946 0.0022953902 -0.005382487 0.00097082794 0.0022793435 -0.0040397104 -0.0003650931 -0.0013258402
0.00244925 -0.0005068093 0.0025531785 -0.0034813099 0.0008455852 -0.00084287627 -0.002598892 -0.0025136173
-0.0019881404 0.002796624 -0.0033649122 -0.005568546
00000000: 9e98 273b 9457 fd3b a5eb f53a 0156 9e3b
00000010: fc62 14bc e632 cdbb cf2d bc3a 6d96 503b
00000020: ab3b 75bb 64ce 0dbb 3056 383b 4244 7fba
00000030: ec60 45bb d383 72ba 2f80 603b ba16 883b
00000040: 29ef cbba 426e 163b 935f b0bb 297f 7e3a
00000050: 0a61 153b 8c5f 84bb f769 bfb9 d1c7 adba
00000060: 9983 203b 65db 04ba 3a53 273b b026 64bb
00000070: 43aa 5d3a 78f4 5cba 2c52 2abb 80bb 24bb
00000080: 764b 02bb 9147 373b dc85 5cbb 5978 b6bb

transformer_encoder.layers.1.self_attn.in_proj_weight f4 [108, 36]
-0.0008768818 0.12307714 -0.048157543 -0.07981376 0.020816453 0.17368723 0.1234728 0.12910557
-0.009714783 -0.18511602 0.14893857 -0.11158246 -0.19361496 -0.12855908 0.19454354 0.045878444
0.20220405 -0.039142642 0.1305298 0.03729765 -0.08336162 -0.068274215 -0.035800166 -0.055229638
0.17195746 -0.041585483 -0.06830478 -0.12163796 0.02796814 -0.0069941278 0.069757655 -0.0013426492
0.18187319 -0.14131731 0.03926385 -0.19138514 0.18239342 0.1846121 -0.02449086 0.10116144
-0.19070579 -0.022005485 0.16704346 0.10538233 0.11345638 0.048996855 0.14145197 -0.026310932
-0.05503514 0.119956195 0.021389702 0.13697453 0.17411336 0.092415966 0.06094375 -0.07184701
0.03826384 -0.16583924 0.19468607 -0.006829098 -0.143406 0.059537005 -0.12489322 0.15445727
0.014953566 0.11055605 0.051781874 0.0023923477 0.045125592 -0.15844354 -0.19521688 -0.10559574
0.11769744 0.08653105 0.12547354 0.12406367 0.097186565 0.07072796 0.06520705 -0.09751695
-0.05930715 0.084523536 -0.15868816 -0.011984757 -0.08614865 -0.14392662 0.103699185 -0.10942335
0.16374634 0.19580743 0.07665917 -0.1357794 -0.055727597 -0.16192666 -0.0039483043 0.05285065
0.09242796 0.1597596 0.15050323 0.13960895 0.087702245 -0.19227757 0.07200841 -0.12168811
-0.07454705 0.18165787 0.08613048 -0.027131872 -0.087573886 0.0045185597 0.1677402 -0.081170015
0.072984934 0.06829655 0.16698799 -0.0122094285 -0.09041317 -0.10617556 0.002737348 -0.04075476
0.1663294 -0.13831061 0.11058841 0.19533147 -0.07448393 -0.14185053 0.14484423 -0.17737062
0.1725537 0.16523081 0.06475827 -0.06306237 0.04172946 -0.18863688 0.12443122 0.097559676
-0.03686169 0.066468254 -0.037788264 0.09616972 0.13975337 -0.064411275 -0.19675101 -0.049410693
0.030837182 0.18749744 0.15045641 0.18066595 0.14139254 0.19176164 -0.0871992 0.008225549
-0.08343197 -0.14240901 -0.11384538 -0.154759 0.1748649 -0.016455745 0.17456363 -0.11105163
-0.0394243 -0.10749596 0.026203962 -0.023624757 -0.0050360113 -0.16382276 0.037910637 -0.045947723
0.1422621 -0.14493395 0.16010486 -0.1394174 0.095584475 -0.07645063 -0.080798395 -0.09013973
-0.023914594 0.119165115 -0.0042928667 0.030707533 -0.083105065 0.12650259 -0.1883543 -0.13042308
0.112384275 0.08706072 -0.109586746 -0.023539227 0.16662864 -0.01354833 -0.06281962 -0.15647943
-0.062483136 0.00036524577 -0.030255027 -0.13740103 0.14109604 -0.20354849 -0.17315477 -0.15471964
-0.15980284 -0.112856515 0.06047197 0.072764985 -0.13912942 0.047892846 -0.007966251 -0.11797401
0.067320734 0.058722783 0.109160155 -0.124036126 0.01871331 0.050213188 0.1689229 -0.09376231
-0.18427823 -0.067043625 0.088013545 0.04213065 -0.031628385 0.20380025 -0.12919703 0.10745153
0.1921601 0.12391373 0.1629576 -0.11730762 -0.12279855 0.18793537 -0.108606525 0.12358895
-0.031155976 0.0925762 -0.19722736 0.09029223 0.13994916 -0.0701926 -0.004800877 -0.17739311
-0.06831235 0.037685454 -0.02800172 0.06489378 -0.19490047 -0.07371694 -0.16865115 0.11910003
0.114271045 0.011655598 0.17084761 -0.08881502 -0.092607394 -0.1074975 0.011821261 0.08773393
00000000: 8bde 65ba de0f fc3d d840 45bd 6675 a3bd
00000010: 4487 aa3c 11db 313e 4fdf fc3d 4034 043e
00000020: c12a 1fbc 0e8f 3dbe 5a83 183e 5885 e4bd
00000030: 0043 46be fea4 03be 6c36 473e 09eb 3b3d
00000040: 940e 4f3e 0954 20bd 9ba9 053e 6cc5 183d
00000050: 7fb9 aabd 5ad3 8bbd 32a3 12bd 7938 62bd
00000060: 9e15 303e 8a55 2abd 60e3 8bbd 531d f9bd
00000070: 711d e53c ff2e e5bb 1add 8e3d d5fb afba
00000080: f73c 3a3e 7cb5 10be 21d3 203d 77fa 43be
00000090: 57c5 3a3e f40a 3d3e 0ea1 c8bc bb2d cf3d
000000a0: 6148 43be d944 b4bc 710d 2b3e b1d2 d73d
000000b0: d25b e83d edb0 483d c9d8 103e 068a d7bc
000000c0: 876c 61bd 98ab f53d 7539 af3c 0d43 0c3e
000000d0: c64a 323e 9544 bd3d 27a0 793d 8624 93bd
000000e0: 8bba 1c3d c3d1 29be c95b 473e a0c6 dfbb
000000f0: 06d9 12be 13dd 733d 04c8 ffbd 0c2a 1e3e
00000100: cdff 743c 366b e23d 3b19 543d efc8 1c3b
00000110: 9dd5 383d 063f 22be efe6 47be 9442 d8bd
00000120: 5b0b f13d 3137 b13d 237c 003e 1815 fe3d
00000130: c009 c73d d2d9 903d 468b 853d f7b6 c7bd
00000140: 0eec 72bd ad1a ad3d 267f 22be b75b 44bc
00000150: b46e b0bd 8061 13be 3d60 d43d 5919 e0bd
00000160: 1fad 273e be81 483e 7cff 9c3d c109 0bbe
00000170: 9f42 64bd 1ad0 25be c760 81bb ec79 583d
00000180: df4a bd3d 0598 233e 851d 1a3e a6f5 0e3e
00000190: 3c9d b33d 69e4 44be 2579 933d 9e37 f9bd
000001a0: 20ac 98bd 8504 3a3e 2d65 b03d a943 debc
000001b0: f059 b3bd 6d10 943b 16c4 2b3e 773c a6bd
000001c0: 2079 953d 10df 8b3d e6fe 2a3e 0e0a 48bc
000001d0: 8a2a b9bd 9272 d9bd 1465 333b 77ee 26bd
000001e0: 4152 2a3e 4ca1 0dbe 2d7c e23d f904 483e
000001f0: 088b 98bd 4441 11be 0c52 143e a5a0 35be
00000200: ebb1 303e 4432 293e fc9f 843d d826 81bd
00000210: 83ec 2a3d 072a 41be ccd5 fe3d 5ecd c73d
00000220: 49fc 16bd 8220 883d dec7 1abd a1f4 c43d
00000230: 821b 0f3e 0fea 83bd 1979 49be de62 4abd
00000240: 429e fc3c 54ff 3f3e 3f11 1a3e 7f00 393e
00000250: 35c9 103e 2a5d 443e 7f95 b2bd 74c4 063c
00000260: 61de aabd abd3 11be c427 e9bd 2579 1ebe
00000270: c90f 333e 33ce 86bc cfc0 323e 096f e3bd
00000280: 607b 21bd d826 dcbd b1a9 d63c b588 c1bc
00000290: 2005 a5bb 27c1 27be 2f48 1b3d ae33 3cbd
000002a0: 28ad 113e 9169 14be 87f2 233e 6fc3 0ebe
000002b0: cbc1 c33d 2692 9cbd a179 a5bd 2e9b b8bd
000002c0: 8ae8 c3bc d70c f43d 2dab 8cbb 5d8e fb3c
000002d0: fd32 aabd e589 013e f3df 40be a18d 05be
000002e0: ba29 e63d e44c b23d 046f e0bd 56d5 c0bc
000002f0: b3a0 2a3e d1f9 5dbc 93a7 80bd 253c 20be
00000300: 51ee 7fbd 757e bf39 64d9 f7bc dbb2 0cbe
00000310: 7b7b 103e 046f 50be 7c4f 31be d36e 1ebe
00000320: 5ba3 23be 5121 e7bd 75b1 773d cf05 953d
00000330: f177 0ebe 4a2b 443d e184 02bc 5c9c f1bd
00000340: 74df 893d 4d87 703d 5c8f df3d a706 febd
00000350: a84c 993c 58ac 4d3d 20fa 2c3e 7406 c0bd
00000360: 6fb3 3cbe 2b4e 89bd 7240 b43d 3091 2c3d
00000370: c48c 01bd 03b1 503e 3a4c 04be 8c0f dc3d
00000380: 9ec5 443e 7bc6 fd3d 5bde 263e fa3e f0bd
00000390: ce7d fbbd 2172 403e 196d debd 341c fd3d
000003a0: d13a ffbc 9798 bd3d f8f5 49be 22eb b83d
000003b0: d54e 0f3e 23c1 8fbd ad50 9dbb 8aa6 35be
000003c0: 58e7 8bbd 105c 1a3d dd63 e5bc 08e7 843d
000003d0: fd93 47be e8f8 96bd e3b2 2cbe b7ea f33d
000003e0: f006 ea3d 1ff7 3e3c adf2 2e3e a6e4 b5bd
000003f0: f2a8 bdbd a627 dcbd f6ad 413c d9ad b33d

transformer_encoder.layers.1.self_attn.in_proj_bias f4 [108]
0.0 0.0 0.0 0.0 0.0 0.0 0.0 0.0
0.0 0.0 0.0 0.0 0.0 0.0 0.0 0.0
0.0 0.0 0.0 0.0 0.0 0.0 0.0 0.0
0.0 0.0 0.0 0.0 0.0 0.0 0.0 0.0
0.0 0.0 0.0 0.0 0.0 0.0 0.0 0.0
0.0 0.0 0.0 0.0 0.0 0.0 0.0 0.0
0.0 0.0 0.0 0.0 0.0 0.0 0.0 0.0
0.0 0.0 0.0 0.0 0.0 0.0 0.0 0.0
0.0 0.0 0.0 0.0 0.0 0.0 0.0 0.0
0.00063523505 0.0023683559 -0.00059325434 0.00034745663 -0.00097153726 -0.00041024826 0.0012269197 0.0025933927
0.00061730295 -0.0037911811 -0.003946752 0.0019378276 0.003386949 -0.016893698 0.0012377833 0.0030291502
0.003197668 -0.0033925998 0.0056618974 0.0041335006 0.00045721783 -0.015731204 -0.00031854608 -0.0032581761
0.010716299 0.0020295829 0.0027925328 -0.004607972 0.0017808501 0.004607873 0.0029500013 0.005620854
-0.009364434 -0.011464523 0.0047006626 0.0059326272
00000000: 0000 0000 0000 0000 0000 0000 0000 0000
00000010: 0000 0000 0000 0000 0000 0000 0000 0000
00000020: 0000 0000 0000 0000 0000 0000 0000 0000
00000030: 0000 0000 0000 0000 0000 0000 0000 0000
00000040: 0000 0000 0000 0000 0000 0000 0000 0000
00000050: 0000 0000 0000 0000 0000 0000 0000 0000
00000060: 0000 0000 0000 0000 0000 0000 0000 0000
00000070: 0000 0000 0000 0000 0000 0000 0000 0000
00000080: 0000 0000 0000 0000 0000 0000 0000 0000
00000090: 0000 0000 0000 0000 0000 0000 0000 0000
000000a0: 0000 0000 0000 0000 0000 0000 0000 0000
000000b0: 0000 0000 0000 0000 0000 0000 0000 0000
000000c0: 0000 0000 0000 0000 0000 0000 0000 0000
000000d0: 0000 0000 0000 0000 0000 0000 0000 0000
000000e0: 0000 0000 0000 0000 0000 0000 0000 0000
000000f0: 0000 0000 0000 0000 0000 0000 0000 0000
00000100: 0000 0000 0000 0000 0000 0000 0000 0000
00000110: 0000 0000 0000 0000 0000 0000 0000 0000
00000120: e785 263a 6b36 1b3b a084 1bba d72a b639
00000130: c3ae 7eba 9716 d7b9 98d0 a03a e9f5 293b
00000140: 80d2 213a 7775 78bb c153 81bb b4fe fd3a
00000150: 93f7 5d3b a764 8abc 1e3d a23a b584 463b
00000160: f78f 513b 6156 5ebb 7087 b93b 5172 873b
00000170: bdb6 ef39 bade 80bc 8802 a7b9 2087 55bb
00000180: 6a93 2f3c c002 053b ed02 373b 79fe 96bb
00000190: 6a6b e93a a4fd 963b cf54 413b 242f b83b
000001a0: 486d 19bc b2d5 3bbc 0408 9a3b 7c66 c23b
