pipeline/Ankle_Controllers/bestILTransformer.pth (torch, 854921 bytes, 27 tensors)

transformer_encoder.layers.0.self_attn.in_proj_weight f4 [108, 36]
000000 47 2f ae 3c b9 34 18 3d fd 73 aa 3d 8f 5a 1a 3c
       0.021262778 0.037159655 0.08322904 0.009421005
000010 c0 4c 9c 3d b1 bc 95 3d 4a 50 19 be 29 fb b3 3c
       0.076318264 0.07311381 -0.14972034 0.021970348
000020 2c 03 1b 3e 70 c2 4a be d8 c9 7a 3c 42 42 27 bd
       0.15137929 -0.19800735 0.015306912 -0.040834673
000030 f5 6b bb bd fe 43 1d be 9a 55 3a 3e 3b 1d d6 bd
       -0.091514505 -0.15357968 0.18196717 -0.10454794
000040 3d f3 25 3c f8 05 15 be 98 fa 05 3e cf 0e 0a 3e
       0.010128793 -0.14553058 0.13083875 0.13482212
000050 21 3d 20 be 88 c1 2f bd 8c ba ac bd a3 40 2b 3d
       -0.15648319 -0.042909175 -0.084340185 0.04180969
000060 bf 43 e3 3d a6 37 2b 3e c7 90 04 be 92 54 3d be
       0.11096906 0.16720447 -0.12945853 -0.18489292
000070 0b 6f 22 3e b2 86 97 3d 96 d3 07 3e ab c2 57 3c
       0.15862672 0.07398738 0.13264307 0.013168971
000080 77 24 16 be 42 af 0c bc 9a 56 8d 3d 7e b9 fd 3d
       -0.14662348 -0.008586707 0.069012836 0.123888955
000090 bd 73 ed bd 86 b1 bb 3d fb 4c 00 bd c3 bb 82 3d
       -0.11594341 0.09164719 -0.031323414 0.06383469
0000a0 02 c0 10 be fd 2b 89 3c b3 2c 5d bd 68 7c 83 3d
       -0.14135745 0.016744608 -0.053997707 0.06420213
0000b0 4d 86 44 3d b4 7f 15 3e ae 15 09 be eb 77 4a 3d
       0.04797964 0.14599496 -0.13387176 0.04943077
0000c0 db 57 50 bd 07 1d 3a bd f5 95 04 3e a4 a2 27 3e
       -0.050865036 -0.04543784 0.12947829 0.16370636
0000d0 67 1a 4d be 53 d2 c0 bd 6b 8e da bd 8e 1b 4e be
       -0.20029603 -0.09415116 -0.10671695 -0.20127699
0000e0 fb 0c ef 3d f1 cb 03 be 1d c0 cb 3d 30 ae c2 bd
       0.11672398 -0.12870766 0.09948752 -0.0950588
0000f0 83 ae 13 3e cd 7e 1f bd f1 aa 1b 3e 76 b0 04 be
       0.1442204 -0.038939286 0.15201928 -0.1295794
000100 46 8c 04 bd 58 00 84 bb 1b d2 33 3e 67 df 1b 3e
       -0.032360338 -0.0040283613 0.17560618 0.1522194
000110 a0 15 39 be 29 ab 3a 3e 2e cf 02 bc af 97 ab 3d
       -0.18074656 0.18229355 -0.007983966 0.08378541
000120 3c de 8f 3d bf 49 cf 38 11 f5 95 bd 38 17 10 3e
       0.0702481 9.8842655e-05 -0.07322133 0.14071357
000130 aa 7e e7 bd 34 22 42 3e 26 fb cd 3d 96 d2 b0 bd
       -0.11303456 0.1895836 0.100576684 -0.08633916
000140 ea 96 cd 3c 00 28 02 bb 56 67 09 bd d6 c8 25 be
       0.025096375 -0.0019860268 -0.033545814 -0.16189894
000150 1e aa fe 3d 04 33 9c bd dc 6a 89 bd 59 9b 46 bd
       0.12434791 -0.07626918 -0.06709835 -0.048487995
000160 15 d4 4e 3e 3b d3 46 3e a5 00 a2 bd 3d 47 4d be
       0.2019809 0.19416516 -0.07910279 -0.20046706
000170 fd f7 6c 3d de c5 1f be 80 15 15 bc fe 47 0b be
       0.057853688 -0.15602824 -0.009099364 -0.13601682
000180 cf 51 7e 3b dc c5 44 3d 32 28 3c bc e3 f3 18 bd
       0.0038806086 0.048040256 -0.011484193 -0.037341963
000190 b8 fd 99 bd da fe 2d be 37 62 b5 3d ec a2 f5 3d
       -0.07519096 -0.1699175 0.088566236 0.119939655
0001a0 9f a9 48 3e 58 21 32 3e 65 a2 a9 bc 2f 33 3d 3e
       0.19595955 0.17395532 -0.020707319 0.18476556
0001b0 97 c6 3f bd f6 30 08 be a3 78 c5 3d df e5 26 be
       -0.04682025 -0.13299927 0.0964215 -0.16298626
0001c0 84 53 1a bd 0a 5c 7e bd 96 b9 33 3a 5f 4f 4c bd
       -0.037677303 -0.062099494 0.00068559626 -0.04988038
0001d0 01 ee 21 3e d0 ae 0d be 1e 13 3e 3b 46 b5 13 3e
       0.15813448 -0.13836217 0.0029003094 0.14424619
0001e0 9c ca 9e bc 51 4b 38 3c 1a 83 3c 3e 42 7f 4e bb
       -0.019383721 0.011248426 0.18409386 -0.0031508957
0001f0 0b 16 c5 bd 4f 1d 28 be 49 f9 a9 bd be eb 4c 3e
       -0.09623345 -0.1641743 -0.082995005 0.20011804
000200 df a8 ca 3d 65 8a 3e 3e cb 0a 92 bd 66 03 eb 3d
       0.09895491 0.18607481 -0.07130965 0.114752576
000210 e2 96 18 bd cc 09 3e be 03 bf ec bc ca fa 93 bc
       -0.037253268 -0.18558425 -0.028899675 -0.018063921
000220 57 04 a4 bd 17 d8 03 3e 15 11 b6 bd 22 60 43 bd
       -0.0800864 0.128754 -0.08889977 -0.0476991
000230 ac 25 32 bd 81 dc 05 be 9d 1b 47 3d 86 98 fe 3d
       -0.043492958 -0.13072397 0.04861032 0.12431435
000240 69 95 67 bc 2e 08 84 bd d6 0e 72 bd bc 9e f6 3c
       -0.014134743 -0.06446873 -0.05909618 0.030104987
000250 25 a0 e5 3d f2 4b 32 bd 32 d2 e4 3d eb 0d 1b 3e
       0.11212186 -0.04352946 0.11172904 0.15142028
000260 81 3f b8 3d ee 78 4e bd 43 69 21 3d a0 09 8b bd
       0.089964874 -0.050408296 0.039407026 -0.06788945
000270 b5 3b 08 3d 8c 52 a7 3d 34 89 eb 3c da 45 96 bd
       0.033260066 0.081700414 0.028751947 -0.07337542
000280 f2 24 3e 3e d8 ba 42 bd 42 bc 0a be a8 e0 9a bd
       0.18568781 -0.04754147 -0.13548377 -0.07562381
000290 bf 1c f5 3d e9 7b 30 be 18 24 83 3c 65 1b f0 bd
       0.119683735 -0.17234768 0.016008422 -0.11723975
0002a0 e0 25 01 3e 2c da 0a be 55 d8 2b be ad 4d 39 3e
       0.12612104 -0.13559788 -0.16781743 0.18096037
0002b0 f6 72 32 3d dc 76 0a 3e 85 bc c9 bd 96 2c 21 3d
       0.043566667 0.13521904 -0.0985041 0.03934916
0002c0 e1 bc 0f 3e 7d 2d 90 bd 66 f9 11 be 1f 87 0c 3d
       0.14036895 -0.07039926 -0.14255294 0.03430855
0002d0 dc 00 d5 bd cf 6c 47 be 85 78 aa 3d 9d b9 9b 3d
       -0.104005545 -0.19475101 0.083237685 0.07603762
0002e0 91 49 d0 3d 2a 7e 7a bd 4d fa 5d bd b0 fd 19 be
       0.10170282 -0.061155476 -0.054193784 -0.1503818
0002f0 62 ce e4 3d 9b f2 27 3e f5 4e fb bd 37 2b 4c 3a
       0.11172177 0.1640114 -0.12270919 0.0007788422
000300 19 82 b0 bd b8 1a 50 3e 1d f2 78 3d 99 63 4a be
       -0.08618564 0.20322692 0.060777772 -0.19764556
000310 fd ac 2e be e4 77 4b bd 9c 0c 75 3d 88 d6 ae bd
       -0.17058177 -0.049674883 0.05982648 -0.08537012
000320 d0 fd 1f be d0 d2 43 3e ef 0d 0b 3e ed ae 13 be
       -0.15624166 0.19123387 0.13579534 -0.14422198
000330 4f 14 33 3e 09 ea 50 3d 86 a5 91 bd 85 58 44 be
       0.17488216 0.051004443 -0.07111649 -0.19174393
000340 19 a8 3a be 67 19 1b be 22 be f9 3d ec 3e 3f 3d
       -0.18228187 -0.15146409 0.12194468 0.046690866
000350 d7 f4 82 bd db 0a 44 3d 5b 05 65 3c 94 d3 47 be
       -0.06394356 0.047861915 0.013978328 -0.19514304
000360 9c bd be bc 93 dc b4 3d dd 0e 3f be 82 99 0b 3e
       -0.023283772 0.08831134 -0.18658014 0.13632777
000370 5f 28 f9 bd 14 fa 0d 3e e7 7b 2c be 1f 73 bd 3d
       -0.12165903 0.13864928 -0.1684414 0.09250473
000380 e5 03 01 3e 02 70 0f 3e cb d3 16 bd 21 1c 17 3d
       0.12599142 0.14007571 -0.036823075 0.03689206
000390 03 6f 26 be 81 00 67 bc c5 08 de bd d9 01 09 be
       -0.16253285 -0.014099241 -0.108415164 -0.13379611
0003a0 bd a8 8c 3d 2d ea 42 3e 99 f4 6b bd f3 7a c3 3d
       0.06868122 0.19034643 -0.057606313 0.09544935
0003b0 05 9b f7 3d 4e 29 0b 3e 1d 62 0d 3e 70 c4 4d 3e
       0.120901145 0.13589975 0.13806958 0.20094466
0003c0 12 34 49 be 91 a1 3f 3b 43 57 a4 bd 76 99 17 3d
       -0.1964877 0.0029240588 -0.08024456 0.037011586
0003d0 9d 3d eb bd 9a 5f 0a 3e 8f d1 ed 3d 06 1f 3f 3e
       -0.11486361 0.13513032 0.11612236 0.18664178
0003e0 d8 05 09 bd 7c 2a 6d 3c 6f 0c 22 bd 29 8e ed 3d
       -0.03345284 0.014475461 -0.03956264 0.115993805
0003f0 88 3d b1 3c cb 36 60 3d a5 2b 0e 3d e0 d8 b5 bd
       0.021635786 0.054739755 0.03470959 -0.08879256

transformer_encoder.layers.0.self_attn.in_proj_bias f4 [108]
000000 00 00 00 00 00 00 00 00 00 00 00 00 00 00 00 00
       0.0 0.0 0.0 0.0
000010 00 00 00 00 00 00 00 00 00 00 00 00 00 00 00 00
       0.0 0.0 0.0 0.0
000020 00 00 00 00 00 00 00 00 00 00 00 00 00 00 00 00
       0.0 0.0 0.0 0.0
000030 00 00 00 00 00 00 00 00 00 00 00 00 00 00 00 00
       0.0 0.0 0.0 0.0
000040 00 00 00 00 00 00 00 00 00 00 00 00 00 00 00 00
       0.0 0.0 0.0 0.0
000050 00 00 00 00 00 00 00 00 00 00 00 00 00 00 00 00
       0.0 0.0 0.0 0.0
000060 00 00 00 00 00 00 00 00 00 00 00 00 00 00 00 00
       0.0 0.0 0.0 0.0
000070 00 00 00 00 00 00 00 00 00 00 00 00 00 00 00 00
       0.0 0.0 0.0 0.0
000080 00 00 00 00 00 00 00 00 00 00 00 00 00 00 00 00
       0.0 0.0 0.0 0.0
000090 00 00 00 00 00 00 00 00 00 00 00 00 00 00 00 00
       0.0 0.0 0.0 0.0
0000a0 00 00 00 00 00 00 00 00 00 00 00 00 00 00 00 00
       0.0 0.0 0.0 0.0
0000b0 00 00 00 00 00 00 00 00 00 00 00 00 00 00 00 00
       0.0 0.0 0.0 0.0
0000c0 00 00 00 00 00 00 00 00 00 00 00 00 00 00 00 00
       0.0 0.0 0.0 0.0
0000d0 00 00 00 00 00 00 00 00 00 00 00 00 00 00 00 00
       0.0 0.0 0.0 0.0
0000e0 00 00 00 00 00 00 00 00 00 00 00 00 00 00 00 00
       0.0 0.0 0.0 0.0
0000f0 00 00 00 00 00 00 00 00 00 00 00 00 00 00 00 00
       0.0 0.0 0.0 0.0
000100 00 00 00 00 00 00 00 00 00 00 00 00 00 00 00 00
       0.0 0.0 0.0 0.0
000110 00 00 00 00 00 00 00 00 00 00 00 00 00 00 00 00
       0.0 0.0 0.0 0.0
000120 74 a6 39 ba a7 6b 0b bb 97 98 72 ba fc 44 51 3b
       -0.00070819934 -0.0021273883 -0.0009254305 0.0031931987
000130 ef 93 26 bb 7c c3 b9 39 ae 1a 06 3a 9d 65 6b 3b
       -0.0025417765 0.00035431597 0.000511567 0.003591872
000140 f1 ea 40 ba c3 38 1a bb 57 0b 16 ba cc be 9b bb
       -0.0007359228 -0.0023532368 -0.00057237357 -0.0047529694
000150 29 82 00 3b 79 1b 4e 39 22 3b fb 3b cd e1 2f 3b
       0.0019608831 0.00019655925 0.0076669613 0.0026837469
000160 71 90 69 ba 1c 85 bc 3a fd ff 14 bb 3a 8a 29 bb
       -0.0008909768 0.0014382931 -0.0022735589 -0.0025869743
000170 3c 98 d1 3a 4a 0b a2 3b b6 30 69 ba e0 dd 2d 3b
       0.0015990804 0.0049451934 -0.0008895503 0.0026529953
000180 3a ca 5c 3b 86 98 3b 3b e9 8a 5d 3b 63 7d 6f ba
       0.0033689872 0.0028624847 0.003380472 -0.00091358105
000190 b6 d3 d6 38 9f b5 68 bb 08 b8 10 3b e9 6e 1b 3b
       0.000102437494 -0.0035508645 0.0022082347 0.002371723
0001a0 8f 31 85 ba c2 cd ee 3a 90 75 1c 3b b0 d6 ff ba
       -0.0010161864 0.001821928 0.0023873784 -0.0019518938

transformer_encoder.layers.0.self_attn.out_proj.weight f4 [36, 36]
000000 e2 df 03 3e 60 a5 b3 3d 0c 11 27 bd 70 a6 1e 3e
       0.12878373 0.08771777 -0.04078774 0.15493178
000010 fc f9 b8 bd 78 8f d8 bd e5 e8 f2 3d 20 6c 91 bd
       -0.09032056 -0.105742395 0.11860827 -0.07100701
000020 68 06 a0 bd dc cf 9a bb fb e3 47 bd 3c 78 01 3d
       -0.07813722 -0.004724486 -0.048801403 0.031608805
000030 a0 a2 5c bd a6 5d d1 bc 69 85 92 bd c5 f3 25 be
       -0.05386603 -0.02555735 -0.07154352 -0.16206272
000040 98 a4 78 3d f2 d7 02 be b0 6b 5b 3d e5 7d 36 bc
       0.060703844 -0.12777689 0.053569496 -0.011138414
000050 7a 2a 07 be b0 17 bb 3c bd 0e 23 be 43 80 80 3d
       -0.13199797 0.022838444 -0.15923591 0.06274464
000060 c2 c1 5c bd fd ce e2 3d 3c 70 07 be 81 20 8b 3c
       -0.05389572 0.11074636 -0.13226408 0.016983273
000070 51 92 00 be 80 8f 0f 3c e7 87 9d 3d bf b9 c2 3d
       -0.12555815 0.00876224 0.07691937 0.095080845
000080 13 66 ca bd 5f 53 27 3e 04 03 f3 bd 36 23 fe bd
       -0.0988275 0.16340397 -0.118658096 -0.1240906
000090 c3 d5 c5 3d c1 bf 6d bd e3 28 2a be d1 f4 27 be
       0.096599124 -0.0580442 -0.1661716 -0.16401984
0000a0 f4 0d 2a 3e 49 42 ab bd 1b 72 dd bc fd 93 15 3c
       0.16606885 -0.08362252 -0.027031949 0.009129521
0000b0 ca cb 10 3e 9e c3 0b 3e 97 72 cc bd ba 45 ef 3c
       0.1414024 0.13648841 -0.09982794 0.029208053
0000c0 39 39 d1 bc ff 1e a3 3d 66 46 09 bd c6 d2 87 bd
       -0.025539981 0.079648964 -0.033514403 -0.06631999
0000d0 5e a7 b5 bd 30 c8 ec 3c 28 d8 1f 3e a2 98 98 3d
       -0.088698134 0.02890405 0.15609801 0.074509874
0000e0 cd 9c 44 3d 4b 8f 5f 3c a8 0d c2 bd 50 d2 34 3d
       0.0480011 0.013645004 -0.09475261 0.044145882
0000f0 05 08 57 3d 4a 5c b3 bd 98 5e 0a be 45 b9 af 3d
       0.052497882 -0.08757837 -0.13512647 0.08580259
000100 d1 c0 92 3c cb ac 9d 3d 33 0f 54 bd b3 8e 12 be
       0.017914208 0.07698973 -0.051772308 -0.14312248
000110 b5 71 f4 3d 06 22 22 be 2d 4d d1 3c 41 1e da bd
       0.119357504 -0.15833291 0.025549496 -0.10650302
000120 13 5d 26 be 75 39 98 3c e5 c0 5e 3d d5 a7 02 be
       -0.16246442 0.018582085 0.054383177 -0.12759335
000130 d9 84 04 3e d9 86 ef 3c 64 27 01 3e 75 d6 9a bc
       0.12941302 0.029239105 0.12612683 -0.01890109
000140 e1 7c 06 3e 0e 63 fd 3d eb 2c 17 be 5e 6a bc bd
       0.13133575 0.12372409 -0.14763229 -0.091999754
000150 1a 22 5a bd b1 26 14 3e 59 5c 81 bb e0 d6 f5 3d
       -0.053255178 0.14467885 -0.0039477763 0.12003875
000160 5f 0f 23 ba a7 c3 e2 3d 9b 15 86 3d 2b fe 5e 3c
       -0.0006220247 0.11072474 0.0654709 0.013610403
000170 36 08 8e 3d 62 92 0c 3e ec ef 5b 3c 42 f6 73 3d
       0.0693516 0.13727716 0.013423901 0.05956102
000180 a8 cb fc bd c3 f8 6c bb 74 83 43 bd e8 f5 8b bd
       -0.12343532 -0.0036159016 -0.047732785 -0.06834012
000190 6b 9b 0f 3e 0b ed 5f 3d ac 9d 5e bd fe 33 18 3d
       0.14024131 0.05466942 -0.054349586 0.03715896
0001a0 18 96 82 bc 68 15 e3 bd 15 be dc bd 5b 88 38 3d
       -0.01594071 -0.11088067 -0.10778443 0.045051914
0001b0 5e 9e 29 3d 57 55 96 3d 6c 6e c0 bc 2e 37 8c 3d
       0.041410796 0.07340496 -0.023490153 0.06846462
0001c0 6c 3c 8f bd ec 80 14 be 42 f4 ce bd 9f a6 1f be
       -0.069939464 -0.14502305 -0.10105182 -0.15590905
0001d0 e8 c2 ed bd db c2 c2 bd 4e 3a 87 bd e7 b1 cc bc
       -0.11609441 -0.09509822 -0.066029176 -0.024987174
0001e0 aa 86 11 3e 1f c2 5b 3c 74 88 97 3d 2b b2 e5 3d
       0.14211527 0.013412981 0.07399073 0.112156235
0001f0 12 6b ee 3d ba dd c4 3d 65 bb 02 bd dd 8c ad bd
       0.11641516 0.096126035 -0.031916995 -0.08474133
000200 6d 94 2d bd e8 6d 03 3d a2 63 d7 3d b2 7c b6 3b
       -0.042377878 0.032087237 0.1051705 0.005569064
000210 95 d4 85 bd 8a 5e 11 be a0 b6 1a be 58 41 91 3d
       -0.065346874 -0.1419622 -0.15108728 0.070925415
000220 ca 47 02 be 96 19 84 bd 66 82 af 3d 9b 03 7b 3d
       -0.12722698 -0.06450193 0.085697934 0.061282735
000230 c2 7c 0b 3e 62 a5 cb bd 57 26 e8 3c 83 45 ac bd
       0.1362181 -0.09943654 0.028338594 -0.08411696
000240 68 a0 18 be 65 20 90 3d 0b 54 a8 bd ae d7 c9 bc
       -0.1490494 0.07037429 -0.08219155 -0.024638977
000250 88 7f 25 3e 91 c4 e5 3d 97 e0 18 bd 1a 9c 1b 3e
       0.1616193 0.11219133 -0.03732356 0.15196267
000260 50 eb 22 3e e9 f4 05 be c8 a0 ca bd f2 38 a9 bd
       0.15910077 -0.13081707 -0.09893948 -0.082628146
000270 a6 fa c2 bc bd a7 87 3d 4d b4 56 3b ed 80 20 3e
       -0.02380116 0.066237904 0.0032761276 0.15674181
000280 e0 35 66 3d 57 42 c3 bd c7 0a f4 3d 7b 76 00 be
       0.056203723 -0.09534138 0.11916118 -0.12545197
000290 3b 18 e1 3d 33 20 78 bd 55 fc 25 3d 0d 49 b8 3d
       0.1099095 -0.060577583 0.040523846 0.08998308
0002a0 a0 41 da 3d 8d 97 af bd 1b 02 d6 bd 2e 04 c2 3d
       0.10657048 -0.08573828 -0.1044962 0.094734535
0002b0 0b 9e 85 bb d5 56 1b 3e e3 21 b8 bc 0d ad 04 3d
       -0.004077678 0.15169843 -0.022477096 0.032391597
0002c0 ac 40 90 3d 5f 53 07 3d 18 c5 d9 bb de ba 01 3d
       0.07043585 0.033038493 -0.00664581 0.03167235
0002d0 89 6d 72 3d 04 cb 00 3d f4 8a 0e 3e a9 a5 13 3e
       0.059186492 0.03144361 0.13920194 0.14418663
0002e0 57 55 30 bb ba 80 3a 3d 47 de ca 3c aa c3 c3 bd
       -0.0026906335 0.04553292 0.024764193 -0.09558804
0002f0 7d cd 98 bd 2f 78 80 3d 2d 67 e8 3d 4b 31 f2 bc
       -0.07461069 0.06272923 0.11347804 -0.02956452
000300 90 6b 65 bd cd 2b fc bc 20 0b 1e 3e f6 ae 9a 3c
       -0.056010783 -0.030782605 0.15433931 0.018882256
000310 81 b6 fe bd b2 dd 4a 3c 5f 06 b4 bc e2 48 9c bd
       -0.124371536 0.012381958 -0.021975694 -0.07631089
000320 be 3e 13 3e f3 93 2c 3e 28 81 0f be ac 8a 6d 3c
       0.14379403 0.16853313 -0.14014113 0.014498394
000330 a0 22 6e 3d c5 ea cf 3d 71 6d d3 3c c1 58 48 bd
       0.05813849 0.101522006 0.025809022 -0.048912767
000340 e4 14 20 bc e3 1b a1 3c a5 b1 43 bd ca 75 5d bd
       -0.009770606 0.019666618 -0.047776837 -0.05406741
000350 c9 b1 31 3d 70 f4 57 bd e5 b7 f0 3d 88 a8 48 bc
       0.04338244 -0.05272335 0.11753825 -0.012247212
000360 82 d4 7f bd 85 c7 73 3d 4c 1b 0d bd da b6 7f 3d
       -0.062458523 0.05951645 -0.03444986 0.06243024
000370 94 a9 c2 bd 95 46 0e 3e b8 29 ba 3a 6f 1c 28 be
       -0.09505001 0.13894112 0.0014203107 -0.16417097
000380 1e 54 23 3e 97 9d 2e 3e 8d 68 e5 bc e3 6f 98 bb
       0.15950057 0.17052303 -0.028003955 -0.00465201
000390 bf 19 72 3d 7c 4c e1 3d 54 ea d0 3d 87 fe 92 bd
       0.059106585 0.11000916 0.102009445 -0.071774535
0003a0 76 19 19 3d b0 bb 98 bd bf 5a 59 bd 32 6f fa 3b
       0.037377797 -0.074576735 -0.053065058 0.00764265
0003b0 29 34 7b 3d c6 40 0a be c4 e5 15 be 24 4d cb 3d
       0.06132904 -0.13501272 -0.1463843 0.09926823
0003c0 dd 07 1b be d5 28 43 bd 92 f2 11 be 29 c4 f2 bd
       -0.15139718 -0.047646362 -0.1425269 -0.11853821
0003d0 e5 68 93 3d 8b ab 19 3d f0 f5 c1 3d 9e 8e 53 3b
       0.071977414 0.03751711 0.09470737 0.0032281051
0003e0 46 9e 1b be f6 88 22 bd c7 c7 2f 3d 83 32 93 3d
       -0.15197095 -0.039681397 0.042915132 0.07187369
0003f0 be 48 4d bd f0 7b 6d bd c6 be f1 3d 9a d7 22 3d
       -0.0501182 -0.057979524 0.11803965 0.039756395

transformer_encoder.layers.0.self_attn.out_proj.bias f4 [36]
000000 32 a4 c1 3a 28 73 4f 3a d8 65 1b bb 04 d2 73 ba
       0.0014773665 0.0007913583 -0.0023711827 -0.0009301009
000010 1a c8 14 3b a2 c8 ab 3b af 26 80 bb 8a b5 e7 ba
       0.0022702278 0.005242423 -0.0039108614 -0.0017678004
000020 da ca b4 39 22 60 8c 3b af 68 39 bb f0 36 b9 ba
       0.00034483412 0.004283921 -0.0028291156 -0.0014130753
000030 5a af 6e 3a 18 61 53 bb c7 aa 0b 3b d1 95 ce 3a
       0.0009105109 -0.0032253917 0.0021311508 0.0015761202
000040 02 1e 5f ba 4b c5 ca ba 72 be 84 3a 37 9d 4b 3b
       -0.00085112464 -0.0015470175 0.0010127558 0.003106905
000050 99 af 01 3b c0 58 d0 ba 6e 34 e0 ba 28 b5 37 3b
       0.0019788502 -0.001589559 -0.0017105469 0.0028031562
000060 67 b2 aa 3a 5f d8 17 3b 78 e4 b1 ba 59 a8 6e 39
       0.0013023139 0.0023169739 -0.0013572117 0.00022760163
000070 ec fc 01 3b 68 af ed 3a 0f 55 f8 ba 22 30 0c 3b
       0.001983459 0.001813394 -0.0018946248 0.0021390994
000080 26 bb 14 bb 1a 71 09 3b 39 6f fe ba cf e7 7d ba
       -0.0022694557 0.0020971955 -0.0019411809 -0.0009685726

transformer_encoder.layers.0.linear1.weight f4 [128, 36]
000000 1c 86 a7 3d 96 ce 04 bd 95 e7 b3 3d 4e ec 7c 3d
       0.08179876 -0.03242358 0.08784405 0.061748795
000010 e0 17 be 3d aa b1 0b be a5 52 ca 3c 1d 7d c5 bd
       0.092818975 -0.13641992 0.024697611 -0.09643004
000020 ee 2d e5 3d cb cb e8 3d 37 05 04 be 07 e3 9c 3d
       0.11190401 0.113669954 -0.12892614 0.076604895
000030 56 55 06 3e 2d 03 9a 3d 9a bf fd bb 3d 6c 95 3d
       0.1311849 0.07520137 -0.007743788 0.072960354
000040 66 a8 11 3e 2e 82 53 bc 23 3a 4c bd 92 c4 1b bd
       0.14224395 -0.012909455 -0.04986013 -0.03802926
000050 83 f0 01 3e a4 6b 0d 3b 8e 33 b0 bd b1 2d e8 3c
       0.12689404 0.0021579051 -0.08603583 0.0283421
000060 cd 38 79 3d 53 41 02 be 53 64 71 bc a9 90 51 3c
       0.060845185 -0.12720232 -0.014733392 0.012790837
000070 95 9b 0b be 96 79 88 3d 19 fc f6 3d 64 e1 8f bd
       -0.13633569 0.06663816 0.120598026 -0.07025412
000080 02 f2 ea 3d ab 65 11 3e 91 bc 27 be b0 65 5e bd
       0.114719406 0.1419894 -0.16380526 -0.054296196
000090 79 0d 8c 3d cd c3 87 3c 58 d5 20 3e b4 fc 10 be
       0.06838507 0.016572857 0.15706384 -0.14158899
0000a0 2d 07 0a be 06 ba bb bd bc f1 2a 3e 8f 19 0f bd
       -0.134793 -0.091663405 0.16693777 -0.034936484
0000b0 8f c6 13 3e 1e 1a b1 bd 94 e7 1d 3c 17 eb 45 bc
       0.14431213 -0.086475596 0.009637732 -0.012079976
0000c0 75 b1 1e 3d a9 8a c6 3d ef fe 3d 3d 2b 36 97 bc
       0.038743455 0.09694416 0.0463857 -0.018458446
0000d0 09 ac 07 be 4e 29 d8 3b 6b ec be bd 5a 85 fe 3d
       -0.1324922 0.006596721 -0.09322437 0.124277785
0000e0 b3 b3 02 3e 0d d6 f5 bd 35 1f 7d 3d bc 53 21 bc
       0.12763862 -0.120037176 0.06179734 -0.009846624
0000f0 5e 80 66 3b 00 e9 fc bd de f4 c9 3d ea e0 c4 bd
       0.0035171728 -0.12349129 0.09861158 -0.096132115
000100 87 4c 2a bd c4 e7 cb bd c7 fe b5 bd 47 1f 68 3d
       -0.04157689 -0.09956315 -0.088864855 0.056670453
000110 a2 c9 a9 3c e6 6e e5 3d 7e a1 ce 3d ed d7 cd 3d
       0.020726029 0.11202793 0.10089396 0.1005095
000120 3e 40 11 bd 77 c8 46 3c 72 08 18 bd 8d da ab bd
       -0.035461657 0.0121327555 -0.03711743 -0.08391295
000130 54 f0 5d 3d cf 1f 02 bd ff 9e 85 bd 5a 78 0f be
       0.054184273 -0.031768616 -0.06524467 -0.14010754
000140 82 92 e7 3d 82 d9 28 be 01 be 27 be 6a e7 09 be
       0.11307241 -0.16489223 -0.16381074 -0.13467184
000150 ea 02 3c 3d e3 1f 1d 3e 10 38 12 be 04 6b 1c 3e
       0.045901217 0.15344195 -0.14279199 0.15275198
000160 57 79 82 3d 49 90 ae 3d 1d a6 e5 3c 28 12 8a 3d
       0.063708 0.08523614 0.02803331 0.06741744
000170 1e 17 df bd 43 ae dd bc 16 ef 72 3c 0c e9 21 3e
       -0.10893081 -0.027060634 0.01482751 0.15811557
000180 9e 29 be bd cc d3 bf 3a 92 00 03 bd 3e f8 07 3e
       -0.092852816 0.0014635264 -0.031982966 0.1327829
000190 3a 50 c0 3d f4 2f b2 3d ba d6 c6 3d 5b d3 c8 3d
       0.09390302 0.087005526 0.097089246 0.09805938
0001a0 4b a9 cd bc 83 53 98 bd 7e 9f 81 bc 62 f1 b3 bd
       -0.02510514 -0.074378036 -0.015823122 -0.087862745
0001b0 eb 59 db bd 13 2e 65 bd ef 60 a6 3d 52 04 ee 3c
       -0.1071051 -0.055952143 0.08123957 0.029054794
0001c0 05 95 1d be 4e d6 b2 bd a6 89 39 bd 9b 49 13 3c
       -0.15388878 -0.087322816 -0.045297287 0.008989717
0001d0 f2 63 d6 3d 05 5a 08 3e 0b aa 02 3d bc 3a 7e 3d
       0.10468282 0.1331559 0.031900447 0.062067732
0001e0 7e 30 11 bd e2 7b 6f 3b 2a 31 d0 3b 91 12 83 3d
       -0.035446636 0.0036542346 0.006353517 0.06400026
0001f0 33 2b e7 3c c9 1e 09 3c 5b 2f 15 3e c5 a5 31 3d
       0.028218841 0.008369156 0.14568846 0.04337098
000200 38 67 3d 3d 48 9d f7 3d 58 44 8d 3d 2d 60 24 3e
       0.046241015 0.12090546 0.06897801 0.16052313
000210 cf c9 08 bd 46 df 84 3d 9a b7 1c 3e 10 ff 8c 3d
       -0.033395585 0.064878985 0.15304413 0.06884587
000220 03 6d e5 3d d7 da aa bc 92 59 4e bd 35 89 1f 3d
       0.11202433 -0.020856304 -0.05037839 0.03894921
000230 9a bf 4a 3d 26 21 cd bd e6 3f bb bd 2a a9 05 3e
       0.04949913 -0.10016088 -0.09143047 0.13052812
000240 63 34 f4 38 93 b7 c0 bb 70 7d 1c 3e ee c7 e5 3c
       0.000116445844 -0.0058812588 0.15282226 0.028049435
000250 3c 9c 34 3d 22 ed 55 bd 44 c6 e4 bd 97 71 67 3a
       0.04409431 -0.0522281 -0.11170629 0.0008828877
000260 b2 a9 cc bd 17 7e 21 bd 62 96 af 3d 31 70 f8 bd
       -0.09993304 -0.03942689 0.08573605 -0.12130774
000270 92 e2 04 3e bf b0 fa 3c 3d 95 80 bc ca 76 15 3d
       0.12977055 0.030601857 -0.015696162 0.03649024
000280 d6 39 c8 3d b4 96 46 bd 3d c0 19 3e 7e 20 c2 3d
       0.09776656 -0.048483565 0.1501474 0.09478854
000290 00 33 27 be cf 07 0d be d2 91 67 3d e3 38 06 3e
       -0.16328049 -0.1377251 0.05653555 0.13107638
0002a0 dc 23 f1 bd 68 ef 0a 3e 4e 70 d0 3d b1 71 d0 bd
       -0.11774418 0.13567889 0.101776704 -0.10177935
0002b0 cd 74 e7 bd 1b 40 d5 bc 9f 12 ab bd ab 94 3d 3c
       -0.11301575 -0.026031544 -0.08353161 0.01157109
0002c0 7f 03 10 be f0 a8 a8 bd 71 e1 c2 bd 2d f9 10 be
       -0.14063834 -0.08235347 -0.09515656 -0.14157553
0002d0 c6 91 3b bd 5c b3 3a bd 83 06 12 3d f0 17 68 bc
       -0.045793317 -0.045581207 0.03565074 -0.014165863
0002e0 16 32 14 be e5 7d 22 be 5f 6f 97 bd 9e 5d 06 3e
       -0.14472231 -0.15868337 -0.07394289 0.1312165
0002f0 d0 c7 00 3e 36 e2 b4 bb e3 57 58 3c 8e 4a 1e 3d
       0.12576222 -0.0055201305 0.013204548 0.03864532
000300 b8 9d 2f 3d 05 75 18 3e 23 09 ce 3d 21 ef 5c 3d
       0.04287502 0.1488839 0.100603364 0.05393899
000310 a5 67 87 bd 5c e6 63 3d f6 7b 9e 3d 67 46 39 3d
       -0.066115655 0.05563961 0.077384874 0.045233157
000320 bd 5c 01 be 6f 05 2b be 5e fc 0a 3e 93 02 c5 3d
       -0.12633033 -0.16701292 0.13572833 0.096196316
000330 a1 28 88 3c 6c 2a 96 bc b5 d1 ca bd aa 3f 00 3d
       0.016620936 -0.018330775 -0.0990328 0.031310715
000340 75 f7 0f 3e cf 6b 77 3d 9a e5 02 3e 6e 92 64 ba
       0.14059241 0.06040555 0.12782899 -0.00087193295
000350 ab 8a 1f be ed 37 23 3e a5 26 4c bd 94 27 ec 3d
       -0.15580241 0.15939303 -0.04984154 0.115309864
000360 84 15 0b 3e 86 a3 e2 3c fa eb a9 3d fe 72 0a bd
       0.13582426 0.027665865 0.08296962 -0.03380107
000370 8c d5 08 3e 77 e5 19 3d bd 10 bd bd 34 06 81 3d
       0.13362712 0.03757235 -0.09231708 0.06300011
000380 a1 fc 13 3b 06 e4 ed bd 52 38 16 be ae 00 16 bd
       0.0022580998 -0.11615758 -0.14669922 -0.036621742
000390 49 55 70 3c d6 80 d6 3c bc d6 f4 bd 1f 6b 02 3e
       0.014668771 0.02618448 -0.1195502 0.12736176
0003a0 92 f4 cc 3d 32 9e 7a bd 6d 91 a1 bd d9 8e 00 be
       0.100075856 -0.061186023 -0.07889066 -0.12554492
0003b0 9e 2a c1 bd a9 a3 d6 3b 82 4a 85 3d be 3c 1f be
       -0.09431957 0.0065502715 0.06508352 -0.15550515
0003c0 69 1f d8 bd c9 11 0c bd e6 f1 30 bd 2e ed ae 3b
       -0.10552866 -0.03419665 -0.043199442 0.0053383326
0003d0 d5 32 5a bd 9f 19 c5 3d 8a e6 0e bd 85 ab 20 3e
       -0.053271133 0.096240275 -0.034887828 0.1569043
0003e0 d6 c2 0a 3e 16 2a 5f bd 25 aa 8f 3d 60 e0 cd 3d
       0.13550887 -0.054483496 0.07014874 0.10052562
0003f0 84 c2 fe bd 88 3f 3c bc de 91 55 3d a4 57 9a bd
       -0.12439445 -0.011489756 0.052141063 -0.075362474

transformer_encoder.layers.0.linear1.bias f4 [128]
000000 a9 bd 56 3a 7e 6c 87 bd 28 93 f0 3d 67 ac ab bd
       0.0008191714 -0.0661249 0.11746818 -0.083824925
000010 0f d0 ba 3d 3c 76 24 3e 56 f5 98 bd 69 01 65 bd
       0.09121715 0.16060728 -0.07468669 -0.055909548
000020 96 be f5 bc 33 5a 29 3a 49 be ea bd 8c 09 70 3d
       -0.029998105 0.0006460279 -0.11462075 0.058602855
000030 74 0c 1a be a8 57 b4 3d b7 82 9a bd b0 7a 27 3e
       -0.15043813 0.088057816 -0.07544463 0.16355395
000040 29 ca a9 3d 05 90 c9 3d 97 f9 c5 bc 13 ac cd 3d
       0.08290512 0.09841923 -0.024166865 0.10042586
000050 c0 9b 21 be 73 94 02 3e 9c 34 f7 bd 4d 0e fd bd
       -0.1578207 0.12751941 -0.12070581 -0.12356243
000060 aa 47 19 3e e1 83 27 bc 7a 30 16 bd 12 2d 20 be
       0.14968744 -0.0102243135 -0.036667325 -0.15642193
000070 cd 3b 56 bd b6 9a 2b 3d fb 22 f2 3c a9 2e 05 3d
       -0.052303124 0.04189559 0.029557696 0.0325152
000080 f5 98 8c bd 88 99 07 3e 9c 27 81 3d 5e 4d 00 3e
       -0.06865112 0.13242161 0.06306383 0.12529513
000090 1b 2f 93 3d 80 6b e5 bb f1 54 26 be ba 9d 21 bc
       0.07186719 -0.0070013404 -0.1624334 -0.009864265
0000a0 1b e4 e2 3d 18 9f cd bc ba 4a dd 3d 54 29 d9 bd
       0.11078664 -0.025100276 0.108052686 -0.10603586
0000b0 50 63 16 be 1a 47 b5 bd f1 bd 66 bd 2a 24 f2 3d
       -0.14686322 -0.08851452 -0.056333486 0.11823304
0000c0 38 9b f9 3d b8 9d 15 be cf 0b d5 bd ac 70 14 be
       0.12187809 -0.14610946 -0.10402643 -0.14496106
0000d0 e7 30 b5 3d aa 4f 00 3d a8 e1 28 3d 99 c3 2e 3d
       0.08847218 0.031325974 0.041230828 0.042667005
0000e0 f8 34 ca bd bb ca 85 bd 7a a3 af bd 28 1e 47 3d
       -0.09873384 -0.065328084 -0.085761026 0.048612744
0000f0 1e 77 cb bd b2 66 c0 3c 39 a8 e3 3d 5e e1 c5 bd
       -0.09934829 0.023486469 0.1111607 -0.09662126
000100 98 b8 21 be 3f da a4 3c ba fe 25 3e 85 39 22 be
       -0.15793073 0.0201236 0.16210452 -0.15842254
000110 f1 4c 34 3d a6 e4 80 3d eb 67 9f 3c 12 72 80 3d
       0.04401869 0.06293611 0.019458732 0.06271757
000120 0a 45 23 be 7a 22 04 3e 3e 2d 0d be c4 c9 db 3d
       -0.15944305 0.12903777 -0.1378679 0.10731843
000130 ab 7f 2b 3d 93 e3 9c bd 4f 1c 21 bd 8a 0d ae 3d
       0.0418698 -0.07660594 -0.039333638 0.08498676
000140 7f 01 0f be 09 cc c6 3d 20 46 87 bd 2d 46 d2 bd
       -0.13965414 0.09706885 -0.06605172 -0.10267291
000150 00 97 8e 3d 5d ff 0e 3d 0f 79 cc 3d 63 01 00 3c
       0.06962395 0.034911502 0.099840276 0.007812831
000160 24 d7 0c 3e e7 8c 33 bc f3 cb 91 bc 03 d9 da 3d
       0.13753945 -0.010958887 -0.017797446 0.10685923
000170 1a 71 49 3d b0 59 73 bd ac db bb bd 18 93 f4 3d
       0.049180128 -0.059411705 -0.091727585 0.119421184
000180 14 0e be bd 22 af 8b bd 43 f0 ca 3b 3d b8 d4 3d
       -0.09280029 -0.06820513 0.006193192 0.10386703
000190 c6 03 db bc 6d 8f 17 be 21 64 ac 3d 1a 85 16 bb
       -0.026735198 -0.14800806 0.084175356 -0.0022967518
0001a0 ed 18 ea bd d4 43 dc 3d f2 54 15 3e b6 57 bd bd
       -0.114305355 0.10755125 0.14583185 -0.09245245
0001b0 49 ff 8a bd 8d 3c 0e bc fb 0d 89 bd ff 2f af 3c
       -0.06786973 -0.008681429 -0.0669212 0.021385191
0001c0 79 ed f4 3d 7a f9 0b be 47 0b a8 bd 38 1f 92 3d
       0.11959357 -0.13669387 -0.08205276 0.07134861
0001d0 db c8 7d bd bd 6b fb 3d 89 c6 fa bd 24 f8 bb bd
       -0.06195913 0.12276409 -0.12244899 -0.091781884
0001e0 01 5f e3 3c 3c 1c 4e 3d b6 77 07 3e ae 22 d7 bd
       0.027755262 0.050319895 0.1322926 -0.105046615
0001f0 e8 2f fe bd a2 2e d7 bd d7 07 5f 3d 9d ec 23 be
       -0.12411481 -0.105069414 0.054450836 -0.1600823

transformer_encoder.layers.0.linear2.weight f4 [36, 128]
000000 1c dc 90 3d 94 2c 00 bd 56 eb a2 3c 1f e7 07 3d
       0.070732325 -0.031292513 0.019887608 0.0331794
000010 0d 8e 7a 3c be 20 e2 bb 6e a3 92 bc c7 4d b5 3d
       0.015292657 -0.006900876 -0.017900195 0.088527255
000020 59 82 70 bd 49 6f 22 3d 12 6a 87 3c 38 83 18 3d
       -0.05871806 0.03965691 0.01653007 0.037234515
000030 fc 6c 9d 3d 7a eb a5 3d ec 5b a9 bd 8a a2 a2 3d
       0.07686803 0.08101554 -0.08269486 0.07941158
000040 41 5f dd 3c f7 36 bc bd d9 39 53 3d 02 09 0b bc
       0.02702296 -0.09190171 0.05156884 -0.008486034
000050 d8 7d da bc 23 07 81 3d 38 67 ac bd ab 2a 37 bd
       -0.026671335 0.06300189 -0.08418125 -0.044718426
000060 7b 92 84 bd a5 f1 24 3b 5d e0 96 bd 15 f2 02 bc
       -0.064732514 0.0025168445 -0.07367013 -0.007992287
000070 08 46 49 3d 92 81 66 3d 91 c5 b8 bd a9 91 af 3c
       0.049139053 0.05627591 -0.09022058 0.02143176
000080 00 c0 2f bc 9c c3 ab 3d 55 cc b6 bd 0b 4a 82 3d
       -0.010726929 0.08386919 -0.08925692 0.06361779
000090 e5 2a 37 bc b6 10 b4 bd 7e ae 75 bd 17 25 45 3d
       -0.01117966 -0.0879225 -0.05998086 0.048131075
0000a0 c9 cf 1d bd ea 5e a5 bd 51 b3 be bc 24 ed ad 3d
       -0.038528237 -0.08074744 -0.023278864 0.084924966
0000b0 24 b8 77 bb 61 ed a5 3d be 8a 04 3d 3c 11 85 3d
       -0.0037798965 0.08101917 0.032358877 0.06497428
0000c0 90 d8 d6 bc b3 07 59 bd 8f 78 07 3c ee 7d 9c bc
       -0.026226312 -0.05298586 0.0082684895 -0.019103017
0000d0 30 d6 7c 3d 0d 72 81 bd e4 b4 86 bd ef bc 0d bd
       0.061727703 -0.063205816 -0.06577471 -0.03460401
0000e0 f8 4d db bc d8 50 ab 3d e8 6a d5 3c 12 cf 91 bd
       -0.026770577 0.08365029 0.026051953 -0.07119574
0000f0 5f f0 a9 bd b8 aa 2c bb 62 ef 1f 3c a7 97 9e 3d
       -0.082978 -0.0026346873 0.009761663 0.07743769
000100 f5 6f 82 bd 3c fa 9d 3d 2c 7f 26 3d 0b f4 d3 3c
       -0.0636901 0.07713744 0.040648624 0.025873205
000110 3d 46 3d 3c 00 f1 60 3d 73 93 8a 3d 44 53 6f bd
       0.011552391 0.054917336 0.06766405 -0.058429018
000120 ec 48 02 bd eb 47 0d bc b3 3c 63 3d 92 0b 69 3d
       -0.031807825 -0.008623104 0.05547781 0.0568958
000130 63 b3 92 bc 37 00 1c 3c a5 be 1b bd 50 dd 8b 3d
       -0.017907804 0.009521536 -0.03802361 0.068293214
000140 20 06 34 bc 46 66 47 3d f1 e7 62 bd 12 31 85 3d
       -0.010987788 0.04868152 -0.055396978 0.065035
000150 b0 33 14 bd 42 65 d1 bc 6a 75 ff 3c c3 80 9c 3d
       -0.036182106 -0.025560979 0.031183917 0.07641747
000160 4c 26 3a 3d 5f 42 0c 3d ca fb 7c 3c 2a 23 7f bd
       0.04544668 0.034242984 0.015440891 -0.062289394
000170 42 3f 3c 3b 94 56 55 3d 97 9f f0 bc d2 3a 59 3d
       0.0028724228 0.05208452 -0.029372973 0.05303461
000180 df 9c 83 bd 1d bf 2b bd f5 55 03 bc 30 8b 93 bd
       -0.06426405 -0.041930307 -0.008016099 -0.07204282
000190 22 65 a8 3c ca 1f 90 bd f7 db ce bb 26 4d e7 bc
       0.020556036 -0.07037313 -0.006312843 -0.02823503
0001a0 6b 26 1b bd 95 c8 9b 3c 6a 1e 65 3d b6 2f 2a 3d
       -0.037878435 0.019016543 0.05593721 0.041549407
0001b0 3c 4c a8 bd e8 22 1f bd f5 7d b6 bd 62 31 ce bc
       -0.082176656 -0.03885165 -0.08910743 -0.025170032
0001c0 1c 3c 6b 3d 1e a8 08 bc 47 d0 02 3d 3c 37 3d bd
       0.05743037 -0.0083408635 0.03193691 -0.046195254
0001d0 66 4c bd bd 14 76 b4 3d 3c 9f 07 bd 1a 06 8f bd
       -0.092430875 0.08811584 -0.033110842 -0.06983586
0001e0 fa 2d 89 bd 93 30 e4 3c ca 64 df bb ab 8c 05 bb
       -0.066982225 0.027855193 -0.006817435 -0.0020378034
0001f0 c9 5c b4 3c 55 e1 44 bd 67 30 22 bb ae af ac bd
       0.0220169 -0.048066456 -0.0024748088 -0.08431946
000200 9b ed ec 3c aa 4d a8 bc dc 83 5b bd dd cf 99 3c
       0.028921893 -0.020544846 -0.053592548 0.018775875
000210 5a a0 a5 bc 8e c1 b1 3d 5e ca 98 3d 28 14 f1 3c
       -0.020218063 0.08679496 0.074604735 0.029428557
000220 e6 83 a1 3d 48 6c 47 3b b0 00 19 bd b3 0f 85 3b
       0.07886486 0.003042953 -0.03735417 0.0040607094
000230 18 e6 97 bc 24 92 6c 3c bf 64 3f bd 9d bf 88 bc
       -0.018542334 0.0144391395 -0.04672694 -0.01669293
000240 fc d7 05 3c 08 11 27 3d 12 89 2f bd d2 6a d4 3c
       0.0081691705 0.040787727 -0.04285533 0.025929842
000250 84 b2 1f 3d b1 f3 52 3d d4 51 80 bc e9 08 90 3d
       0.038988605 0.051501933 -0.015664019 0.070329495
000260 ff 99 a1 bb 2f 67 6a bd 90 9e b8 3d 26 fa b8 bc
       -0.004931688 -0.05722731 0.090146184 -0.022580218
000270 b3 5e 03 bd 0c 74 bd 3c 6e d1 87 bd d4 ae cf b8
       -0.032072734 0.023126625 -0.066317424 -9.9030935e-05
000280 96 b9 7b 3d 37 59 ef 3a 16 13 9d bd 72 76 6b bd
       0.061456285 0.0018260841 -0.07669656 -0.057486005
000290 95 63 81 3d 5b e7 c9 3c 13 1a ee bc 1e ba a5 bc
       0.06317822 0.024646452 -0.029065168 -0.02023035
0002a0 8b e8 19 3d 72 67 12 bc 31 30 95 bd fd 44 8e 3d
       0.037575286 -0.008935796 -0.072845824 0.06946752
0002b0 cd 01 c1 3b 8f ff 04 bd c9 43 a0 bd 38 15 60 3d
       0.0058901072 -0.032470282 -0.07825429 0.054707736
0002c0 1d 61 95 bc d9 cf 6a bd cc 08 1f 3b f0 3c 5b bd
       -0.018234784 -0.057327125 0.0024266718 -0.05352491
0002d0 62 4b 9b bd 91 76 88 bc eb c2 8c 3d 73 0f 85 3d
       -0.075827375 -0.0166581 0.06873115 0.06497087
0002e0 47 50 e0 bc 9c 67 37 bd 13 6e 91 3b 5d 2b 7b bd
       -0.02738203 -0.044776544 0.0044381707 -0.06132065
0002f0 2a b6 08 bb c9 c2 1d bd 8b 76 86 bd b5 3f 8f 3d
       -0.0020860531 -0.03851584 -0.06565579 0.06994573
000300 7e 55 3c 3d f4 b4 81 3b 32 1d 67 3c d2 94 83 3d
       0.04597997 0.003958339 0.014106082 0.064248696
000310 76 ae 52 bb 0c 9f 19 bd a0 15 a0 3b 99 10 95 3d
       -0.0032147444 -0.037505195 0.0048853904 0.072785564
000320 71 c2 cb bc 78 e6 b8 bd cc 67 99 bd e6 79 be 3d
       -0.02487299 -0.090283334 -0.07490501 0.09300594
000330 09 59 48 bc e2 9e 1d bb 4b c5 10 bd 60 98 ad bd
       -0.012228259 -0.0024051 -0.035344403 -0.08476329
000340 77 df 93 3d 7d 46 f1 bc ff 75 e2 bb 63 7b 77 3d
       0.07220357 -0.029452557 -0.006911039 0.060420405
000350 a0 ed 3d bd 90 c6 78 bd cb e8 f5 3a 88 d1 23 bd
       -0.046369195 -0.06073624 0.0018761394 -0.039994746
000360 00 da a0 3c da 16 31 3d 17 bd 8b bc 06 41 7c 3d
       0.0196352 0.043234684 -0.017057939 0.06158545
000370 06 da 53 bd ac ec 32 3d 86 09 27 bd e4 0b ad 3d
       -0.051721595 0.04368274 -0.040780567 0.084495336
000380 32 26 8d 3c be 1d aa 3d 62 89 8d 3d 5d c3 ae bd
       0.017230127 0.08306454 0.06910969 -0.08533356
000390 5a 71 82 bd cb b2 9e 3d de 28 a8 3d 74 04 74 bb
       -0.06369276 0.07748946 0.0821092 -0.00372341
0003a0 d0 7e 80 3b 7d 60 57 3d 7e 78 1f bd 16 13 88 bd
       0.003921367 0.052582253 -0.03893327 -0.06644265
0003b0 1d 52 a2 3d 18 9f a7 bd 33 32 82 3d d1 a5 d1 bb
       0.07925818 -0.081846416 0.06357231 -0.0063979407
0003c0 02 b7 93 3a 59 ac 8d 3d 87 96 82 3d 1d 3d 28 bd
       0.001126975 0.06917638 0.06376367 -0.041073907
0003d0 aa 7f c7 bd ef 95 63 3d 1b 48 31 bd 46 e1 3e bd
       -0.09741147 0.05556291 -0.043281656 -0.046601556
0003e0 b5 30 22 bd 89 fd e3 bc fc 20 71 bd 65 ab 50 bd
       -0.039597232 -0.027830856 -0.058869347 -0.050944705
0003f0 e2 46 c4 3d d2 68 0d 3d c5 38 2e bd e8 53 2a bd
       0.09583832 0.034523793 -0.04253461 -0.041583925

transformer_encoder.layers.0.linear2.bias f4 [36]
000000 37 bb 88 3d d2 9b 71 bd ee 12 06 bc a6 53 5e 3d
       0.066763334 -0.058986492 -0.008183224 0.054278992
000010 fc 42 08 bc 01 bb b9 3d 17 78 1f bd 82 ea 87 bd
       -0.008316752 0.09068871 -0.038932886 -0.06636526
000020 7f 23 87 bc 66 82 b4 3d 7d c9 f2 bc 24 81 60 3d
       -0.016496418 0.08813934 -0.029637093 0.054810658
000030 04 9c 9c bb dc fd 7d 3d b9 f4 8b bc 76 a6 44 bd
       -0.0047793407 0.062009677 -0.017084466 -0.048010312
000040 61 89 ff 3c b8 02 d3 bc c6 da dd 3c 67 90 51 bd
       0.031193437 -0.025758132 0.027081858 -0.051163103
000050 09 28 9a bc 36 c1 c9 bc 2b 09 69 bd 11 8b 54 3d
       -0.018817918 -0.024628263 -0.05689351 0.051890437
000060 26 ea 68 bb 94 45 6a 3d 76 5c 53 3d 57 49 61 3d
       -0.0035539954 0.05719526 0.05160185 0.055001583
000070 d3 31 20 bd 3c d1 a3 3d 7b 9c 87 bd ae 44 5a 3d
       -0.039110016 0.07998893 -0.06621643 0.053288154
000080 07 17 08 3d e0 d0 9f 3d 30 ab 74 3d c0 64 7a bd
       0.033225086 0.078035116 0.05973357 -0.06113124

transformer_encoder.layers.0.norm1.weight f4 [36]
000000 03 ea 7e 3f 79 04 80 3f 62 3a 80 3f 47 33 7f 3f
       0.99575824 1.0001365 1.0017817 0.9968762
000010 01 49 7f 3f 66 8a 80 3f 11 c7 80 3f 99 d9 80 3f
       0.9972077 1.0042236 1.006075 1.0066406
000020 99 b8 80 3f e0 b9 80 3f d1 63 80 3f 25 a9 7f 3f
       1.0056335 1.0056725 1.0030462 0.9986747
000030 21 65 80 3f 73 8c 7f 3f c5 8b 7f 3f 19 10 80 3f
       1.0030862 0.99823684 0.99822646 1.0004913
000040 00 82 80 3f 48 76 7f 3f 70 90 7f 3f b9 7d 80 3f
       1.0039673 0.9978986 0.9982977 1.0038368
000050 7a f7 7f 3f 74 41 7f 3f f6 15 80 3f 05 a7 80 3f
       0.99986994 0.9970925 1.0006702 1.005097
000060 d2 bb 80 3f b3 35 80 3f 04 ba 7e 3f fb fc 7f 3f
       1.0057318 1.0016388 0.9950259 0.9999539
000070 f3 75 7f 3f 5c 73 80 3f dc 08 80 3f 82 f6 7e 3f
       0.9978935 1.0035205 1.0002704 0.9959489
000080 ab 00 80 3f 08 83 7e 3f 52 81 80 3f 6c b1 7e 3f
       1.0000204 0.9941869 1.0039465 0.99489474

transformer_encoder.layers.0.norm1.bias f4 [36]
000000 3c 11 b1 3a d3 8a 46 3a 34 ce f7 ba a8 72 83 ba
       0.0013509165 0.0007573787 -0.0018906058 -0.0010028677
000010 b1 d1 0d 3b a1 bf a3 3b ae 0d de ba da d0 ea ba
       0.0021639878 0.004997209 -0.0016941333 -0.0017915026
000020 70 33 bf b8 6b 27 ad 3b 84 a5 39 bb 1c b8 c9 ba
       -9.117171e-05 0.00528424 -0.0028327415 -0.0015389952
000030 72 c6 8a 3a de bb 3d bb 14 85 ac 3a 98 2f a0 3a
       0.0010587706 -0.002895109 0.0013162219 0.0012221215
000040 46 d6 01 39 f6 ad 7f ba 81 a8 af 3a 4e e1 24 3b
       0.00012382222 -0.00097534 0.0013401659 0.0025158706
000050 62 62 2d 3a f4 9c 21 bb d7 4a d7 ba 4c 14 2c 3b
       0.00066140865 -0.0024660202 -0.0016425502 0.0026257215
000060 00 8e 83 39 f9 35 07 3b 09 f4 95 ba 3b 2c 66 3a
       0.00025092065 0.0020631535 -0.0011440526 0.00087803946
000070 ad 59 e6 3a 47 31 a2 3a e3 a1 d5 ba 15 26 14 3b
       0.0017574333 0.0012374305 -0.0016298856 0.0022605706
000080 3c c4 08 bb bd d6 b1 3a 8d ca 0f bb 35 a3 80 ba
       -0.0020868918 0.0013568025 -0.0021940798 -0.0009814264

transformer_encoder.layers.0.norm2.weight f4 [36]
000000 be d6 7f 3f 4f 5f 80 3f df 11 80 3f e1 3f 7f 3f
       0.99937046 1.0029086 1.0005454 0.99706846
000010 86 34 7f 3f aa 94 80 3f b9 d8 80 3f a8 a9 80 3f
       0.9968952 1.0045369 1.0066139 1.0051775
000020 7e c3 80 3f c1 a6 80 3f d5 68 80 3f 5f a9 7f 3f
       1.005966 1.0050889 1.0031992 0.99867815
000030 45 6e 80 3f 7c 34 80 3f 0a 6e 7f 3f 28 0b 80 3f
       1.0033652 1.0016017 0.9977728 1.0003405
000040 c6 8c 80 3f 49 d2 7f 3f 9d 6b 7f 3f c5 7f 80 3f
       1.0042961 0.99930245 0.9977358 1.0038992
000050 85 f0 7f 3f 93 95 80 3f 72 30 80 3f f5 8c 80 3f
       0.9997638 1.0045646 1.0014784 1.0043017
000060 11 ba 80 3f 3d 36 80 3f 11 89 7e 3f e9 01 80 3f
       1.0056783 1.0016552 0.99427897 1.0000583
000070 32 6e 80 3f 3f 77 80 3f b8 16 80 3f f2 1d 80 3f
       1.0033629 1.0036391 1.0006933 1.0009139
000080 17 90 7f 3f 5e 83 7e 3f 9f 36 80 3f 5d b2 7e 3f
       0.9982924 0.994192 1.0016669 0.9949091

transformer_encoder.layers.0.norm2.bias f4 [36]
000000 c3 fd a2 3a 56 ae 41 3b ff 69 d5 ba f1 f5 8b ba
       0.0012435246 0.0029553375 -0.00162822 -0.0010678155
000010 d6 88 df 3a ba b5 8f 3b 5e ee 94 ba b7 4c f4 ba
       0.001705433 0.004385677 -0.0011362543 -0.0018638585
000020 d7 a7 c7 ba 5e c3 9a 3b 35 2d 2e bb 91 2c c8 ba
       -0.0015232515 0.0047229966 -0.0026577238 -0.0015272071
000030 ba 84 94 3a b6 c2 f5 ba 56 88 99 3a ef 5b bb 3a
       0.001133106 -0.0018750045 0.0011713605 0.0014294366
000040 8d 2e 72 ba 1a f0 ae b9 a3 09 b4 3a 6b 3d 7e 3b
       -0.0009238504 -0.00033366756 0.0013735782 0.0038793932
000050 cc 42 79 3a cd b3 8a 39 25 cc e1 ba 3a 25 1a 3b
       0.00095085497 0.00026455373 -0.0017226978 0.0023520724
000060 54 27 41 3a 3e 31 ff 3a 90 c1 c3 ba 44 59 b1 39
       0.0007368226 0.0019469631 -0.0014935005 0.0003382658
000070 74 23 23 3a ab a4 9e 3a 6c 6b d9 ba 8d 31 3c 3b
       0.00062232395 0.0012103518 -0.00165878 0.0028716058
000080 d3 de d7 ba 7c 99 b2 3a c2 d2 e4 ba e5 47 89 ba
       -0.0016469605 0.0013626064 -0.001745783 -0.0010473697

transformer_encoder.layers.1.self_attn.in_proj_weight f4 [108, 36]
000000 47 2f ae 3c b9 34 18 3d fd 73 aa 3d 8f 5a 1a 3c
       0.021262778 0.037159655 0.08322904 0.009421005
000010 c0 4c 9c 3d b1 bc 95 3d 4a 50 19 be 29 fb b3 3c
       0.076318264 0.07311381 -0.14972034 0.021970348
000020 2c 03 1b 3e 70 c2 4a be d8 c9 7a 3c 42 42 27 bd
       0.15137929 -0.19800735 0.015306912 -0.040834673
000030 f5 6b bb bd fe 43 1d be 9a 55 3a 3e 3b 1d d6 bd
       -0.091514505 -0.15357968 0.18196717 -0.10454794
000040 3d f3 25 3c f8 05 15 be 98 fa 05 3e cf 0e 0a 3e
       0.010128793 -0.14553058 0.13083875 0.13482212
000050 21 3d 20 be 88 c1 2f bd 8c ba ac bd a3 40 2b 3d
       -0.15648319 -0.042909175 -0.084340185 0.04180969
000060 bf 43 e3 3d a6 37 2b 3e c7 90 04 be 92 54 3d be
       0.11096906 0.16720447 -0.12945853 -0.18489292
000070 0b 6f 22 3e b2 86 97 3d 96 d3 07 3e ab c2 57 3c
       0.15862672 0.07398738 0.13264307 0.013168971
000080 77 24 16 be 42 af 0c bc 9a 56 8d 3d 7e b9 fd 3d
       -0.14662348 -0.008586707 0.069012836 0.123888955
000090 bd 73 ed bd 86 b1 bb 3d fb 4c 00 bd c3 bb 82 3d
       -0.11594341 0.09164719 -0.031323414 0.06383469
0000a0 02 c0 10 be fd 2b 89 3c b3 2c 5d bd 68 7c 83 3d
       -0.14135745 0.016744608 -0.053997707 0.06420213
0000b0 4d 86 44 3d b4 7f 15 3e ae 15 09 be eb 77 4a 3d
       0.04797964 0.14599496 -0.13387176 0.04943077
0000c0 db 57 50 bd 07 1d 3a bd f5 95 04 3e a4 a2 27 3e
       -0.050865036 -0.04543784 0.12947829 0.16370636
0000d0 67 1a 4d be 53 d2 c0 bd 6b 8e da bd 8e 1b 4e be
       -0.20029603 -0.09415116 -0.10671695 -0.20127699
0000e0 fb 0c ef 3d f1 cb 03 be 1d c0 cb 3d 30 ae c2 bd
       0.11672398 -0.12870766 0.09948752 -0.0950588
0000f0 83 ae 13 3e cd 7e 1f bd f1 aa 1b 3e 76 b0 04 be
       0.1442204 -0.038939286 0.15201928 -0.1295794
000100 46 8c 04 bd 58 00 84 bb 1b d2 33 3e 67 df 1b 3e
       -0.032360338 -0.0040283613 0.17560618 0.1522194
000110 a0 15 39 be 29 ab 3a 3e 2e cf 02 bc af 97 ab 3d
       -0.18074656 0.18229355 -0.007983966 0.08378541
000120 3c de 8f 3d bf 49 cf 38 11 f5 95 bd 38 17 10 3e
       0.0702481 9.8842655e-05 -0.07322133 0.14071357
000130 aa 7e e7 bd 34 22 42 3e 26 fb cd 3d 96 d2 b0 bd
       -0.11303456 0.1895836 0.100576684 -0.08633916
000140 ea 96 cd 3c 00 28 02 bb 56 67 09 bd d6 c8 25 be
       0.025096375 -0.0019860268 -0.033545814 -0.16189894
000150 1e aa fe 3d 04 33 9c bd dc 6a 89 bd 59 9b 46 bd
       0.12434791 -0.07626918 -0.06709835 -0.048487995
000160 15 d4 4e 3e 3b d3 46 3e a5 00 a2 bd 3d 47 4d be
       0.2019809 0.19416516 -0.07910279 -0.20046706
000170 fd f7 6c 3d de c5 1f be 80 15 15 bc fe 47 0b be
       0.057853688 -0.15602824 -0.009099364 -0.13601682
000180 cf 51 7e 3b dc c5 44 3d 32 28 3c bc e3 f3 18 bd
       0.0038806086 0.048040256 -0.011484193 -0.037341963
000190 b8 fd 99 bd da fe 2d be 37 62 b5 3d ec a2 f5 3d
       -0.07519096 -0.1699175 0.088566236 0.119939655
0001a0 9f a9 48 3e 58 21 32 3e 65 a2 a9 bc 2f 33 3d 3e
       0.19595955 0.17395532 -0.020707319 0.18476556
0001b0 97 c6 3f bd f6 30 08 be a3 78 c5 3d df e5 26 be
       -0.04682025 -0.13299927 0.0964215 -0.16298626
0001c0 84 53 1a bd 0a 5c 7e bd 96 b9 33 3a 5f 4f 4c bd
       -0.037677303 -0.062099494 0.00068559626 -0.04988038
0001d0 01 ee 21 3e d0 ae 0d be 1e 13 3e 3b 46 b5 13 3e
       0.15813448 -0.13836217 0.0029003094 0.14424619
0001e0 9c ca 9e bc 51 4b 38 3c 1a 83 3c 3e 42 7f 4e bb
       -0.019383721 0.011248426 0.18409386 -0.0031508957
0001f0 0b 16 c5 bd 4f 1d 28 be 49 f9 a9 bd be eb 4c 3e
       -0.09623345 -0.1641743 -0.082995005 0.20011804
000200 df a8 ca 3d 65 8a 3e 3e cb 0a 92 bd 66 03 eb 3d
       0.09895491 0.18607481 -0.07130965 0.114752576
000210 e2 96 18 bd cc 09 3e be 03 bf ec bc ca fa 93 bc
       -0.037253268 -0.18558425 -0.028899675 -0.018063921
000220 57 04 a4 bd 17 d8 03 3e 15 11 b6 bd 22 60 43 bd
       -0.0800864 0.128754 -0.08889977 -0.0476991
000230 ac 25 32 bd 81 dc 05 be 9d 1b 47 3d 86 98 fe 3d
       -0.043492958 -0.13072397 0.04861032 0.12431435
000240 69 95 67 bc 2e 08 84 bd d6 0e 72 bd bc 9e f6 3c
       -0.014134743 -0.06446873 -0.05909618 0.030104987
000250 25 a0 e5 3d f2 4b 32 bd 32 d2 e4 3d eb 0d 1b 3e
       0.11212186 -0.04352946 0.11172904 0.15142028
000260 81 3f b8 3d ee 78 4e bd 43 69 21 3d a0 09 8b bd
       0.089964874 -0.050408296 0.039407026 -0.06788945
000270 b5 3b 08 3d 8c 52 a7 3d 34 89 eb 3c da 45 96 bd
       0.033260066 0.081700414 0.028751947 -0.07337542
000280 f2 24 3e 3e d8 ba 42 bd 42 bc 0a be a8 e0 9a bd
       0.18568781 -0.04754147 -0.13548377 -0.07562381
000290 bf 1c f5 3d e9 7b 30 be 18 24 83 3c 65 1b f0 bd
       0.119683735 -0.17234768 0.016008422 -0.11723975
0002a0 e0 25 01 3e 2c da 0a be 55 d8 2b be ad 4d 39 3e
       0.12612104 -0.13559788 -0.16781743 0.18096037
0002b0 f6 72 32 3d dc 76 0a 3e 85 bc c9 bd 96 2c 21 3d
       0.043566667 0.13521904 -0.0985041 0.03934916
0002c0 e1 bc 0f 3e 7d 2d 90 bd 66 f9 11 be 1f 87 0c 3d
       0.14036895 -0.07039926 -0.14255294 0.03430855
0002d0 dc 00 d5 bd cf 6c 47 be 85 78 aa 3d 9d b9 9b 3d
       -0.104005545 -0.19475101 0.083237685 0.07603762
0002e0 91 49 d0 3d 2a 7e 7a bd 4d fa 5d bd b0 fd 19 be
       0.10170282 -0.061155476 -0.054193784 -0.1503818
0002f0 62 ce e4 3d 9b f2 27 3e f5 4e fb bd 37 2b 4c 3a
       0.11172177 0.1640114 -0.12270919 0.0007788422
000300 19 82 b0 bd b8 1a 50 3e 1d f2 78 3d 99 63 4a be
       -0.08618564 0.20322692 0.060777772 -0.19764556
000310 fd ac 2e be e4 77 4b bd 9c 0c 75 3d 88 d6 ae bd
       -0.17058177 -0.049674883 0.05982648 -0.08537012
000320 d0 fd 1f be d0 d2 43 3e ef 0d 0b 3e ed ae 13 be
       -0.15624166 0.19123387 0.13579534 -0.14422198
000330 4f 14 33 3e 09 ea 50 3d 86 a5 91 bd 85 58 44 be
       0.17488216 0.051004443 -0.07111649 -0.19174393
000340 19 a8 3a be 67 19 1b be 22 be f9 3d ec 3e 3f 3d
       -0.18228187 -0.15146409 0.12194468 0.046690866
000350 d7 f4 82 bd db 0a 44 3d 5b 05 65 3c 94 d3 47 be
       -0.06394356 0.047861915 0.013978328 -0.19514304
000360 9c bd be bc 93 dc b4 3d dd 0e 3f be 82 99 0b 3e
       -0.023283772 0.08831134 -0.18658014 0.13632777
000370 5f 28 f9 bd 14 fa 0d 3e e7 7b 2c be 1f 73 bd 3d
       -0.12165903 0.13864928 -0.1684414 0.09250473
000380 e5 03 01 3e 02 70 0f 3e cb d3 16 bd 21 1c 17 3d
       0.12599142 0.14007571 -0.036823075 0.03689206
000390 03 6f 26 be 81 00 67 bc c5 08 de bd d9 01 09 be
       -0.16253285 -0.014099241 -0.108415164 -0.13379611
0003a0 bd a8 8c 3d 2d ea 42 3e 99 f4 6b bd f3 7a c3 3d
       0.06868122 0.19034643 -0.057606313 0.09544935
0003b0 05 9b f7 3d 4e 29 0b 3e 1d 62 0d 3e 70 c4 4d 3e
       0.120901145 0.13589975 0.13806958 0.20094466
0003c0 12 34 49 be 91 a1 3f 3b 43 57 a4 bd 76 99 17 3d
       -0.1964877 0.0029240588 -0.08024456 0.037011586
0003d0 9d 3d eb bd 9a 5f 0a 3e 8f d1 ed 3d 06 1f 3f 3e
       -0.11486361 0.13513032 0.11612236 0.18664178
0003e0 d8 05 09 bd 7c 2a 6d 3c 6f 0c 22 bd 29 8e ed 3d
       -0.03345284 0.014475461 -0.03956264 0.115993805
0003f0 88 3d b1 3c cb 36 60 3d a5 2b 0e 3d e0 d8 b5 bd
       0.021635786 0.054739755 0.03470959 -0.08879256

transformer_encoder.layers.1.self_attn.in_proj_bias f4 [108]
000000 00 00 00 00 00 00 00 00 00 00 00 00 00 00 00 00
       0.0 0.0 0.0 0.0
000010 00 00 00 00 00 00 00 00 00 00 00 00 00 00 00 00
       0.0 0.0 0.0 0.0
000020 00 00 00 00 00 00 00 00 00 00 00 00 00 00 00 00
       0.0 0.0 0.0 0.0
000030 00 00 00 00 00 00 00 00 00 00 00 00 00 00 00 00
       0.0 0.0 0.0 0.0
000040 00 00 00 00 00 00 00 00 00 00 00 00 00 00 00 00
       0.0 0.0 0.0 0.0
000050 00 00 00 00 00 00 00 00 00 00 00 00 00 00 00 00
       0.0 0.0 0.0 0.0
000060 00 00 00 00 00 00 00 00 00 00 00 00 00 00 00 00
       0.0 0.0 0.0 0.0
000070 00 00 00 00 00 00 00 00 00 00 00 00 00 00 00 00
       0.0 0.0 0.0 0.0
000080 00 00 00 00 00 00 00 00 00 00 00 00 00 00 00 00
       0.0 0.0 0.0 0.0
000090 00 00 00 00 00 00 00 00 00 00 00 00 00 00 00 00
       0.0 0.0 0.0 0.0
0000a0 00 00 00 00 00 00 00 00 00 00 00 00 00 00 00 00
       0.0 0.0 0.0 0.0
0000b0 00 00 00 00 00 00 00 00 00 00 00 00 00 00 00 00
       0.0 0.0 0.0 0.0
0000c0 00 00 00 00 00 00 00 00 00 00 00 00 00 00 00 00
       0.0 0.0 0.0 0.0
0000d0 00 00 00 00 00 00 00 00 00 00 00 00 00 00 00 00
       0.0 0.0 0.0 0.0
0000e0 00 00 00 00 00 00 00 00 00 00 00 00 00 00 00 00
       0.0 0.0 0.0 0.0
0000f0 00 00 00 00 00 00 00 00 00 00 00 00 00 00 00 00
       0.0 0.0 0.0 0.0
000100 00 00 00 00 00 00 00 00 00 00 00 00 00 00 00 00
       0.0 0.0 0.0 0.0
000110 00 00 00 00 00 00 00 00 00 00 00 00 00 00 00 00
       0.0 0.0 0.0 0.0
000120 5c 85 c7 39 42 48 16 3a 84 32 47 ba 06 b4 e1 3b
       0.00038055598 0.0005732813 -0.0007598775 0.0068879155
000130 f7 a4 95 3a 77 ee ae 39 28 38 e2 39 27 fa dc 3a
       0.0011416961 0.00033365536 0.0004314792 0.0016859219
000140 4a 4e 15 bb d8 56 c1 ba 3d 70 95 b9 76 73 59 bb
       -0.002278226 -0.0014750613 -0.0002850312 -0.0033180392
000150 e0 55 95 3a 3e 02 80 bb 55 71 c2 bb 45 49 ac ba
       0.0011393391 -0.0039065173 -0.0059339204 -0.0013144395
000160 c5 9e a6 b9 37 74 09 bb 43 90 27 bb 90 f5 ab ba
       -0.0003178028 -0.002097381 -0.0025568164 -0.0013119448
000170 a4 81 af b9 2a 11 3b 3b 12 69 76 bb 3f f3 db 39
       -0.0003347519 0.0028544166 -0.0037599248 0.00041952168
000180 59 52 c2 3a 2e 04 02 3b 68 e5 db 3a 76 85 cd ba
       0.0014825567 0.0019838917 0.0016776742 -0.0015680033
000190 01 e9 27 3b 21 0b 27 bb 72 b2 ea 3a 2f aa c2 3a
       0.002562106 -0.002548881 0.0017905964 0.0014851744
0001a0 fa 73 12 bb b9 21 17 3b 7e 2f cb 3b b6 90 87 ba
       -0.002234696 0.0023060872 0.00620073 -0.001034281
