pipeline/Ankle_Controllers/checkpoint.pth (torch, 854690 bytes, 27 tensors)

transformer_encoder.layers.0.self_attn.in_proj_weight f4 [108, 36]
0.12294051 -0.04655521 -0.17018211 0.17235999 0.05340976 -0.083980635 0.2024417 0.10325773
0.033377063 0.057886343 -0.11746491 0.16355143 -0.09165286 0.024110796 0.15771577 0.12563846
0.06389389 0.15217723 0.009641491 -0.1304327 0.14112048 0.16897997 0.04629275 0.0869463
-0.053021565 0.19477226 -0.1845506 -0.1678689 -0.026095435 0.082922615 0.034278423 -0.08302253
-0.050165884 0.15343152 0.12475167 0.010882158 0.06854736 -0.19181965 0.116190806 -0.14196287
0.0017042937 0.18162178 -0.17764454 0.10643556 -0.12748921 -0.00876619 -0.123730734 -0.026364295
-0.04011194 -0.08003099 -0.033358205 0.1509805 0.022925753 0.1010655 0.08801345 0.028274354
-0.16692857 0.18284607 0.071149535 0.12980367 0.14429021 0.10424985 0.11248031 0.1185433
-0.105927765 0.10968464 -0.09420715 -0.020615362 0.081035115 -0.093701206 -0.061087854 0.05746581
0.06367696 -0.12873234 0.18372543 -0.17255974 0.14743589 -0.04020884 -0.10016126 0.14414467
-0.109528564 0.16023925 -0.103038386 0.029749207 -0.11345227 0.16972136 0.016062517 -0.02095109
0.10093731 0.0115757845 0.18758155 0.16213138 -0.079453655 -0.13185014 0.1586101 0.1315311
0.113095686 -0.089528404 -0.08106772 0.09878131 0.11630318 0.051826693 0.056734663 0.087543204
0.121020935 -0.19575116 0.013845905 -0.002122781 -0.056344453 0.14125392 -0.044207852 -0.16562311
-0.068721175 0.07086829 -0.099356435 0.05280451 -0.10456434 0.1193154 0.09698168 0.10493277
-0.0070328424 0.16127737 0.16642487 0.05161346 0.0051855166 0.0120394835 0.119172566 -0.14378685
0.13347292 0.13129318 0.07672504 0.15593128 0.031817723 -0.13831414 -0.053444993 0.11194481
0.13251893 0.053282082 -0.20314838 0.09141308 -0.014955123 0.053911734 -0.04396379 -0.02315045
-0.20251547 0.14550494 -0.03346043 0.048810143 0.027320504 0.18149646 0.055999793 -0.05909445
0.07965144 -0.07704671 0.061073203 -0.16711144 0.09577157 -0.16296828 -0.06439015 0.08880222
-0.062588036 0.016045287 0.033634488 -0.20229204 -0.03132249 -0.1612681 0.12904374 -0.065512605
0.07647507 0.11960811 -0.06279383 -0.115147 0.17891003 0.17363808 -0.15426224 0.19781414
0.17948316 -0.075118475 0.14796868 0.057538547 0.10774502 0.034364104 -0.0706481 0.1867248
-0.021749813 -0.16745289 0.09900569 0.13949738 -0.030687822 0.010861815 -0.090533935 0.04581834
-0.09164099 0.07286018 0.09983466 0.058719207 -0.14357859 -0.14287813 -0.05729993 -0.010008415
0.010945157 0.19401811 0.03710897 -0.13741276 0.13124329 0.17817883 -0.08493081 -0.103608005
-0.1296238 0.12281702 0.16459125 -0.13841313 0.1591626 0.14320274 0.18906009 0.04495112
-0.12682082 0.042259056 -0.04535834 0.17435229 0.072601415 0.020134507 0.12806664 -0.04907516
-0.050734047 -0.14359441 0.062048808 -0.027872656 -0.09714162 0.0119238505 -0.15095997 -0.100023635
-0.12971371 0.062125873 0.058765925 -0.09626382 0.009434071 0.055311956 -0.06268085 0.08748145
-0.044945862 0.12182049 -0.04601413 -0.1262679 0.1280252 -0.098925315 0.12869458 0.17147481
-0.11033194 0.19881736 -0.11710237 -0.1923399 0.15201414 -0.18920122 -0.092909984 -0.08050915
00000000: 3cc8 fb3d adb0 3ebd 3844 2ebe 237f 303e
00000010: 31c4 5a3d 0afe abbd e14c 4f3e ca78 d33d
00000020: 63b6 083d 3b1a 6d3d 7191 f0bd 077a 273e
00000030: 7fb4 bbbd 0184 c53c 3e80 213e 5ea7 003e
00000040: cdda 823d 59d4 1b3e 58f7 1d3c 2690 05be
00000050: e381 103e 1609 2d3e 779d 3d3d e710 b23d
00000060: 242d 59bd 6172 473e d5fa 3cbe d3e5 2bbe
00000070: 18c6 d5bc 55d3 a93d 8867 0c3d b707 aabd
00000080: be7a 4dbd 271d 1d3e ce7d ff3d 144b 323c
00000090: 8f62 8c3d 5f6c 44be 72f5 ed3d b75e 11be
000000a0: 9b62 df3a 0ffb 393e 73e8 35be e3fa d93d
000000b0: 888c 02be 11a0 0fbc 8a66 fdbd eff9 d7bc
000000c0: 6b4c 24bd 4ae7 a3bd 9da2 08bd a29a 1a3e
000000d0: cace bb3c 6efb ce3d 6540 b43d 9e9f e73c
000000e0: 53ef 2abe 003c 3b3e d9b6 913d 41eb 043e
000000f0: d0c0 133e f280 d53d 145c e63d d4c6 f23d
00000100: a8f0 d8bd 57a2 e03d aeef c0bd 8ce1 a8bc
00000110: bdf5 a53d 6be6 bfbd 4237 7abd 4561 6b3d
00000120: 1169 823d 69d2 03be 8522 3c3e 80b3 30be
00000130: 6ff9 163e 06b2 24bd 5921 cdbd a99a 133e
00000140: 8350 e0bd c215 243e ca05 d3bd 9cb4 f33c
00000150: aa59 e8bd 70cb 2d3e 8a95 833c 9fa1 abbc
00000160: 38b8 ce3d 5ca8 3d3c 6115 403e c505 263e
00000170: 99b8 a2bd b903 07be b06a 223e 17b0 063e
00000180: b69e e73d ab5a b7bd d506 a6bd db4d ca3d
00000190: 5d30 ee3d 3a48 543d 9b62 683d da49 b33d
000001a0: d3d9 f73d fe72 48be efd9 623c 5b1e 0bbb
000001b0: 71c9 66bd dea4 103e 4b13 35bd 1b99 29be
000001c0: b0bd 8cbd 6523 913d 637b cbbd 8b49 583d
000001d0: d425 d6bd a25b f43d 559e c63d fee6 d63d
000001e0: c273 e6bb e525 253e 486b 2a3e a368 533d
000001f0: 44eb a93b 4141 453c bf10 f43d dc3c 13be
00000200: 20ad 083e b871 063e 0522 9d3d 73ac 1f3e
00000210: 4d53 023d 39a2 0dbe 23e9 5abd 5243 e53d
00000220: 0bb3 073e 503e 5a3d 2106 50be c836 bb3d
00000230: 5506 75bc 8dd2 5c3d 6013 34bd 03a6 bdbc
00000240: 3760 4fbe 3fff 143e ce0d 09bd 25ed 473d
00000250: 40cf df3c 35da 393e 0a60 653d 060d 72bd
00000260: 4b20 a33d aaca 9dbd e527 7a3d 431f 2bbe
00000270: e323 c43d 28e1 26be fcde 83bd f0dd b53d
00000280: 282e 80bd 6871 833c 51c4 093d a525 4fbe
00000290: 034c 00bd 7723 25be 0b24 043e 792b 86bd
000002a0: f69e 9c3d 19f5 f43d 0d9a 80bd 31d2 ebbd
000002b0: 3134 373e 2ece 313e ecf6 1dbe ca8f 4a3e
000002c0: 6fca 373e b7d7 99bd 1a85 173e 8aad 6b3d
000002d0: 6ca9 dc3d 60c1 0c3d f3af 90bd c934 3f3e
000002e0: aa2c b2bc c578 2bbe 7fc3 ca3d 67d8 0e3e
000002f0: 0765 fbbc c1f5 313c db69 b9bd 03ac 3b3d
00000300: 45ae bbbd b837 953d 1d76 cc3d 8d83 703d
00000310: 4406 13be a54e 12be 55b3 6abd 56fa 23bc
00000320: 5153 333c afac 463e 93ff 173d eeb5 0cbe
00000330: a464 063e 8374 363e 34f0 adbd 6f30 d4bd
00000340: 1abc 04be 7d87 fb3d 9c8a 283e 2cbc 0dbe
00000350: 85fb 223e bda3 123e f898 413e aa1e 383d
00000360: 51dd 01be d517 2d3d abc9 39bd 6889 323e
00000370: 0db0 943d 1ff1 a43c e723 033e 0903 49bd
00000380: 81ce 4fbd 6a0a 13be e426 7e3d 3255 e4bc
00000390: 30f2 c6bd 415c 433c 4095 1abe 31d9 ccbd
000003a0: acd3 04be b377 7e3d 8ab4 703d f725 c5bd
000003b0: 5d91 1a3c ca8e 623d d15e 80bd 7929 b33d
000003c0: 2719 38bd 057d f93d 5079 3cbd 5f4c 01be
000003d0: 0a19 033e 5b99 cabd 83c8 033e 1897 2f3e
000003e0: b6f5 e1bd c796 4b3e 5ed3 efbd c0f4 44be
000003f0: 98a9 1b3e f7bd 41be 9747 bebd fbe1 a4bd

transformer_encoder.layers.0.self_attn.in_proj_bias f4 [108]
0.0 0.0 0.0 0.0 0.0 0.0 0.0 0.0
0.0 0.0 0.0 0.0 0.0 0.0 0.0 0.0
0.0 0.0 0.0 0.0 0.0 0.0 0.0 0.0
0.0 0.0 0.0 0.0 0.0 0.0 0.0 0.0
0.0 0.0 0.0 0.0 0.0 0.0 0.0 0.0
0.0 0.0 0.0 0.0 0.0 0.0 0.0 0.0
0.0 0.0 0.0 0.0 0.0 0.0 0.0 0.0
0.0 0.0 0.0 0.0 0.0 0.0 0.0 0.0
0.0 0.0 0.0 0.0 0.0 0.0 0.0 0.0
9.999999e-05 1e-04 -9.999999e-05 -0.000100000005 -1e-04 -9.999999e-05 1e-04 -9.999999e-05
1e-04 -9.999999e-05 -1e-04 -1e-04 -1e-04 -0.000100000005 -1e-04 -0.000100000005
1e-04 1e-04 1e-04 9.999999e-05 1e-04 9.999999e-05 1e-04 1e-04
1e-04 -0.000100000005 -0.000100000005 9.999999e-05 1e-04 1e-04 -1e-04 -1e-04
0.000100000005 -1e-04 -1e-04 -0.000100000005
00000000: 0000 0000 0000 0000 0000 0000 0000 0000
00000010: 0000 0000 0000 0000 0000 0000 0000 0000
00000020: 0000 0000 0000 0000 0000 0000 0000 0000
00000030: 0000 0000 0000 0000 0000 0000 0000 0000
00000040: 0000 0000 0000 0000 0000 0000 0000 0000
00000050: 0000 0000 0000 0000 0000 0000 0000 0000
00000060: 0000 0000 0000 0000 0000 0000 0000 0000
00000070: 0000 0000 0000 0000 0000 0000 0000 0000
00000080: 0000 0000 0000 0000 0000 0000 0000 0000
00000090: 0000 0000 0000 0000 0000 0000 0000 0000
000000a0: 0000 0000 0000 0000 0000 0000 0000 0000
000000b0: 0000 0000 0000 0000 0000 0000 0000 0000
000000c0: 0000 0000 0000 0000 0000 0000 0000 0000
000000d0: 0000 0000 0000 0000 0000 0000 0000 0000
000000e0: 0000 0000 0000 0000 0000 0000 0000 0000
000000f0: 0000 0000 0000 0000 0000 0000 0000 0000
00000100: 0000 0000 0000 0000 0000 0000 0000 0000
00000110: 0000 0000 0000 0000 0000 0000 0000 0000
00000120: 16b7 d138 17b7 d138 16b7 d1b8 18b7 d1b8
00000130: 17b7 d1b8 16b7 d1b8 17b7 d138 16b7 d1b8
00000140: 17b7 d138 16b7 d1b8 17b7 d1b8 17b7 d1b8
00000150: 17b7 d1b8 18b7 d1b8 17b7 d1b8 18b7 d1b8
00000160: 17b7 d138 17b7 d138 17b7 d138 16b7 d138
00000170: 17b7 d138 16b7 d138 17b7 d138 17b7 d138
00000180: 17b7 d138 18b7 d1b8 18b7 d1b8 16b7 d138
00000190: 17b7 d138 17b7 d138 17b7 d1b8 17b7 d1b8
000001a0: 18b7 d138 17b7 d1b8 17b7 d1b8 18b7 d1b8

transformer_encoder.layers.0.self_attn.out_proj.weight f4 [36, 36]
-0.14540488 -0.071797706 -0.0031685797 -0.046170093 -0.0003105435 0.06314799 -0.08332185 0.0989434
-0.1426392 -0.014599201 -0.056626067 -0.14544834 0.09718684 -0.08291359 0.115818635 -0.1108293
-0.02228822 -0.10660125 -0.063000455 -0.0117089525 -0.120707825 0.016977249 0.053893514 0.09378737
-0.03209705 -0.041206237 -0.041546173 -0.12199504 -0.09299166 -0.10226098 0.15582304 -0.07243562
0.09715379 0.104795374 -0.15878834 0.03166108 -0.105694234 -0.14704399 0.016448004 -0.0027050145
0.020327983 -0.16603453 0.16366534 -0.09182955 0.10034071 -0.02645409 0.072457984 0.031876154
0.11663864 0.094103724 -0.16442272 0.15225355 0.05415369 -0.09070158 0.04392843 0.05670844
-0.07479608 -0.058190253 0.06272218 0.0933244 -0.13990362 -0.10092068 -0.11922155 0.16439706
0.014337179 0.103323855 0.08113718 0.0827877 -0.0535231 0.034938987 0.15464899 -0.08440582
-0.16194539 -0.076492 0.043964818 0.034194466 -0.047569647 -0.10376611 0.04883864 -0.049983725
0.0723716 0.14805205 -0.12289955 0.005240934 0.06505063 -0.13187511 0.055904157 -0.08560945
0.038085975 -0.08621505 0.016269721 -0.14300273 -0.12354192 -0.021546261 0.13973363 0.090281576
0.058472082 -0.09555591 -0.074288264 -0.01561109 0.03560321 0.03566661 -0.033629373 0.008075036
-0.13728403 0.044173267 0.07778078 -0.1597902 -0.15506876 0.023167932 0.008289222 -0.017637966
0.11650101 -0.10288426 0.10702793 -0.06262928 -0.16253121 -0.040192463 0.024246054 0.11764056
0.0744908 0.06675404 0.00075385644 0.13551539 -0.048314974 -0.063447 0.16212885 0.043757107
0.036695965 -0.10081801 -0.07674211 -0.10198347 0.062946156 0.035732254 -0.034073934 0.07954925
0.120092526 -0.01473451 -0.04135355 -0.026235418 0.065370396 0.13340373 -0.025101103 0.029115144
0.06560588 0.012863037 0.09622079 -0.050915346 -0.104877986 -0.115209326 0.057024755 0.08596057
0.008362787 -0.031269494 -0.11214095 0.033007517 -0.14787479 -0.13977809 -0.053872403 -0.032052793
0.15252846 -0.15059216 -0.14419225 0.0942044 0.11257692 0.078861624 -0.122974664 -0.047103956
0.15678625 -0.10517896 0.14974721 -0.04756969 -0.05938184 -0.109805204 0.10563849 -0.15321974
0.096398234 0.13607748 -0.16248718 -0.022360984 -0.013124966 -0.16497973 0.0317648 -0.0006539457
-0.07469326 0.0059228707 0.14255048 0.08223623 -0.01799689 0.017248886 0.09300783 0.034782127
-0.16518663 0.021777011 0.12845919 -0.012800114 0.025451897 0.060643073 0.16272902 0.12843657
0.1128386 -0.13145332 -0.0013946726 -0.08483396 0.062052414 -0.056091018 0.13164698 0.1597509
-0.0005265839 -0.13760735 -0.051409718 -0.10294567 -0.093641646 0.0123035945 0.14005183 -0.06742959
0.120732196 0.03761437 0.12301708 0.052720137 -0.14150813 -0.021975772 -0.054933544 -0.122605816
0.03829281 0.06275265 0.05566857 0.13899782 -0.08231607 0.0036699607 -0.07076308 -0.061285444
0.031947818 -0.023466585 0.075546 -0.1577425 0.12152025 -0.08970357 -0.0058538485 -0.099312015
0.01031629 0.09310002 0.11213529 -0.12886472 -0.14610802 -0.09372595 -0.11363066 0.007102811
0.15099002 0.11283238 -0.07685516 0.16233714 -0.10974796 0.11907483 -0.055822805 0.08727543
00000000: 04e5 14be ad0a 93bd f2a7 4fbb da1c 3dbd
00000010: 71d0 a2b9 bc53 813d a5a4 aabd d6a2 ca3d
00000020: 0310 12be 7d31 6fbc bcf0 67bd 69f0 14be
00000030: e509 c73d 9ace a9bd 5232 ed3d 79fa e2bd
00000040: c995 b6bc c251 dabd 6206 81bd e8d6 3fbc
00000050: aa35 f7bd df13 8b3c 72bf 5c3d 9813 c03d
00000060: 3278 03bd dfc7 28bd 522c 2abd 89d8 f9bd
00000070: 6972 bebd 346e d1bd 1390 1f3e 2059 94bd
00000080: 91f8 c63d f59e d63d 6999 22be 0caf 013d
00000090: 3876 d8bd b392 16be f7bd 863c 9d46 31bb
000000a0: df86 a63c f504 2abe e397 273e 2211 bcbd
000000b0: 6e7f cd3d 3fb6 d8bc da64 943d 9290 023d
000000c0: 3de0 ee3d 74b9 c03d 6e5e 28be 5be8 1b3e
000000d0: 42d0 5d3d c0c1 b9bd 4cee 333d 1c47 683d
000000e0: b02e 99bd e758 6ebd 7c74 803d dd20 bf3d
000000f0: e542 0fbe 80af cebd 6e2a f4bd b457 283e
00000100: 7de6 6a3c 759b d33d 402b a63d 998c a93d
00000110: 0a3b 5bbd 2f1c 0f3d 4e5c 1e3e f5dc acbd
00000120: 03d5 25be d6a7 9cbd 7414 343d 7f0f 0c3d
00000130: 64d8 42bd 5483 d4bd 070b 483d bcbb 4cbd
00000140: 9037 943d f59a 173e c2b2 fbbd 24bc ab3b
00000150: 4439 853d 450a 07be c2fb 643d 0254 afbd
00000160: 0a00 1c3d 8491 b0bd 1448 853c 4f6f 12be
00000170: 8c03 fdbd c981 b0bc 5516 0f3e 8ce5 b83d
00000180: 6c80 6f3d d1b2 c3bd 7224 98bd a8c5 7fbc
00000190: acd4 113d 2717 123d f4be 09bd 284d 043c
000001a0: 2f94 0cbe 07ef 343d 884b 9f3d 0ba0 23be
000001b0: 58ca 1ebe adca bd3c 84cf 073c 7f7d 90bc
000001c0: 1598 ee3d fcb4 d2bd 7631 db3d c843 80bd
000001d0: 956e 26be daa0 24bd a99f c63c 89ed f03d
000001e0: a28e 983d 58b6 883d 739e 453a 8cc4 0a3e
000001f0: ece5 45bd 80f0 81bd 1b05 263e a73a 333d
00000200: 824e 163d ac79 cebd f82a 9dbd b6dc d0bd
00000210: eae9 803d fc5b 123d 1c91 0bbd b8ea a23d
00000220: 12f3 f53d 0469 71bc 5762 29bd a9eb d6bc
00000230: eae0 853d fd9a 083e d4a0 cdbc e282 ee3c
00000240: 605c 863d 7dbf 523c 680f c53d 9c8c 50bd
00000250: 45ca d6bd def2 ebbd ca92 693d 180c b03d
00000260: 1204 093c 7114 00bd 28aa e5bd e432 073d
00000270: 7d6c 17be fd21 0fbe 4fa9 5cbd ca49 03bd
00000280: 6c30 1c3e d534 1abe 22a7 13be 3dee c03d
00000290: ba8e e63d 3482 a13d 24da fbbd 14f0 40bd
000002a0: 938c 203e 1168 d7bd 5557 193e 6fd8 42bd
000002b0: 5f3a 73bd 8de1 e0bd fe58 d83d a3e5 1cbe
000002c0: 706c c53d e557 0b3e 0a63 26be 622e b7bc
000002d0: 190a 57bc 72f0 28be cf1b 023d 8e6d 2bba
000002e0: c8f8 98bd a414 c23b c1f8 113e 786b a83d
000002f0: 376e 93bc 894d 8d3c e47a be3d b477 0e3d
00000300: af26 29be b465 b23c ce8a 033e 92b7 51bc
00000310: 7f80 d03c df64 783d 70a2 263e e084 033e
00000320: ed17 e73d b39b 06be 72cd b6ba 6dbd adbd
00000330: ac2a 7e3d b2bf 65bd 77ce 063e bd95 233e
00000340: 730a 0aba f1e8 0cbe ff92 52bd 2ed5 d2bd
00000350: 31c7 bfbd 0495 493c bf69 0f3e 8618 8abd
00000360: 7142 f73d 8711 1a3d 61f0 fb3d 12f1 573d
00000370: 82e7 10be 8906 b4bc ff01 61bd c218 fbbd
00000380: ecd8 1c3d 7684 803d ba04 643d 7255 0e3e
00000390: 5495 a8bd b983 703b 3cec 90bd 7206 7bbd
000003a0: b7db 023d ff3c c0bc dcb7 9a3d 4087 21be
000003b0: 9cdf f83d 81b6 b7bd a4d1 bfbb 1964 cbbd
000003c0: a805 293c 39ab be3d 30a7 e53d 1df5 03be
000003d0: 579d 15be 64f3 bfbd 31b7 e8bd b2be e83b
000003e0: 219d 1a3e aa14 e73d 3d66 9dbd b53b 263e
000003f0: 8ac3 e0bd 81dd f33d 74a6 64bd 76bd b23d

transformer_encoder.layers.0.self_attn.out_proj.bias f4 [36]
-0.000100000005 -0.000100000005 1e-04 -0.000100000005 9.999999e-05 1e-04 -1e-04 -1e-04
1e-04 -1e-04 -1e-04 -1e-04 -0.000100000005 1e-04 0.000100000005 -1e-04
9.999999e-05 9.999999e-05 9.999999e-05 -9.999999e-05 1e-04 1e-04 -9.999999e-05 -1e-04
0.000100000005 -9.999999e-05 1e-04 -1e-04 -9.999999e-05 9.999999e-05 1e-04 0.000100000005
-1e-04 1e-04 -0.000100000005 9.999999e-05
00000000: 18b7 d1b8 18b7 d1b8 17b7 d138 18b7 d1b8
00000010: 16b7 d138 17b7 d138 17b7 d1b8 17b7 d1b8
00000020: 17b7 d138 17b7 d1b8 17b7 d1b8 17b7 d1b8
00000030: 18b7 d1b8 17b7 d138 18b7 d138 17b7 d1b8
00000040: 16b7 d138 16b7 d138 16b7 d138 16b7 d1b8
00000050: 17b7 d138 17b7 d138 16b7 d1b8 17b7 d1b8
00000060: 18b7 d138 16b7 d1b8 17b7 d138 17b7 d1b8
00000070: 16b7 d1b8 16b7 d138 17b7 d138 18b7 d138
00000080: 17b7 d1b8 17b7 d138 18b7 d1b8 16b7 d138

transformer_encoder.layers.0.linear1.weight f4 [128, 36]
-0.07007505 0.105212815 -0.020613873 -0.12857644 5.4693934e-05 -0.16636887 -0.050543215 0.09572092
-0.027602041 -0.053348556 0.04891292 0.028331462 -0.08362554 0.15251723 -0.13932475 -0.12599194
-0.09871207 0.031556692 0.048417367 0.02303555 -0.0006828341 0.026150448 -0.005117261 0.030334814
0.013424632 0.08971924 -0.11004105 0.08218579 0.0649969 0.15870371 0.041824277 0.11267484
-0.0819921 -0.005328791 -0.16162077 0.038093254 0.14519568 0.0064922543 -0.13030457 0.13238691
-0.15571772 -0.050708737 -0.1461352 -0.15505998 -0.05445935 0.093612924 -0.11011799 0.10894717
0.12991957 0.038643654 -0.12585925 0.11213378 0.09787123 -0.07273625 -0.044652857 0.09291899
-1.9636936e-06 -0.03609821 -0.12345941 -0.0013842416 -0.11601682 -0.11456165 0.10461101 0.10722238
0.13403703 -0.014627838 0.09325889 0.09083636 -0.11411239 0.16072012 -0.16027232 -0.13811724
-0.14259015 -0.060353763 0.11806334 -0.11376791 -0.13125391 -0.040953204 -0.13304777 -0.043472435
-0.04274511 0.124964535 0.033208653 -0.16037616 0.10078214 -0.13434389 -0.095799245 0.13025461
-0.08281058 0.0058696438 0.14925566 0.019262908 0.05949734 -0.087640315 -0.019909142 0.06838834
-0.12504031 -0.064766675 -0.15809058 -0.052196965 0.037636027 0.11529682 -0.0061641107 0.0772503
-0.084929705 0.0799405 -0.07302181 -0.041476555 0.110936075 0.04159517 0.020175414 -0.0380816
-0.07712875 -0.097580686 -0.077941984 0.124340445 -0.041623898 -0.07290055 -0.055076327 0.13536395
0.10710905 0.022709612 -0.03303916 0.03546731 -0.068514176 -0.13335721 -0.009983682 -0.03631953
0.10059464 -0.014417209 0.041751362 -0.12700836 0.03060436 0.07909009 -0.0894417 -0.040481582
-0.002931201 0.10320221 0.03840448 0.008676771 -0.1573055 -0.12632905 -0.04136102 -0.036665376
0.12110922 -0.11623112 0.045881703 0.11550022 -0.072682664 0.09914771 -0.14302757 0.100657195
0.14829493 0.14786628 0.08845766 0.02406414 0.0043348838 0.023207987 -0.15539989 0.031328525
0.052929893 -0.09457691 0.026065527 -0.14377944 0.027199902 0.028110588 -0.06622706 -0.052242734
0.0725979 -0.1106541 0.020522036 0.12220038 -0.02551919 -0.11686486 0.09993718 -0.1390927
0.08417469 0.093945 0.04609793 0.00207951 0.042051222 0.11282445 0.14782597 0.021712128
-0.04728169 0.08993672 0.08108598 -0.14071177 -0.02226224 -0.052296754 0.11349676 0.02338386
0.09020747 -0.15085588 -0.068129346 -0.03471394 -0.010148787 0.1392278 -0.026886288 -0.06173064
0.09580554 0.013991756 0.006904023 0.11717698 -0.14421938 -0.09893367 -0.104835436 -0.11037556
0.08933709 0.10263614 -0.15712936 -0.13865314 0.09892626 -0.04710774 0.08521471 0.089282066
0.13140506 -0.15904495 -0.13547386 -0.15960766 -0.12509376 0.15211736 0.16650577 -0.14836414
-0.10788355 -0.09650154 0.122884735 0.07546512 -0.044995643 0.028349198 -0.00066357525 0.14323612
0.10344229 0.021489857 -0.0067685614 0.052205577 -0.055212036 -0.0015432867 -0.033255424 -0.11045671
0.0971704 -0.11167542 0.056617208 0.13294536 -0.11410917 0.111250974 -0.08566816 -0.106115445
-0.0051778923 0.014417791 -0.15426347 -0.1594399 -0.037939742 -0.06747468 0.15199184 0.07295059
00000000: 8283 8fbd d179 d73d 6dde a8bc 8ba9 03be
00000010: 2a67 6538 9a5c 2abe 6706 4fbd 5409 c43d
00000020: ad1d e2bc 0484 5abd ea58 483d 6217 e83c
00000030: de43 abbd 7a2d 1c3e 26ab 0ebe 0804 01be
00000040: 8e29 cabd 9741 013d 4a51 463d 0db5 bc3c
00000050: 3900 33ba 7739 d63c b2ae a7bb b780 f83c
00000060: fdf2 5b3c b9be b73d 345d e1bd 0651 a83d
00000070: 181d 853d 3a83 223e ef4f 2b3d 11c2 e63d
00000080: 79eb a7bd 249d aebb ea7f 25be ac07 1c3d
00000090: 2dae 143e fabc d43b 906e 05be 6f90 073e
000000a0: 7774 1fbe f7b3 4fbd 77a4 15be 0bc8 1ebe
000000b0: c410 5fbd 22b8 bf3d 8a85 e1bd b21f df3d
000000c0: a309 053e cf48 1e3d 3fe1 00be 65a6 e53d
000000d0: b670 c83d bef6 94bd eae5 36bd 504c be3d
000000e0: 00c8 03b6 b7db 13bd 4ad8 fcbd 716f b5ba
000000f0: 3a9a edbd 4c9f eabd 4c3e d63d 6897 db3d
00000100: 0141 093e 99a9 6fbc 84fe be3d 6a08 ba3d
00000110: c2b3 e9bd d193 243e 6d1e 24be 9b6e 0dbe
00000120: 2703 12be 8235 77bd 31cb f13d 26ff e8bd
00000130: 6d67 06be 8cbe 27bd ad3d 08be 2710 32bd
00000140: 7f15 2fbd 68ed ff3d cc05 083d a639 24be
00000150: de66 ce3d 7291 09be 6532 c4bd 7761 053e
00000160: 9898 a9bd 2456 c03b 7ad6 183e 3fcd 9d3c
00000170: 7cb3 733d c47c b3bd 7f18 a3bc 300f 8c3d
00000180: 910a 00be 64a4 84bd 7fe2 21be 7ccc 55bd
00000190: 3c28 1a3d bd20 ec3d 4ffc c9bb 6835 9e3d
000001a0: a0ef adbd d8b7 a33d 758c 95bd 52e3 29bd
000001b0: 7432 e33d b25f 2a3d e946 a53c 74fb 1bbd
000001c0: aef5 9dbd 62d8 c7bd 0ca0 9fbd 34a6 fe3d
000001d0: d27d 2abd e24c 95bd b797 61bd d99c 0a3e
000001e0: fd5b db3d 8209 ba3c 1254 07bd 2c46 113d
000001f0: 2951 8cbd cb8e 08be 9992 23bc cac3 14bd
00000200: 9004 ce3d 2836 6cbc 7a03 2b3d 7b0e 02be
00000210: ffb5 fa3c fcf9 a13d 362d b7bd 04d0 25bd
00000220: 6419 40bb ae5b d33d 044e 1d3d 0429 0e3c
00000230: b114 21be 675c 01be 2c6a 29bd 6f2e 16bd
00000240: 1c08 f83d 950a eebd 74ee 3b3d 618b ec3d
00000250: a6da 94bd f40d cb3d d275 12be 5c25 ce3d
00000260: a0da 173e 426a 173e 4a29 b53d 2922 c53c
00000270: a40b 8e3b ad1e be3c 2621 1fbe 5752 003d
00000280: 04cd 583d 8ab1 c1bd 5f87 d53c eb3a 13be
00000290: 54d2 de3c 2d48 e63c 0ea2 87bd 7afc 55bd
000002a0: 35ae 943d 9e9e e2bd d41d a83c 3144 fa3d
000002b0: 9f0d d1bc d856 efbd ddab cc3d 516e 0ebe
000002c0: c863 ac3d 3c66 c03d 2fd1 3c3d 6348 083b
000002d0: e73d 2c3d 8110 e73d b15f 173e a2dd b13c
000002e0: 72aa 41bd be30 b83d 6810 a63d bf16 10be
000002f0: 4d5f b6bc 1f35 56bd fd70 e83d 828f bf3c
00000300: b2be b83d f779 1abe 6687 8bbd 3430 0ebd
00000310: 1947 26bc bb91 0e3e a240 dcbc 44d9 7cbd
00000320: b235 c43d ae3d 653c 243b e23b 7cfa ef3d
00000330: 3fae 13be bc9d cabd f6b3 d6bd 950c e2bd
00000340: 5df6 b63d e632 d23d 85e6 20be 17fb 0dbe
00000350: da99 ca3d 0cf4 40bd 0d85 ae3d 84d9 b63d
00000360: 0c8f 063e aedc 22be a9b9 0abe 3170 23be
00000370: 9418 00be a7c4 1b3e 7d80 2a3e c5ec 17be
00000380: 0df2 dcbd 99a2 c5bd feaa fb3d 758d 9a3d
00000390: 5a4d 38bd 943c e83c c8f3 2dba 7dac 123e
000003a0: 8dd9 d33d 7f0b b03c cfca ddbb 84d5 553d
000003b0: 0426 62bd 1c48 caba d736 08bd 2137 e2bd
000003c0: 4601 c73d 15b6 e4bd 72e7 673d d422 083e
000003d0: 12b2 e9bd 8dd7 e33d ca72 afbd 0e53 d9bd
000003e0: 4fab a9bb 9938 6c3c 3ef7 1dbe 3744 23be
000003f0: b466 1bbd 2a30 8abd c0a3 1b3e 1e67 953d

transformer_encoder.layers.0.linear1.bias f4 [128]
0.16518195 0.10340835 -0.079007596 0.16481857 0.14773048 0.04520854 0.10280384 0.03309495
0.058806434 -0.119601056 -0.08806044 -0.023858128 -0.130324 0.036249854 -0.108927526 -0.14373717
0.050762393 0.1616856 -0.09164686 0.14029936 0.087120935 0.16629376 0.101839185 0.05267436
-0.06319317 -0.023377163 0.12698089 0.00996341 -0.08690302 0.114660025 0.15010965 -0.036497846
0.020475306 0.03229272 -0.0077737602 0.010381219 0.13200341 0.03710513 -0.07692907 0.12429656
-0.15864329 0.007877566 0.06554414 -0.14973514 -0.14061661 0.010850188 -0.045777347 0.14467748
0.040475056 -0.12356712 -0.016934458 -0.107258454 -0.08035923 0.08867821 0.12776046 -0.13753189
-0.07233696 -0.082127795 -0.083194286 -0.14934486 -0.082169846 -0.15142316 -0.04605837 -0.07940115
0.07798444 0.022331096 0.11460627 -0.008387901 0.008310301 0.07538082 0.011727231 0.06468272
-0.080936566 0.008248326 -0.05708997 0.07546057 -0.064381585 0.11656291 -0.11231921 -0.14019461
-0.08003057 -0.14367656 0.10864151 0.006043795 -0.08064504 -0.10756442 -0.009177112 -0.13539656
-0.019384647 0.05190989 0.010250943 0.045182206 -0.12801336 -0.13106422 -0.13669015 0.16469353
0.017045004 0.12591529 0.1549213 -0.060832903 0.008087261 -0.0633523 0.15248187 0.12125472
-0.0029350156 0.014649374 -0.16029668 0.055611487 -0.1046474 0.027934866 -0.14166173 0.10388006
0.018991673 -0.07358445 -0.15469904 -0.16043977 -0.10613505 0.022868697 0.0408542 0.030032182
0.03129888 0.014361683 0.118223704 0.11533199 -0.1186834 0.11962003 -0.12980248 -0.031183401
00000000: 7525 293e c2c7 d33d bcce a1bd 33c6 283e
00000010: a946 173e 972c 393d d28a d23d 928e 073d
00000020: 04df 703d 66f1 f4bd 0859 b4bd 1f72 c3bc
00000030: a873 05be ba7a 143d 6515 dfbd d62f 13be
00000040: 3aec 4f3d e990 253e 59b1 bbbd a3aa 0f3e
00000050: 766c b23d e948 2a3e 1091 d03d 12c1 573d
00000060: 6c6b 81bd 7781 bfbc 4707 023e 923d 233c
00000070: 36fa b1bd e0d2 ea3d 58b6 193e c47e 15bd
00000080: d4bb a73c 5f45 043d 07bb febb fd15 2a3c
00000090: e72b 073e 8cfb 173d fd8c 9dbd 328f fe3d
000000a0: 6373 22be e810 013c 023c 863d 2b54 19be
000000b0: cdfd 0fbe fdc4 313c 0781 3bbd 5526 143e
000000c0: 2cc9 253d c210 fdbd 22ba 8abc 52aa dbbd
000000d0: 6193 a4bd ec9c b53d a3d3 023e 29d5 0cbe
000000e0: 6625 94bd 9e32 a8bd c461 aabd dced 18be
000000f0: aa48 a8bd ac0e 1bbe b4a7 3cbd 129d a2bd
00000100: 4eb6 9f3d b4ef b63c b1b6 ea3d 686d 09bc
00000110: ee27 083c 4261 9a3d 9223 403c 6078 843d
00000120: 12c2 a5bd fd23 073c 2cd7 69bd 128b 9a3d
00000130: 7eda 83bd 89b8 ee3d 9d07 e6bd 2d8f 0fbe
00000140: 11e7 a3bd f31f 13be 717f de3d 070b c63b
00000150: 3a29 a5bd bc4a dcbd 995b 16bc 65a5 0abe
00000160: 8dcc 9ebc 779f 543d 92f3 273c fa10 393d
00000170: ef15 03be b335 06be 81f8 0bbe 6ca5 283e
00000180: f7a1 8b3c f0ef 003e b0a3 1e3e ec2b 79bd
00000190: 6e80 043c dabe 81bd 3524 1c3e 6554 f83d
000001a0: 6459 40bb ee03 703c d024 24be dfc8 633d
000001b0: 6051 d6bd a9d7 e43c c60f 11be 12bf d43d
000001c0: 6d94 9b3c 72b3 96bd 6d69 1ebe 534a 24be
000001d0: 555d d9bd 2257 bb3c bc56 273d 0d06 f63c
000001e0: 4133 003d 444d 6b3c 451f f23d 2e33 ec3d
000001f0: 4810 f3bd 59fb f43d f1ea 04be 5574 ffbc

transformer_encoder.layers.0.linear2.weight f4 [36, 128]
-0.015588766 -0.06482344 -0.077633016 -0.01769279 -0.036410406 -0.03279997 0.073974065 -0.041879054
0.038625587 -0.048710648 -0.052620705 -0.008447699 0.01950468 -0.024170412 -0.016521825 -0.030452516
0.00582433 0.07829063 0.051566817 -0.08064087 -0.05960236 -0.03605295 -0.08663471 -0.041685496
0.08614502 -0.036276832 0.033578742 -0.053258378 0.050492063 0.03238367 -0.037067182 -0.018639797
0.0050493544 0.075940296 -0.009225541 0.08737576 -0.026257735 0.07819178 -0.017072294 -0.06474382
-0.022255734 -0.081855014 0.0759975 0.012763914 0.054427546 -0.014700954 -0.04830587 -0.014152064
0.041057777 0.044895235 -0.052635215 -0.06117778 -0.06962271 -0.012048336 -0.017368691 0.044936042
-0.012179181 0.049340557 0.056680452 -0.06776919 -0.07378112 -0.05611158 -0.02179393 0.031636752
-0.05092557 0.014198982 0.006432667 0.05231212 0.016294712 -0.010759728 0.0815849 0.01617821
0.07593033 -0.020286327 0.0067636142 0.025693113 0.062476933 -0.014195212 -0.004245585 0.021418076
0.07229566 0.07706897 -0.041773297 -0.030928228 0.05453522 -0.052980766 -0.0042197066 0.00809772
0.070478834 -0.013589256 0.01892455 0.009617535 -0.058146328 -0.018185865 0.083080955 0.05919581
0.064539805 -0.07295272 -0.060418777 0.0031858208 -0.045716885 0.069023356 -0.076754056 0.08738415
0.06760245 0.07743331 0.0023662965 -0.06928511 0.074807115 -0.03365689 0.07744031 -0.006209006
0.025484137 -0.067001425 0.027352728 0.046972215 -0.04964989 -0.0550547 0.0034626625 -0.0535957
0.06996801 0.07734971 -0.027018422 -0.07644962 0.02963161 -0.06479935 0.059061255 -0.01637706
0.083486594 0.0698949 -0.00901096 0.073517464 -0.07094995 -0.0061115944 -0.057932705 0.07197567
-0.06059685 0.034491908 -0.01271394 0.087475784 0.021019565 0.06570173 -0.061503734 -0.014768083
-0.05635438 -0.036288854 -0.041066937 -0.005358978 -0.058308803 0.075310834 -0.017976332 0.052365944
-0.035881378 -0.051386245 -0.07825954 -0.010389404 -0.05890513 0.019647116 0.054835223 -0.03223237
-0.032351717 -0.06095219 0.00079454575 0.08134943 -0.057822313 0.023548964 -0.06761598 0.049455967
0.011609944 0.085066356 -0.035365522 -0.05270737 0.006140273 -0.003930284 -0.07185473 0.06348242
-0.073752336 -0.07435206 0.015944324 -0.0806127 0.06496245 -0.07830391 0.044323146 0.021991935
0.079153195 -0.052923184 0.028869584 -0.009238511 -0.020726824 0.058706578 -0.08615546 -0.039301977
0.06003687 0.06880627 -0.071284816 0.044499267 0.08659054 0.03623157 0.0055196714 -0.020313216
-0.0041862107 0.05081376 0.054961093 -0.08420718 -0.05055024 -0.07722491 -0.074393675 0.08231597
-0.07598301 -0.079236336 0.0029379763 0.08560143 -0.053874426 0.066516176 0.008601986 0.04538554
-0.004813366 -0.08496841 -0.07331149 0.08177483 0.068873495 -0.028553631 -0.008891295 -0.049549624
0.025691932 -0.060048014 0.051301863 -0.042933863 -0.038628247 -0.041805804 -0.036350317 -0.07479277
-0.026605446 0.0623366 -0.0580204 0.07987673 0.024694232 -0.037720617 0.083350524 -0.05340288
-0.016721474 0.0006073716 -0.02515101 0.07939398 0.02921112 0.03081447 -0.05751224 0.070410945
0.05602251 0.055428397 -0.086823724 -0.049210455 -0.027776033 0.04701435 -0.087835476 0.040429786
00000000: 0668 7fbc 27c2 84bd 0ffe 9ebd 78f0 90bc
00000010: 1423 15bd 4359 06bd b77f 973d 5f89 2bbd
00000020: dd35 1e3d d184 47bd cf88 57bd 3868 0abc
00000030: 47c8 9f3c 0701 c6bc c758 87bc 8e77 f9bc
00000040: 05da be3b d656 a03d ba37 533d 0a27 a5bd
00000050: 9b21 74bd 42ac 13bd 8a6d b1bd 69be 2abd
00000060: cd6c b03d 0497 14bd dd89 093d 7525 5abd
00000070: c4d0 4e3d bda4 043d c2d3 17bd 7db2 98bc
00000080: 0e75 a53b 9686 9b3d b926 17bc 10f2 b23d
00000090: 761a d7bc 0323 a03d 32db 8bbc 6898 84bd
000000a0: a851 b6bc 9aa3 a7bd 94a4 9b3d bc1f 513c
000000b0: 6bef 5e3d 45dc 70bc 60dc 45bd 0fde 67bc
000000c0: 332c 283d 11e4 373d 0698 57bd 8d95 7abd
000000d0: 5a96 8ebd 6266 45bc c948 8ebc db0e 383d
000000e0: 308b 47bc 5319 4a3d c329 683d 93ca 8abd
000000f0: 8e1a 97bd 42d5 65bd 2f89 b2bc 8a95 013d
00000100: 5597 50bd d9a2 683c 1fc9 d23b 3c45 563d
00000110: 7d7c 853c 9249 30bc fc15 a73d 2a88 843c
00000120: 5c81 9b3d 832f a6bc 4fa1 dd3b 5d7a d23c
00000130: d0e7 7f3d 0993 68bc 8c1e 8bbb f674 af3c
00000140: bf0f 943d 56d6 9d3d 7a1a 2bbd 325d fdbc
00000150: 5360 5f3d 5c02 59bd 7745 8abb 4dac 043c
00000160: 3557 903d 79a5 5ebc a807 9b3c de92 1d3c
00000170: d82a 6ebd 86fa 94bc 5926 aa3d 4e77 723d
00000180: 722d 843d 3c68 95bd ae79 77bd 34c9 503b
00000190: a141 3bbd 1e5c 8d3d 3b31 9dbd 76f6 b23d
000001a0: 2773 8a3d 5b95 9e3d de13 1b3b 5ae5 8dbd
000001b0: 7934 993d cfdb 09bd 0699 9e3d eb74 cbbb
000001c0: 1cc4 d03c 0b38 89bd d412 e03c f065 403d
000001d0: af5d 4bbd 0981 61bd d6ed 623b 2a87 5bbd
000001e0: 634b 8f3d 8669 9e3d bd55 ddbc 9e91 9cbd
000001f0: fdbd f23c 86b5 84bd 37ea 713d 2f29 86bc
00000200: 05fb aa3d 0f25 8f3d b5a2 13bc 5390 963d
00000210: 354e 91bd c543 c8bb d84a 6dbd fb67 933d
00000220: 6734 78bd 6347 0d3d 214e 50bc 8126 b33d
00000230: 3931 ac3c a18e 863d 57eb 7bbd d4f5 71bc
00000240: dad3 66bd 9fa3 14bd ce35 28bd 5e9a afbb
00000250: 36d5 6ebd 913c 9a3d 1a43 93bc ac7d 563d
00000260: 5af8 12bd 627a 52bd 8a46 a0bd 5238 2abc
00000270: 8146 71bd fdf2 a03c e69a 603d 1706 04bd
00000280: 3c83 04bd 01a9 79bd 1049 503a 889a a63d
00000290: 17d7 6cbd c2e9 c03c 3f7a 8abd 5792 4a3d
000002a0: a237 3e3c 4537 ae3d 70db 10bd afe3 57bd
000002b0: 5834 c93b 9dc9 80bb 9328 93bd 1203 823d
000002c0: 770b 97bd e545 98bd ac9d 823c 4518 a5bd
000002d0: 080b 853d cd5d a0bd 308c 353d 6e28 b43c
000002e0: 121b a23d fbc5 58bd e87f ec3c 205d 17bc
000002f0: 4dcb a9bc 4f76 703d 4672 b0bd 1cfb 20bd
00000300: 39e9 753d 4dea 8c3d c6fd 91bd dd44 363d
00000310: 6256 b13d 8e67 143d 5cde b43b e767 a6bc
00000320: 7b2c 89bb 1722 503d e21e 613d d074 acbd
00000330: c50d 4fbd 1828 9ebd b65b 98bd 4695 a83d
00000340: fb9c 9bbd a946 a2bd 108b 403b cd4f af3d
00000350: 6eab 5cbd a239 883d 58ef 0c3c 30e6 393d
00000360: 71b9 9dbb eb03 aebd 5624 96bd 9079 a73d
00000370: 8c0d 8d3d 4ee9 e9bc cbac 11bc 8cf4 4abd
00000380: e377 d23c e8f4 75bd e721 523d 6bdb 2fbd
00000390: a738 1ebd 903c 2bbd 12e4 14bd f42c 99bd
000003a0: aaf3 d9bc aa54 7f3d cda6 6dbd 6996 a33d
000003b0: 8f4b ca3c ef80 1abd aeb3 aa3d fabc 5abd
000003c0: 79fb 88bc 0538 1f3a 7e09 cebc 5099 a23d
000003d0: 294c ef3c a16e fc3c f491 6bbd 9d33 903d
000003e0: dc77 653d e308 633d a3d0 b1bd e790 49bd
000003f0: 908a e3bc 1e92 403d 16e3 b3bd b499 253d

transformer_encoder.layers.0.linear2.bias f4 [36]
-0.023122357 0.067725964 -0.028243208 -0.008520044 -0.065294616 0.018131569 0.04010841 0.0016252813
0.018374817 -0.019585846 0.031005755 0.032721907 0.024400068 0.053435784 0.047750417 0.025169058
-0.042118438 -0.02030193 0.06366206 -0.08519388 -0.063410714 0.011796351 0.008942395 -0.055881534
0.044718236 0.06664106 0.0691239 0.038108464 0.013188933 -0.03676553 0.06885018 0.06563122
0.014779102 0.032271396 0.019574728 -0.082017325
00000000: 196b bdbc e9b3 8a3d 4d5e e7bc a897 0bbc
00000010: 2fb9 85bd a888 943c b748 243d 6407 d53a
00000020: c986 963c 7f72 a0bc c8ff fd3c 6807 063d
00000030: a7e2 c73c 7bdf 5a3d f195 433d 572f ce3c
00000040: 6284 2cbd 3c50 a6bc 4161 823d 217a aebd
00000050: 7add 81bd 7b45 413c 2083 123c 09e4 64bd
00000060: 782a 373d 1c7b 883d d590 8d3d 9f17 1c3d
00000070: 6516 583c 7497 16bd 5301 8d3d a969 863d
00000080: 0c24 723c 032f 043d 2e5b a03c b3f8 a7bd

transformer_encoder.layers.0.norm1.weight f4 [36]
0.9999 0.9999 0.9999 0.9999 0.9999 1.0001 1.0001 1.0001
0.9999 0.9999 1.0001 0.9999 1.0001 1.0001 0.9999 1.0001
1.0001 1.0001 0.9999 0.9999 0.9999 1.0001 1.0001 0.9999
0.9999 1.0001 0.9999 0.9999 1.0001 1.0001 0.9999 1.0001
1.0001 1.0001 1.0001 1.0001
00000000: 72f9 7f3f 72f9 7f3f 72f9 7f3f 72f9 7f3f
00000010: 72f9 7f3f 4703 803f 4703 803f 4703 803f
00000020: 72f9 7f3f 72f9 7f3f 4703 803f 72f9 7f3f
00000030: 4703 803f 4703 803f 72f9 7f3f 4703 803f
00000040: 4703 803f 4703 803f 72f9 7f3f 72f9 7f3f
00000050: 72f9 7f3f 4703 803f 4703 803f 72f9 7f3f
00000060: 72f9 7f3f 4703 803f 72f9 7f3f 72f9 7f3f
00000070: 4703 803f 4703 803f 72f9 7f3f 4703 803f
00000080: 4703 803f 4703 803f 4703 803f 4703 803f

transformer_encoder.layers.0.norm1.bias f4 [36]
-1e-04 -0.000100000005 1e-04 -1e-04 9.999999e-05 0.000100000005 -0.000100000005 -0.000100000005
1e-04 -0.000100000005 -1e-04 -1e-04 -0.000100000005 9.999999e-05 0.000100000005 -9.999999e-05
0.000100000005 1e-04 0.000100000005 -9.999999e-05 1e-04 1e-04 -1e-04 -1e-04
1e-04 -9.999999e-05 1e-04 -1e-04 -9.999999e-05 9.999999e-05 9.999999e-05 0.000100000005
-0.000100000005 1e-04 -1e-04 1e-04
00000000: 17b7 d1b8 18b7 d1b8 17b7 d138 17b7 d1b8
00000010: 16b7 d138 18b7 d138 18b7 d1b8 18b7 d1b8
00000020: 17b7 d138 18b7 d1b8 17b7 d1b8 17b7 d1b8
00000030: 18b7 d1b8 16b7 d138 18b7 d138 16b7 d1b8
00000040: 18b7 d138 17b7 d138 18b7 d138 16b7 d1b8
00000050: 17b7 d138 17b7 d138 17b7 d1b8 17b7 d1b8
00000060: 17b7 d138 16b7 d1b8 17b7 d138 17b7 d1b8
00000070: 16b7 d1b8 16b7 d138 16b7 d138 18b7 d138
00000080: 18b7 d1b8 17b7 d138 17b7 d1b8 17b7 d138

transformer_encoder.layers.0.norm2.weight f4 [36]
1.0001 0.9999 1.0001 0.9999 0.9999 1.0001 1.0001 0.9999
1.0001 0.9999 1.0001 0.9999 1.0001 1.0001 0.9999 1.0001
1.0001 1.0001 0.9999 1.0001 0.9999 1.0001 1.0001 0.9999
1.0001 1.0001 0.9999 0.9999 1.0001 1.0001 0.9999 0.9999
1.0001 1.0001 1.0001 1.0001
00000000: 4703 803f 72f9 7f3f 4703 803f 72f9 7f3f
00000010: 72f9 7f3f 4703 803f 4703 803f 72f9 7f3f
00000020: 4703 803f 72f9 7f3f 4703 803f 72f9 7f3f
00000030: 4703 803f 4703 803f 72f9 7f3f 4703 803f
00000040: 4703 803f 4703 803f 72f9 7f3f 4703 803f
00000050: 72f9 7f3f 4703 803f 4703 803f 72f9 7f3f
00000060: 4703 803f 4703 803f 72f9 7f3f 72f9 7f3f
00000070: 4703 803f 4703 803f 72f9 7f3f 72f9 7f3f
00000080: 4703 803f 4703 803f 4703 803f 4703 803f

transformer_encoder.layers.0.norm2.bias f4 [36]
-9.999999e-05 -1e-04 1e-04 -1e-04 1e-04 0.000100000005 -1e-04 -1e-04
-1e-04 -0.000100000005 -1e-04 -1e-04 -1e-04 1e-04 1e-04 -1e-04
-9.999999e-05 1e-04 1e-04 -1e-04 0.000100000005 1e-04 -9.999999e-05 -0.000100000005
0.000100000005 -0.000100000005 0.000100000005 -0.000100000005 -1e-04 0.000100000005 9.999999e-05 -9.999999e-05
-1e-04 0.000100000005 -1e-04 1e-04
00000000: 16b7 d1b8 17b7 d1b8 17b7 d138 17b7 d1b8
00000010: 17b7 d138 18b7 d138 17b7 d1b8 17b7 d1b8
00000020: 17b7 d1b8 18b7 d1b8 17b7 d1b8 17b7 d1b8
00000030: 17b7 d1b8 17b7 d138 17b7 d138 17b7 d1b8
00000040: 16b7 d1b8 17b7 d138 17b7 d138 17b7 d1b8
00000050: 18b7 d138 17b7 d138 16b7 d1b8 18b7 d1b8
00000060: 18b7 d138 18b7 d1b8 18b7 d138 18b7 d1b8
00000070: 17b7 d1b8 18b7 d138 16b7 d138 16b7 d1b8
00000080: 17b7 d1b8 18b7 d138 17b7 d1b8 17b7 d138

transformer_encoder.layers.1.self_attn.in_proj_weight f4 [108, 36]
0.12294051 -0.04655521 -0.17018211 0.17235999 0.05340976 -0.083980635 0.2024417 0.10325773
0.033377063 0.057886343 -0.11746491 0.16355143 -0.09165286 0.024110796 0.15771577 0.12563846
0.06389389 0.15217723 0.009641491 -0.1304327 0.14112048 0.16897997 0.04629275 0.0869463
-0.053021565 0.19477226 -0.1845506 -0.1678689 -0.026095435 0.082922615 0.034278423 -0.08302253
-0.050165884 0.15343152 0.12475167 0.010882158 0.06854736 -0.19181965 0.116190806 -0.14196287
0.0017042937 0.18162178 -0.17764454 0.10643556 -0.12748921 -0.00876619 -0.123730734 -0.026364295
-0.04011194 -0.08003099 -0.033358205 0.1509805 0.022925753 0.1010655 0.08801345 0.028274354
-0.16692857 0.18284607 0.071149535 0.12980367 0.14429021 0.10424985 0.11248031 0.1185433
-0.105927765 0.10968464 -0.09420715 -0.020615362 0.081035115 -0.093701206 -0.061087854 0.05746581
0.06367696 -0.12873234 0.18372543 -0.17255974 0.14743589 -0.04020884 -0.10016126 0.14414467
-0.109528564 0.16023925 -0.103038386 0.029749207 -0.11345227 0.16972136 0.016062517 -0.02095109
0.10093731 0.0115757845 0.18758155 0.16213138 -0.079453655 -0.13185014 0.1586101 0.1315311
0.113095686 -0.089528404 -0.08106772 0.09878131 0.11630318 0.051826693 0.056734663 0.087543204
0.121020935 -0.19575116 0.013845905 -0.002122781 -0.056344453 0.14125392 -0.044207852 -0.16562311
-0.068721175 0.07086829 -0.099356435 0.05280451 -0.10456434 0.1193154 0.09698168 0.10493277
-0.0070328424 0.16127737 0.16642487 0.05161346 0.0051855166 0.0120394835 0.119172566 -0.14378685
0.13347292 0.13129318 0.07672504 0.15593128 0.031817723 -0.13831414 -0.053444993 0.11194481
0.13251893 0.053282082 -0.20314838 0.09141308 -0.014955123 0.053911734 -0.04396379 -0.02315045
-0.20251547 0.14550494 -0.03346043 0.048810143 0.027320504 0.18149646 0.055999793 -0.05909445
0.07965144 -0.07704671 0.061073203 -0.16711144 0.09577157 -0.16296828 -0.06439015 0.08880222
-0.062588036 0.016045287 0.033634488 -0.20229204 -0.03132249 -0.1612681 0.12904374 -0.065512605
0.07647507 0.11960811 -0.06279383 -0.115147 0.17891003 0.17363808 -0.15426224 0.19781414
0.17948316 -0.075118475 0.14796868 0.057538547 0.10774502 0.034364104 -0.0706481 0.1867248
-0.021749813 -0.16745289 0.09900569 0.13949738 -0.030687822 0.010861815 -0.090533935 0.04581834
-0.09164099 0.07286018 0.09983466 0.058719207 -0.14357859 -0.14287813 -0.05729993 -0.010008415
0.010945157 0.19401811 0.03710897 -0.13741276 0.13124329 0.17817883 -0.08493081 -0.103608005
-0.1296238 0.12281702 0.16459125 -0.13841313 0.1591626 0.14320274 0.18906009 0.04495112
-0.12682082 0.042259056 -0.04535834 0.17435229 0.072601415 0.020134507 0.12806664 -0.04907516
-0.050734047 -0.14359441 0.062048808 -0.027872656 -0.09714162 0.0119238505 -0.15095997 -0.100023635
-0.12971371 0.062125873 0.058765925 -0.09626382 0.009434071 0.055311956 -0.06268085 0.08748145
-0.044945862 0.12182049 -0.04601413 -0.1262679 0.1280252 -0.098925315 0.12869458 0.17147481
-0.11033194 0.19881736 -0.11710237 -0.1923399 0.15201414 -0.18920122 -0.092909984 -0.08050915
00000000: 3cc8 fb3d adb0 3ebd 3844 2ebe 237f 303e
00000010: 31c4 5a3d 0afe abbd e14c 4f3e ca78 d33d
00000020: 63b6 083d 3b1a 6d3d 7191 f0bd 077a 273e
00000030: 7fb4 bbbd 0184 c53c 3e80 213e 5ea7 003e
00000040: cdda 823d 59d4 1b3e 58f7 1d3c 2690 05be
00000050: e381 103e 1609 2d3e 779d 3d3d e710 b23d
00000060: 242d 59bd 6172 473e d5fa 3cbe d3e5 2bbe
00000070: 18c6 d5bc 55d3 a93d 8867 0c3d b707 aabd
00000080: be7a 4dbd 271d 1d3e ce7d ff3d 144b 323c
00000090: 8f62 8c3d 5f6c 44be 72f5 ed3d b75e 11be
000000a0: 9b62 df3a 0ffb 393e 73e8 35be e3fa d93d
000000b0: 888c 02be 11a0 0fbc 8a66 fdbd eff9 d7bc
000000c0: 6b4c 24bd 4ae7 a3bd 9da2 08bd a29a 1a3e
000000d0: cace bb3c 6efb ce3d 6540 b43d 9e9f e73c
000000e0: 53ef 2abe 003c 3b3e d9b6 913d 41eb 043e
000000f0: d0c0 133e f280 d53d 145c e63d d4c6 f23d
00000100: a8f0 d8bd 57a2 e03d aeef c0bd 8ce1 a8bc
00000110: bdf5 a53d 6be6 bfbd 4237 7abd 4561 6b3d
00000120: 1169 823d 69d2 03be 8522 3c3e 80b3 30be
00000130: 6ff9 163e 06b2 24bd 5921 cdbd a99a 133e
00000140: 8350 e0bd c215 243e ca05 d3bd 9cb4 f33c
00000150: aa59 e8bd 70cb 2d3e 8a95 833c 9fa1 abbc
00000160: 38b8 ce3d 5ca8 3d3c 6115 403e c505 263e
00000170: 99b8 a2bd b903 07be b06a 223e 17b0 063e
00000180: b69e e73d ab5a b7bd d506 a6bd db4d ca3d
00000190: 5d30 ee3d 3a48 543d 9b62 683d da49 b33d
000001a0: d3d9 f73d fe72 48be efd9 623c 5b1e 0bbb
000001b0: 71c9 66bd dea4 103e 4b13 35bd 1b99 29be
000001c0: b0bd 8cbd 6523 913d 637b cbbd 8b49 583d
000001d0: d425 d6bd a25b f43d 559e c63d fee6 d63d
000001e0: c273 e6bb e525 253e 486b 2a3e a368 533d
000001f0: 44eb a93b 4141 453c bf10 f43d dc3c 13be
00000200: 20ad 083e b871 063e 0522 9d3d 73ac 1f3e
00000210: 4d53 023d 39a2 0dbe 23e9 5abd 5243 e53d
00000220: 0bb3 073e 503e 5a3d 2106 50be c836 bb3d
00000230: 5506 75bc 8dd2 5c3d 6013 34bd 03a6 bdbc
00000240: 3760 4fbe 3fff 143e ce0d 09bd 25ed 473d
00000250: 40cf df3c 35da 393e 0a60 653d 060d 72bd
00000260: 4b20 a33d aaca 9dbd e527 7a3d 431f 2bbe
00000270: e323 c43d 28e1 26be fcde 83bd f0dd b53d
00000280: 282e 80bd 6871 833c 51c4 093d a525 4fbe
00000290: 034c 00bd 7723 25be 0b24 043e 792b 86bd
000002a0: f69e 9c3d 19f5 f43d 0d9a 80bd 31d2 ebbd
000002b0: 3134 373e 2ece 313e ecf6 1dbe ca8f 4a3e
000002c0: 6fca 373e b7d7 99bd 1a85 173e 8aad 6b3d
000002d0: 6ca9 dc3d 60c1 0c3d f3af 90bd c934 3f3e
000002e0: aa2c b2bc c578 2bbe 7fc3 ca3d 67d8 0e3e
000002f0: 0765 fbbc c1f5 313c db69 b9bd 03ac 3b3d
00000300: 45ae bbbd b837 953d 1d76 cc3d 8d83 703d
00000310: 4406 13be a54e 12be 55b3 6abd 56fa 23bc
00000320: 5153 333c afac 463e 93ff 173d eeb5 0cbe
00000330: a464 063e 8374 363e 34f0 adbd 6f30 d4bd
00000340: 1abc 04be 7d87 fb3d 9c8a 283e 2cbc 0dbe
00000350: 85fb 223e bda3 123e f898 413e aa1e 383d
00000360: 51dd 01be d517 2d3d abc9 39bd 6889 323e
00000370: 0db0 943d 1ff1 a43c e723 033e 0903 49bd
00000380: 81ce 4fbd 6a0a 13be e426 7e3d 3255 e4bc
00000390: 30f2 c6bd 415c 433c 4095 1abe 31d9 ccbd
000003a0: acd3 04be b377 7e3d 8ab4 703d f725 c5bd
000003b0: 5d91 1a3c ca8e 623d d15e 80bd 7929 b33d
000003c0: 2719 38bd 057d f93d 5079 3cbd 5f4c 01be
000003d0: 0a19 033e 5b99 cabd 83c8 033e 1897 2f3e
000003e0: b6f5 e1bd c796 4b3e 5ed3 efbd c0f4 44be
000003f0: 98a9 1b3e f7bd 41be 9747 bebd fbe1 a4bd

transformer_encoder.layers.1.self_attn.in_proj_bias f4 [108]
0.0 0.0 0.0 0.0 0.0 0.0 0.0 0.0
0.0 0.0 0.0 0.0 0.0 0.0 0.0 0.0
0.0 0.0 0.0 0.0 0.0 0.0 0.0 0.0
0.0 0.0 0.0 0.0 0.0 0.0 0.0 0.0
0.0 0.0 0.0 0.0 0.0 0.0 0.0 0.0
0.0 0.0 0.0 0.0 0.0 0.0 0.0 0.0
0.0 0.0 0.0 0.0 0.0 0.0 0.0 0.0
0.0 0.0 0.0 0.0 0.0 0.0 0.0 0.0
0.0 0.0 0.0 0.0 0.0 0.0 0.0 0.0
0.000100000005 9.999999e-05 -1e-04 -9.999999e-05 -1e-04 -1e-04 9.999999e-05 -9.999999e-05
0.000100000005 -1e-04 -1e-04 -1e-04 -9.999999e-05 -1e-04 -1e-04 -1e-04
1e-04 1e-04 -1e-04 1e-04 1e-04 1e-04 9.999999e-05 -9.999999e-05
1e-04 -1e-04 -1e-04 1e-04 1e-04 1e-04 -9.999999e-05 0.000100000005
1e-04 -1e-04 -1e-04 -0.000100000005
00000000: 0000 0000 0000 0000 0000 0000 0000 0000
00000010: 0000 0000 0000 0000 0000 0000 0000 0000
00000020: 0000 0000 0000 0000 0000 0000 0000 0000
00000030: 0000 0000 0000 0000 0000 0000 0000 0000
00000040: 0000 0000 0000 0000 0000 0000 0000 0000
00000050: 0000 0000 0000 0000 0000 0000 0000 0000
00000060: 0000 0000 0000 0000 0000 0000 0000 0000
00000070: 0000 0000 0000 0000 0000 0000 0000 0000
00000080: 0000 0000 0000 0000 0000 0000 0000 0000
00000090: 0000 0000 0000 0000 0000 0000 0000 0000
000000a0: 0000 0000 0000 0000 0000 0000 0000 0000
000000b0: 0000 0000 0000 0000 0000 0000 0000 0000
000000c0: 0000 0000 0000 0000 0000 0000 0000 0000
000000d0: 0000 0000 0000 0000 0000 0000 0000 0000
000000e0: 0000 0000 0000 0000 0000 0000 0000 0000
000000f0: 0000 0000 0000 0000 0000 0000 0000 0000
00000100: 0000 0000 0000 0000 0000 0000 0000 0000
00000110: 0000 0000 0000 0000 0000 0000 0000 0000
00000120: 18b7 d138 16b7 d138 17b7 d1b8 16b7 d1b8
00000130: 17b7 d1b8 17b7 d1b8 16b7 d138 16b7 d1b8
00000140: 18b7 d138 17b7 d1b8 17b7 d1b8 17b7 d1b8
00000150: 16b7 d1b8 17b7 d1b8 17b7 d1b8 17b7 d1b8
00000160: 17b7 d138 17b7 d138 17b7 d1b8 17b7 d138
00000170: 17b7 d138 17b7 d138 16b7 d138 16b7 d1b8
00000180: 17b7 d138 17b7 d1b8 17b7 d1b8 17b7 d138
00000190: 17b7 d138 17b7 d138 16b7 d1b8 18b7 d138
000001a0: 17b7 d138 17b7 d1b8 17b7 d1b8 18b7 d1b8

transformer_encoder.layers.1.self_attn.out_proj.weight f4 [36, 36]
-0.14540488 -0.07199771 -0.0031685797 -0.046170093 -0.0003105435 0.06314799 -0.08352185 0.0989434
-0.14283921 -0.014599201 -0.056626067 -0.14544834 0.09718684 -0.08291359 0.115818635 -0.1106293
-0.02248822 -0.10660125 -0.063000455 -0.011908952 -0.12090783 0.016977249 0.053893514 0.09378737
-0.03209705 -0.041206237 -0.041546173 -0.121795036 -0.09299166 -0.10206097 0.15582304 -0.07243562
0.09695379 0.104795374 -0.15878834 0.031461075 -0.105694234 -0.14724399 0.016448004 -0.0027050145
0.020327983 -0.16603453 0.16346534 -0.09182955 0.100140706 -0.02645409 0.072457984 0.031876154
0.11663864 0.094103724 -0.16442272 0.15245356 0.053953685 -0.09070158 0.04392843 0.056508437
-0.074996084 -0.058190253 0.06272218 0.0933244 -0.13990362 -0.10092068 -0.11922155 0.16459706
0.014337179 0.10352386 0.08113718 0.0827877 -0.053723104 0.034938987 0.15464899 -0.08460582
-0.16194539 -0.07629199 0.043964818 0.034194466 -0.047569647 -0.10376611 0.04883864 -0.049983725
0.072571605 0.14805205 -0.12289955 0.005240934 0.06505063 -0.13187511 0.055904157 -0.085809454
0.03828598 -0.08621505 0.01646972 -0.14280273 -0.12354192 -0.021546261 0.13973363 0.090281576
0.058472082 -0.09555591 -0.074288264 -0.01581109 0.03560321 0.035466608 -0.033629373 0.008075036
-0.13708402 0.044173267 0.07778078 -0.1595902 -0.15506876 0.022967933 0.008289222 -0.017637966
0.11650101 -0.10268426 0.10682793 -0.06262928 -0.16273122 -0.040192463 0.024246054 0.11764056
0.0744908 0.06695405 0.00075385644 0.1357154 -0.048314974 -0.063447 0.16212885 0.043557104
0.03649596 -0.10081801 -0.07674211 -0.10178347 0.062946156 0.035732254 -0.034073934 0.07954925
0.120092526 -0.014534511 -0.04135355 -0.026235418 0.065370396 0.13340373 -0.025101103 0.028915145
0.06560588 0.013063037 0.09622079 -0.050915346 -0.104877986 -0.115209326 0.057224758 0.08596057
0.0085627865 -0.031269494 -0.11214095 0.033007517 -0.14787479 -0.13977809 -0.053872403 -0.032252796
0.15272847 -0.15059216 -0.14419225 0.09440441 0.11277692 0.078861624 -0.122974664 -0.047103956
0.15678625 -0.10517896 0.14974721 -0.04776969 -0.05938184 -0.109805204 0.10563849 -0.15321974
0.09659824 0.13607748 -0.16248718 -0.022160985 -0.013124966 -0.16497973 0.0317648 -0.0006539457
-0.07469326 0.0059228707 0.14275049 0.08223623 -0.01779689 0.017248886 0.09300783 0.034782127
-0.16518663 0.021777011 0.12845919 -0.013000114 0.025651896 0.060643073 0.16272902 0.12863657
0.11303861 -0.13145332 -0.0013946724 -0.08503396 0.062052414 -0.056091018 0.13164698 0.15955089
-0.0005265839 -0.13780735 -0.051409718 -0.10294567 -0.09344164 0.0123035945 0.14005183 -0.067229584
0.120732196 0.03741437 0.12301708 0.052720137 -0.14150813 -0.021975772 -0.055133548 -0.122605816
0.038092807 0.06275265 0.05566857 0.13899782 -0.08231607 0.0036699607 -0.07076308 -0.06108544
0.031747814 -0.023466585 0.075546 -0.1579425 0.12132025 -0.08970357 -0.0058538485 -0.099312015
0.01031629 0.09310002 0.11213529 -0.12866472 -0.14610802 -0.09372595 -0.11363066 0.007102811
0.15079002 0.11283238 -0.07685516 0.16213714 -0.10974796 0.118874826 -0.055822805 0.08727543
00000000: 04e5 14be 8973 93bd f2a7 4fbb da1c 3dbd
00000010: 71d0 a2b9 bc53 813d 810d abbd d6a2 ca3d
00000020: 7144 12be 7d31 6fbc bcf0 67bd 69f0 14be
00000030: e509 c73d 9ace a9bd 5232 ed3d 9d91 e2bd
00000040: 3739 b8bc c251 dabd 6206 81bd c41d 43bc
00000050: 869e f7bd df13 8b3c 72bf 5c3d 9813 c03d
00000060: 3278 03bd dfc7 28bd 522c 2abd ad6f f9bd
00000070: 6972 bebd 5805 d1bd 1390 1f3e 2059 94bd
00000080: b58f c63d f59e d63d 6999 22be 54dd 003d
00000090: 3876 d8bd 21c7 16be f7bd 863c 9d46 31bb
000000a0: df86 a63c f504 2abe 7563 273e 2211 bcbd
000000b0: 9216 cd3d 3fb6 d8bc da64 943d 9290 023d
000000c0: 3de0 ee3d 74b9 c03d 6e5e 28be c91c 1c3e
000000d0: 8afe 5c3d c0c1 b9bd 4cee 333d 6475 673d
000000e0: 8c97 99bd e758 6ebd 7c74 803d dd20 bf3d
000000f0: e542 0fbe 80af cebd 6e2a f4bd 228c 283e
00000100: 7de6 6a3c 5104 d43d 402b a63d 998c a93d
00000110: c20c 5cbd 2f1c 0f3d 4e5c 1e3e d145 adbd
00000120: 03d5 25be fa3e 9cbd 7414 343d 7f0f 0c3d
00000130: 64d8 42bd 5483 d4bd 070b 483d bcbb 4cbd
00000140: 6ca0 943d f59a 173e c2b2 fbbd 24bc ab3b
00000150: 4439 853d 450a 07be c2fb 643d debc afbd
00000160: c2d1 1c3d 8491 b0bd 82eb 863c e13a 12be
00000170: 8c03 fdbd c981 b0bc 5516 0f3e 8ce5 b83d
00000180: 6c80 6f3d d1b2 c3bd 7224 98bd 4286 81bc
00000190: acd4 113d 6f45 113d f4be 09bd 284d 043c
000001a0: c15f 0cbe 07ef 343d 884b 9f3d 9d6b 23be
000001b0: 58ca 1ebe 3f27 bc3c 84cf 073c 7f7d 90bc
000001c0: 1598 ee3d 204c d2bd 9ac8 da3d c843 80bd
000001d0: 03a3 26be daa0 24bd a99f c63c 89ed f03d
000001e0: a28e 983d 341f 893d 739e 453a faf8 0a3e
000001f0: ece5 45bd 80f0 81bd 1b05 263e ef68 323d
00000200: ca7c 153d ac79 cebd f82a 9dbd da73 d0bd
00000210: eae9 803d fc5b 123d 1c91 0bbd b8ea a23d
00000220: 12f3 f53d 2822 6ebc 5762 29bd a9eb d6bc
00000230: eae0 853d fd9a 083e d4a0 cdbc 74df ec3c
00000240: 605c 863d 5906 563c 680f c53d 9c8c 50bd
00000250: 45ca d6bd def2 ebbd 8264 6a3d 180c b03d
00000260: ee4a 0c3c 7114 00bd 28aa e5bd e432 073d
00000270: 7d6c 17be fd21 0fbe 4fa9 5cbd 821b 04bd
00000280: da64 1c3e d534 1abe 22a7 13be 1957 c13d
00000290: 96f7 e63d 3482 a13d 24da fbbd 14f0 40bd
000002a0: 938c 203e 1168 d7bd 5557 193e 27aa 43bd
000002b0: 5f3a 73bd 8de1 e0bd fe58 d83d a3e5 1cbe
000002c0: 4cd5 c53d e557 0b3e 0a63 26be f48a b5bc
000002d0: 190a 57bc 72f0 28be cf1b 023d 8e6d 2bba
000002e0: c8f8 98bd a414 c23b 2f2d 123e 786b a83d
000002f0: c9ca 91bc 894d 8d3c e47a be3d b477 0e3d
00000300: af26 29be b465 b23c ce8a 033e 6efe 54bc
00000310: ed23 d23c df64 783d 70a2 263e 4eb9 033e
00000320: c980 e73d b39b 06be 71cd b6ba 4926 aebd
00000330: ac2a 7e3d b2bf 65bd 77ce 063e 4f61 233e
00000340: 730a 0aba 5f1d 0dbe ff92 52bd 2ed5 d2bd
00000350: 555e bfbd 0495 493c bf69 0f3e aaaf 89bd
00000360: 7142 f73d cf3f 193d 61f0 fb3d 12f1 573d
00000370: 82e7 10be 8906 b4bc b7d3 61bd c218 fbbd
00000380: 3407 1c3d 7684 803d ba04 643d 7255 0e3e
00000390: 5495 a8bd b983 703b 3cec 90bd ba34 7abd
000003a0: ff09 023d ff3c c0bc dcb7 9a3d aebb 21be
000003b0: c076 f83d 81b6 b7bd a4d1 bfbb 1964 cbbd
000003c0: a805 293c 39ab be3d 30a7 e53d afc0 03be
000003d0: 579d 15be 64f3 bfbd 31b7 e8bd b2be e83b
000003e0: b368 1a3e aa14 e73d 3d66 9dbd 4707 263e
000003f0: 8ac3 e0bd a574 f33d 74a6 64bd 76bd b23d
