pipeline/Ankle_Controllers/real_141_best.pth (torch, 854921 bytes, 27 tensors)

transformer_encoder.layers.0.self_attn.in_proj_weight f4 [108, 36]
00000000: 82b6 41bd dadf a3bc e399 a83d 9d72 03be
00000010: 85a2 44be f9f0 173e 37c8 00be 4d7d 393e
00000020: 3077 50be e81d 363d 1275 45be a886 8ebd
00000030: 0a48 383e 331f 203e fe3e f8bd 3dc0 113d
00000040: 2c8f 2cbd 1c3b 3f3e 347a 0e3e 08b2 eabd
00000050: 6c15 3bbd 5d7c b2bd 94b4 33be 8199 ac3d
00000060: 2eed e03d f8e9 d03d 68a4 863d d29b 25bd
00000070: b515 173e 1d13 4abe d4bf 763d 366b 38bd
00000080: b1a1 fb3d fdd7 22be eab7 09bc ea3a f2bd
00000090: 1926 11bd 1e2c adbd b5f8 b8bd 4e89 50bd
000000a0: 2e6e 3e3e 574d 633d 82f5 77bc 5a9f 6a3d
000000b0: 14c2 29be 87a1 b2bb 3255 12bd 34f5 933d
000000c0: f295 acbd 1dff a1bd b78f 433e ce4f d5bc
000000d0: 1508 2f3d cfb2 35be 5717 1dbe d221 e43d
000000e0: 76d5 1ebe 9f2a 20bd c664 193e c609 18be
000000f0: 7e78 9dbd 9ead 13be cb96 f73b d49e cb3d
00000100: 9f5d be3d 965e d23d b0a8 293e dd46 073d
00000110: be6f cebd 7e22 5c3d 1ae7 09be 0f69 273e
00000120: 7153 35be 420a fa3d 561a 133e 9241 143e
00000130: 1c03 ca3c 15d3 43bd fc0f 89bd 1171 b4bd
00000140: 51e1 7a3c 7e7a 1e3c 2706 1c3e 0935 ed3d
00000150: e294 053e 36e7 0c3e bb96 4abe ee6e f1bd
00000160: 468c e83d dc08 95bd 97d2 d7bd 4ae6 09be
00000170: db31 c9bd f092 b43d ff03 3e3e 0589 26be
00000180: fa17 de3c eed7 e3bd be47 f93c 9c8b 323e
00000190: f4e6 a53d cf83 33be ae28 4c3e a92c 343d
000001a0: b2f5 bdbd 3e8d 96bd c014 debd a439 0b3e
000001b0: aea6 e9bd 81ec ffbb 7a74 4cbe cc4e d9bd
000001c0: 0b95 063e 943e 413e 5612 433d 620a 39be
000001d0: db2f c43d 33ee 4bbe 43ea 283e 15ba aabd
000001e0: d1c6 763d cb7a 0ebd b760 cebd c32d 803d
000001f0: 1657 4a3e f8a8 323e 7650 c5bd f47a 2d3e
00000200: dbdb 01be 9302 b739 e9e0 30be 7729 483e
00000210: 39f6 433e ff1e 4bbb bf6e 3c3e 4dcb 14bd
00000220: 9111 033e 9c59 24be a461 e73d 964f 913d
00000230: 7136 e3bd 6d7e 6ebd e495 2e3e deb7 ecbd
00000240: e133 4e3e 2d85 183c bfba 4e3e 11cd 3abe
00000250: ee27 fbbd 7412 3cbe 8041 13be f0b7 4f3e
00000260: 0297 1b3e 6dfd d03d 89d2 38be 2401 3bbe
00000270: 8fdb 1e3e b8ce 3cbe fce0 a93d 098a 943d
00000280: f8fb 913c e83e 0a3e 5bb0 2cbe 27e0 02be
00000290: 3126 2d3e 4974 203d 005f 35bd 84fd 50be
000002a0: d01b 00bb 8f7d 6f3d 0f66 9dbd 5c47 ddbc
000002b0: a6d5 d8bd 0b65 083e de5e 5b3d 8678 8d39
000002c0: 383c 75bc 06d4 213e 25ca a93c f4ae 66bd
000002d0: 3559 12be 8511 83bd a97a a13d 54f9 e7bd
000002e0: f4c6 21be b1a8 cf3d fb35 fe3d f8ce cebd
000002f0: e0f7 03be 82ee 0bbe d7d1 20be 8fc1 01bd
00000300: 0a78 b1bd a7c0 20be 3673 aa3d 3c69 f3bc
00000310: e86d 17bd f336 7bbc 8f5c 39be d7ca 4e3e
00000320: b915 fc3d f393 dcbd 7031 84bd bf8f 03bd
00000330: 2a76 1a3e 2f70 c2bd 3d31 023d 7ac0 4b3e
00000340: 5551 12be 6979 cb3d 7f3a 023e 8729 4fbe
00000350: 1367 c3bb 43a0 c0bc fc5e 673d fe7a 18bd
00000360: 191f 48be cdf1 e33d 09c6 4ebd 0b46 b1bd
00000370: 6c43 73bc 298d 383e 6a09 133e eda7 33bd
00000380: e022 ddbd 4b97 573c ea96 4abe 356a 1b3e
00000390: 54d2 63bd a388 2abe 2951 94bd b26f 0b3e
000003a0: 5dde dd3b fe11 41be 9fe7 10be 1750 2f3d
000003b0: 2eb9 92bd 4024 d43c 67e3 733d 7e16 273e
000003c0: a090 11be 95d3 223d 4193 3abe c38b 41be
000003d0: 4959 8b3d 1657 02be 2907 273e 5755 ac3d
000003e0: 824a 3fbe 99bb 39be 102f dbbd 3824 0ebd
000003f0: f79c 123e 4d67 263e 17cf 9dbd 4d97 3f3e
-0.047293194 -0.020004202 0.082324766 -0.1283669 -0.19202621 0.14838018 -0.12576376 0.18114205
-0.20357966 0.044462115 -0.1928294 -0.069592774 0.1799623 0.15636902 -0.1212139 0.035583723
-0.042128727 0.18674892 0.13913804 -0.11459738 -0.045674726 -0.08715127 -0.17549354 0.08427716
0.109827384 0.10200876 0.06574327 -0.040431805 0.14754374 -0.19733854 0.060241535 -0.04502412
0.122866996 -0.15902705 -0.008405665 -0.11827643 -0.035436723 -0.0845568 -0.09031812 -0.050912194
0.18596718 0.05549368 -0.015134217 0.057280876 -0.16577941 -0.0054513845 -0.03572578 0.07224503
-0.08427037 -0.07909987 0.19097792 -0.02603903 0.042732317 -0.17743991 -0.15340935 0.11139263
-0.15511116 -0.039103147 0.14979848 -0.14847478 -0.07688998 -0.14421698 0.0075558177 0.099424034
0.092952006 0.10271947 0.16568255 0.033026565 -0.10079907 0.05374383 -0.13467064 0.1634867
-0.17707612 0.12208988 0.14365515 0.14478138 0.024659686 -0.047808725 -0.06692502 -0.08810628
0.015312509 0.009672759 0.15236722 0.11582381 0.13045076 0.13760075 -0.19784062 -0.11788736
0.1135488 -0.072770804 -0.10538214 -0.13466755 -0.09823962 0.088170886 0.18556212 -0.16263206
0.027111042 -0.1112517 0.030429717 0.17436069 0.081006914 -0.1753075 0.19937393 0.043987904
-0.09275378 -0.073511586 -0.108438015 0.13596207 -0.11408745 -0.007810176 -0.19966307 -0.106107324
0.13142793 0.18871528 0.04762491 -0.18070367 0.0957944 -0.19915085 0.16495614 -0.083362736
0.0602482 -0.034785073 -0.10077041 0.06258728 0.19759783 0.17447269 -0.09634487 0.16941434
-0.12681524 0.00034906398 -0.17273296 0.19547068 0.19136895 -0.0030993817 0.18401621 -0.036326695
0.1279967 -0.16049808 0.1129792 0.07095258 -0.11094368 -0.058226038 0.17049366 -0.115585074
0.20136978 0.009309095 0.20188425 -0.18242289 -0.12263475 -0.18366414 -0.14380455 0.2028501
0.15194324 0.10204587 -0.18049063 -0.18262154 0.15513442 -0.18438232 0.082948655 0.072528906
0.017820343 0.1350056 -0.1686415 -0.1278082 0.169091 0.0391734 -0.044280052 -0.20409209
-0.0019547828 0.05846935 -0.07685482 -0.027011566 -0.10587625 0.13319795 0.05355727 0.00026983413
-0.014967971 0.15803537 0.020726273 -0.056319192 -0.14291842 -0.06399826 0.07884724 -0.113268524
-0.15798551 0.10139597 0.1241264 -0.1009807 -0.12887526 -0.13665202 -0.15705048 -0.031678732
-0.08665474 -0.15698491 0.08322756 -0.029713266 -0.03697005 -0.015332925 -0.18101715 0.20194565
0.12308831 -0.107704066 -0.06454742 -0.03211951 0.15084139 -0.094940536 0.03178524 0.19897643
-0.14288838 0.099352665 0.12717627 -0.20230685 -0.005963215 -0.023513919 0.05648707 -0.03722667
-0.19543113 0.11130104 -0.05048183 -0.08655938 -0.014847618 0.18022598 0.1435906 -0.04386132
-0.107976675 0.01315863 -0.19784132 0.15177234 -0.055620506 -0.16653685 -0.072420426 0.13616827
0.0067708925 -0.1885452 -0.14150856 0.04280099 -0.071642265 0.025896192 0.05954304 0.16317174
-0.14215326 0.03975256 -0.18220235 -0.18900971 0.06804139 -0.12728533 0.16311325 0.08414715
-0.18680766 -0.18137969 -0.10702336 -0.03470251 0.1431769 0.16250344 -0.07705515 0.1871006

transformer_encoder.layers.0.self_attn.in_proj_bias f4 [108]
00000000: 0000 0000 0000 0000 0000 0000 0000 0000
00000010: 0000 0000 0000 0000 0000 0000 0000 0000
00000020: 0000 0000 0000 0000 0000 0000 0000 0000
00000030: 0000 0000 0000 0000 0000 0000 0000 0000
00000040: 0000 0000 0000 0000 0000 0000 0000 0000
00000050: 0000 0000 0000 0000 0000 0000 0000 0000
00000060: 0000 0000 0000 0000 0000 0000 0000 0000
00000070: 0000 0000 0000 0000 0000 0000 0000 0000
00000080: 0000 0000 0000 0000 0000 0000 0000 0000
00000090: 0000 0000 0000 0000 0000 0000 0000 0000
000000a0: 0000 0000 0000 0000 0000 0000 0000 0000
000000b0: 0000 0000 0000 0000 0000 0000 0000 0000
000000c0: 0000 0000 0000 0000 0000 0000 0000 0000
000000d0: 0000 0000 0000 0000 0000 0000 0000 0000
000000e0: 0000 0000 0000 0000 0000 0000 0000 0000
000000f0: 0000 0000 0000 0000 0000 0000 0000 0000
00000100: 0000 0000 0000 0000 0000 0000 0000 0000
00000110: 0000 0000 0000 0000 0000 0000 0000 0000
00000120: 4146 7bbb 3ec4 51bb ba1b 563b ab3e 23bb
00000130: cadb 143b 3483 1fbb 5ed2 3e3b ba1b 123b
00000140: 968a 8eba 8dc2 aa39 d39b fa3a 8b35 04bb
00000150: 287d 01bb 5b53 3d3b 5fc1 f73a d8f3 da3a
00000160: 8089 a7ba 3361 22bb 7361 84ba 81c9 0abb
00000170: c588 c7ba 8af3 ab3a f620 aa3a e708 e4ba
00000180: 943d edb9 c6f7 043b 8385 33bb 407b c73a
00000190: e91d ce3a f751 6a3b 4cd7 2f3a 3852 47ba
000001a0: 0c9d ee3a 7489 c83a d10c 0c3b 8464 b1ba
0.0 0.0 0.0 0.0 0.0 0.0 0.0 0.0
0.0 0.0 0.0 0.0 0.0 0.0 0.0 0.0
0.0 0.0 0.0 0.0 0.0 0.0 0.0 0.0
0.0 0.0 0.0 0.0 0.0 0.0 0.0 0.0
0.0 0.0 0.0 0.0 0.0 0.0 0.0 0.0
0.0 0.0 0.0 0.0 0.0 0.0 0.0 0.0
0.0 0.0 0.0 0.0 0.0 0.0 0.0 0.0
0.0 0.0 0.0 0.0 0.0 0.0 0.0 0.0
0.0 0.0 0.0 0.0 0.0 0.0 0.0 0.0
-0.0038341435 -0.0032007839 0.0032670335 -0.002490918 0.0022714012 -0.0024339678 0.0029117088 0.0022294358
-0.0010875042 0.00032569878 0.0019119926 -0.0020173516 -0.0019758437 0.0028888795 0.0018902234 0.0016704751
-0.0012782067 -0.0024777174 -0.0010099843 -0.0021177235 -0.0015223256 0.0013118845 0.0012979794 -0.0017397673
-0.00045250042 0.0020289286 -0.0027392812 0.0015219226 0.0015725467 0.0035754421 0.0006707802 -0.0007603499
0.0018204763 0.0015299753 0.0021369944 -0.0013533984

transformer_encoder.layers.0.self_attn.out_proj.weight f4 [36, 36]
00000000: 40f8 8d3c e7aa fb3d e36c e6bd cae0 823b
00000010: 09cd 16be d9a2 bdbd 1694 1abd 3820 9dbd
00000020: ec00 a9bd 4963 eebd adaf c5bd 5b30 a3bd
00000030: 9e97 d2bc 25e2 193c caf4 21be cb13 283c
00000040: 7405 b5bd 09fa 17be 36f6 06be faca a7bd
00000050: 3d7a d1bd 39d2 1fbe af7d edbd 55e8 26be
00000060: d7e6 f2bd 56c5 8abd c51f 523d d272 10bd
00000070: 07a6 93bc 5bc7 f23d 4f25 f2bd 3eca 1e3d
00000080: 3d40 833d bdd7 75bd 1f81 fd3d 7487 243d
00000090: a0e0 ba39 9f47 1abe 7564 9bbd bc49 0b3e
000000a0: 9d7e dcbd ea27 16bd cece c33c 9ffd b13d
000000b0: 93ec c3bd 0557 92bd 8707 0abe a442 883c
000000c0: bbe8 aabd d891 06be 295f 81bd 68f1 03be
000000d0: b2dc 113e 840b ecbc 460e cf3d d6f8 133e
000000e0: 0ba6 42bc c6fe b03d 3320 07be 0949 893d
000000f0: 3f2f 09be 2bbd 12be b993 a0bc 6a80 08be
00000100: 5f7d 0fbc b487 ad3d 9d80 0fbd f803 2e3e
00000110: d981 bdbd ec62 06be 9119 8cbc 5982 2bbd
00000120: de95 23bd 7fd8 86bd 6a36 abbd 20ad 80b9
00000130: 5eda 8e3d 4457 5dbd 3256 c6bd 8a3b 553d
00000140: 630b 003e 92e8 6dbd 5be1 ee3d e3d4 913c
00000150: c70e 48bd d448 f7bd dee1 dd3d 4518 b0bd
00000160: 9164 b2bc 3c5a d2bd 8ac9 25be 01eb 11bd
00000170: 912b c0bd 6942 19bd 267d e1bd 0585 56bd
00000180: 06a3 ccbd 7d92 17bd 8287 083e db15 d2bb
00000190: affe 5f3d 8c23 27be ac69 173e 9e52 9dba
000001a0: ea08 d03a 0902 263e f526 fbbd c48f 18be
000001b0: d1f6 1c3e 2b9f b63d ca80 03be cc55 fdbd
000001c0: 06f8 29bd bb27 99bd 21da 7dbd a655 503d
000001d0: 4fe8 023d 9acd dbbd 29dc 49bd 53ca 803d
000001e0: d437 02be 396d 1abd d246 8ebd a486 2abe
000001f0: d629 a1bd 48fa 053e 3a29 bc3d 6f00 0cbd
00000200: d581 b0bd 07a1 8f3d 7032 f7bb 3c05 20bd
00000210: c9c7 9e3d 7e0b ed3d 1065 053e 449d 63bc
00000220: a24a 03be 2fe2 dd3c 8044 0f3e 7ce5 84bd
00000230: a9f9 a13c 717a 65bd ed1a 21be c53b 24bc
00000240: bcbd 053e bebf 0abe 447e ed3d ee9e a93d
00000250: 28b5 fe3d 9f05 253e 5339 253e 74c1 89bd
00000260: 5a22 43bd 603c cabd 4fc5 ccbd 6442 d23c
00000270: e5a6 90bd fe20 1a3e 0dbf 1bbe 4761 06be
00000280: 25f0 16be 6530 a43d 2b07 8f3d c020 173e
00000290: 0049 cfbd 230d f73d d9c5 123e 1678 f6bd
000002a0: 613d adbd 859e 02be 23dd dabd 4822 c73d
000002b0: 5564 a7bd c7e7 e8bd ba42 c1bc efbf 25be
000002c0: 8b2a 153e b40b 6e3d b6f3 4ebb 593f 19be
000002d0: 2f74 183e ec5d b23d f573 3f3d a5fb cb3d
000002e0: 71c4 973d fe82 64bc 1193 00be d36d 253e
000002f0: a1eb 1fbe e891 57bd 469b fcbd 0674 0c3e
00000300: 1e99 d23d 7e0b 0c3e e375 76bd ed0e 223e
00000310: a704 1d3e f2ac 01bd 25c2 0f3a e952 07be
00000320: 257f 11be 7bd7 f73d 1288 0a3d 25ef 09bd
00000330: ae7c d63d e90c ad3d 6520 abbc 95be 9bbd
00000340: dec3 19bd c27a 8dbd 3bec 1a3d 0b49 efbd
00000350: 211c 17be 0ae6 163e 3d07 0a3e 833a 143e
00000360: 9c6a a0bd ad43 e53d 89c1 15be 7be3 613d
00000370: 2665 f63d 641d 253e 8af1 d0bd def1 8fbc
00000380: aa54 0d3e 7190 11be 63a5 e7bd d657 5a3d
00000390: c3cd df3d 252f e4bc 1b67 edbd 82d3 b63d
000003a0: 5974 b7bd 712d cb3d 5c99 87bd 9d06 be3d
000003b0: e9b4 ab3d dfea 27bb bec0 de3c c9f1 d93d
000003c0: e830 02bc 6b27 c53d 23ea b73c 0ec0 763d
000003d0: 6fcb 9a3d 93aa 1cbe b925 213e 0dd2 82bd
000003e0: 5fbc 0cbe 257c 0c3e c96c c4bd 0985 153e
000003f0: 823e 36bd c336 fdbd 32ba 06be 4114 ce39
0.017330289 0.122884564 -0.11251237 0.003994082 -0.14726652 -0.09259576 -0.037738882 -0.07672161
-0.08252129 -0.11640031 -0.09652648 -0.079682074 -0.025707062 0.009392296 -0.15816036 0.010258625
-0.08838931 -0.14841475 -0.1317986 -0.081930116 -0.10228393 -0.15607537 -0.11596238 -0.16299565
-0.118604355 -0.0677592 0.05129983 -0.03526575 -0.018023504 0.1185443 -0.11823522 0.038767092
0.06408737 -0.060020197 0.123781435 0.04016824 0.00035644043 -0.15066384 -0.0758752 0.13602346
-0.10766337 -0.03665916 0.023902323 0.086909525 -0.09566607 -0.07145504 -0.13479434 0.01663334
-0.08345171 -0.13141572 -0.063169785 -0.12885058 0.14244345 -0.028814085 0.10110144 0.14450392
-0.011880408 0.08642344 -0.13195877 0.067033835 -0.13396929 -0.14329974 -0.01960169 -0.13330236
-0.008757918 0.08473149 -0.035034765 0.16993701 -0.09253282 -0.13123673 -0.017102035 -0.041872356
-0.039937846 -0.06584262 -0.08359988 -0.0002454305 0.06975244 -0.0540383 -0.09684409 0.052058734
0.12504344 -0.058083124 0.11664077 0.017801708 -0.048842218 -0.12074438 0.10834096 -0.08598379
-0.02177647 -0.10271117 -0.16190162 -0.035624508 -0.0938331 -0.03741685 -0.11010198 -0.05237295
-0.09992032 -0.037004936 0.13332942 -0.006411297 0.054686245 -0.16322154 0.14786404 -0.0012002771
0.0015871797 0.16211714 -0.1226329 -0.14898592 0.15328528 0.08917078 -0.12842098 -0.1236988
-0.0414963 -0.07478281 -0.061975602 0.05086293 0.031959828 -0.10732575 -0.049282227 0.0628859
-0.12716609 -0.03770182 -0.06947102 -0.16652924 -0.07869308 0.13083756 0.09187551 -0.0341801
-0.086185135 0.070131354 -0.0075438544 -0.039067492 0.0775295 0.115744576 0.13026834 -0.0138924755
-0.12821439 0.027085392 0.13990974 -0.06489083 0.019772368 -0.056024972 -0.15732928 -0.010024016
0.13060659 -0.13549706 0.11596349 0.082822666 0.124368966 0.16115426 0.16135149 -0.067263514
-0.047640182 -0.09874797 -0.09998571 0.025666423 -0.070630826 0.15051648 -0.15209599 -0.13123046
-0.14740045 0.08017043 0.06983789 0.14758587 -0.101213455 0.120630525 0.14333285 -0.12034623
-0.08458973 -0.12755783 -0.1068671 0.097233355 -0.08173434 -0.11372333 -0.023591388 -0.16186498
0.1456701 0.05811663 -0.0031578369 -0.14965571 0.1488807 0.087093204 0.046741445 0.09960107
0.07410515 -0.013947247 -0.12556101 0.16155176 -0.15617229 -0.05262938 -0.123343036 0.13716134
0.10283111 0.13676259 -0.06017102 0.15826006 0.15333806 -0.031659074 0.0005483947 -0.13215221
-0.14208658 0.121016465 0.033821173 -0.03367533 0.104729995 0.08449728 -0.02088947 -0.0760471
-0.03754031 -0.0690818 0.037822943 -0.11683854 -0.14756824 0.1473619 0.13479324 0.14475445
-0.07832834 0.11194549 -0.14624609 0.055148583 0.12031011 0.16124493 -0.1020232 -0.017571386
0.13801828 -0.14215256 -0.11310842 0.053306423 0.10927918 -0.027854512 -0.115919314 0.08927061
-0.089577384 0.09920777 -0.06621048 0.09278605 0.08384115 -0.0025622172 0.027191516 0.1064182
-0.0079462305 0.09626659 0.022450512 0.06024175 0.07558333 -0.15299444 0.15737046 -0.0638772
-0.13743733 0.13719232 -0.095910616 0.1460153 -0.044493206 -0.123639606 -0.13156965 0.00039306472

transformer_encoder.layers.0.self_attn.out_proj.bias f4 [36]
00000000: e306 d0ba 0087 05bb b0b4 b13a 83a1 8fbb
00000010: 04f8 9d35 4c63 703a a0b6 1bbb 17ff 8f3b
00000020: a7ae 04bb 2b6d 063b c311 4b3a e5e0 163a
00000030: 420b e63a 9e01 a7ba ff35 25bb 0c6d bfba
00000040: 65bf 0fbb 21fb f53a e49b ce3a 321b dd3b
00000050: 0094 fe3a 03bc a6ba 92b1 3cbb 3e69 fb3a
00000060: 25f1 853a f962 003b 1b74 bf3a eb46 caba
00000070: 78c7 f7ba 6f08 f2ba 4599 19bb a42e bc3a
00000080: 6609 06bb db7d 023b 6f2c c03a 2658 ae3a
-0.0015871193 -0.0020374656 0.0013557877 -0.0043832674 1.1769594e-06 0.000917007 -0.0023759976 0.0043944228
-0.0020245702 0.0020511847 0.0007746482 0.0005755558 0.0017550963 -0.0012741571 -0.0025209186 -0.0014604642
-0.0021934148 0.0018766859 0.0015763012 0.0067476267 0.001942277 -0.0012720827 -0.0028792364 0.0019181145
0.0010218961 0.0019590242 0.0014606746 -0.0015432512 -0.0018904051 -0.0018465648 -0.0023437303 0.0014357162
-0.002045238 0.0019911441 0.001466168 0.0013301417

transformer_encoder.layers.0.linear1.weight f4 [128, 36]
00000000: 9a7e be3d f961 26be e39b f5bd e94e d93d
00000010: bca9 f53c 93f0 62bd 0903 843d 80f7 103e
00000020: f18d edbd 056d 73bd b1b8 dc3d 8851 4dbd
00000030: 78c2 dd3d 37d6 c53d 7584 d43c 89a6 fbbb
00000040: 2cfd dd3d 96e0 f13d 0e03 12be 7445 193e
00000050: ef39 5f3d 90c1 0ebe 6741 08be bf22 20be
00000060: 180d 82bd 7994 20bd 5ab1 d1bb 3460 f43b
00000070: de10 debd 776c 983d 6283 91bd 93f9 1cbe
00000080: e34c 083e 23cf c7bc 9218 d1bc 6628 373c
00000090: 9faf 443d bdbb b13d b9dc 893d abf3 d7bd
000000a0: 5c0f 883d c9c3 163d b5b0 713d aac4 58bd
000000b0: 94c4 263e 22fa e33d 9fc8 153d 3f6c aa3d
000000c0: 2387 71bd 9a0b 943d cfe0 ffbd bda1 bcbd
000000d0: 767b 253e a250 f73d b8bf df3d f421 ef3d
000000e0: 79c3 fabd e651 243e 0e29 4a3d 0f7b e8bc
000000f0: 5941 abba 34d3 26be cebc 1fbc b197 24be
00000100: 791b 073e c17a c7bd 5f02 7bbd 8a45 d0bd
00000110: 5076 173d 5058 d8bd 543b 6a3d b423 6cbd
00000120: 360f 05bd c2ab 1b3d 2d9a 5ebd 97fd b9bd
00000130: f0a3 eebd ed83 0abd a403 8f3d 75cf d23c
00000140: 8ceb 063e c26b 113d 1792 8c3d 8d0f b43d
00000150: ce5e e63d 6599 0fbe e3ce f53c 4a66 743c
00000160: 5fd5 c43d 10b1 4b3d eca7 13be 4441 ea3c
00000170: 88c9 fcbd 2fc3 81bd 2cac 22be c6a3 26be
00000180: 5f0d b83d 908d 133d d170 ed3d ee4b debd
00000190: d268 083e faea a63c 2164 003e f917 0f3c
000001a0: 5f98 d9bd 1d35 c5bc 06c9 6fbd 8a89 9c3c
000001b0: 56b7 223e 4f86 1d3e c00d 163e b482 a53d
000001c0: f82c 64bd e204 883d 970a cdbd bf8b e03b
000001d0: 939d debd c277 f43d f2cb f63d 0952 b03c
000001e0: 9d75 713d b103 0cbd d30a 943d 69bb bc3d
000001f0: a370 03bb affc a7bd d5a8 babb 14d2 1cbe
00000200: f7ac 4c3c 47fa 0f3e 28ba bdbd 25a0 07bd
00000210: 7be6 933c 9f3e 193e 9f4f 903d 6001 9cbc
00000220: 010f 043e d9be d43d 5a87 dbbd d539 f63d
00000230: c404 083e 03b2 d0bd c171 793d 0710 02be
00000240: 6eb6 1d3e 2268 ad3d 2209 cc3d a755 10bd
00000250: e97e 123e 7240 afbd 9824 843d 6d40 293e
00000260: dd33 20be 982d fd3d 3eb5 03be 7638 6bbd
00000270: d9ea 3a3d 9dab 143e 36c4 53bd 4a29 82bd
00000280: 1869 f3bd 9448 72bb 31cb 8abd f628 95bd
00000290: 0576 903d 4a65 32bd ee57 1b3e 1838 72bc
000002a0: 9fa2 e0bc e32d 593c c604 803c 26c1 aabd
000002b0: 2805 5a3d b60a 283e 2141 213d 392e b03d
000002c0: cc33 4dbd 88a4 debd 1b23 9fbc cfec 1c3e
000002d0: 7071 05be b97d f9bd 1e36 2cbd 2f06 f7bc
000002e0: cdda 5d3d 7f45 7c3d 077b 55bd f25b bebd
000002f0: 7259 e0bd 8a10 be3a 5e87 223e 63a0 b7bd
00000300: 75a8 d7bd 4816 113c cedd ab3d 3ac8 8dbc
00000310: cd1f 223e 13e3 15be 4cb8 94bc eab1 293c
00000320: 201a 2cbd 3c3f a43d f88d 82bb 277a bebd
00000330: ed6b 00be 0879 9bbd 7f3a b33d 9afe 053e
00000340: c106 363d 5226 80bc a069 153e cbd9 93bb
00000350: de5b a53d 7d0b 0cbd 195e 26bd 0e9e 913d
00000360: a4cf cb3d a730 8ebd 5afa b9bd 654b 1f3e
00000370: b3a8 8a3d fbbb a03d bf0f 27bb 4644 103e
00000380: 5a82 e3bd 07f1 c83d 9f3a d73b fcfd 82bd
00000390: 8ca7 cc3d 2514 143e fb2f 203d 6743 c03d
000003a0: ce0f 203e f0e1 e33d 9d3f 9d3c f8b6 18be
000003b0: c4da ce3d eccf eb3c 19c4 073e f0e4 00be
000003c0: 453f e53c edb6 f2bd 2360 b3bd 8f3e 9d3b
000003d0: afc9 23be d302 3b3d 11c3 d13d 197a 34bd
000003e0: 2ef9 08bb b5f7 a7bd 3186 9d3d 6c57 1e3e
000003f0: 1f1f dfbd fef2 203e 0b58 8bbd 146e f5bd
0.09301491 -0.16248311 -0.11992624 0.10610754 0.029988162 -0.05540521 0.064458914 0.14156914
-0.11599339 -0.05943014 0.107774146 -0.050126582 0.108281076 0.09659999 0.025942067 -0.0076797646
0.10839304 0.118104145 -0.14258978 0.149679 0.05449861 -0.13941026 -0.13306199 -0.15638255
-0.06350154 -0.039204095 -0.006399316 0.0074577574 -0.10843061 0.07442563 -0.071051374 -0.1532958
0.1331058 -0.024390763 -0.025524411 0.011179065 0.048019048 0.08678386 0.06731553 -0.10544523
0.066435546 0.03680781 0.05900641 -0.05292193 0.16285926 0.111316934 0.03656828 0.083214276
-0.058966767 0.07228775 -0.12494051 -0.09210537 0.16160378 0.12075926 0.10925239 0.11676398
-0.12244315 0.16046867 0.04935556 -0.028378991 -0.001306574 -0.16291505 -0.009749604 -0.1607349
0.13194074 -0.0974021 -0.061281558 -0.101695135 0.036978066 -0.10563719 0.057185486 -0.057651237
-0.03248521 0.038005598 -0.054346252 -0.090815715 -0.11652362 -0.03381722 0.06983116 0.025733689
0.13175792 0.035503156 0.06863802 0.087920286 0.11248551 -0.14023359 0.030005878 0.014916966
0.0961101 0.049729407 -0.14419526 0.028595574 -0.123431265 -0.063360564 -0.15885991 -0.16273412
0.08986925 0.036023676 0.11593784 -0.10854326 0.13321236 0.020375717 0.12538196 0.008733743
-0.106247656 -0.024073178 -0.05854132 0.019108552 0.1589025 0.15383266 0.14653683 0.0808157
-0.055706948 0.06641556 -0.100117855 0.0068525965 -0.10869899 0.119369045 0.12050618 0.021523492
0.058950055 -0.034183208 0.07228627 0.09215433 -0.002005615 -0.082024924 -0.005696396 -0.15314513
0.01249241 0.14060317 -0.09264022 -0.03311171 0.018054238 0.14965294 0.070464365 -0.019043624
0.12896349 0.10387964 -0.10719176 0.12022749 0.13283068 -0.10190203 0.0608995 -0.12701426
0.15401623 0.084671274 0.099626794 -0.035237934 0.14306225 -0.08557214 0.06452292 0.16528483
-0.15644784 0.12362212 -0.12862107 -0.057426892 0.045634124 0.1451859 -0.051700793 -0.063555315
-0.118852794 -0.003696953 -0.06777037 -0.07283203 0.070537604 -0.043553628 0.15170261 -0.014783882
-0.027421294 0.013255569 0.015627276 -0.083376214 0.053227574 0.16410336 0.039368752 0.08602566
-0.050098225 -0.108712256 -0.01942592 0.1532471 -0.13031554 -0.12182183 -0.042043798 -0.030154316
0.054163743 0.061589714 -0.05211928 -0.09294881 -0.1095456 0.0014500779 0.15871951 -0.08966138
-0.105301775 0.00885541 0.08391915 -0.01730739 0.15832444 -0.14637403 -0.018154286 0.010357359
-0.042017102 0.080198735 -0.003984209 -0.093006425 -0.1254117 -0.07591444 0.087513916 0.13085404
0.044440035 -0.015643273 0.14591074 -0.004512047 0.08074163 -0.034190644 -0.040617082 0.07110225
0.09951714 -0.069428734 -0.09080954 0.15556104 0.06770458 0.078483544 -0.0025491563 0.14088544
-0.11108847 0.09811597 0.0065682675 -0.063961 0.099928945 0.1446081 0.039108258 0.09387856
0.15631029 0.111270785 0.019195372 -0.14913547 0.1010032 0.028785668 0.13258399 -0.12587333
0.02798427 -0.118512966 -0.08758571 0.0047987173 -0.15994905 0.04565699 0.10242284 -0.044061754
-0.0020900476 -0.08201543 0.076916106 0.15463036 -0.10894608 0.15717694 -0.06803902 -0.11983886

transformer_encoder.layers.0.linear1.bias f4 [128]
00000000: 0551 103e d428 103e 351a f13c 7ed9 0fbe
00000010: 338d bb3d fcb5 b33d 0e85 233e 1947 09be
00000020: fc64 1abd 0926 83bd 11fd 133e c495 e9bd
00000030: 92da 0a3d bbb2 18be 62c8 dbbd eff2 db3d
00000040: 6ef1 b03d 8184 2abe 4277 15be 7af5 c73d
00000050: dee6 a4bd 027b b5bd 757f d8bb 8e51 e33d
00000060: 90dc 253e c6e2 4fbd a438 ab3c 369e 2a3e
00000070: da93 c03c 278e f0bc 48ca 183e 1f8a cb3d
00000080: 88c8 253e 44eb 04bd 3480 16be b1a8 a13d
00000090: 17cc 533d 2d9d a73c 4b6c b93d c641 0abe
000000a0: f8a3 b7bc da44 e23c aee1 02be 4f7f 97bd
000000b0: 8493 2b3d a0df 31bd 1572 b93d c545 ce3d
000000c0: 9cae d2bd d569 fdbd ace5 e03d 89bb 1d3e
000000d0: b3ec 06bd 1ed3 273d c413 0ebd 9f36 69bd
000000e0: 1f89 7f3d 9979 06be b251 21be a5ba c4bd
000000f0: 0084 78bb 577b 00be abb9 a93c 870c 91bd
00000100: b8d4 83bd 7e8e fc3d 02f9 a83d 1566 c4bd
00000110: cd61 23be a7b2 6abd 3abe 2c3d 4e32 59bd
00000120: 6716 0d3e 049f c2bd 27de 8e3d b295 d2bd
00000130: 0158 1abd 096e f7bd 0be6 373d 5fe0 043e
00000140: 7e86 a23c 6801 17be 4941 0dbe 0b95 c9bd
00000150: cfdf 34bd 7e14 b4bc 59cf 023e 2ee0 2a3e
00000160: 4e27 64bd f87a 273e 0241 243e 3349 353d
00000170: 94c5 d43d f6ab 273e 4dfb 553d 120f e43a
00000180: 1722 023d f463 fb3d 2914 c83c f19c 84bd
00000190: 43e7 48bd b01c 8d3c 61ff 013e ca0c d23d
000001a0: 19af c73d 40fa 11be 93b6 afbb 2214 4b3d
000001b0: 0c0f b83d 20d7 063e 9019 343d 3f04 963d
000001c0: 0b2f 203e c178 e1bd c7fd a83d a54f 733d
000001d0: 1e2d 5bbc 5ec1 f0bd 4839 c5bb 82f8 113e
000001e0: e161 793d d32b a23d 14d2 9ebd 53c3 8ebd
000001f0: 54f3 0abe 3ec5 d23c 5342 0abe 83e6 b73c
0.14093406 0.14078075 0.029431442 -0.1404781 0.09157791 0.08774945 0.15968725 -0.13406028
-0.037693962 -0.06403739 0.14452006 -0.11405519 0.03389985 -0.1491193 -0.10731579 0.10739695
0.08639799 -0.16652109 -0.14596274 0.09763618 -0.08051847 -0.088613525 -0.006606991 0.1109954
0.16197419 -0.050753377 0.020901032 0.16661915 0.023508001 -0.029364659 0.14920914 0.09938454
0.16189778 -0.03245093 -0.14697343 0.078935035 0.051708307 0.02046069 0.09053858 -0.13501653
-0.022417054 0.027620722 -0.12781402 -0.07397329 0.04188873 -0.043426156 0.090549625 0.10071901
-0.1028721 -0.123737015 0.109813064 0.1540357 -0.032940578 0.04097282 -0.03468682 -0.056936856
0.06238663 -0.13132323 -0.1575382 -0.09605912 -0.0037920475 -0.1254705 0.020718416 -0.070824675
-0.06437057 0.12331866 0.082506195 -0.09589783 -0.15955277 -0.057299282 0.0421736 -0.05302649
0.13778077 -0.09502986 0.06975966 -0.10282458 -0.037681583 -0.120815344 0.04489712 0.12976216
0.019839521 -0.1474663 -0.13794436 -0.09842881 -0.044158753 -0.021982428 0.1277441 0.1668708
-0.055701546 0.16355503 0.16040424 0.04425926 0.103892475 0.16374192 0.052241612 0.0017399511
0.03177079 0.12274924 0.024423676 -0.06475247 -0.049048673 0.017225593 0.12695076 0.102563456
0.09750194 -0.14255619 -0.0053623407 0.049579747 0.08987245 0.13168001 0.04396969 0.07325029
0.15642945 -0.1100936 0.08251529 0.059402127 -0.013377456 -0.11755632 -0.0060187913 0.14254954
0.06088436 0.07918515 -0.07754913 -0.06970849 -0.13569385 0.025728818 -0.13501863 0.022448784

transformer_encoder.layers.0.linear2.weight f4 [36, 128]
00000000: 11ef 8c3d 2f31 a8bc eda9 b13d b353 ac3d
00000010: b4ef 95bd ac21 87bc 431a 91bd 4c26 adbd
00000020: 644f 85bd 5d5a a4bd 568c acbd df83 18bd
00000030: f50e e23c 5706 703d bf88 8e3d dc28 1abd
00000040: 6b0a e6bb 92fa e9bc f739 94bd 6822 a13c
00000050: 58ed a53c 2d09 9a3d debc ac3d 5c36 a43d
00000060: 0dfe 813d db16 023c 4c84 a2bd d4cc 36bd
00000070: 6a67 513d 0e51 98bd a673 433d 4c16 18bd
00000080: 3ac0 b4bd be81 8b3d d5bf 9f3b 8fde aa3d
00000090: 6676 66bd cbd5 243d d3e0 f6bc 7947 ff3c
000000a0: b875 493d 0aab 943d 7dc4 25bd a7c6 863d
000000b0: 11e0 4a3d c567 74bc 5212 9c3c d2bc 8bbc
000000c0: c397 9b3d 5700 ae3d edc0 853d bbba 6ebc
000000d0: 0fa6 b83c 187e 15bd 0d39 7bbc 704d ab3d
000000e0: 80d6 3d3d 3f8e 89bd a3e2 b7bd ba5e 0bbd
000000f0: 0614 94bd 9af6 963d d9ee 46bd aa5c 583c
00000100: 63f5 a83d 37cf 363d f1a7 a23c a7af 253d
00000110: cfe1 8cbd 0854 70bd b28a 533d cadc 6f3c
00000120: 3726 8bbd 56a6 12bb 9b46 683d fc68 223c
00000130: b777 513d 9ebe 0ebd fd3a a3bd 403d 483c
00000140: a05f cfbb 0c86 3bbd 4d1d 8d3d 4434 833c
00000150: 830a bbbc c625 3e3d 7f0b 6abd 6dc6 483d
00000160: f61f aa3c adc3 aa3c 4183 26bd c8d0 37bd
00000170: 33bb 1bbd beb8 31ba 3ffd 343d a642 af3d
00000180: 708f a7bd 97ac 46bd 35b2 8c3d b364 ed3c
00000190: 2aea 33bc ffff 893d e037 503d faa5 db3c
000001a0: 03ed 013d 2d3c b8bd 8c42 88bd 56cb 54bd
000001b0: 1a9b 6bbd f41e 9abd 9c10 75bd 4fd2 443d
000001c0: 2570 1d3b 4111 853d e5a0 143d 459f 1cbd
000001d0: 3fa5 7a3c d665 6f3d 0ae7 36bd 3043 a3bd
000001e0: 38a4 a0bd a393 903d b3b0 4ebd 2564 83bd
000001f0: 170e efbc 6eff aebd 87db 903d 32c8 acbc
00000200: a25b aa3d c96f 6a3d abf5 683c f680 913d
00000210: 724b 3339 31b4 9e3d 6100 04bd fc94 d3bb
00000220: bd94 c23c 30c3 b6bc c3b2 53bd ce2d 183d
00000230: 4486 9e3d 95cf ab3d face d03c ceac 79bd
00000240: d908 4dbd b4ee a4bd 0819 a7bd 5c6d a8bd
00000250: cdcf adbd 18bd 76bd 080b c13c a49b 9a3d
00000260: e4c5 a9bd 0c84 a93d da39 ce3c b8d5 9fbd
00000270: 67e1 bebb a9a9 a1bc 1402 8cbd 3ee2 0dbb
00000280: 6077 223d 6e33 253d a899 a6bd f8c0 91bd
00000290: 9666 5f3c 2480 6c3d 5503 42bd ac23 a9bc
000002a0: 4072 a43d fef3 823d 7c09 56bd 3a67 803d
000002b0: 64ba aa3c ce8d 4f3b 3f95 093d d6cc 84bd
000002c0: dd2e 3e3d 775d 643d 3589 093d 107b 90bc
000002d0: efbd bfbb c32c 1a3d b9ce 67bd 2b8f adbc
000002e0: 9365 5b3d 24dc dabc 8104 e2bc a15b a8bd
000002f0: 0814 99bd b1b1 423b 6de2 213c ceb3 523d
00000300: 14d9 683d be95 713d e557 9ebc ed94 1cbd
00000310: 5537 5b3d bf04 4f3d 6ee2 9ebd 9982 98bd
00000320: 39d9 643b 94bb 8dbc 9b24 43bd c9e7 2e3d
00000330: 1eb9 59bc 7fd0 07bb eba4 6dbd 138f bebb
00000340: f50c fd3c 4656 5a3d a0b2 39bd c93a 64bd
00000350: 2fd4 fb3c f8e0 f43b c0ec 863d de12 b9bd
00000360: b1e3 bc3b 077d 3dbd 1b46 8fbd d3ff 80bc
00000370: c8fd 713c d613 693c c504 823d dc6e d83b
00000380: ce5f a93d a204 24bd f2a3 963d f826 a7bd
00000390: 91ae b4bc c740 89bd ff4c b0bd d2d1 4abc
000003a0: 22b7 a93d 2358 82bd b783 b3bd 7780 5f3d
000003b0: 208b d5bc 9439 d2bc ce9b cdbb dd0d 223b
000003c0: b91a 3cbd cc7e 97bb c440 e83a 1e21 32bd
000003d0: 9abc fcbc 1254 3f3d 7870 7e3d cdaf 173d
000003e0: ed28 89bd 6ca3 93bd f46a 80bb cfa5 453d
000003f0: cf08 953d 9923 823c 25a3 be3a 3a3e 40bd
0.06881536 -0.020531265 0.08674989 0.08414402 -0.0732111 -0.016495548 -0.07085087 -0.0845457
-0.06509283 -0.08025048 -0.084252045 -0.037235137 0.027595023 0.058599796 0.06959676 -0.037636623
-0.007020285 -0.028561864 -0.072376184 0.019669726 0.020254776 0.075212814 0.08434461 0.08018181
0.063472845 0.0079400195 -0.0793539 -0.044628933 0.051124014 -0.07437335 0.047717713 -0.03713064
-0.08825727 0.06811856 0.004875163 0.08343231 -0.056265257 0.04024295 -0.030136501 0.03116201
0.04918453 0.072591856 -0.04047059 0.06580859 0.049530093 -0.014917319 0.019051705 -0.01705781
0.075973056 0.084961586 0.06530938 -0.014570887 0.02254012 -0.036497205 -0.015333426 0.083643794
0.04634714 -0.067165844 -0.089787744 -0.034025885 -0.07230382 0.07371254 -0.048567627 0.013205687
0.08249929 0.04463121 0.019855471 0.04045072 -0.06879007 -0.05867389 0.051645942 0.014640043
-0.06794398 -0.0022376976 0.05670796 0.009912726 0.05113956 -0.034849755 -0.079702355 0.012221634
-0.006328538 -0.045782134 0.06890354 0.016016133 -0.02283216 0.046422742 -0.05713987 0.04901736
0.020767193 0.020845259 -0.040652517 -0.044876844 -0.038020324 -0.0006779543 0.044186827 0.08557634
-0.081816554 -0.04850444 0.06869928 0.028978681 -0.010981122 0.067382805 0.050834537 0.026812542
0.031720173 -0.089958526 -0.06653318 -0.05195173 -0.057520963 -0.07525435 -0.059830293 0.04805213
0.0024023142 0.064974315 0.036286253 -0.03823783 0.015298187 0.058446728 -0.04465393 -0.079717994
-0.07843822 0.070594095 -0.050461482 -0.064155854 -0.029181523 -0.08544813 0.070731215 -0.021091554
0.08318259 0.057235513 0.014218728 0.071046755 0.00017098876 0.077492125 -0.032226924 -0.0064569693
0.023752565 -0.02230987 -0.051684152 0.037153058 0.07740453 0.083892025 0.02548932 -0.060955815
-0.050057266 -0.080533415 -0.08159071 -0.08223984 -0.084869005 -0.060238928 0.02356483 0.07549217
-0.08289698 0.08277139 0.02517407 -0.078044355 -0.00582521 -0.01973422 -0.06836334 -0.0021649743
0.039664626 0.04033225 -0.08134776 -0.07116884 0.013635298 0.057739392 -0.04736646 -0.020646892
0.08029604 0.06394194 -0.05225514 0.06269689 0.020840831 0.0031670216 0.033589598 -0.06484382
0.04643141 0.055753198 0.033578116 -0.017636806 -0.0058514993 0.037640344 -0.05659363 -0.021186432
0.053563666 -0.0267163 -0.027590038 -0.08220602 -0.07474524 0.0029707963 0.009880644 0.051441006
0.056847647 0.058980696 -0.01932902 -0.038227964 0.053519566 0.050541636 -0.07758032 -0.074467845
0.0034919514 -0.017301358 -0.04764233 0.042701516 -0.013288764 -0.0020723639 -0.058018606 -0.0058153956
0.030889967 0.053304933 -0.045336366 -0.055720124 0.030740825 0.0074731074 0.06588125 -0.09036802
0.0057644476 -0.046261813 -0.069957934 -0.015746986 0.014769979 0.014225921 0.06348566 0.0066050123
0.082702264 -0.04004348 0.07355489 -0.081617296 -0.022055896 -0.067018084 -0.08608436 -0.012379127
0.08286883 -0.06364467 -0.08765357 0.054565873 -0.026067317 -0.025662221 -0.006274677 0.0024727501
-0.045923922 -0.0046232697 0.0017719497 -0.043488614 -0.030851651 0.046711035 0.062118977 0.03703289
-0.06697259 -0.072089046 -0.003919 0.04825383 0.07277071 0.015886115 0.001454447 -0.046934344

transformer_encoder.layers.0.linear2.bias f4 [36]
00000000: f882 703c 3ac6 68bd f1f9 91bd 6eab 91bc
00000010: aafc f73b 21a4 9f3d f6f5 63bd 668e 4fbd
00000020: 7b55 843d a946 a63d 9f9f 85bd 3d05 f5bb
00000030: da93 8c3c 38dc 0a3d b420 94bd bca0 a93d
00000040: 7b3e 96bd a814 9a3b 092c 8bbd c657 2e3d
00000050: 91c6 93bd 22b7 4dbd 8cb1 593d 17d1 4d3d
00000060: 1041 b23d 8ab6 abbd 9d73 b03b 4053 6f3c
00000070: 7a7f 933d 4413 60bb 6f15 783d f506 95bd
00000080: 9c43 52bd e421 97bd 2614 6d3d dfca 3a3d
0.014679663 -0.05682967 -0.07127751 -0.01778194 0.0075679617 0.07794977 -0.05565449 -0.05067291
0.064616166 0.08118946 -0.06524586 -0.007477431 0.017160345 0.033901423 -0.072328 0.08282611
-0.07336136 0.0047021694 -0.067955084 0.042564176 -0.07215608 -0.050223477 0.053147838 0.05024823
0.08703816 -0.08384426 0.005384876 0.014607251 0.072020486 -0.003419117 0.060567316 -0.072767176
-0.05133401 -0.07379511 0.057880543 0.04560363

transformer_encoder.layers.0.norm1.weight f4 [36]
00000000: be39 803f 2b42 7f3f aa6c 7f3f 0f1c 803f
00000010: 4fb8 7f3f f40d 803f db3d 803f 2860 803f
00000020: 573b 803f 7025 803f f68e 7f3f 0345 803f
00000030: b6db 7f3f dc1b 7f3f 0860 803f df59 803f
00000040: 583a 803f 383f 803f dfbb 803f 3aad 803f
00000050: 9c44 7f3f d149 7f3f 40c5 803f 812a 803f
00000060: 4152 803f b345 803f b382 7f3f c72e 803f
00000070: f052 803f e37e 7f3f a83c 803f cc1d 803f
00000080: 4a29 803f e337 803f 0f5b 803f 2e2d 803f
1.0017622 0.9971034 0.99775183 1.0008563 0.9989061 1.0004258 1.0018877 1.0029345
1.0018109 1.0011425 0.99827516 1.0021061 0.9994463 0.99651885 1.0029306 1.0027426
1.0017805 1.0019293 1.0057334 1.0052865 0.99714065 0.9972201 1.0060196 1.0012971
1.0025102 1.002127 0.99808806 1.0014275 1.002531 0.9980299 1.0018511 1.0009093
1.00126 1.0017055 1.0027789 1.0013788

transformer_encoder.layers.0.norm1.bias f4 [36]
00000000: 4290 93ba cc96 f0ba 793d c63a 0562 9cbb
00000010: b08a 99b9 0e17 943a 9652 11bb fcdc 893b
00000020: ea78 fdba 9942 e53a 465e 4a3a 757c 093b
00000030: 3b80 dc3a ebbf 91ba dbd5 14bb 3d36 92ba
00000040: 11cc bdba b5ae eb3a 7e5a cd3a 8a9f dc3b
00000050: b65c f23a 3adf 03ba a5c7 34bb ad0f f23a
00000060: a68d 9e3a f3e9 c23a 4108 af3a b98e d2ba
00000070: 6aab fdba b8e8 85ba b3c2 12bb f3fc c43a
00000080: 684e f8ba b9c5 e33a 590d b63a 8f5f 993a
-0.0011258202 -0.0018355488 0.0015124521 -0.004772427 -0.00029285764 0.0011298375 -0.002217447 0.0042072516
-0.0019338403 0.0017491161 0.00077197363 0.0020978723 0.0016822884 -0.0011119818 -0.0022710476 -0.001115508
-0.0014480372 0.0017981144 0.0015667228 0.0067328857 0.0018490765 -0.0005030517 -0.0027584818 0.0018467807
0.0012096658 0.0014870748 0.00133539 -0.0016064263 -0.0019353454 -0.001021645 -0.0022393882 0.0015028998
-0.0018944265 0.0017377652 0.0013889476 0.0011701452

transformer_encoder.layers.0.norm2.weight f4 [36]
00000000: dd60 803f 293f 7f3f f257 7f3f 49ea 803f
00000010: bc8c 7f3f 9f38 803f 3742 803f 9b89 803f
00000020: e83f 803f 781c 803f 7d8d 7f3f a583 803f
00000030: 2cb4 7f3f 735a 7f3f 1c73 803f 2f65 803f
00000040: fa23 803f 9e45 803f ffc2 803f 2de7 803f
00000050: 9063 7f3f 6344 7f3f 9bd2 803f 2c2b 803f
00000060: 107b 803f 7229 803f df7b 7f3f 1412 803f
00000070: 934c 803f 7188 7f3f 062f 803f 5836 803f
00000080: 4f39 803f da62 803f 1039 803f 5b33 803f
1.002956 0.9970575 0.9974357 1.0071498 0.9982412 1.0017279 1.0020207 1.0041994
1.0019503 1.0008688 0.9982527 1.0040175 0.99884295 0.9974739 1.0035129 1.0030879
1.0010979 1.0021245 1.0059508 1.0070549 0.99761295 0.99713725 1.0064272 1.0013175
1.0037556 1.0012648 0.9979839 1.0005517 1.0023369 0.9981757 1.001435 1.0016584
1.0017489 1.0030167 1.0017414 1.0015672

transformer_encoder.layers.0.norm2.bias f4 [36]
00000000: 8a8e adba b113 e4ba b322 c13a f890 26bb
00000010: a5b9 b339 7eea af3a ef61 08bb a40e b03b
00000020: 6d62 e4ba 2da2 de3a 7340 783a 59ca 6e3b
00000030: 5b90 ef3a 6acf 8cba db8f 05bb 8553 afba
00000040: a3f0 afba d0f2 dd3a da9b 9b3a 63fa e03b
00000050: 943c 1c3b 0084 4fba 53bd 0abb c9b9 013b
00000060: c5c4 c83a 3464 b23a d2a6 ac3a 3f2c c2ba
00000070: ae7c 1fbb c1b2 2bba 860c 05bb 190a e63a
00000080: 2ff5 f5ba 1a66 073b b93f a43a 024f c03a
-0.0013241332 -0.0017400888 0.0014735073 -0.0025415998 0.00034279856 0.0013421325 -0.0020810326 0.005372839
-0.0017424353 0.0016985588 0.0009470053 0.0036436527 0.0018277274 -0.0010742967 -0.0020379934 -0.0013376331
-0.0013423156 0.0016933326 0.0011872009 0.006865786 0.0023839818 -0.0007916093 -0.0021169975 0.0019794574
0.0015317431 0.0013610185 0.0013172275 -0.0014814212 -0.002433579 -0.0006549769 -0.0020301654 0.0017550617
-0.0018765087 0.0020660223 0.0012531198 0.0014671984

transformer_encoder.layers.1.self_attn.in_proj_weight f4 [108, 36]
00000000: 82b6 41bd dadf a3bc e399 a83d 9d72 03be
00000010: 85a2 44be f9f0 173e 37c8 00be 4d7d 393e
00000020: 3077 50be e81d 363d 1275 45be a886 8ebd
00000030: 0a48 383e 331f 203e fe3e f8bd 3dc0 113d
00000040: 2c8f 2cbd 1c3b 3f3e 347a 0e3e 08b2 eabd
00000050: 6c15 3bbd 5d7c b2bd 94b4 33be 8199 ac3d
00000060: 2eed e03d f8e9 d03d 68a4 863d d29b 25bd
00000070: b515 173e 1d13 4abe d4bf 763d 366b 38bd
00000080: b1a1 fb3d fdd7 22be eab7 09bc ea3a f2bd
00000090: 1926 11bd 1e2c adbd b5f8 b8bd 4e89 50bd
000000a0: 2e6e 3e3e 574d 633d 82f5 77bc 5a9f 6a3d
000000b0: 14c2 29be 87a1 b2bb 3255 12bd 34f5 933d
000000c0: f295 acbd 1dff a1bd b78f 433e ce4f d5bc
000000d0: 1508 2f3d cfb2 35be 5717 1dbe d221 e43d
000000e0: 76d5 1ebe 9f2a 20bd c664 193e c609 18be
000000f0: 7e78 9dbd 9ead 13be cb96 f73b d49e cb3d
00000100: 9f5d be3d 965e d23d b0a8 293e dd46 073d
00000110: be6f cebd 7e22 5c3d 1ae7 09be 0f69 273e
00000120: 7153 35be 420a fa3d 561a 133e 9241 143e
00000130: 1c03 ca3c 15d3 43bd fc0f 89bd 1171 b4bd
00000140: 51e1 7a3c 7e7a 1e3c 2706 1c3e 0935 ed3d
00000150: e294 053e 36e7 0c3e bb96 4abe ee6e f1bd
00000160: 468c e83d dc08 95bd 97d2 d7bd 4ae6 09be
00000170: db31 c9bd f092 b43d ff03 3e3e 0589 26be
00000180: fa17 de3c eed7 e3bd be47 f93c 9c8b 323e
00000190: f4e6 a53d cf83 33be ae28 4c3e a92c 343d
000001a0: b2f5 bdbd 3e8d 96bd c014 debd a439 0b3e
000001b0: aea6 e9bd 81ec ffbb 7a74 4cbe cc4e d9bd
000001c0: 0b95 063e 943e 413e 5612 433d 620a 39be
000001d0: db2f c43d 33ee 4bbe 43ea 283e 15ba aabd
000001e0: d1c6 763d cb7a 0ebd b760 cebd c32d 803d
000001f0: 1657 4a3e f8a8 323e 7650 c5bd f47a 2d3e
00000200: dbdb 01be 9302 b739 e9e0 30be 7729 483e
00000210: 39f6 433e ff1e 4bbb bf6e 3c3e 4dcb 14bd
00000220: 9111 033e 9c59 24be a461 e73d 964f 913d
00000230: 7136 e3bd 6d7e 6ebd e495 2e3e deb7 ecbd
00000240: e133 4e3e 2d85 183c bfba 4e3e 11cd 3abe
00000250: ee27 fbbd 7412 3cbe 8041 13be f0b7 4f3e
00000260: 0297 1b3e 6dfd d03d 89d2 38be 2401 3bbe
00000270: 8fdb 1e3e b8ce 3cbe fce0 a93d 098a 943d
00000280: f8fb 913c e83e 0a3e 5bb0 2cbe 27e0 02be
00000290: 3126 2d3e 4974 203d 005f 35bd 84fd 50be
000002a0: d01b 00bb 8f7d 6f3d 0f66 9dbd 5c47 ddbc
000002b0: a6d5 d8bd 0b65 083e de5e 5b3d 8678 8d39
000002c0: 383c 75bc 06d4 213e 25ca a93c f4ae 66bd
000002d0: 3559 12be 8511 83bd a97a a13d 54f9 e7bd
000002e0: f4c6 21be b1a8 cf3d fb35 fe3d f8ce cebd
000002f0: e0f7 03be 82ee 0bbe d7d1 20be 8fc1 01bd
00000300: 0a78 b1bd a7c0 20be 3673 aa3d 3c69 f3bc
00000310: e86d 17bd f336 7bbc 8f5c 39be d7ca 4e3e
00000320: b915 fc3d f393 dcbd 7031 84bd bf8f 03bd
00000330: 2a76 1a3e 2f70 c2bd 3d31 023d 7ac0 4b3e
00000340: 5551 12be 6979 cb3d 7f3a 023e 8729 4fbe
00000350: 1367 c3bb 43a0 c0bc fc5e 673d fe7a 18bd
00000360: 191f 48be cdf1 e33d 09c6 4ebd 0b46 b1bd
00000370: 6c43 73bc 298d 383e 6a09 133e eda7 33bd
00000380: e022 ddbd 4b97 573c ea96 4abe 356a 1b3e
00000390: 54d2 63bd a388 2abe 2951 94bd b26f 0b3e
000003a0: 5dde dd3b fe11 41be 9fe7 10be 1750 2f3d
000003b0: 2eb9 92bd 4024 d43c 67e3 733d 7e16 273e
000003c0: a090 11be 95d3 223d 4193 3abe c38b 41be
000003d0: 4959 8b3d 1657 02be 2907 273e 5755 ac3d
000003e0: 824a 3fbe 99bb 39be 102f dbbd 3824 0ebd
000003f0: f79c 123e 4d67 263e 17cf 9dbd 4d97 3f3e
-0.047293194 -0.020004202 0.082324766 -0.1283669 -0.19202621 0.14838018 -0.12576376 0.18114205
-0.20357966 0.044462115 -0.1928294 -0.069592774 0.1799623 0.15636902 -0.1212139 0.035583723
-0.042128727 0.18674892 0.13913804 -0.11459738 -0.045674726 -0.08715127 -0.17549354 0.08427716
0.109827384 0.10200876 0.06574327 -0.040431805 0.14754374 -0.19733854 0.060241535 -0.04502412
0.122866996 -0.15902705 -0.008405665 -0.11827643 -0.035436723 -0.0845568 -0.09031812 -0.050912194
0.18596718 0.05549368 -0.015134217 0.057280876 -0.16577941 -0.0054513845 -0.03572578 0.07224503
-0.08427037 -0.07909987 0.19097792 -0.02603903 0.042732317 -0.17743991 -0.15340935 0.11139263
-0.15511116 -0.039103147 0.14979848 -0.14847478 -0.07688998 -0.14421698 0.0075558177 0.099424034
0.092952006 0.10271947 0.16568255 0.033026565 -0.10079907 0.05374383 -0.13467064 0.1634867
-0.17707612 0.12208988 0.14365515 0.14478138 0.024659686 -0.047808725 -0.06692502 -0.08810628
0.015312509 0.009672759 0.15236722 0.11582381 0.13045076 0.13760075 -0.19784062 -0.11788736
0.1135488 -0.072770804 -0.10538214 -0.13466755 -0.09823962 0.088170886 0.18556212 -0.16263206
0.027111042 -0.1112517 0.030429717 0.17436069 0.081006914 -0.1753075 0.19937393 0.043987904
-0.09275378 -0.073511586 -0.108438015 0.13596207 -0.11408745 -0.007810176 -0.19966307 -0.106107324
0.13142793 0.18871528 0.04762491 -0.18070367 0.0957944 -0.19915085 0.16495614 -0.083362736
0.0602482 -0.034785073 -0.10077041 0.06258728 0.19759783 0.17447269 -0.09634487 0.16941434
-0.12681524 0.00034906398 -0.17273296 0.19547068 0.19136895 -0.0030993817 0.18401621 -0.036326695
0.1279967 -0.16049808 0.1129792 0.07095258 -0.11094368 -0.058226038 0.17049366 -0.115585074
0.20136978 0.009309095 0.20188425 -0.18242289 -0.12263475 -0.18366414 -0.14380455 0.2028501
0.15194324 0.10204587 -0.18049063 -0.18262154 0.15513442 -0.18438232 0.082948655 0.072528906
0.017820343 0.1350056 -0.1686415 -0.1278082 0.169091 0.0391734 -0.044280052 -0.20409209
-0.0019547828 0.05846935 -0.07685482 -0.027011566 -0.10587625 0.13319795 0.05355727 0.00026983413
-0.014967971 0.15803537 0.020726273 -0.056319192 -0.14291842 -0.06399826 0.07884724 -0.113268524
-0.15798551 0.10139597 0.1241264 -0.1009807 -0.12887526 -0.13665202 -0.15705048 -0.031678732
-0.08665474 -0.15698491 0.08322756 -0.029713266 -0.03697005 -0.015332925 -0.18101715 0.20194565
0.12308831 -0.107704066 -0.06454742 -0.03211951 0.15084139 -0.094940536 0.03178524 0.19897643
-0.14288838 0.099352665 0.12717627 -0.20230685 -0.005963215 -0.023513919 0.05648707 -0.03722667
-0.19543113 0.11130104 -0.05048183 -0.08655938 -0.014847618 0.18022598 0.1435906 -0.04386132
-0.107976675 0.01315863 -0.19784132 0.15177234 -0.055620506 -0.16653685 -0.072420426 0.13616827
0.0067708925 -0.1885452 -0.14150856 0.04280099 -0.071642265 0.025896192 0.05954304 0.16317174
-0.14215326 0.03975256 -0.18220235 -0.18900971 0.06804139 -0.12728533 0.16311325 0.08414715
-0.18680766 -0.18137969 -0.10702336 -0.03470251 0.1431769 0.16250344 -0.07705515 0.1871006

transformer_encoder.layers.1.self_attn.in_proj_bias f4 [108]
00000000: 0000 0000 0000 0000 0000 0000 0000 0000
00000010: 0000 0000 0000 0000 0000 0000 0000 0000
00000020: 0000 0000 0000 0000 0000 0000 0000 0000
00000030: 0000 0000 0000 0000 0000 0000 0000 0000
00000040: 0000 0000 0000 0000 0000 0000 0000 0000
00000050: 0000 0000 0000 0000 0000 0000 0000 0000
00000060: 0000 0000 0000 0000 0000 0000 0000 0000
00000070: 0000 0000 0000 0000 0000 0000 0000 0000
00000080: 0000 0000 0000 0000 0000 0000 0000 0000
00000090: 0000 0000 0000 0000 0000 0000 0000 0000
000000a0: 0000 0000 0000 0000 0000 0000 0000 0000
000000b0: 0000 0000 0000 0000 0000 0000 0000 0000
000000c0: 0000 0000 0000 0000 0000 0000 0000 0000
000000d0: 0000 0000 0000 0000 0000 0000 0000 0000
000000e0: 0000 0000 0000 0000 0000 0000 0000 0000
000000f0: 0000 0000 0000 0000 0000 0000 0000 0000
00000100: 0000 0000 0000 0000 0000 0000 0000 0000
00000110: 0000 0000 0000 0000 0000 0000 0000 0000
00000120: b089 58bb 7b2f bcba 2668 683b fb02 9aba
00000130: 7b24 c03a 3268 dbba 13cf f53a df06 c63a
00000140: 740c d0b8 20cc 0cba 5459 b63a 1a59 b7ba
00000150: d326 f2ba 6f1f a63b fa88 b93a 5aa8 0339
00000160: 0dff 933a be54 a9bb faed 1fba f01a 24bb
00000170: cb30 b9ba 4e65 6f3a 4f9b 5b3a 5d02 d2ba
00000180: 4680 3ebb 19c2 f7ba 22b2 02bb e5f8 1539
00000190: 3e14 8cba 40be 0c3b 7a08 8ebb 1ec1 16b7
000001a0: fa79 bd3a 6e23 433a 9efb fb3a 46a1 8cba
0.0 0.0 0.0 0.0 0.0 0.0 0.0 0.0
0.0 0.0 0.0 0.0 0.0 0.0 0.0 0.0
0.0 0.0 0.0 0.0 0.0 0.0 0.0 0.0
0.0 0.0 0.0 0.0 0.0 0.0 0.0 0.0
0.0 0.0 0.0 0.0 0.0 0.0 0.0 0.0
0.0 0.0 0.0 0.0 0.0 0.0 0.0 0.0
0.0 0.0 0.0 0.0 0.0 0.0 0.0 0.0
0.0 0.0 0.0 0.0 0.0 0.0 0.0 0.0
0.0 0.0 0.0 0.0 0.0 0.0 0.0 0.0
-0.0033041053 -0.0014357412 0.0035462468 -0.0011750156 0.001465931 -0.0016739427 0.001875373 0.0015108249
-9.9205325e-05 -0.0005370993 0.001391212 -0.0013988346 -0.0018474705 0.005069665 0.0014155202 0.0001255585
0.0011291221 -0.0051675728 -0.000610083 -0.002504047 -0.0014128921 0.0009132222 0.000837733 -0.0016022433
-0.0029068156 -0.001890245 -0.0019942601 0.00014302468 -0.0010687185 0.0021475703 -0.0043345066 -8.98566e-06
0.0014455908 0.0007443939 0.0019224768 -0.0010729216
