pipeline/Evolutionary_Methods/es_actor.pth (torch, 290322 bytes, 5 tensors)

l1.weight f4 [256, 22]
000000 22 87 94 be c4 bd d3 bd 71 fa 4d 3e 3c 30 e2 bd
       -0.29009348 -0.10338929 0.20115067 -0.11044356
000010 a0 eb bd be 3c 05 b8 3d 34 13 ca bd 0c 87 84 be
       -0.3709383 0.089853734 -0.09866944 -0.25884283
000020 bc 86 98 3e 3c ae de be 73 ea d1 3e 6b 60 d5 be
       0.29790294 -0.43492305 0.40999183 -0.41675124
000030 7c 00 06 3e 8e 53 08 bf 76 a8 e4 3c ae 43 95 3e
       0.13086122 -0.53252494 0.02791236 0.29153198
000040 49 f6 2a 3f a3 31 68 3d 1c 4b 7a bd a6 7f c1 3e
       0.6678205 0.056687962 -0.061106786 0.377927
000050 0a 59 f9 be bc 77 58 bd 8a 63 31 be 4e dc 06 bf
       -0.48700744 -0.052848563 -0.17323127 -0.5267991
000060 37 93 5d be 61 b8 3e 3e 4d a6 53 3d 78 df 12 be
       -0.2163819 0.18625022 0.05167227 -0.14343059
000070 17 10 9f 3e 21 13 d4 bd 5c 44 d4 3d 98 b1 26 be
       0.31066963 -0.10355211 0.10364601 -0.16278684
000080 dc 46 4b be 2f 28 1d be ac ab ee be b1 78 da 3d
       -0.1985125 -0.1534736 -0.4661535 0.10667551
000090 6c cc ae bd 94 41 87 3d d7 97 ad be e4 f4 33 3d
       -0.08535084 0.06604305 -0.33904907 0.043934718
0000a0 0c e3 c3 3d e2 86 a9 3c 17 af 75 be f1 1c 8b 3e
       0.0956479 0.0206942 -0.23992573 0.27170518
0000b0 d1 fa 83 be 8c 40 71 3d de 5d 74 3e b1 74 cf bc
       -0.25777295 0.058899447 0.23863932 -0.025324197
0000c0 2c bc 1c be 95 44 a7 3e 10 e5 13 be ec 89 72 bd
       -0.15306157 0.3266951 -0.14442849 -0.059213564
0000d0 e8 02 7b 3e cc 0f 84 3e 9e ba c5 3e 46 49 48 be
       0.24512827 0.25793302 0.3861894 -0.19559202
0000e0 60 c6 a4 3d 22 35 88 bd 89 4c cf 3e ff aa 5d 3e
       0.080456495 -0.06650759 0.4048808 0.21647261
0000f0 3c ca e7 3d 05 15 5a 3e 28 2f dc be e0 2e 18 bf
       0.1131787 0.21297081 -0.43004727 -0.59446526
000100 cf d6 4a 3e 9a b2 9f bd 13 2f e7 3c 99 1a 88 3d
       0.19808505 -0.077977374 0.028220689 0.06645698
000110 23 6d 1c 3e c5 19 5e be 96 3f 64 3d c3 95 96 be
       0.15276007 -0.21689518 0.055724703 -0.29411134
000120 4b 75 05 bf 28 15 14 bf e2 92 d2 bd 8c f3 3c bc
       -0.521321 -0.5784478 -0.10281922 -0.0115326755
000130 76 9f 18 bf 61 76 dd 3e f1 86 9a 3d 6c cc 8f 3d
       -0.5961832 0.43254378 0.07545269 0.07021412
000140 64 5f 06 be d6 df ae bd cf 3b bb be 81 3a 92 be
       -0.13122326 -0.08538787 -0.36569068 -0.2856026
000150 21 cc f9 3e 4e 52 93 3d a2 6b 0c 3c 5f 09 c6 bd
       0.4878855 0.07193433 0.008570584 -0.09669756
000160 e0 bc c3 3a 5f 0a 53 be c4 c5 67 3d 16 ee b5 be
       0.0014933608 -0.20609425 0.05658509 -0.35533208
000170 47 c3 98 3e 01 72 b7 be ba 71 8f 3e e4 0c d5 3d
       0.29836485 -0.35829166 0.28016454 0.10402849
000180 24 82 7b 3e 0d 86 08 bf 7e b1 ba be b7 df 95 be
       0.24561363 -0.53329545 -0.3646354 -0.29272243
000190 dc 90 fd 3c 70 31 f2 3d 83 e9 d4 3d 1e 74 87 be
       0.030952863 0.11825836 0.10396101 -0.26455778
0001a0 ac 06 3b 3e 3d 91 24 be 6c e1 1d 3e 1c 64 4b 3d
       0.18264264 -0.16071029 0.15418023 0.04965602
0001b0 28 64 d3 3b be a3 4a 3e 5a 02 61 bc dc 28 87 3b
       0.0064511485 0.19789025 -0.013733471 0.004124744
0001c0 ab 6c 85 3e 85 86 9d bc 80 df 9e be b7 9f 3a be
       0.2605947 -0.019229183 -0.31029892 -0.18224989
0001d0 e9 f9 d0 3e 98 fc 5b be c1 16 eb bd 69 ee 92 3e
       0.40815666 -0.21483076 -0.11478949 0.28697518
0001e0 e5 f1 b6 bd 1d 44 91 3e 56 b2 2e be aa 49 33 be
       -0.089328565 0.2837228 -0.17060217 -0.1750857
0001f0 34 15 43 be e0 12 0f bf bc d3 1e be 63 03 ce 3d
       -0.19051057 -0.55888176 -0.15510458 0.1005924
000200 54 c8 09 3f 8a 4c 72 3e ec 27 84 3e 1b 29 e0 3d
       0.538213 0.2366201 0.25811708 0.1094534
000210 22 be 8f be 9a 9a 4e bd 9d 31 fe bd 88 ed 61 be
       -0.28074747 -0.05044041 -0.12411807 -0.22063267
000220 b2 0c 50 be 34 8c d7 3e 48 97 0f be e5 ca 27 3e
       -0.20317343 0.42099154 -0.14022553 0.16385992
000230 8b 9b e5 3e 1c 6e fd be 09 4e e2 3d 82 37 23 3e
       0.44845232 -0.4949807 0.1105004 0.15939143
000240 65 42 98 3e c8 9f c8 be a0 6b 64 3d 05 be 58 3d
       0.29738155 -0.39184403 0.0557667 0.05291559
000250 38 12 18 3f 73 1e 10 3d 00 28 cc be 5c 27 27 bf
       0.594028 0.03518529 -0.39874268 -0.6529443
000260 fd 24 86 3e 5c 74 0d 3f 78 d7 4d be 8f e5 cc bd
       0.26200095 0.55255675 -0.20101726 -0.10004722
000270 fa 7e 82 3e 58 61 e9 3d 25 29 aa bd aa fc 8e 3d
       0.254875 0.1139552 -0.08308629 0.069817856
000280 ca bf ea 3d 0e 24 a8 bd 01 33 66 3e 29 22 2d 3e
       0.11462362 -0.08210002 0.22480394 0.16907562
000290 b1 3c a6 3e aa 56 60 3e 0b cf ae 3e 63 fa 9a be
       0.3246818 0.2190806 0.34142336 -0.30269155
0002a0 86 d2 cb be 10 6a b8 3c 6b 45 10 3f ad 5e 21 3f
       -0.39809054 0.022511512 0.56355923 0.6303509
0002b0 80 18 ac 3e 99 76 1e be da f4 20 3e b2 75 d5 3e
       0.33612442 -0.15474929 0.15718403 0.41691357
0002c0 34 5d 96 3e 99 35 9b 3e 58 d9 fe 3c 9f 23 9b bd
       0.29367983 0.3031433 0.031109497 -0.075751536
0002d0 a3 56 a6 be 1a 41 71 3e 3a 08 06 bd c1 a9 ba bd
       -0.32487974 0.2355999 -0.03272269 -0.09114409
0002e0 ff 03 bc 3e 6e 91 47 3e a2 42 23 3f 63 4b 0c bf
       0.367218 0.19489071 0.6377355 -0.5480253
0002f0 07 21 28 be ca 00 4b 3d b9 c3 00 3e e8 36 91 3d
       -0.16418849 0.0495613 0.12574662 0.07090551
000300 f8 91 da 3d 2c b4 04 bf 1f 69 37 3e a3 48 cd be
       0.106723726 -0.5183742 0.17911194 -0.4009448
000310 a2 95 0b 3c b4 42 25 3e 00 47 22 3d 0b 9d 9b 3d
       0.008519562 0.16138726 0.039618492 0.07598313
000320 e2 a6 b7 3e f2 d9 ad 3e 15 15 0c 3d 9a e5 88 3e
       0.3586951 0.33955342 0.034199793 0.26737672
000330 9e 1d 45 3e 02 7f ac bc 49 7f 91 be 27 4f e4 3d
       0.1924958 -0.021056656 -0.28417423 0.111479096
000340 52 7e 81 be 53 bc 2b bd 68 12 4c bd d8 77 87 3e
       -0.25291687 -0.041927647 -0.04982224 0.2645862
000350 74 41 db 3c 01 ab bf be fa 79 37 be b1 a7 e9 be
       0.026764609 -0.37435153 -0.17917624 -0.4563575
000360 63 2a 3e 3f 32 80 9b 3d 0b 1b ba be 92 ba 99 3e
       0.74283427 0.07592811 -0.36348757 0.30025154
000370 a2 71 4d 3e 41 50 40 3e 77 b7 cb 3e c9 04 08 3d
       0.20062879 0.18780614 0.3978841 0.03320769
000380 f6 6c 7a 3d fb c3 d6 be c0 e5 ba bd 0b e5 d4 3d
       0.06113907 -0.41946396 -0.091258526 0.10395249
000390 45 a1 7a be f0 41 85 3e b6 1f 71 3d 3d ad 8f 3d
       -0.24475582 0.2602687 0.058868133 0.070154645
0003a0 f8 ff 76 3e 4d 28 9f 3e a7 7d 3c bf 8c 62 9d be
       0.24121082 0.31085435 -0.7362923 -0.30739248
0003b0 1c 2c 0c 3d da ab a4 3d 80 fc 19 be a7 b6 25 be
       0.034221753 0.080405906 -0.15037727 -0.16182958
0003c0 b2 b9 53 3c 6a bb 24 3f 54 50 64 bc 4c 81 73 3e
       0.012922691 0.6434847 -0.013935167 0.23779792
0003d0 69 a8 60 3e 8e af 98 3d 75 54 fa 3d 04 93 81 3e
       0.21939243 0.074553594 0.1222314 0.25307477
0003e0 b8 85 5b 3e 20 89 c3 be 28 90 f9 bc 30 4f 6e be
       0.21437728 -0.38190556 -0.030464247 -0.23272395
0003f0 a8 58 c6 be fb 94 1a 3e ba db c8 bc fd e0 89 be
       -0.38739514 0.15095894 -0.024518836 -0.26929465

l1.bias f4 [256]
000000 71 76 ab 3e 5d ce 69 3e 2c cd cf bd 8f 93 d3 3d
       0.334888 0.22832628 -0.10146555 0.10330879
000010 0c ea eb 3d 8b dd 92 bd ac b1 51 3f 5b 3b 14 3e
       0.1151925 -0.07171162 0.8191173 0.14475767
000020 01 f9 78 bd c0 69 68 bd 02 e0 99 be 85 f0 d7 be
       -0.060784344 -0.056741476 -0.30053717 -0.4217569
000030 cf 72 49 be 6a 08 84 bb 52 0b 9d 3d c6 38 c4 3d
       -0.19672702 -0.0040293233 0.07668175 0.09581141
000040 9c 2b 72 3e c1 66 1b 3e b0 0e 26 be 74 4e 8c be
       0.23649448 0.15175916 -0.1621654 -0.27403605
000050 c3 ba 30 bf e3 10 14 bf ac 32 b3 3d d3 63 d5 be
       -0.69034976 -0.5783827 0.08749899 -0.41677722
000060 c7 a5 c3 bd f2 d0 5b bf 9f f6 bc bd 38 41 42 3e
       -0.09553104 -0.858657 -0.09226727 0.18970191
000070 e0 40 9a be 66 d4 ad 3e 5f b5 3e be 51 2e b9 bd
       -0.3012762 0.3395111 -0.18623875 -0.09042037
000080 47 73 0d 3e 6f 1e b2 3d cd b6 33 bf f4 d5 ab 3e
       0.13813506 0.08697211 -0.70200807 0.3356167
000090 7c 31 ac be d4 ce c9 bc 43 f0 7e 3e 7b de 9e 3d
       -0.33631504 -0.024634756 0.2489634 0.077572785
0000a0 ad 87 f5 3e 54 fb eb 3e ac e2 a5 3d 6c cc 0a bc
       0.47955075 0.46090186 0.08099875 -0.00847159
0000b0 a6 73 7f 3c c0 a5 a7 3e a8 83 53 3e 5e 56 fc 3d
       0.015591538 0.32743645 0.20655692 0.12321161
0000c0 64 50 95 3d 20 d9 5a 3e bf 8b d5 be 66 53 23 be
       0.07290724 0.21371889 -0.4170818 -0.15949783
0000d0 44 3f 96 3d 81 09 75 be 59 e4 42 3e b8 64 29 be
       0.07336286 -0.23929407 0.1903242 -0.16542327
0000e0 10 71 d8 3a 4d 59 22 be ba e3 73 be 71 65 b6 3e
       0.0016513187 -0.15854378 -0.2381734 0.3562427
0000f0 30 3d f3 3c 1d 41 0b 3d 1a b2 07 bd 2e b7 d1 bd
       0.029692262 0.033997644 -0.033128835 -0.10240017
000100 7a a3 9d bd a0 30 00 bf 77 b3 87 bd 22 ae 58 be
       -0.07697196 -0.50074196 -0.06626027 -0.21160176
000110 72 c2 e8 3d bf ba b3 be 51 57 45 be 96 85 0f bd
       0.113652125 -0.35103413 -0.1927159 -0.035039507
000120 10 7f 9a 3e 42 8d 78 3e 20 41 8c be b1 cf c3 3c
       0.30175066 0.24272636 -0.27393436 0.023902746
000130 a3 e4 e0 be 56 d6 74 3d 6a 6d bb be 04 2c 00 3f
       -0.43924436 0.05977472 -0.36606914 0.5006716
000140 19 38 4d 3c 70 3e 41 3e 4b b1 35 3e c7 ea 24 3e
       0.012525582 0.18871474 0.17743413 0.16105185
000150 87 fb 7b bd 68 2d be bb 6e 13 a3 3e 0c 78 3f 3c
       -0.061519172 -0.0058037527 0.3185076 0.011686336
000160 a3 02 10 bd 9a 39 28 bf eb 8e 0e 3e 0c 15 05 3e
       -0.035158765 -0.65712893 0.13921706 0.1299631
000170 86 c7 81 3e b0 4c ca bd da 1e 09 3e a4 96 d1 bd
       0.25347537 -0.09877908 0.13390675 -0.102338105
000180 75 87 ad bd 00 0a 58 3e e2 61 75 3d 4a 82 07 3d
       -0.08473102 0.21097565 0.0599078 0.033083238
000190 d8 ca eb 3e b9 2b a3 3e ca b1 6d be 68 88 51 be
       0.46053195 0.31869295 -0.23212352 -0.20462191
0001a0 27 c5 c1 3e d7 25 18 3f 8c f7 0d 3c 50 d3 04 3e
       0.37845728 0.5943274 0.008664977 0.12971234
0001b0 c9 c7 01 bf e9 be 81 be 0b 79 02 3f 7f 09 84 3e
       -0.5069547 -0.25340965 0.50965947 0.25788495
0001c0 14 85 bb be 08 e0 37 bf 25 5e fc 3c fc 1e b5 3d
       -0.36624968 -0.7182622 0.03080661 0.088438004
0001d0 04 88 28 3d fe 9d f8 3c 08 5e 2a bc 2f c1 46 be
       0.04114534 0.030348774 -0.010398395 -0.19409631
0001e0 0f 76 bc be 71 8a 9e 3e aa ac 38 3e f3 88 0a be
       -0.36808822 0.30964997 0.18034616 -0.13528804
0001f0 d3 46 1e 3d ff ac 02 3f dd 9c c4 3c d0 54 2d 3d
       0.038641762 0.5104522 0.02400058 0.04231721
000200 8e 13 4e 3e 57 36 b9 3e ba 9d 91 be d6 5d b9 3d
       0.20124647 0.3617427 -0.28440648 0.09051101
000210 c0 71 97 bc 5f a4 2d be c6 44 c4 bc 80 95 d7 3c
       -0.018486857 -0.16957234 -0.023958575 0.026316404
000220 8b a9 32 3c 07 61 c4 bd b8 e2 3f be d2 4d f1 bd
       0.01090468 -0.09588819 -0.1873883 -0.11782421
000230 59 f2 62 be 70 d5 1d 3d d4 33 5b be e5 b2 09 3f
       -0.22162761 0.038533628 -0.2140649 0.53788596
000240 11 7b 4e be a6 3f 55 3e 75 8a ba 3d 63 d7 1b be
       -0.20164134 0.20825061 0.0910844 -0.15218882
000250 23 48 ce 3d ed 5a 71 be 49 bf 77 3e 4a cb 55 3c
       0.10072353 -0.23569842 0.24194063 0.013048956
000260 9c 9d 26 bf 25 8a ed 3d 3a 86 f4 3e 9c 5f 8c 3e
       -0.6508424 0.115986146 0.47758657 0.27416694
000270 f2 91 18 3f a5 e7 7c 3e 4c 41 11 bd 2d 58 a4 be
       0.59597695 0.2469774 -0.035462663 -0.32098523
000280 da 1f 6d 3e 1c 98 aa bc 68 56 3a 3e cd 93 8c be
       0.23156682 -0.020824485 0.18197024 -0.27456513
000290 b3 25 a5 3e fc 55 bd be 25 4f 0c be 24 11 b6 bd
       0.32255325 -0.36979663 -0.13702066 -0.08889988
0002a0 6a 3d 1b 3e 8a 88 93 3e 6c 6f 05 bf f6 ba 38 be
       0.15160146 0.2881511 -0.5212314 -0.1804007
0002b0 d8 ae ba 3d 7e 92 bd bd a0 da 9e ba 37 c7 68 3d
       0.0911538 -0.09256457 -0.0012119599 0.05683061
0002c0 b8 6e 77 3e f7 4b 09 3e 3b 9b 50 be 1a 9d db be
       0.2416333 0.13407885 -0.20371716 -0.42893296
0002d0 5f 7b d8 3e e1 c0 a2 be f4 ae 4c 3e 9a c5 73 3e
       0.42281625 -0.3178778 0.19988614 0.23805848
0002e0 ec 98 a1 be 68 19 5a 3d de 45 85 3e c0 75 b1 be
       -0.31561983 0.053246886 0.26029867 -0.3466015
0002f0 23 46 eb bd c1 d3 89 3e 9e e6 15 3f 19 66 5b 3e
       -0.11487987 0.26919368 0.5855502 0.21425666
000300 39 af dd be c8 85 96 3e 13 96 b6 be 1f 79 79 be
       -0.43297747 0.29398942 -0.35661373 -0.2436261
000310 3e a7 18 3e 66 ec 29 3e 8a c8 5c 3e 06 b0 87 3e
       0.14907548 0.16594085 0.21560875 0.26501483
000320 ab e8 79 3e ec f8 57 3d c6 70 be be db 6e a9 3e
       0.24405162 0.052727625 -0.37195414 0.3309239
000330 4e 43 2a be e6 90 80 be 30 88 12 3f d3 d4 89 bc
       -0.16627237 -0.2511055 0.57239056 -0.016825115
000340 4b ad ed bd 7e a6 1d 3f a0 c3 ea 3d a3 f7 99 be
       -0.11605319 0.6158217 0.11463094 -0.30071744
000350 24 fc 83 3e 07 84 47 3e 74 85 24 bb be 9b 91 bd
       0.25778306 0.19483958 -0.0025103958 -0.071097836
000360 d4 1d 8f bc 5b fb 57 bd a5 47 7b be b0 97 e1 3e
       -0.017470278 -0.052729946 -0.24539049 0.4406104
000370 0e 23 aa bc cf 83 89 3e d4 b5 0f 3e ef 17 de be
       -0.020768669 0.26858374 0.14034206 -0.43377635
000380 d0 89 77 be a0 6b d7 bd bc 5f 94 be f1 47 3d be
       -0.24173665 -0.10518575 -0.2897929 -0.18484475
000390 c4 b5 f1 bd 20 c7 c5 be 18 5a 1d 3e ff 80 65 3e
       -0.11802247 -0.38628483 0.153664 0.2241249
0003a0 74 bb 1b 3c 4a 61 05 3e 7b 91 8c 3e 77 49 39 be
       0.0095051415 0.13025394 0.27454743 -0.18094431
0003b0 f8 9f 5e be 5f a6 ab be 32 d6 75 3e 17 52 08 bf
       -0.2174071 -0.3352537 0.2400749 -0.5325026
0003c0 58 75 6f 3b f7 b8 21 3e 37 88 a2 be 90 7c ae 3d
       0.0036538448 0.15793215 -0.3174455 0.08519852
0003d0 f6 a9 00 3e 48 c4 ec bc 9a 91 36 3e d0 80 78 3e
       0.12564835 -0.028902188 0.1782898 0.24267888
0003e0 8a 71 be be ba 57 85 be fa ad 20 3e 92 2e 0d 3d
       -0.37195998 -0.26043493 0.15691367 0.03446824
0003f0 cf 60 04 bf bf ee c6 3d 83 ff c7 3d d3 a0 41 3f
       -0.5171022 0.09713506 0.09765532 0.75636023

l2.weight f4 [256, 256]
000000 d5 34 33 3e 72 06 f3 bd 2f 18 af bd 98 21 f0 be
       0.17500623 -0.11866464 -0.085495345 -0.4690063
000010 e9 3e a1 3d ff d5 25 3e f5 e0 9c bd 4c f0 d0 3e
       0.07873327 0.16194914 -0.07660095 0.40808332
000020 b6 4d 9c 3e 42 93 bf be 80 c6 a1 bc 6b 80 06 3d
       0.3052804 -0.37417036 -0.019747972 0.032837313
000030 49 6a f3 be 00 7b 94 be 66 6f a4 bd 46 75 df bd
       -0.47542027 -0.29000092 -0.0802906 -0.1091104
000040 26 12 7e 3e 89 56 5a 3e 5f d2 77 3e 6b 1d 88 3e
       0.2481161 0.21322073 0.24201344 0.26584944
000050 9f 13 03 be d1 6f f8 3e 6b ea 5f bd 29 44 9e 3e
       -0.12800454 0.4852281 -0.054666918 0.30911377
000060 4f dd 3b 3e 7a 2e 87 3e a4 f5 8a bd e5 97 a2 3e
       0.18346141 0.26402646 -0.067851335 0.3175651
000070 78 48 8e bd a3 f2 46 be d2 31 88 3e 22 fb 84 3d
       -0.06947416 -0.19428496 0.2660051 0.06493212
000080 6c 34 cd bc d2 39 8c bd 46 ce 3d bd 25 2a 18 3d
       -0.02504941 -0.06846966 -0.046339296 0.037149567
000090 f1 70 15 bd 9a dd 38 bc dc a9 1f be 6e 3f 23 3e
       -0.036484662 -0.011283303 -0.1559214 0.15942165
0000a0 86 14 0a 3f e8 f3 d0 bd 76 2b 06 3e 85 d2 04 3f
       0.53937566 -0.102027714 0.13102517 0.5188373
0000b0 46 4a 20 bf 5e 49 8b 3d be 35 ee bd 65 8c 82 3e
       -0.6261333 0.06801103 -0.11631344 0.25497738
0000c0 a5 46 81 bd 6e 0d 39 be 27 77 c8 be 5f 29 a0 bb
       -0.063123025 -0.1807153 -0.39153406 -0.0048877443
0000d0 48 bc 1e be 7f 86 06 bf 2a c7 b9 3e f6 1c 88 3d
       -0.15501511 -0.52548975 0.36284763 0.06646149
0000e0 96 86 db bd ef 88 09 3e db 52 2c 3e eb a4 31 3f
       -0.107190296 0.13431142 0.16828482 0.6939227
0000f0 0a 9b 88 3d 12 69 02 3e 1c d3 9e 3d e0 01 1a be
       0.06670196 0.12735394 0.0775511 -0.15039778
000100 f6 7d 88 3d 6c 15 9b bd 13 d9 c6 3e fe e5 74 3e
       0.0666465 -0.07572445 0.3883749 0.2391586
000110 f4 25 ba be 5e 4f 4e bd f2 6e a0 be b8 19 a9 be
       -0.3635708 -0.05036866 -0.31334645 -0.33027434
000120 b4 f3 a5 bd 0f 0c 2c be 24 59 70 3e 00 c4 8c 3c
       -0.08103123 -0.16801475 0.23471504 0.017183304
000130 e0 c5 8b bc f2 96 14 3c 4f 49 b1 be 9d 1a 8e 3e
       -0.017062128 0.009069191 -0.34626243 0.2775468
000140 3b 74 6e be 83 65 1a 3e e4 ba 30 3d 90 b6 dd be
       -0.23286526 0.15077786 0.043146983 -0.43303347
000150 fa bc 1e 3e 1c 48 cf 3d ad 1f a7 be 78 44 d0 bd
       0.15501776 0.10121176 -0.32641354 -0.101693094
000160 22 cd 44 3e 95 73 e7 be 77 72 f4 bd 22 ea 15 be
       0.19218877 -0.4520537 -0.11935895 -0.14640096
000170 0a 79 44 be 64 a3 51 3e 03 46 7b 3d 14 a7 80 be
       -0.19186798 0.20472485 0.061346065 -0.2512747
000180 39 04 fc 3d 80 1e 81 3e b8 96 13 bb 91 b1 8f 3c
       0.12305493 0.25218582 -0.0022520255 0.017540725
000190 23 9d 8a 3d 80 36 11 be 00 c6 ea 3d 6a ac b3 3d
       0.06768253 -0.14180946 0.11463547 0.0877312
0001a0 2e c3 bc be ab c1 87 3d 62 86 ac 3e 37 0f 85 3d
       -0.3686766 0.06628736 0.33696276 0.064970426
0001b0 d5 7f 5d bc b8 0e 98 3e 41 51 10 3e f4 57 0d 3c
       -0.013519247 0.2969873 0.14093496 0.008626927
0001c0 7a 46 8a bd 91 75 4e be b4 4b 2f 3c c1 aa b2 be
       -0.067517236 -0.20162036 0.010699201 -0.348959
0001d0 ad 61 33 bd a7 1c 0c 3f 6e 51 27 3e c2 38 9e 3d
       -0.043794323 0.5473122 0.16339657 0.077256694
0001e0 88 46 e6 3c 40 e4 ac 3a b2 f5 39 3e 36 d0 16 be
       0.028109804 0.0013190582 0.18160132 -0.14727864
0001f0 60 8a 24 be 13 39 b1 3d 3c 84 6e 3c 1a ce 4f be
       -0.16068411 0.08653464 0.014557894 -0.20293465
000200 8f 96 2e 3e 0b 7a c5 3e ec c7 03 be 68 91 af be
       0.17049621 0.38569674 -0.12869233 -0.34290624
000210 fb 63 44 3e 5b 19 96 be b1 0d 25 3d 3e 22 01 3e
       0.19178765 -0.2931622 0.04029626 0.12610719
000220 92 af 83 3e fa 97 83 3e 33 2d 42 3e 50 a9 a9 be
       0.25719887 0.25701886 0.18962555 -0.33136988
000230 a2 4b 53 be 7e 05 eb be 28 4b 71 3e a0 c8 56 3e
       -0.2063432 -0.45902628 0.23563826 0.2097497
000240 a7 85 8c 3d 2d 70 ee bc 8f 7f 10 be dc 7f 89 be
       0.0686143 -0.029106224 -0.1411116 -0.2685536
000250 b5 86 de be 20 b3 bd bd 1c 1f ca bc d4 70 7c be
       -0.43462148 -0.09262681 -0.024673037 -0.24652416
000260 d6 7c 86 3e 2e 80 5b 3e dc 38 83 be 8b 98 a2 bd
       0.26267117 0.21435615 -0.25629318 -0.079392515
000270 77 66 aa 3e aa 39 ab 3c cb 0f b9 3d bd 53 27 be
       0.332813 0.02090152 0.090362154 -0.16340537
000280 c2 e5 53 bd 08 af 05 bc 99 76 fc 3e 95 46 89 3e
       -0.051732786 -0.0081594065 0.49309233 0.26811662
000290 fa 52 2f 3e 30 6b 2d be 0e 2c ac be 42 89 d5 bc
       0.17121497 -0.1693542 -0.3362736 -0.026066426
0002a0 02 34 21 be 04 c1 b2 3e 08 26 dd bd cc 72 4a be
       -0.15742496 0.34912884 -0.107982695 -0.19770354
0002b0 3b b7 39 bf ba cc 46 3e cb 0b 37 be 44 6a 3c 3e
       -0.7254521 0.19414034 -0.17875592 0.18399912
0002c0 e5 42 37 bd e0 88 c7 3e 45 99 cb be 2e 96 9a 3e
       -0.04474153 0.38971615 -0.39765373 0.30192703
0002d0 82 d4 35 be 82 f4 08 bd a7 6f 26 3e c4 ac 28 bd
       -0.17756847 -0.033436306 0.1625353 -0.041180387
0002e0 ce 33 92 3d 11 63 36 bf da 38 9d bd fd 3b 74 bd
       0.07138787 -0.71244913 -0.07676859 -0.05962752
0002f0 d3 41 45 3e 1c 8e b0 3e c7 d7 93 bd e5 16 fd 3d
       0.19263391 0.3448342 -0.07218891 0.123578824
000300 e6 0f f4 bc 38 d1 14 3e 87 b0 0f be 1d 74 d3 3e
       -0.029792737 0.14532936 -0.14032184 0.41299525
000310 ea 41 15 bd a8 df 97 3d b2 93 9a 3d cf 80 f7 3e
       -0.036439814 0.07415706 0.07547702 0.4834046
000320 22 e0 2f bd c1 1c 19 be 45 cf 95 3e 74 58 94 be
       -0.04293836 -0.14952375 0.29259697 -0.28973734
000330 b8 a2 41 3e 62 2f 8e 3d 9f 4b 86 be 94 84 d7 3c
       0.18909729 0.06942631 -0.2622957 0.026308335
000340 9f 74 c7 3e de c0 cd be b7 c3 83 3e 8b 67 28 3e
       0.38956162 -0.40186208 0.25735256 0.16445749
000350 f9 44 b9 be 86 6d d8 3d 30 f2 cf 3d a9 04 7f bd
       -0.36185434 0.10567765 0.101536155 -0.062260304
000360 df 5e c1 be 73 6a 46 3e 1d 46 cb 3d e2 ef a2 3e
       -0.37767693 0.19376545 0.099254824 0.3182364
000370 93 7f d8 bd a8 32 ac bd 29 5e c3 3e 8a f1 50 3e
       -0.10571208 -0.084080994 0.38157776 0.2040464
000380 80 88 14 bb 80 b4 d9 bd e8 6c 56 3e 9f f5 26 be
       -0.0022664368 -0.10630131 0.20939982 -0.16304635
000390 81 84 ff 3e 8c 81 56 bc b3 38 76 3e 8e b3 2c be
       0.4990578 -0.01309241 0.24045067 -0.1686537
0003a0 e9 80 09 3f 3d c3 7b 3e e6 48 1c bf e1 0c 18 bf
       0.53712326 0.24586196 -0.61048734 -0.5939465
0003b0 d1 7e 3d 3e 75 52 5f 3d 7b 18 dd 3d 3e 93 f3 3e
       0.18505408 0.054521997 0.10795685 0.47573274
0003c0 0b f6 2a be d8 77 3e 3e 07 78 af be 69 7e 69 be
       -0.1669542 0.18600404 -0.3427126 -0.22802128
0003d0 50 11 9e be 6b ba 74 3e a6 6b 6f be 44 60 93 3b
       -0.30872583 0.23899238 -0.23380908 0.0044975597
0003e0 25 fc 74 3e 7a e7 7d be a9 c5 c5 be 54 e0 74 be
       0.2392431 -0.24795333 -0.38627365 -0.239137
0003f0 46 74 e7 3d 46 4f ca bd 6f f6 a0 3e 74 82 13 bf
       0.11301474 -0.098784015 0.31438014 -0.5762093

l2.bias f4 [256]
000000 d0 b2 61 be 3b 8c 9c bd 06 3b e7 3c d9 3c 0a be
       -0.22040868 -0.07643934 0.028226387 -0.13499774
000010 d3 6c 9b be 1a a3 17 3f 9c 7a 9b be 39 2b a3 be
       -0.30356464 0.5923325 -0.3036698 -0.31868914
000020 02 f9 b1 3e e7 e0 1e be a0 ff 9f 3e d7 04 13 bd
       0.3476029 -0.15515481 0.31249714 -0.035893288
000030 d3 05 85 3d 41 5a f2 3d 93 7b 4a be 78 a2 8a be
       0.064952515 0.11833621 -0.19773702 -0.2707708
000040 28 e4 8e 3e e5 1e 46 bd a7 2a 53 be ce 31 bf be
       0.27908444 -0.048369307 -0.2062174 -0.37342685
000050 86 b9 ef be db 8f a8 3d 8f d3 6e 3e 9a f5 fa bb
       -0.4682123 0.08230563 0.2332289 -0.0076586725
000060 70 7c 59 3c f4 5c 71 3e a9 a8 7b bc 94 52 23 be
       0.013274297 0.23570615 -0.015360036 -0.1594947
000070 1c a8 92 be b5 83 6e be 67 16 2e 3e aa e6 cb 3e
       -0.28643882 -0.2329243 0.17000733 0.3982442
000080 24 35 15 3e c3 91 c4 3d 2c a8 3e bd 6d 6e 43 3e
       0.14571053 0.09598114 -0.0465471 0.19085093
000090 90 12 fc 3e 83 71 01 3e 2e 4b d7 3e a6 28 05 be
       0.49232912 0.12640958 0.42049545 -0.13003787
0000a0 40 66 d6 3d f9 63 20 be 32 f2 e4 be 7c 35 09 3f
       0.104687214 -0.15663137 -0.4471603 0.53597236
0000b0 c0 d2 36 be 26 b8 18 3e 36 ad d2 bc 86 45 4b 3e
       -0.17853832 0.14913997 -0.025717359 0.1985074
0000c0 a0 c3 0b 3e bc e8 68 bd f7 d2 0b bf 18 f2 82 3e
       0.13648844 -0.056862578 -0.5461878 0.25575328
0000d0 ad d7 c8 3d f6 35 0c be f6 bc 7d be 14 bc a1 bb
       0.09806762 -0.1369246 -0.24779114 -0.0049357507
0000e0 ee 17 e4 3e f0 f8 05 bd 10 75 0e 3b 46 e3 87 3c
       0.44549507 -0.03270811 0.0021737255 0.016587865
0000f0 27 e1 95 3d 85 a5 7e be db 04 23 be 1c 94 a0 3e
       0.07318335 -0.24867828 -0.15919821 0.31362998
000100 7c 9b 65 be 85 12 41 3e 42 8e 1d 3f 50 8e 6c be
       -0.22422594 0.18854721 0.61545193 -0.23101163
000110 e9 e9 0f be a3 6d 16 3d 31 4c ab 3e 1c e1 6d bd
       -0.14054073 0.03672565 0.33456567 -0.05807601
000120 70 5f 38 3b bb ce e4 3c 3d 48 e3 3e 7e ed 59 be
       0.0028133057 0.027930608 0.4439105 -0.21282002
000130 5b ad a5 bc 84 10 a8 be 63 bb d7 be 85 51 96 be
       -0.020224264 -0.328251 -0.42135152 -0.2935907
000140 72 d3 01 3e 42 42 d8 bd 69 0f 2f be 0f 2c f1 3c
       0.12678316 -0.10559513 -0.17095722 0.029439954
000150 fe ec ff bc 28 62 4f 3e 9e 8c d8 bc 94 2e 55 be
       -0.031240936 0.20252287 -0.026434239 -0.2081855
000160 9b a3 c7 bc 5e 12 ea bc 8c 38 02 3e ae 17 45 be
       -0.024370005 -0.028573211 0.12716883 -0.19247314
000170 9c 68 ee be 58 64 a3 3e 87 1e 91 3e 98 3f f8 bd
       -0.46564186 0.31912494 0.28343603 -0.121215045
000180 cf b6 8a be 22 66 7a 3d 06 6b 20 3e 87 b5 31 be
       -0.27092597 0.061132558 0.15665826 -0.17354403
000190 b8 e7 c6 3d 37 7b a3 be 81 7f b1 3e 8b c0 ec bd
       0.097121656 -0.31929943 0.3466759 -0.11560162
0001a0 49 e8 0d be 74 a9 9c be c8 bf cf 3e 56 de 1c bd
       -0.13858141 -0.30598032 0.40576005 -0.038297974
0001b0 2e d9 05 bd be 0d 24 bd c4 28 0e bb ea 40 16 3e
       -0.03267782 -0.040052168 -0.0021691779 0.146732
0001c0 f1 eb 3f bd 19 5c 2b be 57 ac f9 bd 47 3e ff be
       -0.04685587 -0.16734351 -0.12191074 -0.498522
0001d0 1f 73 44 3e 3a 99 58 3e 7d d6 2e 3d 0e ae 00 bd
       0.1918454 0.21152201 0.04268502 -0.03141599
0001e0 89 94 58 3c 56 7b 89 3e 6c 96 8c 3e 26 05 21 bf
       0.013219007 0.2685191 0.27458513 -0.6289848
0001f0 3a fd f5 bc 20 a4 25 3e 22 44 c9 bd 55 ca 0e be
       -0.030027974 0.1617589 -0.098274484 -0.13944371
000200 85 7e e6 bd ec 80 55 be 3c bc 1d bd 5b 78 92 3e
       -0.112546004 -0.20849961 -0.038509592 0.2860745
000210 b0 e6 8e 3e a0 84 1c 3e 70 06 a2 3e 52 5b 75 bd
       0.27910376 0.15284967 0.31645536 -0.059901543
000220 a4 9b 84 3d 93 da ef 3d a4 62 1c 3c 46 50 0c be
       0.064749986 0.117116116 0.009545002 -0.13702497
000230 68 52 b7 3d 91 fe ae bd a5 d3 d1 bd 42 21 03 3e
       0.089512646 -0.085446484 -0.10245446 0.12805656
000240 db f0 80 3e 5e cd 36 3e 0b cf 3b 3e 2e bf ba be
       0.25183758 0.17851779 0.183407 -0.36473984
000250 0b 42 89 3e 76 77 31 3e 74 06 e8 bd 99 1d af 3d
       0.268082 0.17330727 -0.11329356 0.08550567
000260 ec 8f 90 bd f6 d2 4a 3e 2f cd 3f 3e 7c 56 5c be
       -0.07058701 0.19807038 0.18730615 -0.21517366
000270 de 97 46 3e 9e ac 14 3e c8 56 71 3e c1 cd e8 3d
       0.1939387 0.14518973 0.2356826 0.113673694
000280 cf a8 dd 3d 99 f4 b7 bc b4 12 80 3d a6 ed bc be
       0.10823213 -0.0224555 0.06253567 -0.3690006
000290 b5 c2 d3 be 4e 4e 16 be ab d2 34 3d cb f8 1d bf
       -0.41359487 -0.14678308 0.04414622 -0.6170775
0002a0 9e 2b 9e be 9e 07 f5 3c dd 3f f8 bd d7 9a 06 be
       -0.30892652 0.029910859 -0.12121556 -0.13145004
0002b0 40 1f 55 bd 35 ec 0f 3d 9e 04 de bc 46 55 d9 bd
       -0.052031755 0.035137374 -0.027101811 -0.10611968
0002c0 a1 33 f7 bd f2 d4 cf be 7f 5b 43 3e a0 51 07 be
       -0.12070394 -0.40592152 0.19077872 -0.13214731
0002d0 be ac db bd 2a 81 1c bd 44 4c 21 be 1d b1 7c bd
       -0.10726307 -0.038209118 -0.1575175 -0.061692346
0002e0 52 0b e8 be ab 0b a5 be 79 0a da 3e 32 7a 10 be
       -0.45321137 -0.32235464 0.42586115 -0.14109114
0002f0 14 c1 90 be 65 72 5d be 63 9f 8a be 06 18 23 3d
       -0.28272307 -0.2162567 -0.27074727 0.039817832
000300 09 16 16 be 4c 92 dd bd 4b b8 35 be c2 bc 1f be
       -0.14656843 -0.108189195 -0.17746083 -0.15599349
000310 b0 07 db be e6 86 f4 bd 3b 3a 8a be e9 90 ab be
       -0.42779303 -0.11939792 -0.2699755 -0.33508995
000320 c7 54 68 3e de 1f 07 be 7b 9c ee bd 60 d8 3a 3d
       0.2268859 -0.1319575 -0.1165094 0.045616508
000330 a6 2b 84 3c d9 72 dc 3d 11 2b 9d bd 94 85 83 3e
       0.016134094 0.10764093 -0.0767423 0.2568785
000340 4e 7a 56 bc c4 a4 03 3f 8d 83 ce be 9c 98 bb bc
       -0.013090683 0.5142329 -0.4033474 -0.022899918
000350 c6 c9 d2 bb 78 2c 0c be fe 01 21 be ea 4a 42 be
       -0.0064327447 -0.13688838 -0.15723416 -0.1897389
000360 0c 5a b6 bd 5d 76 5e be f3 51 d9 3d 6c c6 90 3d
       -0.08903894 -0.2172484 0.10611334 0.07069096
000370 20 a3 3f 3d da 5e 81 be a4 62 26 bd 5f b6 26 3e
       0.046786427 -0.25267678 -0.040621415 0.16280507
000380 f4 e0 1e bd a3 bc df bc 46 f2 6a bd 56 ba db bd
       -0.03878875 -0.027311629 -0.057359956 -0.107289
000390 c1 ee f9 3e 81 e2 d7 be 60 95 52 3f 87 1c 84 3e
       0.48814967 -0.42164996 0.8225918 0.25803015
0003a0 84 8f af be 75 7b 4f be 5b 36 f2 3d d3 00 ac 3d
       -0.3428918 -0.20261939 0.11826774 0.08398595
0003b0 d1 6a 3d 3e 22 b6 60 be c5 69 1a 3f 34 d3 ce 3e
       0.18497778 -0.21944478 0.6031764 0.4039551
0003c0 50 39 7a 3d c3 d9 a3 be 3d b6 5c 3e 6b 75 84 be
       0.061089814 -0.32002077 0.21553893 -0.25870833
0003d0 28 c3 3f be c0 83 0f bc 20 3a e2 3b 95 e6 94 3e
       -0.1872679 -0.008759439 0.0069039017 0.2908217
0003e0 16 d6 79 3e 93 02 88 be 28 9a 3a bf 28 80 9d be
       0.24398074 -0.26564464 -0.72891474 -0.30761838
0003f0 41 be 4f be 45 f6 28 3e b5 bc 33 3e a7 49 1c be
       -0.2028742 0.16500194 0.17552455 -0.15262471

l3.weight f4 [1, 256]
000000 7f 53 02 bf bb 72 b8 3e 69 b3 4c bc 97 44 10 3d
       -0.50908655 0.36025032 -0.012493947 0.035221662
000010 71 34 64 3e c4 51 5d be fb 47 95 3d cc a1 54 bc
       0.2228563 -0.21613222 0.0728912 -0.0129780285
000020 8e ec bc be ff 1f c0 be 5a ad 74 be 1e 51 12 be
       -0.36899227 -0.3752441 -0.23894253 -0.14288756
000030 15 8a 3f be a4 24 29 be 63 53 a0 3e 98 6f 0a bf
       -0.18705018 -0.16517884 0.3131362 -0.5407653
000040 83 2d c3 3e 87 2b 5e 3e 60 a4 69 3e 99 ab 01 3f
       0.3812066 0.21696292 0.2281661 0.5065246
000050 b3 7b 1b 3d 29 06 a3 bd 43 bc 80 bd 0b 5c 3b be
       0.037959766 -0.07960159 -0.06285908 -0.1829683
000060 22 90 0a 3f 51 21 dc 3d 1c 8c 23 bd 84 33 24 bf
       0.5412618 0.10748542 -0.03992854 -0.64141107
000070 6a aa e6 3d 23 a9 ef be 40 b7 82 3c 89 86 04 3d
       0.11262973 -0.4680873 0.015956521 0.032354865
000080 8b 29 30 bd 54 41 c1 3c ef d0 92 be e2 ed c7 3d
       -0.04300837 0.023590721 -0.2867503 0.097621694
000090 c2 85 8d be 04 28 1f bd d0 cf 86 3c 09 4c ff 3e
       -0.27641112 -0.03885652 0.016456515 0.49862698
0000a0 59 1e 13 3e 8a bb 21 be b2 e6 14 3e f1 3a cc be
       0.14367045 -0.15794197 0.14541128 -0.3988872
0000b0 39 fc 45 bd 7e cf 68 be 53 8b 26 bd 76 7b 9a be
       -0.04833624 -0.22735402 -0.040660214 -0.30172318
0000c0 24 f1 2c 3d 28 0b 53 be 9f b5 ba 3e ca ba 11 3d
       0.042222157 -0.20609725 0.3646669 0.035578527
0000d0 28 59 ff 3b 9c 41 9b 3e 31 4f 13 3e cc 93 18 be
       0.0077926107 0.30323493 0.14385678 -0.1490013
0000e0 84 77 e1 bd f2 70 0e 3c 22 58 28 be 9a 6f 10 3f
       -0.11009124 0.00869392 -0.1643987 0.5642029
0000f0 34 f0 3c 3e 4c 47 00 be 90 fe 73 bc a0 dc 2e bd
       0.18451005 -0.12527198 -0.014892235 -0.042690873
000100 84 de 98 3e ba 0b 1f bc e8 62 3c bc 9c 58 e0 3d
       0.29857266 -0.009707386 -0.01149819 0.10954401
000110 b6 a1 83 be d0 16 77 be 28 74 a9 bc eb 2a 07 be
       -0.25709313 -0.24129796 -0.02068527 -0.13199966
000120 bc c8 87 3b 38 7b f6 be f5 cd 84 3d a6 6c 07 be
       0.0041438024 -0.48140883 0.06484596 -0.1322504
000130 8c 26 cd 3d 19 aa 3c 3e 48 7b 4a 3b 52 62 83 bc
       0.10017118 0.18424262 0.0030896235 -0.016038094
000140 7c f6 39 bd 27 c8 cc 3e 84 51 b0 bc d4 13 af bd
       -0.04540108 0.39996454 -0.021523245 -0.08548704
000150 a2 1f f3 3c 4f 32 35 3e e4 e6 ea be 00 86 a6 3d
       0.02967817 0.17694972 -0.4587928 0.08131027
000160 44 ef f2 bb e0 32 fc 3e 19 2f 69 3e a7 06 b6 be
       -0.0074137766 0.49257565 0.22771873 -0.3555195
000170 32 11 f2 bd 11 79 67 bd 8c 16 e7 bd a6 6e 28 3d
       -0.11819686 -0.056511942 -0.11283597 0.041121148
000180 07 cb f6 3e 01 6d 00 be 2e d6 d8 be fd f9 ac 3d
       0.48201773 -0.12541582 -0.42350906 0.08446119
000190 4c 23 bb be 85 b4 0c 3e 11 85 c2 3d 53 e7 a6 be
       -0.36550367 0.13740738 0.09498037 -0.3259836
0001a0 79 ed 58 be 15 94 ac 3e 7a 92 da bd 65 6f 73 3e
       -0.21184339 0.33706728 -0.106724694 0.23772962
0001b0 90 c0 b9 be a6 fe b3 bd 7d 03 0b 3e d8 d5 72 3e
       -0.36279726 -0.08788805 0.1357555 0.23714387
0001c0 d7 41 43 3e ee 6e aa 3e 1c 2a a2 bd a0 5f f5 bd
       0.19068085 0.33287758 -0.07918188 -0.1198113
0001d0 e2 f8 7a bd 3c 1d 27 bc d9 8e c9 3e f3 99 ff 3e
       -0.06127251 -0.010199841 0.39366797 0.4992214
0001e0 96 a6 95 be 9c 10 ae be 6b 6f ef bc 4f bb 9b bd
       -0.29228657 -0.33997047 -0.029227933 -0.07604086
0001f0 bb f0 b9 be c3 44 9f be 76 bf 51 3e 0b 3e db be
       -0.36316475 -0.3110715 0.20483193 -0.42820773
000200 78 a0 ef 3d 0a 5a 2a 3e 40 c3 e9 bd e0 4f 27 be
       0.11700529 0.1663591 -0.11414194 -0.16339064
000210 ad 10 86 be 8a 90 4c 3e da 7c 7a bf 0d 6e fe 3e
       -0.26184598 0.19977012 -0.9784676 0.49693337
000220 7a a0 13 be 33 a3 0c 3f 90 7a e7 3d 08 12 fa bd
       -0.14416686 0.5493652 0.11302674 -0.122104704
000230 e3 8c 6d be 54 fe 96 bd 28 53 18 3e 17 e7 05 bd
       -0.23198275 -0.07372728 0.14875472 -0.032691088
000240 6a 37 09 3e ec 46 8f 3e 41 b4 a2 be c3 a8 e1 be
       0.13400045 0.27983797 -0.31778148 -0.44074067
000250 48 6c b9 bd 56 59 f8 3e 4a 04 e4 3e 25 32 38 3e
       -0.09053856 0.48505658 0.44534522 0.17987879
000260 97 37 a1 be 5b 51 c0 bd 32 d3 07 3e dc 05 bd be
       -0.31487724 -0.09390517 0.13264158 -0.36918533
000270 e8 a2 ae 3e c8 31 40 3e f8 f7 af 3e f6 3c 6a be
       0.34108663 0.1876899 0.34368873 -0.22874817
000280 37 8b 97 be af ee 16 3e 6f 1b 66 be 34 18 21 3c
       -0.295984 0.14739488 -0.22471403 0.009832431
000290 fb 64 9c bd f7 e7 5d be 78 1a b3 3d 25 80 96 3e
       -0.07636448 -0.21670519 0.08745283 0.29394642
0002a0 0a 34 6a 3e 03 b4 46 be 14 62 a7 bd f3 40 57 bd
       0.22871414 -0.19404607 -0.08173004 -0.052552175
0002b0 19 71 17 3f dc af 30 bd 47 41 38 bf eb 10 96 3e
       0.5915695 -0.043136463 -0.71974605 0.29309782
0002c0 bb 39 dd 3d b9 1b 90 3d b7 22 74 3e d5 da cf be
       0.10802027 0.07036538 0.23841368 -0.40596643
0002d0 e4 04 a1 bc ec a9 f0 3e 11 8a 4c bd 70 bb 2c 3d
       -0.019655652 0.4700464 -0.049936358 0.04217094
0002e0 9a ef 68 be 62 74 11 bd 3b 5f 8a 3e 11 67 2c 3d
       -0.2274765 -0.035511382 0.2702578 0.04209048
0002f0 fe 17 21 3f 53 82 82 3d 6d ff 1c be bd 09 02 be
       0.62927234 0.063725136 -0.15331812 -0.12699027
000300 ef 85 99 be b8 1c a0 be 9c 12 ed bd 45 06 24 3c
       -0.29984996 -0.3127191 -0.11575815 0.01001126
000310 ca 5e ca be 2a 46 c2 bc ba 13 56 bd 93 af 18 be
       -0.39525443 -0.023715097 -0.052264906 -0.14910726
000320 6a 8c 61 bd 5f 9e 36 3e b2 5c 02 bf b6 ab c8 bd
       -0.05506555 0.17833851 -0.5092269 -0.09798376
000330 a1 11 1d be 5e a0 9f 3d 24 73 d6 3e 4b a2 84 be
       -0.15338756 0.077942595 0.4188472 -0.2590507
000340 cc 92 c0 3e 61 1c 6d 3e 1f 6d 98 be e3 85 c7 3e
       0.37611997 0.23155357 -0.29770753 0.38969335
000350 f3 f5 89 be dc ac 72 3e ed b8 89 be 59 92 90 be
       -0.26945457 0.23698753 -0.268989 -0.28236654
000360 ee 2d c8 bd 63 5e ae be de 9d 0f be 91 ff 1e 3c
       -0.097743854 -0.34056386 -0.14025065 0.0097044865
000370 79 9a 2d be 48 00 f3 bb 9e b6 01 3d 67 7b 87 3e
       -0.16953458 -0.007415805 0.031668298 0.26461336
000380 09 1c 64 be e5 34 0f be 42 1f bd 3e 5e 05 b1 be
       -0.2227632 -0.13985021 0.3693791 -0.34574407
000390 c4 fb 7b 3e e5 8b 98 bc be 12 a1 3e 35 77 09 3d
       0.2460776 -0.018621394 0.31459612 0.03356095
0003a0 4c eb f4 bd e0 99 c1 bb 30 ee d5 3e 8c 4d 12 3f
       -0.11958942 -0.005908236 0.41783285 0.5714958
0003b0 4d 66 f8 3c c8 13 08 3e 31 98 13 be 0c 5f cd be
       0.030322218 0.13288796 -0.14413525 -0.40111578
0003c0 4d 8e d1 3d f4 d0 dc 3e d3 71 f4 be dc e1 db bd
       0.1023222 0.4312817 -0.4774309 -0.10736439
0003d0 42 45 54 3e 2c ca 84 3e 7e 0a 86 be 07 3f c5 3d
       0.20729545 0.25935495 -0.2617988 0.09631162
0003e0 b8 13 a5 3e 5a 0e bf bc ba b4 5d 3e 8d b1 84 3e
       0.32241607 -0.023322273 0.21650973 0.2591671
0003f0 1b a8 78 3e b7 02 28 3e 44 8e 48 bd 2e ec 81 3e
       0.24282877 0.16407286 -0.0489638 0.25375503
